TGNN2026/artifacts_MTGNN1m_1SoftUtility/fold_01_weights.pt (torch, 802453 bytes, 83 tensors)

A_static f4 [3, 3]
000000 ab aa aa 3e ab aa aa 3e ab aa aa 3e ab aa aa 3e
       0.33333334 0.33333334 0.33333334 0.33333334
000010 ab aa aa 3e ab aa aa 3e ab aa aa 3e ab aa aa 3e
       0.33333334 0.33333334 0.33333334 0.33333334
000020 ab aa aa 3e
       0.33333334

in_proj.weight f4 [64, 15]
000000 28 54 35 3e c8 da 19 bd 5b 96 8a 3c 02 4f ae bd
       0.17707884 -0.03756216 0.016917398 -0.08511163
000010 b8 c1 62 3d 96 5c 49 be 04 8a 7c be 5a b7 d3 3c
       0.055360526 -0.19664225 -0.24662024 0.025844265
000020 02 d5 5d ba d6 77 45 3e 80 da a3 3d 0c de fc 3d
       -0.00084622216 0.19283995 0.0800066 0.123470396
000030 dd e6 79 3e 93 67 a5 bd d0 fd 24 3d a6 f4 2f be
       0.24404474 -0.08076396 0.040281117 -0.1718317
000040 f9 0e 91 bd f2 f8 13 be 6f ba 1a 3e 55 23 dd bc
       -0.07082934 -0.14450434 0.15110181 -0.026994387
000050 1b 61 31 3e af 41 ac 3d 27 97 0b be 6a 61 c8 bd
       0.17322199 0.08410966 -0.13631879 -0.09784205
000060 3b d5 8d be c8 1d 56 3e 47 7d 68 3e bd fb 02 be
       -0.27701744 0.20909798 0.2270404 -0.12791343
000070 2c 01 81 bc 3a 4d 89 be e7 aa a4 3c c0 7a 3c 3e
       -0.01574763 -0.26816732 0.020101024 0.184062
000080 2f 74 99 3d 33 d0 66 3c 98 8d bd bd 27 72 1e be
       0.074928634 0.0140877245 -0.092555225 -0.15473233
000090 a8 58 13 be 82 c9 c7 3d 01 b0 d5 3c b3 90 27 3e
       -0.14389288 0.097552314 0.026084902 0.16363792
0000a0 c3 e4 8b be 36 0f 17 3e ce 35 d1 bd 7a 34 07 be
       -0.2732297 0.14751896 -0.102153406 -0.13203612
0000b0 59 3f 5d 3e 88 1b d4 bd ff da 4d 3e 26 d9 51 be
       0.21606196 -0.10356814 0.20103072 -0.20492992
0000c0 19 44 b6 bd 64 b3 46 be c9 0f 79 be 79 00 66 bd
       -0.08899707 -0.1940437 -0.24322428 -0.056152795
0000d0 e2 47 b6 bd 4c f8 1d be 55 bf 82 3e ef dd 88 3d
       -0.08900429 -0.15426749 0.255366 0.066829555
0000e0 cd af 8b bd c5 03 a9 3d 4c 45 02 be 22 32 8f be
       -0.06820641 0.08252672 -0.12721747 -0.27967936
0000f0 ba 81 3b 3e 4a 95 76 bd da 2e 67 3e 8d 74 49 bd
       0.18311206 -0.060200967 0.22576466 -0.049183417
000100 df 74 2f 3e 5d b2 eb 3d 80 a8 55 3e 74 48 6f 3e
       0.17134427 0.115086295 0.20865059 0.23367482
000110 b2 36 d1 bd 33 ef 75 bd db 40 78 be f8 73 78 3e
       -0.102155104 -0.06004257 -0.2424349 0.24262989
000120 e7 27 1d be 17 c5 49 bd 2e 60 74 be 6d 6d 82 3e
       -0.15347253 -0.049260225 -0.23864815 0.2547411
000130 2b 7d 55 be 8d 94 2d 3e 59 3a b0 3c 11 38 76 bd
       -0.20848529 0.16951199 0.021512197 -0.060112063
000140 59 6a e3 3d 8c 13 cd bd fa ca cf 3d 79 b6 5e be
       0.111042686 -0.10013494 0.101461366 -0.21749295
000150 23 53 00 be c5 c4 98 bd a8 8b 48 3b 49 b2 a5 3c
       -0.12531714 -0.07459406 0.003060082 0.020226615
000160 5f dc b5 3d 54 e3 00 3e e1 c6 83 be 91 8d 00 be
       0.08879923 0.12586719 -0.2573767 -0.12554003
000170 19 70 90 be 2f 4a 81 be 8e 91 8d bd c3 2f fc bd
       -0.28210524 -0.2525191 -0.06912528 -0.12313797
000180 e6 c9 72 3e 53 c0 7d bd 20 3a 5e bc 2e 24 33 3e
       0.2370983 -0.061950993 -0.013563663 0.1749427
000190 07 c2 30 bd 46 4b 08 bd d3 a4 66 3e ad 0f 96 3e
       -0.04315379 -0.03327491 0.22523813 0.29308835
0001a0 27 78 d9 3d ba 0f 44 be ce 10 52 3e 45 50 9b bd
       0.1061862 -0.19146624 0.20514223 -0.075836696
0001b0 36 fc 8f be 8a bf da 3d 64 a7 b9 3d 1d d2 2a be
       -0.2812211 0.106810644 0.0906513 -0.16681714
0001c0 2c fc 41 be 4f 2b 1b 3e 6d bb a8 3d a7 54 ac 3d
       -0.18943852 0.1515324 0.08238874 0.08414584
0001d0 01 49 2e 3e e2 26 d2 3d be 21 0a 3e ee d7 4f be
       0.17020036 0.102613226 0.13489434 -0.20297214
0001e0 84 b8 ca 3d 6a 1c dd bd e3 de 6b 3e 14 b3 4d be
       0.09898475 -0.10796435 0.23034243 -0.20087844
0001f0 a7 4b fe 3c da 22 86 be c6 f4 67 3d d5 8f 88 be
       0.031041933 -0.26198465 0.05662992 -0.26672235
000200 62 d6 94 3d 5c 8e 67 3e db 98 10 3e 7e d0 29 3e
       0.07267453 0.226129 0.1412081 0.1658344
000210 a1 85 dc 3b e0 d6 5e 3e 77 67 8d be 59 49 7d be
       0.006729797 0.21761656 -0.27618 -0.24735011
000220 fc e6 4a 3e 92 b3 7f be bf 9c 92 3d e7 62 4f 3e
       0.19814676 -0.24970844 0.07158803 0.20252572
000230 94 ce 42 3e 1f 23 61 bc 3e 1c 68 3e 68 70 ee bd
       0.19024116 -0.013741284 0.22667024 -0.116425335
000240 73 a0 8d 3e 37 ea 1c 3d ab 35 59 be cb 9c 39 be
       0.27661476 0.038309302 -0.21211879 -0.18126218
000250 5a 05 43 3e 18 22 45 3e d7 5a 8c 3e af af 68 3c
       0.1904501 0.19251287 0.27413055 0.0142020425
000260 2d 82 b4 bc a1 09 63 be 2f 88 8c 3e 96 04 f0 3d
       -0.022034729 -0.22171642 0.2744765 0.11719625
000270 a1 de ca 3d af 88 8a be 56 9d 68 3d 63 4f ec bc
       0.09905744 -0.27057406 0.056790672 -0.028846448
000280 00 e2 a1 3d 2c 34 1b 3d 99 8d df 3d 39 65 12 be
       0.07904434 0.03789155 0.109156795 -0.14296426
000290 e6 aa 85 3e 7d 38 67 bd bc ad 90 3d c4 4a 7a 3e
       0.26106948 -0.056450356 0.07064387 0.24442583
0002a0 44 43 87 be 8c aa 92 3e bf 3d 28 3e 04 0b 46 3e
       -0.26418507 0.28645742 0.16429804 0.1934014
0002b0 63 b9 42 be 96 0b 8c bd ec e5 87 3e 84 fd 86 3e
       -0.19016032 -0.06838147 0.26542604 0.26365292
0002c0 b9 d6 6f be 0c 7c 67 be d2 2f 77 be 70 01 49 3e
       -0.23421754 -0.22605914 -0.24139336 0.19629455
0002d0 b4 a4 9a 3d 5c db 01 bd d8 7f b9 bd be 33 6b bd
       0.07550946 -0.031703338 -0.090575874 -0.057422392
0002e0 4c de 62 3d 33 50 2a be e1 b4 bc bd 48 7e 31 3e
       0.05538778 -0.16632156 -0.092141874 0.17333329
0002f0 08 a4 a4 3d 15 57 f5 bd 70 6c 84 3e a6 02 89 3e
       0.08039099 -0.119795 0.2586398 0.26759833
000300 29 fa 7e 3e d1 df 6f 3d 10 bb 85 be d2 7d 58 3e
       0.24900116 0.058563057 -0.2611928 0.21141747
000310 7e 64 0b be 70 87 6e 3e fa 9e 12 be c2 8c 48 be
       -0.13612553 0.23293853 -0.14318457 -0.19584945
000320 6d 4a 8b 3d 28 4a 05 be 43 cd 09 3e 42 91 04 be
       0.06801305 -0.1301657 0.13457207 -0.12946036
000330 02 d9 78 bd 93 fa 88 3e a9 4e c7 3d 48 65 26 3d
       -0.06075383 0.26753673 0.097318 0.040623933
000340 68 19 85 3e 0e 05 0d bd 6d e3 3b 3e 76 3c 33 be
       0.25995946 -0.03442865 0.18348475 -0.17503533
000350 72 e3 4d be 0a 9c 7c 3e bb ca 7b 3e 53 f0 b1 bd
       -0.20106295 0.24668899 0.24589054 -0.08688416
000360 5e e8 60 3e da e3 d7 3d ed 49 40 be 1c 1e 01 3d
       0.21963641 0.10541506 -0.187782 0.031522855
000370 60 f6 29 3c 74 f7 53 3e 44 ef 87 3e e7 0d fa 3d
       0.010373682 0.20699865 0.26549733 0.12209683
000380 ad aa 67 3e 75 63 7b bc 99 93 57 be 99 76 da bb
       0.22623701 -0.015343537 -0.21052398 -0.00666697
000390 75 65 06 be 91 e0 35 bd fd 4b 8d bd 4f f0 38 3e
       -0.1312464 -0.044403616 -0.06899259 0.1806042
0003a0 b2 6f b3 3d 96 83 29 3d f1 83 13 3e 1e b8 65 be
       0.087615386 0.041385256 0.144058 -0.22433516
0003b0 df e5 41 be bb ce 0e be c4 58 22 be 4b a8 20 bd
       -0.18935345 -0.13946049 -0.15854174 -0.039222997
0003c0 5f 35 8a 3e bf f1 82 be 0f 99 20 be 79 67 04 be
       0.26993844 -0.25575063 -0.15683387 -0.12930097
0003d0 5d 69 26 bc b7 85 b7 3d ef fd 81 3d f7 b2 e8 bd
       -0.0101569565 0.08961051 0.06347262 -0.1136226
0003e0 07 a8 b3 3d 9e 37 da 3d 79 2c 90 be 60 22 74 be
       0.08772283 0.106551394 -0.2815893 -0.23841238
0003f0 a0 91 a7 bd 31 16 8c be 79 23 d7 3d 38 a7 13 3e
       -0.08182073 -0.2736068 0.10504813 0.14419258

in_proj.bias f4 [64]
000000 47 55 41 bc 76 da 0f 3c d1 fd e2 bb 85 fc 50 bc
       -0.011800117 0.0087801125 -0.00692723 -0.012755518
000010 78 c6 87 bc 45 64 05 3b fb 18 4d bc fd 29 c9 bb
       -0.01657413 0.0020353955 -0.012518163 -0.0061390386
000020 9e e0 46 bb e6 81 d6 3a 29 3e a0 bb 36 3c 59 bb
       -0.0030346285 0.0016365617 -0.0048902226 -0.003314746
000030 9c ca 08 3c ce 65 f0 39 86 e8 92 3a 52 21 c4 3b
       0.008349087 0.00045852218 0.0011208213 0.0059854174
000040 7d a5 ca 3a 50 76 d8 3a cb 9d 7d 3c 23 e8 48 3b
       0.0015460696 0.0016514752 0.015479515 0.0030655942
000050 6c 4f 0f 39 ba e1 3b 3b 79 00 55 bb 7b f3 0d 3b
       0.0001366713 0.002866848 -0.0032501502 0.0021660018
000060 6d 41 8c bb 96 e4 8b bb d7 a8 65 bb 70 0b 9a 3b
       -0.0042802603 -0.004269193 -0.0035043263 0.0047010705
000070 de 9c 56 3b 30 2f 8c ba 54 61 f6 37 2c 28 01 b9
       0.0032747309 -0.0010695215 2.9370807e-05 -0.00012317364
000080 47 ad be 3b 68 00 c2 3b 58 44 38 bb 60 fc a8 3b
       0.005818996 0.0059204586 -0.0028116908 0.0051570386
000090 b0 40 02 bb 36 e1 47 bc 1a be 45 bc df 3f 64 3b
       -0.0019874983 -0.012199691 -0.0120692495 0.003482811
0000a0 3b 85 80 3b de e7 4d bb 3f dd 71 3b 10 60 e4 ba
       0.0039221323 -0.0031418721 0.0036905555 -0.0017423648
0000b0 43 35 4e bb f7 13 d0 3a 2a 5a a0 3b 54 87 77 3b
       -0.0031464852 0.0015875091 0.004893561 0.003776987
0000c0 53 a9 01 3c 8c 87 da 3b 9c 76 bc bb bb 5a e6 39
       0.007913905 0.0066689905 -0.005751444 0.00043936618
0000d0 10 d3 31 3c ac 87 f3 3b d3 a6 df 39 d4 15 58 3b
       0.010853544 0.007431945 0.00042658168 0.0032971995
0000e0 60 2a f1 bb bb 39 ce bb 22 23 ca 3a 91 ed 90 bb
       -0.007359788 -0.006293503 0.0015421847 -0.0044228514
0000f0 fd cf 04 bb d3 88 80 bb 76 72 b8 bb c4 75 8c 3a
       -0.0020265572 -0.0039225607 -0.005628879 0.0010716249

adapt.E1 f4 [3, 8]
000000 ef a6 07 3c f6 3b 98 3b 65 22 8d bb 09 d4 0f bc
       0.008279546 0.00464582 -0.0043070787 -0.00877858
000010 ae 32 b2 bb d0 b3 a5 3a 7a ef 8f 3c 7d ec 82 bc
       -0.0054381704 0.0012642089 0.017570246 -0.015981907
000020 5d dd a7 bd 27 4f d4 bd b0 6a c2 3d 8d 14 8f bd
       -0.081965186 -0.103666596 0.09493005 -0.069863416
000030 48 7a bd 3d c4 8d b1 3d 9a 9e d0 3d 84 c2 b2 3d
       0.09251839 0.08669618 0.10186501 0.08728507
000040 95 d8 6e bd 53 ed 9b bd 39 87 98 3d 37 5d 78 bd
       -0.058312017 -0.076136254 0.07447667 -0.06063577
000050 a3 68 99 3d ad b7 89 3d 40 33 c3 3d e9 db ab 3d
       0.07490661 0.067244865 0.095312595 0.08391554

adapt.E2 f4 [3, 8]
000000 f6 9f ca 3b 74 3a 03 3a 9b 16 36 bc b3 87 28 3c
       0.0061836196 0.00050059636 -0.011113788 0.010286259
000010 7a 6d 2e bc 46 fe 30 bc 75 2e b7 bb e2 38 9b 3c
       -0.010646218 -0.010802811 -0.005590255 0.018948022
000020 fb 86 fe 3a 21 e1 7a bb f3 07 73 3b 7c 34 a8 3b
       0.001941889 -0.003828116 0.0037083596 0.0051332098
000030 4c 15 4a bc c9 ff ca bb a1 18 66 ba ca 1b b9 3b
       -0.012334179 -0.0061950427 -0.00087774737 0.0056490647
000040 ea 95 99 bd e3 8e c6 bd 62 fe d3 3d 31 d3 bc bd
       -0.07499297 -0.09695222 0.10351254 -0.09219969
000050 e3 88 dd 3d 34 a6 e9 3d 70 37 b8 3d 7a 65 c7 3d
       0.10817125 0.11408654 0.08994949 0.09736152

support_mix.w_logits f4 [3]
000000 68 40 25 3d e9 57 37 bd 90 77 47 3d
       0.040344626 -0.044761572 0.048698008

blocks.0.filter_conv.conv.weight f4 [64, 64, 1, 2]
000000 5c eb 80 3c ee c4 82 bd 09 d0 04 bc eb 38 08 3d
       0.015737228 -0.063852176 -0.00810624 0.033257406
000010 ab 1b 20 bd 84 a0 cf bc e3 1e ee 3d 3a e1 ca 3c
       -0.039088886 -0.025345095 0.11626985 0.0247656
000020 7e 67 90 3d 84 73 8c 3c bb 61 ce 3d f6 a8 8b 3d
       0.070509896 0.017144926 0.10077234 0.06819336
000030 b5 3a 93 bd 15 22 87 3d eb ce de 3c ef 45 a2 bd
       -0.07188932 0.065982975 0.027198276 -0.07923495
000040 a0 48 96 ba e3 bd 3d bd 9d e9 f0 bd ce a2 1b bd
       -0.0011465736 -0.04632367 -0.11763308 -0.03799706
000050 bb 19 8d bd e0 64 e2 3d b6 19 f8 3d 76 fd 01 3e
       -0.06889673 0.11054397 0.12114279 0.12694344
000060 41 ec 86 3c 06 e1 d3 3d 2b b3 75 3c 20 76 1b 3e
       0.016470077 0.10345654 0.01499633 0.1518178
000070 4c 48 52 bc 2d 3f f3 bb 25 7b 23 be 36 34 11 3e
       -0.01283462 -0.0074233026 -0.15964945 0.14180073
000080 c3 e3 c8 bd 90 19 d3 3c 67 42 bc 3c b6 f2 ea bd
       -0.09809067 0.025769025 0.022980882 -0.11472075
000090 b2 0c b3 ba 99 db c2 bc 37 00 c3 bd c4 49 62 3d
       -0.00136604 -0.023786353 -0.09521525 0.05524613
0000a0 25 cb 96 bd a1 76 03 be 06 0a dd 3d c4 60 a9 bd
       -0.073629655 -0.12838222 0.107929274 -0.0827041
0000b0 4b 92 3a 3d eb 71 4d 3d c2 bc 5d bd 9c 0b ea bd
       0.045549672 0.05015747 -0.05413509 -0.114279956
0000c0 6c 74 33 3c c3 b7 a8 3d 3d 5e b4 3b 16 0c 0e be
       0.01095305 0.08238175 0.005504398 -0.13871798
0000d0 da dd f5 3d b4 9d d1 bd 9e e6 f2 3c fa 93 a4 bd
       0.120052055 -0.102351576 0.029650982 -0.08036037
0000e0 91 f0 a7 3d 91 14 d1 bd c3 f3 61 bd 8d 3b 37 bd
       0.08200181 -0.10209001 -0.05516411 -0.044734526
0000f0 7d 58 b8 bd 81 3f 62 bd 5c 63 d4 3c 2a 77 ae 3c
       -0.09001253 -0.055236343 0.025926284 0.021297056
000100 0c 0a 8e 3d 9f d7 19 3d 3e 3d 8d 3d d2 7b 0d be
       0.0693551 0.037559148 0.06896447 -0.13816765
000110 34 b7 fb bd b0 1a c1 bc ae c0 06 be 49 80 83 3d
       -0.122908026 -0.023572296 -0.13159439 0.06420953
000120 e8 84 cf bd fc e1 f0 bd 5f b9 c7 3d 7b fb 7b bd
       -0.10132772 -0.11761853 0.097521536 -0.061519127
000130 7a e1 db 3b c4 7b 0a be c3 aa 9c bd 00 5e be bd
       0.0067102285 -0.13523775 -0.07649758 -0.09295273
000140 87 b1 cc 3d 46 33 a6 3d 9f 5a 25 bc 10 11 26 3e
       0.09994798 0.081152484 -0.0100924065 0.16217446
000150 99 36 21 bd 4b e6 43 3d 09 2f b4 3d 2f fe 4c bd
       -0.03935871 0.047827046 0.08798034 -0.050047096
000160 82 83 87 bd cf c6 96 3d 01 06 1b 3d 66 14 8f bd
       -0.0661688 0.073621385 0.037847523 -0.069863126
000170 ed d9 9c bd b9 12 94 bd a3 92 6a bd 21 19 9e 3c
       -0.076587535 -0.072301336 -0.05726875 0.019299092
000180 8d 1e 1e 3d 6e 95 79 3d 52 6d 53 bd 6e 2d 06 3e
       0.038603354 0.060933523 -0.051617928 0.13103268
000190 f7 b6 44 3c 00 5a d1 3d 74 cd 76 3c 68 fb 00 3e
       0.012006513 0.10222244 0.015063632 0.12595904
0001a0 51 32 1f be 03 b6 ce 3c 71 65 a4 bc 49 62 a8 bd
       -0.15546538 0.025233274 -0.020067902 -0.082218714
0001b0 19 f8 c0 3d 3c a9 0e be 1b 98 f3 bc de 8d a3 bd
       0.09422321 -0.13931745 -0.029735615 -0.079860434
0001c0 2f 2e 0d 3e 8d 7e d9 3d ea 67 58 3d a3 65 09 bd
       0.13787149 0.10619841 0.052833475 -0.033544194
0001d0 b3 16 c0 3d c1 96 f3 bd 8d b7 68 bd 86 45 14 be
       0.093793295 -0.118939884 -0.056815673 -0.14479646
0001e0 de e4 10 bd e9 76 69 bd 0d 3f 2f bd 6e d6 89 3c
       -0.035374515 -0.056998167 -0.04278474 0.01682588
0001f0 35 ad bd 3d af c2 ae 3d 91 ac ef bd 45 c9 8c 3d
       0.09261552 0.08533227 -0.11702836 0.068743266
000200 d7 31 71 bd 67 9b 11 3e 97 1d eb bd 1d 05 09 3d
       -0.05888542 0.14219438 -0.11480253 0.033452142
000210 01 b6 82 3d ac b3 cd bd 8a 8c bc 3d 02 f6 4a 3d
       0.06382371 -0.10044035 0.09206493 0.049551018
000220 8e 79 ea bc ea 3b 05 3e 90 4e ee bd 31 c9 ef bd
       -0.028622415 0.13011137 -0.11636078 -0.11708296
000230 28 3c 2e 3d c2 ba 8b bd ff fa 18 3d 74 57 a4 3d
       0.04253784 -0.068227306 0.037348744 0.08024493
000240 5f 6e 96 3d e3 c5 90 3d 32 8b a2 3c d9 7b 0b be
       0.0734527 0.07068994 0.019841764 -0.13621463
000250 ea 76 8d bd b4 c9 c8 3d 8f fe a5 3d 16 b0 38 bd
       -0.06907447 0.09804097 0.08105194 -0.045089804
000260 16 8e a9 bc 82 64 1e 3d 3d 1c 15 3e b0 25 7f bd
       -0.020697635 0.03867007 0.14561553 -0.0622918
000270 d8 50 08 be fc d2 a1 3d f4 b4 cf bc f3 37 e2 3d
       -0.1331209 0.0790157 -0.02535484 0.11045828
000280 02 c3 02 bd 30 16 e1 bd 19 0a 1b be 06 a6 b7 bd
       -0.031924255 -0.1099056 -0.1514057 -0.08967213
000290 8f 00 17 3e 28 66 c1 bd 72 96 da bc f7 3b d1 3d
       0.14746307 -0.09443313 -0.026683066 0.102165155
0002a0 2c 19 8b 3d 5c 57 7d 3d c4 06 9f 3d 8a 80 b8 bc
       0.067919105 0.06185089 0.07764962 -0.02252223
0002b0 83 ca a8 bc 82 7c 24 3d 4d a2 ff 3d 16 a6 4c 3d
       -0.020604378 0.040157802 0.12482128 0.04996308
0002c0 5e 97 07 3e 36 0a 40 bd 3c 2b 0b be de 5a 1c be
       0.13241336 -0.046884738 -0.13590711 -0.15269038
0002d0 fd 30 d0 bd 39 1b 1a bd d2 75 bb bc af 97 bd 3b
       -0.10165594 -0.037623618 -0.02288333 0.0057859044
0002e0 67 54 15 3e 09 37 83 bd ed de 6b bd 8f 2b d6 bd
       0.14582978 -0.064069815 -0.057585645 -0.10457527
0002f0 bf 0f 81 bc f7 0f fa bc ea dd 18 be c6 7b e3 bd
       -0.015754579 -0.03052519 -0.14928403 -0.11107592
000300 5a 5c da bd 27 11 a0 3d 67 14 a8 bd d4 c2 9c bd
       -0.10662146 0.078157715 -0.082070164 -0.07654348
000310 1e d9 2f bd f6 43 02 bd 4d 54 60 bd 93 61 0a bd
       -0.04293167 -0.031803094 -0.054767895 -0.03378446
000320 ce d1 22 be 2c be 05 be 4b 7c f9 3d 84 74 b9 bd
       -0.15900347 -0.13060826 0.1218191 -0.09055427
000330 e7 03 cb 3d c6 c9 85 3d 2b b5 de bc 05 b4 1c 3d
       0.09912854 0.06532626 -0.027185997 0.038257618
000340 f3 7b ac 3d 61 12 8c bd 7a 88 a8 bd fb 31 e3 3d
       0.08422079 -0.06839443 -0.08229156 0.110935174
000350 f7 f2 03 3e d3 e6 8e bc 8d df 80 3d 70 16 98 3d
       0.12885652 -0.01744405 0.06292639 0.074261546
000360 1d b5 57 bd d3 f0 cc bd 58 5f c1 3d eb 7c 08 3e
       -0.052662957 -0.10006871 0.094420135 0.13328902
000370 fe 1d 03 3e c6 22 0b 3e c5 02 19 3e 1d 99 ae bd
       0.1280441 0.13587484 0.14942463 -0.08525298
000380 56 e7 77 3c d8 d1 57 3d 01 9c 96 bc 90 19 a6 3d
       0.015130838 0.052690357 -0.018384935 0.081103444
000390 7e 69 c8 3d 49 38 12 3e 3a 89 14 3e 12 36 90 bd
       0.09785746 0.14279284 0.14505473 -0.07041563
0003a0 3c dc 06 3b ad 32 d5 3d ee 13 48 3d 44 24 02 bd
       0.0020578047 0.10410056 0.04884713 -0.031772867
0003b0 af 4a 15 be df 8f af 3d 62 a2 e0 3d a9 cf a2 3d
       -0.14579271 0.08572363 0.10968472 0.07949764
0003c0 45 53 0b bd b5 af 3a 3d 13 7f e0 3d 58 a7 44 3c
       -0.03401496 0.045577724 0.109617375 0.0120027885
0003d0 63 e6 ab bd 9e 8f 7f 3d 4e 6f fa bb 3b 43 c2 3c
       -0.08393552 0.062392823 -0.007642663 0.023713699
0003e0 6c 0b 1a 3d 25 1d 1d be 1e c3 be 3d f4 62 08 be
       0.03760855 -0.15343149 0.093145594 -0.13318998
0003f0 54 1f fe bc e3 d2 08 3d 69 a2 9d bd a9 cb 80 bd
       -0.031020798 0.033404242 -0.07696993 -0.06288845

blocks.0.filter_conv.conv.bias f4 [64]
000000 3b 40 2f 3b 0c c6 8d bb da 0d fd ba 30 6d 9d b9
       0.0026741165 -0.0043265875 -0.0019306496 -0.00030026725
000010 ee 59 3d bc 21 4b 7c 39 33 a6 1a 38 50 66 91 bb
       -0.011557085 0.0002406058 3.6871246e-05 -0.0044372454
000020 80 08 1d bc a0 d3 69 bc f6 dc a4 bb 12 f3 97 bb
       -0.009584546 -0.014271647 -0.0050312234 -0.0046371305
000030 d9 a5 10 ba c9 62 7d 3b 9f 0f 5a ba e8 03 07 3b
       -0.0005517877 0.0038663617 -0.0008318368 0.0020601694
000040 5c b0 32 39 cc b0 46 bb 05 74 9b bb 30 85 98 3b
       0.00017041102 -0.0030317781 -0.004744055 0.004654549
000050 73 76 00 bc 2d 7d 62 bb 49 01 b3 3b 92 15 14 3c
       -0.0078407405 -0.0034559474 0.0054627997 0.009038346
000060 f2 a5 5d bb c0 09 f3 3a 41 08 86 3b 66 89 a4 bb
       -0.0033820835 0.0018542334 0.0040903394 -0.005021262
000070 ac 39 c8 3b db 67 c8 3b 94 05 db 39 02 6e 55 3b
       0.0061103906 0.006115896 0.0004177509 0.003256679
000080 67 6e c8 bb 84 ce 94 bc 8f 5b 07 bc f0 85 b2 3b
       -0.0061166766 -0.01816488 -0.008261575 0.0054480955
000090 b4 e1 18 bb 58 23 cf 39 2e e2 f3 b9 16 e4 53 3c
       -0.002332789 0.0003950845 -0.0004651709 0.012932798
0000a0 f7 b3 d1 bb 2a 99 1d bb a4 8b 68 3c b3 a7 b1 bb
       -0.0063996273 -0.0024047592 0.014193449 -0.0054216026
0000b0 71 39 c0 ba ed 5c db bb 67 24 e7 3b 2f 38 a5 3b
       -0.0014665556 -0.006694427 0.0070539 0.005042098
0000c0 2c 41 b2 ba 49 11 55 bc 8c 8c 90 bb 4e de c9 b9
       -0.0013599745 -0.013004609 -0.0044112857 -0.00038503337
0000d0 11 d7 df bb 1c f7 40 3c 09 de 08 3c c8 b7 66 bb
       -0.006831058 0.0117776655 0.008353719 -0.0035204757
0000e0 3a ab 27 3c 70 7f 3b ba 96 65 0f bc 81 43 91 bb
       0.010233695 -0.00071524736 -0.008752247 -0.004433096
0000f0 6b 28 21 3c 5d e4 60 bb fa 96 c8 3b 3e 98 2f 3a
       0.009836297 -0.0034315803 0.0061215134 0.0006698406

blocks.0.gate_conv.conv.weight f4 [64, 64, 1, 2]
000000 8c 1a 0b 3e d3 af b6 3d 87 72 d1 bc cc 31 16 3e
       0.13584346 0.089202546 -0.025567306 0.14667434
000010 91 29 00 be 09 69 b8 3d 7e 34 18 3d 4f c2 22 3c
       -0.12515856 0.09004409 0.037159435 0.009934022
000020 76 20 fc 3d 33 37 e4 bd 99 d9 f8 bd 39 6f a2 3d
       0.12310879 -0.11143341 -0.121508785 0.0793137
000030 c1 b8 c0 bd 4d 08 0a be 70 fe fd 3d f3 4d 91 bd
       -0.09410239 -0.13479729 0.12402046 -0.07094946
000040 a5 6d cf bd d8 82 e8 3d 84 d1 c7 bd 43 23 d8 bb
       -0.10128335 0.113530815 -0.09756759 -0.0065960004
000050 e0 1e 96 bc e6 b9 72 bd 88 eb 09 3e 5d c4 0e be
       -0.01832527 -0.059259318 0.13468754 -0.13942094
000060 c0 b6 8b 3d 67 7c 0a bd ac 1f 16 3e a1 48 fa bc
       0.06821966 -0.033810046 0.1466052 -0.03055221
000070 78 4d 8d bd 3c e8 df bd 00 14 e9 3c ab a2 a2 bd
       -0.068995416 -0.10932967 0.02845192 -0.07941183
000080 aa f3 67 3d 38 fe e9 bd 66 68 b5 bd 75 66 81 bd
       0.05662886 -0.114254415 -0.08857803 -0.0631837
000090 d9 04 d7 3d 49 f0 1b be a1 ee 05 bd 9e ec 86 bd
       0.104989715 -0.1522838 -0.032698277 -0.065881
0000a0 66 f1 82 bd e7 1b 7f 3d f1 ff eb 3d 8a 6d 0a be
       -0.06393699 0.06228247 0.11523426 -0.13518348
0000b0 95 fb 69 3d 90 57 59 3d a9 68 80 3d 81 c4 08 3e
       0.057124693 0.05306202 0.06269962 0.1335621
0000c0 18 01 7d 3d aa 73 83 bb 37 46 11 be cf 70 f6 3d
       0.06176862 -0.004011591 -0.14186941 0.12033235
0000d0 c5 36 b3 3d 22 dd 83 bd f9 8d 61 3d ff eb 00 3e
       0.08750681 -0.06438662 0.055067036 0.12590025
0000e0 2f 50 c9 3d f3 07 bc bd e8 00 37 bd a2 dc 03 3e
       0.09829747 -0.09181204 -0.0446786 0.12877133
0000f0 97 2f cf 3d f7 bc 1e 3d ed 08 f9 3d 12 0e 82 bd
       0.10116499 0.03875443 0.121599056 -0.0635034
000100 34 c8 cc bc af 30 f6 3d 9f 4f 30 bd 0e 43 36 bd
       -0.024997808 0.120210044 -0.043044683 -0.044497542
000110 50 f4 fc bd 73 3b 15 be 70 37 a9 3d 1f 7d a9 bd
       -0.123512864 -0.1457346 0.08262527 -0.08275818
000120 94 94 43 bc 2e 60 07 be d0 d0 a4 bd 9d 75 a7 bd
       -0.011937279 -0.13220283 -0.0804764 -0.0817673
000130 b0 86 13 3e 20 ac 76 bd e6 ec b2 3b ec 83 10 be
       0.14406848 -0.060222745 0.0054603694 -0.14112824
000140 86 d0 3c 3d 8b 6e de 3c 9d e5 07 3e cf 36 f9 3d
       0.0460973 0.02715232 0.13271184 0.12168657
000150 45 53 b7 bd 71 6d 55 bd f6 60 f7 3d a3 8e 87 3d
       -0.08951429 -0.052106325 0.12079041 0.06619003
000160 64 73 2b 3c 89 67 51 3d 9a aa e8 bd fb 32 c9 bd
       0.010464523 0.05112413 -0.11360665 -0.09824177
000170 e0 11 64 bd c1 47 57 bd eb 5f 1b 3d 62 62 ae bd
       -0.05568111 -0.052558664 0.03793327 -0.08514859
000180 f0 df 58 bc a3 e7 3d 3d 92 be fd bd f3 70 7c 3c
       -0.013236985 0.046363484 -0.12389864 0.015407789
000190 1e d2 12 be ee 51 f5 bd 9b c6 07 be 51 93 1a 3d
       -0.14337966 -0.119785175 -0.13259356 0.037738148
0001a0 83 18 0c 3d 97 02 96 bd 4e 71 b0 3d 94 eb 0f 3e
       0.034203064 -0.07324713 0.08615361 0.1405471
0001b0 51 ad 45 bd 34 d8 0e 3e a0 69 f3 bc fe a5 ac bd
       -0.04826099 0.13949662 -0.029713452 -0.08430098
0001c0 c2 38 82 3d 33 92 f2 3c bf d0 c3 bc cb 16 e6 3d
       0.06358482 0.029610729 -0.023903249 0.11234816
0001d0 8b 01 ac 3d 89 f7 cb bc 7c 72 ca bd 02 58 47 3d
       0.08398732 -0.024898307 -0.098851174 0.048667915
0001e0 50 d2 78 3d 1c 90 e1 bd 5c a3 a4 3d 18 06 ee 3d
       0.060747445 -0.11013815 0.08038971 0.11622256
0001f0 d8 50 75 3d f7 8a 05 3e a0 0a 17 be a4 af 67 3d
       0.05989155 0.13041292 -0.14750147 0.05656399
000200 4a b2 c4 bd 59 ba 2e 3d 27 02 56 3c 6a a7 20 3d
       -0.096043184 0.042658184 0.013062037 0.03922216
000210 b8 aa 06 3e e0 55 3c 3d 6b 27 0c be 9a e5 d1 3d
       0.13151062 0.045980334 -0.13686912 0.10248871
000220 25 f6 73 bd 02 39 c2 3c bf 42 82 3d eb e6 2f bd
       -0.059560914 0.023708824 0.06360387 -0.04294483
000230 76 3e 10 3e 87 35 2d 3d 0d 16 75 3d 47 1f aa 3d
       0.14086327 0.042287376 0.059835482 0.08306747
000240 50 e9 bc 3d 57 cb 81 3d 97 1a ab bd c9 6b 24 bd
       0.09224188 0.06337612 -0.08354681 -0.040141854
000250 3d a5 35 be b1 3f be bd a6 b5 50 3b 6f 3c 69 bd
       -0.17738815 -0.09289492 0.0031846552 -0.0569424
000260 e0 aa 0c be 1c 95 c5 bc 58 eb 3c bd a4 9c dd bd
       -0.13737059 -0.024118952 -0.04612288 -0.108208925
000270 20 9a 75 bd b1 61 f5 bc 40 bd ed bb 21 25 af ba
       -0.05996144 -0.02995381 -0.0072552264 -0.0013362506
000280 a0 c3 0f be 9e 48 bc bc a2 b0 d5 bd 70 85 92 bc
       -0.14039469 -0.022983845 -0.10434081 -0.017885894
000290 e3 6b 6c bd 8a 79 a7 bd 9a c5 f5 3d d7 ec 4e 3d
       -0.057720076 -0.081774786 0.1200058 0.050518837
0002a0 db 4f f8 3d 41 e0 18 3e 9e a5 2b bd cf 23 8e 3d
       0.12124606 0.14929296 -0.04190599 0.06940424
0002b0 01 24 53 bc 58 2d d2 3d c6 5a 8c bd 1f 33 3b bc
       -0.012887002 0.10262555 -0.06853251 -0.011425762
0002c0 d6 14 d8 3d 36 2d c3 3c 5e 4a 03 3b 01 6f 90 3d
       0.10550849 0.02382527 0.002003334 0.07052422
0002d0 09 b2 b3 bc cb 91 0e 3e 06 48 d5 3d e6 0f f6 3d
       -0.02193548 0.13922803 0.10414128 0.12014751
0002e0 46 e8 e2 bd 0e 78 c4 bc 1f 4e 87 3d ca 2c 8a bd
       -0.11079459 -0.023983028 0.06606697 -0.06746824
0002f0 e9 24 c6 bd c2 b4 d7 bc 4e bf 1b be 13 8d 5f bd
       -0.09675009 -0.02633131 -0.15209696 -0.0545779
000300 dd b0 0c be 3b d3 74 bc 5f b4 0e 3e b8 09 11 be
       -0.13739343 -0.014942939 0.13935994 -0.14163864
000310 dd 36 d4 bb e9 a2 1b be 33 0b a6 3d a4 2b 9e bb
       -0.006476267 -0.15198864 0.08107605 -0.0048269797
000320 8b fd 9d 3d f7 8f d7 bc d3 f0 91 3d e7 49 57 3d
       0.07714375 -0.026313765 0.07126012 0.052560713
000330 d2 8a 0a bd 4a 25 04 be b7 14 ff bd cd 34 1c 3e
       -0.033823796 -0.1290485 -0.12455123 0.15254517
000340 3d d2 99 3d 61 fb 38 bd cc 40 70 3d 11 d2 06 bb
       0.07510803 -0.04516161 0.058655545 -0.0020571987
000350 fa 73 15 be c9 d6 01 be 01 5d 59 3d 12 52 e2 bd
       -0.14595023 -0.1267959 0.05306721 -0.1105081
000360 9f 2c 53 3d 9a b4 27 bd bf c7 86 bc 4d e1 9b 3c
       0.051556226 -0.04094372 -0.016452668 0.01902833
000370 cb 1a e7 3d 72 ad 81 3c 6a b7 91 bb bb 5c e5 3d
       0.11284407 0.015829775 -0.0044469135 0.111993276
000380 c6 42 04 be 7a fd 84 3d 31 05 8a 3d 32 66 98 bd
       -0.12916097 0.06493659 0.067392714 -0.07441367
000390 d6 a1 04 be b4 5d 24 3e dc ff c0 3d 69 26 2d 3d
       -0.1295236 0.1605137 0.09423801 0.04227296
0003a0 a2 a1 3f 3d bb c1 d7 bd 98 3d ab 3d c9 77 c3 bd
       0.046785004 -0.10534998 0.083613575 -0.095443316
0003b0 be 10 54 bc 7c dc 0e be 46 7c c8 bd c8 59 c2 3d
       -0.012943445 -0.13951296 -0.09789328 0.09489781
0003c0 45 aa b8 bb bd 99 22 bd 05 d3 75 bd 3c 7b a5 bc
       -0.005635532 -0.039697398 -0.060015697 -0.020200364
0003d0 af 3a 0d be fd 74 16 be 82 79 12 3e 2e 12 8b bd
       -0.13791917 -0.14693065 0.14304164 -0.06790577
0003e0 59 05 65 3d 12 f9 33 3d 26 fc eb bd a5 3b 5c 3d
       0.055913303 0.043938704 -0.11522703 0.05376782
0003f0 c7 da 1a 3d 99 b1 08 be 06 ca c1 3d bd 3f 03 be
       0.0378063 -0.13348998 0.09462361 -0.12817283

blocks.0.gate_conv.conv.bias f4 [64]
000000 ab 2c 09 3c be e9 dd ba ae 3d e3 3a 76 a3 35 3b
       0.008372466 -0.0016930623 0.0017337108 0.0027715839
000010 04 2d db 3b f3 4b 67 3c d1 f9 b8 ba 18 5d ce 3b
       0.006688716 0.014117229 -0.0014112537 0.0062977187
000020 02 92 01 3c c1 32 b4 3b 21 94 82 3b f5 eb 88 3a
       0.007908346 0.0054992144 0.0039849435 0.0010446297
000030 83 66 99 3b 62 39 bd 3a 4a dc 91 bb bd 98 66 bb
       0.00468141 0.0014436657 -0.0044513093 -0.0035186254
000040 9c ab 55 bc 92 66 50 3a d5 20 2d ba c1 f1 f6 bb
       -0.013041403 0.00079498545 -0.00066043186 -0.0075361435
000050 2e fa 63 3c 53 c6 19 3c d8 db c5 bb b4 f5 ad 38
       0.013914628 0.009385663 -0.0060381703 8.2950486e-05
000060 9d 22 11 3c 63 a3 0f ba 79 c6 36 bb 3b 37 b8 3c
       0.00885835 -0.00054793636 -0.0027889295 0.022487273
000070 72 bf 29 bc 8f 52 59 3c 73 8a 07 3a 84 59 d5 3b
       -0.0103605855 0.013264312 0.0005170472 0.0065109152
000080 b9 3e 79 3b b8 11 37 3c 4f ef 71 ba ed 75 67 ba
       0.003803177 0.011173658 -0.000922908 -0.0008829523
000090 db c0 5c bc ba 28 7a 3c 64 05 9e 3c 16 0c 22 bc
       -0.013473715 0.015268499 0.01928968 -0.009890577
0000a0 ba bc 26 bb 76 70 f1 bb 1d 5e 16 3c f8 5e 12 3c
       -0.002544208 -0.0073681427 0.009177712 0.008933775
0000b0 ab f4 97 bc 60 f4 e4 3a 07 04 fc 3a 7b 8a 7a 3b
       -0.018549284 0.0017467849 0.0019227274 0.0038229513
0000c0 7e 4d 21 bc 64 73 d9 ba 24 e0 f9 ba de aa db 3b
       -0.009845136 -0.0016590175 -0.0019063991 0.0067037186
0000d0 28 42 43 3c 76 42 ad 3b e5 53 9d 3b 6b 72 ba 3c
       0.011917628 0.005287464 0.004801261 0.022759637
0000e0 b6 6b bc 3b 16 3e fc ba 67 bc 98 3b 7b ea 60 3c
       0.005750145 -0.0019244577 0.004661131 0.0137277795
0000f0 b3 34 61 3c 3f ed 12 bc 08 7e 15 3b ec 0d da bb
       0.013745475 -0.008967697 0.0022810716 -0.0066544916

blocks.0.residual_conv.weight f4 [64, 64, 1, 1]
000000 90 62 dd b9 c4 b9 26 bc ef 23 85 bd fb dc e1 bd
       -0.0004222584 -0.010176126 -0.065009944 -0.11028477
000010 52 43 c9 bd d3 80 35 3e ff 57 fe bd d5 25 ce bd
       -0.098272935 0.17724924 -0.12419128 -0.1006581
000020 57 64 cd bd 42 2c 4b be 83 e9 01 3c d6 f0 ab 3d
       -0.10028904 -0.19841102 0.007929209 0.08395545
000030 11 97 ac bd 4d 70 09 3e 28 9b e4 3d 52 ca 4c 3e
       -0.08427251 0.13421746 0.11162406 0.19999054
000040 1c da 88 bc 6e ef ec 3a 64 75 41 3e f8 95 01 3e
       -0.016705565 0.0018076727 0.18892437 0.12654865
000050 ed e4 28 be 34 fd 4e bd bd 88 60 3e fe 6d 26 3e
       -0.16493578 -0.050534442 0.21927162 0.16252896
000060 2b b7 07 be 13 63 e1 bd 41 26 6a 3d fa 3d f9 bb
       -0.13253467 -0.11005225 0.057165388 -0.007606265
000070 a7 55 67 3d 26 1c bd 3c 52 15 41 bd 7c b7 3f 3e
       0.05647817 0.023084711 -0.047139473 0.18722337
000080 0b 84 3d 3e 47 29 2a be 77 2e 2e 3e cc 09 57 3e
       0.18507402 -0.16617309 0.17009912 0.20999831
000090 2d 8f ea bd 27 f8 50 bc 57 45 89 3c e0 f0 ad bd
       -0.1145309 -0.012754477 0.016756697 -0.08493209
0000a0 66 26 ba bd 1d 3f d4 bd 55 a3 0a 3e 9b 39 5a be
       -0.09089355 -0.103636004 0.13538869 -0.21311037
0000b0 aa b8 c2 bc ad 5b a7 bd fa 34 44 3e af 17 5c bd
       -0.023769695 -0.08171783 0.19160834 -0.053733524
0000c0 20 7b 3b be c4 9f a7 bd d8 6d 11 3e 2f 01 16 be
       -0.18308687 -0.0818477 0.14202058 -0.14648889
0000d0 c3 e3 25 be 2f 1c a4 bd f5 bd 0a 3e 82 d3 06 be
       -0.16200165 -0.08013188 0.13549025 -0.13166621
0000e0 9f c4 37 bd 18 03 46 3d 2f aa 30 3e d0 1f 68 3d
       -0.044865247 0.048342794 0.1725242 0.056670964
0000f0 e5 9e 4d 3e 52 29 22 3e 5c c0 77 bd df ce 06 3e
       0.20080145 0.15836075 -0.060486183 0.13164853
000100 56 e1 73 3d 32 64 44 be 9c e3 d7 3c 2f 79 26 be
       0.05954107 -0.19178846 0.02635365 -0.16257165
000110 9d d7 4a 3d 9c 6c 95 bd 95 89 1a be fe 37 23 3c
       0.04952203 -0.07296106 -0.15091546 0.00996208
000120 d0 0d 79 bd 3a 9e 23 be 7f 88 c9 bd f1 65 43 be
       -0.06080419 -0.15978327 -0.09840488 -0.19081856
000130 0d 0b 26 3e a1 b4 23 bd 02 38 37 be 2c 59 11 be
       0.16215153 -0.039967183 -0.17892459 -0.14194173
000140 7e bb d3 3d 19 39 05 be 24 af a0 bd 9e 01 48 be
       0.10338496 -0.13010062 -0.078459054 -0.19531867
000150 49 d9 bc 3c a7 42 1d 3e 35 fc 53 3e 1e f1 db 3b
       0.023052828 0.15357457 0.20701678 0.006712093
000160 34 be 33 3e c8 2c dc 3d 64 64 fe bd e2 5d 24 3e
       0.17553025 0.10750729 -0.12421492 0.16051438
000170 5e ac d3 3c 7b 5c 92 bd 0b 7f d4 bc 06 28 0d 3e
       0.025839027 -0.071465455 -0.025939485 0.13784799
000180 2e 70 36 3e 7a a1 09 3d a5 7f b5 3d 89 eb 73 bd
       0.1781623 0.03360126 0.08862237 -0.059550796
000190 9d 80 0a 3e b7 0c 10 3e 8f a9 80 bd 1e 70 96 bd
       0.13525625 0.1406735 -0.06282341 -0.073456034
0001a0 81 58 3b 3e 1f ba 00 3d 3e 91 20 be 00 f2 9b bc
       0.1829548 0.0314275 -0.15680405 -0.019036293
0001b0 9b 73 97 3d d1 4c ab 3d e6 56 07 3e 0e a4 69 3d
       0.07395097 0.08364261 0.13216743 0.05704122
0001c0 1f bd 20 bd f3 79 8f bd 9d b9 a9 bc d1 8a a9 3c
       -0.03924286 -0.07005682 -0.02071839 0.020696076
0001d0 28 f0 7b b9 ab a8 0f bd 98 3e a9 bd ed 8f 10 3e
       -0.0002402669 -0.035072964 -0.08263892 0.14117403
0001e0 1b 65 ae 3d e3 91 6b bd 43 25 1a be 30 6c 76 bc
       0.08515378 -0.057512175 -0.15053277 -0.015040442
0001f0 f7 4b b4 3d ea ee 88 3d 39 4e aa 3d 77 d6 15 bc
       0.08803552 0.06686194 0.08315701 -0.009145371
000200 1e d7 01 3e 68 6e 98 3d ca e3 47 3e 32 5c 23 3e
       0.12679717 0.07442933 0.19520488 0.15953138
000210 04 0d 14 3e 60 45 e3 bd 22 e5 99 3c e0 0d 41 3e
       0.1445809 -0.110972166 0.018786017 0.18852949
000220 87 59 bc 3d 5d fa 59 3e bb 7c 6d bd 20 54 33 bd
       0.091967635 0.21286912 -0.05798028 -0.0437814
000230 85 5a a0 bd ff 63 85 bd ba c9 fa 3b 90 f4 03 3e
       -0.07829765 -0.06513213 0.007653442 0.12886262
000240 83 db 13 bd 9c b9 fc bd e9 81 c2 3c ce 6f ae 3d
       -0.036098015 -0.1234009 0.023743587 0.08517419
000250 9c 09 42 3e ad 85 39 3e b0 3b f2 ba a0 96 4c be
       0.18948978 0.181174 -0.0018480923 -0.19979334
000260 80 83 81 3d 0a 9d 04 3e 66 46 49 3e 0e e0 66 be
       0.0632391 0.1295053 0.19655761 -0.22546408
000270 4e d9 07 bd bb 43 1e 3e 8f 0b 3e bd 2e 7a f2 bc
       -0.033166222 0.15455525 -0.046397742 -0.029599275
000280 a2 76 15 3e bd 04 0b bd 05 20 92 bd ea ad ba bd
       0.14596036 -0.033940066 -0.071350135 -0.09115203
000290 e6 2c d2 bd 70 b8 10 be c3 9a 28 3e 7d 54 8b 3c
       -0.1026247 -0.14132857 0.16465287 0.01700806
0002a0 63 b3 13 3e 59 96 35 3d bd 7f 51 be 6d af 61 bc
       0.144239 0.044332836 -0.20458885 -0.013774735
0002b0 48 e4 17 be f7 de e5 bd fa 46 c1 3d 60 91 4f bc
       -0.14833176 -0.11224168 0.09437366 -0.012668937
0002c0 1b 3e ec bd ca a5 18 3e e4 3a 3a 3e 9b 69 1d be
       -0.11535283 0.14906994 0.18186527 -0.15372317
0002d0 e4 d4 21 3d f1 22 91 bc 8f 6b 0a be 1e d4 fd bc
       0.03950967 -0.017716857 -0.13517593 -0.030984934
0002e0 39 6a fa bd 2c c5 a3 bc a2 1a 8d bb 4a 5f bc 3d
       -0.122272916 -0.01999148 -0.0043061534 0.091978624
0002f0 ff ad 50 bc 51 16 da bd 97 c8 6d bd f8 85 4f 3e
       -0.012736796 -0.10648788 -0.058052626 0.20265949
000300 67 d9 2d 3e 2a ef 4b 3e f3 e5 f1 3d 07 1b f5 3d
       0.16977464 0.19915453 0.118114375 0.11968046
000310 54 ab b2 3d 8e 7f f4 bd 2f 58 92 3d 01 93 cf 3d
       0.087240845 -0.119383916 0.07145726 0.10135461
000320 a3 7a 0d 3d b4 ca 6c 3d 74 2a 32 3e 7e 36 40 be
       0.034540784 0.0578105 0.17399007 -0.18770787
000330 a7 df 51 3e d0 8b 0e 3e 39 14 a9 bd a8 50 b6 bc
       0.20495473 0.13920522 -0.0825581 -0.022255257
000340 8c 31 10 3e 04 1f 1d 3e 66 81 ef 3d b6 6c 9c bd
       0.140814 0.15343863 0.11694603 -0.076379225
000350 d3 ae 23 bd 52 f3 19 bd 74 0d 0e be 32 11 23 3e
       -0.039961647 -0.037585564 -0.1387232 0.15924528
000360 24 29 aa bd 56 6c 06 3c f7 c0 5a bd 3d 08 4f 3e
       -0.08308628 0.00820454 -0.053406682 0.20217986
000370 4b 43 98 bd 86 bb c3 bd 9f 63 e2 3d 93 28 21 3d
       -0.0743471 -0.09557252 0.110541575 0.039345335
000380 42 33 91 bd ba 40 b4 bd 36 97 4d be 82 c2 42 be
       -0.07089855 -0.08801408 -0.20077214 -0.19019511
000390 24 1b 12 be bc 11 0f 3e d0 d0 46 3e dd 13 cc bd
       -0.14268166 0.13971609 0.19415593 -0.09964726
0003a0 2f ab fd bc 36 1b 06 3e 1f c4 23 be b1 ab f0 bd
       -0.030965416 0.13096318 -0.15992783 -0.117514975
0003b0 55 e6 b3 bd b7 7b 33 be 6a 30 34 be 43 f5 d9 bd
       -0.08784167 -0.17527662 -0.17596593 -0.10642483
0003c0 c4 6c b6 3d 02 8a 46 3d 06 8e 16 be af 4a b0 3d
       0.08907464 0.04847146 -0.14702615 0.08607995
0003d0 d1 dd 38 3d 9c 8d 55 3e f1 62 36 3e a0 e3 45 3e
       0.045133416 0.20854801 0.1781118 0.19325113
0003e0 bc 06 47 3e 86 5b 75 3d b4 c9 94 bd 03 0c 57 3e
       0.19436163 0.059901737 -0.07265034 0.21000676
0003f0 69 a3 3b be 1f 8c 50 be 15 b5 b0 3d 7c 1f fe 3d
       -0.18324055 -0.20365952 0.08628289 0.12408349

blocks.0.residual_conv.bias f4 [64]
000000 51 7c 18 bc 8f 71 42 bc 5d 87 9d bb a3 a6 00 3d
       -0.009306983 -0.011867895 -0.0048073963 0.031408917
000010 34 59 ed bc 9f 8c db bb 8a a1 05 3d 14 6d 76 3b
       -0.0289732 -0.006700113 0.03262476 0.0037601637
000020 e8 84 fe bc e3 12 e1 3c e4 e1 fc 3c 5d 49 fb 3b
       -0.031069234 0.027474826 0.030869432 0.0076686577
000030 0e d8 6a bd 5c 56 28 bc eb 48 8d bc 19 54 64 3c
       -0.057334952 -0.010274496 -0.017246684 0.013936066
000040 e0 68 05 bd 91 e2 c2 bb 18 ec 96 3b 68 87 2a bd
       -0.03257072 -0.005947419 0.0046057813 -0.04163304
000050 ba b4 d3 3c 23 56 cf 3c d8 7e 8f 3b c1 8e d8 3c
       0.025843013 0.025309628 0.0043791346 0.026435258
000060 84 66 dc bb 46 ce db bc cb 09 ad bc 05 cb 3c bc
       -0.006726088 -0.026831757 -0.021122834 -0.011523013
000070 b1 42 8b bc cb 95 9b 3c ec fd 03 3c fc ec 18 3d
       -0.016999574 0.018992325 0.008056145 0.03733538
000080 9e ed cc bb 48 7f bc bc bf 3d 92 3c a5 22 5f 3c
       -0.006253912 -0.023009911 0.017851708 0.0136191
000090 d3 05 d8 bc 5e 3b 78 bc 6f 38 f4 bc 3e ff 3d 3d
       -0.026369965 -0.015150873 -0.029812066 0.046385996
0000a0 74 01 4c bc 54 df 10 3a 6d cc 0f bb 33 49 0d 3d
       -0.012451518 0.00055264425 -0.0021941916 0.034493636
0000b0 29 70 9d 3c 87 87 54 ba 7e 10 06 3d d7 92 58 3c
       0.019218521 -0.00081073534 0.032730572 0.013218603
0000c0 2c 48 d0 3b ee a6 c9 3c 6b 62 07 bc c1 9a 0f 3d
       0.00635626 0.024615731 -0.008263211 0.035059694
0000d0 26 6d a3 bc 49 ae a5 bb 5d c1 92 3c 6f 2e c1 bc
       -0.019949507 -0.005056177 0.017914468 -0.023581712
0000e0 d3 73 12 3d 68 e5 54 bc 83 e3 1b 3d 30 08 00 bd
       0.03575499 -0.012994148 0.03805877 -0.03125781
0000f0 52 0b c3 3c 86 da d8 3c 9b 10 23 bc eb 06 22 3c
       0.023809109 0.026471388 -0.0099526895 0.009889345

blocks.0.skip_conv.weight f4 [128, 64, 1, 1]
000000 08 5c 9d 3d c9 5a 65 3d ac f2 f1 bd d6 b1 b8 bc
       0.07683569 0.055994783 -0.11813864 -0.022545736
000010 d0 57 db bc 96 e3 f1 bd 0a cc 37 bd 8d 1a 8e 3c
       -0.02677527 -0.11810987 -0.04487232 0.017346645
000020 61 43 58 bd c9 64 fc 3d 9d 44 d8 3d 31 ee cf bd
       -0.052798633 0.12323911 0.10559962 -0.10152853
000030 25 12 f4 3d f6 fe 26 3d 4b 5c 94 bd f2 ed 51 bd
       0.11917523 0.040770493 -0.07244166 -0.051252313
000040 9d 5f 0b 3d 20 14 21 be 23 34 33 be de 22 b4 3d
       0.03402673 -0.15730333 -0.17500357 0.08795713
000050 86 33 c0 3d e3 7d ae bd ff 08 da bd f0 e7 28 bd
       0.09384827 -0.08520105 -0.10646247 -0.041236818
000060 0d d1 16 3e 66 6d fc 3d 90 e1 3b 3e 00 27 ca bd
       0.14728184 0.123255536 0.18347764 -0.0987072
000070 89 7f a1 bd f5 1d 90 bd 22 4a d0 bd 04 86 12 3d
       -0.078856535 -0.07036964 -0.1017039 0.03577234
000080 3a 91 08 bd 5a fe a2 bd 7d e8 85 3d 6e 45 0b be
       -0.033341624 -0.0795867 0.06538484 -0.13600704
000090 60 06 3b 3e db b0 12 3e ed b1 88 bc f5 0c b6 bd
       0.1826415 0.14325278 -0.016686404 -0.0888919
0000a0 42 32 2c 3c b3 04 1f 3e a1 bc 0d 3d ba 99 0d 3e
       0.010510029 0.15529136 0.03460372 0.13828173
0000b0 4a 09 1b be 0b 97 f2 3c b8 cf 87 3d 86 fb 14 3e
       -0.15140262 0.029613039 0.06631416 0.14549074
0000c0 46 b5 05 3e 45 56 26 3e 7d 37 fc 3d 06 a4 15 be
       0.13057432 0.16243847 0.12315271 -0.14613351
0000d0 ee 6f b3 3d 80 94 f5 bd 57 75 9e 3d 22 f2 8c 3d
       0.08761583 -0.11991215 0.077372245 0.06882121
0000e0 c5 8a 2f 3e 74 b8 e6 bd a0 c4 fe 3c ae 63 02 3e
       0.1714278 -0.112656504 0.031099617 0.12733337
0000f0 77 3f 24 bd 6b 1b 2c 3e e7 eb 7a bd a1 2a cf 3d
       -0.040099587 0.16807334 -0.06126013 0.10115553
000100 22 89 18 bd 60 70 67 3d cc 2a 06 bd 06 c2 a2 bd
       -0.037240155 0.056503654 -0.032755658 -0.07947163
000110 0a 49 31 3e f8 53 2e 3e b8 b0 b5 bd d3 1c 0a 3d
       0.17313018 0.17024219 -0.08871597 0.033718895
000120 09 a9 cb 3d e3 92 ff bd d3 65 9b bd 8b 41 84 bd
       0.0994435 -0.12479188 -0.07587781 -0.06457814
000130 a8 bc 16 be 68 5d 26 3d 7e dd 0a be f6 0b c6 bd
       -0.14720404 0.040616423 -0.13561055 -0.0967025
000140 5d 21 2a 3e aa 68 fa bd 78 64 03 bd 00 bf 38 be
       0.1661429 -0.12226994 -0.032078236 -0.1804161
000150 be 07 98 bd d6 62 b3 bd ed 71 a9 3d a5 22 e7 bd
       -0.07423352 -0.08759086 0.08273683 -0.11285905
000160 20 ed 16 3d 06 ed 11 be 91 17 3c 3d 6d 6a 1a bd
       0.036847234 -0.14250574 0.045920912 -0.03769915
000170 39 69 53 3d 1b 58 c9 bd 5e f0 b0 3d d5 ce 85 bc
       0.05161402 -0.09831258 0.086395964 -0.016333977
000180 a0 ee 0d bd 3c 5b 2f be 33 f7 a0 3c a7 2b e5 3c
       -0.0346514 -0.17124647 0.019649124 0.027974917
000190 3b c4 a1 bd 39 d8 a8 3d 98 89 d1 bc b5 49 1a be
       -0.07898756 0.08244366 -0.025578305 -0.1506718
0001a0 15 a0 2e bd 8f 1b 62 bc 8c b5 93 3d 0e 69 69 3d
       -0.042633135 -0.013800516 0.07212362 0.056984954
0001b0 b9 7c 46 be cc 02 c1 3d a8 da cf 3d 52 46 c1 3d
       -0.19383515 0.094243616 0.10149127 0.09437241
0001c0 f3 1a ab bc f5 07 29 be 62 0c 92 3d 80 9f 39 bc
       -0.020886874 -0.16506942 0.07131268 -0.011329532
0001d0 3c 97 96 3c 04 ce 49 bd bf bd 05 3e 09 65 c9 3b
       0.018382661 -0.049268737 0.13060664 0.0061460775
0001e0 d3 23 7c bd 72 4e 17 3e 90 81 94 3d 5a b6 12 be
       -0.061557602 0.14776018 0.072512746 -0.14327374
0001f0 77 8d 6e bd 12 1c de bc 2c 9f 1d be 3e db c3 3d
       -0.05824038 -0.027112994 -0.1539275 0.095633015
000200 a1 05 13 3e e9 8a e9 bd 15 20 f0 bd d2 7b 02 3e
       0.14357616 -0.11403448 -0.11724869 0.12742546
000210 cf 66 1d 3e 87 17 cc 3d 50 de 0d 3e a6 73 37 be
       0.1537125 0.09965425 0.13854337 -0.1791521
000220 58 87 ac 3d af 86 e7 3d 7e d7 2b 3e 1a 24 1e 3d
       0.08424252 0.11304986 0.16781422 0.038608648
000230 28 71 10 bd 5c 63 34 3e 92 96 12 bd c8 af 0a 3e
       -0.035264164 0.17616028 -0.035788126 0.13543618
000240 03 7e 8a 3d c3 d9 b5 bd 5e 65 dd bd c3 c9 20 3e
       0.06762316 -0.088794254 -0.1081035 0.15701966
000250 c8 47 9c 3c 1c 66 1b 3e 9a 17 bf 3d 29 47 4d bd
       0.019077197 0.1517567 0.093306735 -0.05011669
000260 e0 e0 29 bd dd 2b dd 3d 15 73 27 bd 50 e0 1a 3e
       -0.041474223 0.10799382 -0.040881235 0.15124631
000270 35 8c b2 bd 00 c5 09 be ea 7e 0b be a8 a4 30 be
       -0.087181486 -0.13454056 -0.13622633 -0.17250311
000280 1d 10 88 3d 65 14 bf 3d 63 35 a7 3c 1b 84 27 bd
       0.06643698 0.09330062 0.020411199 -0.04089747
000290 2a c8 98 3d 3b d5 2c be a0 7e 1a 3e 6b 65 69 bd
       0.07460053 -0.16878216 0.15087366 -0.056981485
0002a0 bd dc 6b bd 0d b6 92 3d e5 41 db 3d 5b 64 16 3d
       -0.05758356 0.0716363 0.10705928 0.0367168
0002b0 cb 1a 0d 3e 4e 0c 16 be fa 1c d6 bd 0c f9 04 be
       0.13779752 -0.14653131 -0.104547456 -0.12985629
0002c0 39 6c 03 be 24 8f c0 3d 94 f0 87 3d 8f 1f c7 3d
       -0.12834252 0.09402302 0.066376835 0.09722816
0002d0 7c 09 e7 3a 89 fa 0e bd f2 5a 01 be 53 b5 18 be
       0.0017626728 -0.034906898 -0.12632349 -0.1491292
0002e0 fa f4 21 bd dc f9 ca 3c 57 ec 34 3e a8 47 f9 3d
       -0.03954027 0.024777345 0.17668281 0.121718705
0002f0 04 0e 0e 3e 17 50 9b bd eb 1e 64 3d c0 3b 18 bd
       0.13872534 -0.07583635 0.05569355 -0.037166357
000300 0e bc db 3d 03 3b 73 bc ce 96 01 be 0d c3 0c be
       0.10729228 -0.014845612 -0.12655184 -0.13746281
000310 a7 10 dc bd 40 86 a5 bb 92 10 ee 3c 99 a4 2d 3e
       -0.10745364 -0.0050514042 0.029060636 0.1695732
000320 f6 79 1b bd 04 da 29 3d bc c7 22 3d 30 54 1c be
       -0.037958108 0.04146768 0.039741263 -0.1526649
000330 51 64 b3 3d 58 58 22 bc af 00 a9 3c f2 9b 26 be
       0.08759368 -0.009908758 0.020630209 -0.16270426
000340 5c f8 0b be 89 2f 27 3d a6 e4 34 be 0e d8 48 bc
       -0.1366896 0.040816817 -0.17665347 -0.012258543
000350 13 61 ad bd 6d 52 28 3e e8 c1 1b 3e ef 38 07 3e
       -0.08465781 0.16437693 0.15210688 0.13205312
000360 52 eb d9 3d bb 36 80 3d 80 35 95 bd 35 60 aa 3d
       0.10640587 0.06260439 -0.07285595 0.08319131
000370 43 08 b7 3d 47 6b 33 bd 54 1f 21 3e 45 c2 1b be
       0.08937123 -0.04380348 0.15734607 -0.15210827
000380 b0 9f 19 be cb 4d d1 bd 9b fb 91 3d 17 26 dd 3d
       -0.15002322 -0.10219916 0.07128068 0.10798281
000390 6e bf af bd 57 47 dc bd 74 37 c5 3d da dc 47 be
       -0.08581434 -0.107557945 0.096297175 -0.19517842
0003a0 a6 39 8f bd 50 b0 27 bd c5 da 08 be 5d 09 ec 3d
       -0.069934174 -0.04093963 -0.13364704 0.115252234
0003b0 c8 cd c6 3d fd c4 8d 3d a9 9d a1 bd 4b a1 16 be
       0.097072184 0.06922338 -0.078913994 -0.14709966
0003c0 ad 6a a2 bd e8 0f fb bd b8 c4 b9 3d 66 84 1d 3e
       -0.07930503 -0.12258893 0.09070724 0.15382537
0003d0 bb 58 89 3d 95 60 a4 bd dc a6 86 bb a0 83 3f 3d
       0.06706377 -0.08026234 -0.0041092467 0.046756387
0003e0 a1 42 c9 3c b0 40 0d 3e c5 26 d8 ba f7 a1 27 3d
       0.024567904 0.13794208 -0.0016491046 0.040925946
0003f0 bc a6 02 3e 16 f4 1d 3e aa d3 c4 bc 38 1f 8e 3c
       0.12758917 0.15425143 -0.02402671 0.01734887

blocks.0.skip_conv.bias f4 [128]
000000 3b c2 81 3b e8 3d e7 3b a6 1b b3 bb 77 52 8b 3b
       0.0039599217 0.0070569403 -0.0054659424 0.004251774
000010 d8 0a b6 3a 95 cf 66 bb 7c 07 db 3b d5 33 ee 3b
       0.001388873 -0.0035218943 0.006684242 0.0072693625
000020 41 1a e2 ba f1 b6 61 3c be be e1 39 b6 2c 9d 3b
       -0.0017250256 0.013776527 0.00043057458 0.0047965897
000030 5e 00 11 3c 9b 15 4e bb 50 ad 1d bc 87 e5 42 3c
       0.008850185 -0.0031445983 -0.00962384 0.011895544
000040 91 f6 13 3c ad a0 a6 3b 9b 9f 9c bb 87 bb c2 bb
       0.009030954 0.005085072 -0.0047797686 -0.005942765
000050 84 7e 90 3b 83 25 32 3b 9c 02 91 bb 16 98 83 bb
       0.004409613 0.0027183003 -0.00442536 -0.004015933
000060 04 b8 19 ba a8 80 60 3c 4e db a5 3b 72 72 48 3c
       -0.0005863907 0.013702549 0.0050615435 0.012234317
000070 8a 9f 0d 3b 26 f7 b0 3b 5a 52 40 ba 54 8c 01 bc
       0.0021609985 0.005400556 -0.000733649 -0.007906992
000080 fc 37 81 bb a2 7b 1a bc f3 93 bb bb 4d 41 27 3b
       -0.0039434414 -0.00942889 -0.005724424 0.00255211
000090 3c a6 29 3b de ff ca bb b3 b4 db 3b 9c 74 29 bc
       0.0025886437 -0.0061950525 0.0067048906 -0.010342743
0000a0 ac b6 c6 bb 1c d0 2e bb bc 7a dc bb c5 66 76 3a
       -0.0060642567 -0.0026674336 -0.0067284983 0.0009399469
0000b0 2e 7a a3 3c de 5c ad 3b 60 3c a4 3b 69 af c7 3b
       0.01995572 0.0052906116 0.00501208 0.0060939086
0000c0 53 54 84 3c 8f 1e 0b 3c 9b bd 17 3b 4e 83 1a 3c
       0.01615349 0.008491172 0.0023153785 0.00943072
0000d0 b1 84 38 3c bf 6f 43 3a ca 61 ac ba eb 56 bc ba
       0.011262105 0.0007455311 -0.0013151702 -0.0014369165
0000e0 08 e7 1d 3b 31 00 23 bb 5f 60 c4 39 da 05 9d bb
       0.0024094004 -0.002487194 0.00037455835 -0.0047919573
0000f0 06 83 ae 3b cd 37 fb 3b 4a cc c4 39 98 70 cd 3b
       0.005325678 0.007666564 0.0003753624 0.0062695257
000100 fc 76 22 3c 72 1b 27 bb 4b fd 26 bc 1d fd 78 3b
       0.009916063 -0.0025498536 -0.010192226 0.0037992664
000110 8f 47 1d bb b5 97 da ba a8 9e db 3a 16 16 22 bc
       -0.002399895 -0.0016677292 0.0016755657 -0.009892961
000120 9d 4f 23 3c df 5d c7 3b 4f 72 dd 3b 96 db f9 3b
       0.009967712 0.0060841884 0.0067580114 0.0076250536
000130 6a ca 97 3b 4f b3 2e bc 3a cb 22 3b 58 ba 54 bb
       0.004632284 -0.010662868 0.002484037 -0.0032459702
000140 d1 9d 9e 3b f6 04 63 ba 92 d0 37 3a 25 c1 ad bb
       0.0048405905 -0.0008660102 0.00070119754 -0.0053025656
000150 ee a9 b7 3c 86 32 0f bb 34 c1 f5 ba cb bd 92 3b
       0.022419896 -0.0021850183 -0.0018749596 0.0044781915
000160 56 e7 e5 3b d3 59 95 bb a1 6c be 3b 90 79 39 3b
       0.007016103 -0.004557827 0.0058112894 0.0028301217
000170 50 83 22 bb a1 f8 18 3c 82 72 5f bb d3 1c 7d 3b
       -0.0024797507 0.0093366215 -0.0034095352 0.0038621917
000180 8e 3c 1c 3b 9c e6 5f 3b 37 9c 69 3b 7a f9 ac bb
       0.0023839804 0.0034164554 0.003564609 -0.0052787634
000190 07 86 07 3c 5a 1d e4 3a 65 85 2b 3b d2 23 2f bb
       0.008271701 0.0017403767 0.0026172039 -0.0026724231
0001a0 0b a2 43 3c 2a 69 ca 3b e9 69 cc 3b 0e 0a d1 3a
       0.0119404895 0.0061770873 0.0062382114 0.0015948431
0001b0 44 60 6e 3c 1f 8f de bb c7 c3 65 3c 7c 51 49 3c
       0.014549319 -0.0067919637 0.014023728 0.012287494
0001c0 20 21 3e 3b ad 3a 9b ba db 6e 0e bb 7f 26 9d 3b
       0.0029011443 -0.0011843048 -0.0021733555 0.004795849
0001d0 07 86 3d 3c 5e aa 5b ba de 57 fa ba 27 42 95 3b
       0.011567599 -0.00083795737 -0.0019099673 0.004555005
0001e0 56 a8 f3 ba 46 d5 70 3b e2 80 a4 3a ab 0d 55 3c
       -0.0018589597 0.0036748215 0.0012550617 0.013003747
0001f0 c9 96 20 3b d8 24 35 3b 2a b3 3d 3c 7b 46 03 3c
       0.0024503937 0.0027640369 0.011578361 0.008012409

blocks.0.bn.weight f4 [64]
000000 15 0f 81 3f 5b 06 7f 3f b6 e4 80 3f 8b 53 7e 3f
       1.0082728 0.9961907 1.0069797 0.99346226
000010 a3 19 80 3f df 10 80 3f 8d be 7e 3f 52 a1 81 3f
       1.0007824 1.0005149 0.9950951 1.0127356
000020 0a 20 7e 3f 9e 81 80 3f a4 8a 82 3f 37 a6 81 3f
       0.9926764 1.0039556 1.019856 1.012885
000030 ef 41 80 3f bd a5 80 3f ab a9 7e 3f 60 75 7b 3f
       1.0020121 1.0050579 0.9947764 0.98225975
000040 77 72 82 3f 2c 82 81 3f 06 84 81 3f 0b fa 80 3f
       1.0191182 1.011785 1.0118415 1.0076307
000050 1a bc 7f 3f 2d 9d 80 3f 3a 18 7e 3f 02 9a 7d 3f
       0.99896395 1.0047966 0.99255717 0.9906312
000060 76 10 82 3f ce 1e 83 3f 66 32 81 3f a2 42 80 3f
       1.0161273 1.0243776 1.0093505 1.0020335
000070 98 cd 83 3f bb 85 80 3f ea f8 81 3f d6 73 80 3f
       1.0297117 1.0040811 1.0154088 1.003535
000080 0c 2c 81 3f 69 5d 80 3f 80 c5 81 3f cc 5b 80 3f
       1.0091567 1.0028507 1.0138397 1.0028014
000090 97 23 81 3f 4b 4b 81 3f 69 8e 80 3f 06 38 7e 3f
       1.0088986 1.0101103 1.004346 0.99304235
0000a0 1f 51 83 3f c6 d9 80 3f c3 6c 82 3f a4 d7 7f 3f
       1.0259131 1.0066459 1.0189441 0.99938416
0000b0 31 7f 7f 3f 83 f6 80 3f a6 66 7d 3f ea de 7b 3f
       0.99803454 1.007523 0.98984754 0.98387015
0000c0 52 86 80 3f 4d b2 7e 3f ad 76 81 3f c5 70 81 3f
       1.0040991 0.99490815 1.0114342 1.011254
0000d0 fc b8 79 3f 8e 3f 80 3f 4e 7f 7e 3f b1 0f 81 3f
       0.9754789 1.0019395 0.99413 1.0082914
0000e0 a5 71 80 3f 17 12 7f 3f d4 98 82 3f ee 62 80 3f
       1.0034682 0.9963698 1.020289 1.0030191
0000f0 9f c9 80 3f 6a a6 80 3f 45 c9 7d 3f 8e 0e 80 3f
       1.006153 1.0050786 0.9913524 1.0004442
