TGNN2026/artifacts_MTGNN1m_1SoftUtility/fold_04_weights.pt (torch, 802453 bytes, 83 tensors)

A_static f4 [3, 3]
0	0x3eaaaaab	0.33333334
1	0x3eaaaaab	0.33333334
2	0x3eaaaaab	0.33333334
3	0x3eaaaaab	0.33333334
4	0x3eaaaaab	0.33333334
5	0x3eaaaaab	0.33333334
6	0x3eaaaaab	0.33333334
7	0x3eaaaaab	0.33333334
8	0x3eaaaaab	0.33333334

in_proj.weight f4 [64, 15]
0	0x3e2f39a1	0.17111827
1	0x3e64deef	0.22350667
2	0xbdb03feb	-0.086059414
3	0x3d4b5609	0.049642596
4	0xbe2b0402	-0.16700748
5	0x3d85de09	0.065364905
6	0xbd49d122	-0.04927171
7	0xbda1956c	-0.07889828
8	0xbe69276a	-0.22768942
9	0xbe092430	-0.1339271
10	0xbe0a79de	-0.13523051
11	0x3e14488f	0.14480804
12	0x3d98874d	0.074476816
13	0xbe3963d2	-0.18104485
14	0x3d9c8b0c	0.076437086
15	0x3e6f0154	0.2334035
16	0xbdcd1a53	-0.100147866
17	0xbe0cdc0e	-0.13755819
18	0x3e650280	0.22364235
19	0x3d85b340	0.0652833
20	0x3dbcdbd0	0.092216134
21	0xbd8a5f0d	-0.06756411
22	0x3e4850d9	0.19562091
23	0x3deac3d6	0.11463134
24	0xbd26bb3a	-0.040705897
25	0x3e19759f	0.14986275
26	0xbe54d4b8	-0.20784271
27	0x3d89bd1a	0.067255214
28	0x3e6ca8ca	0.23111263
29	0xbdc18085	-0.09448341
30	0x3e89c0d5	0.26904932
31	0x3e65af26	0.22430095
32	0xbe047ccd	-0.12938233
33	0x3e40a00e	0.18811056
34	0x3cec887a	0.02887367
35	0x3dfabd9f	0.122431986
36	0xbe1fe280	-0.15613747
37	0x3dcf74cb	0.10129698
38	0x3c45603a	0.012046868
39	0x3dbd1be8	0.09233838
40	0x3e43bc99	0.19114913
41	0xbd0d9f72	-0.034575887
42	0x3e41c11a	0.18921319
43	0xbd8d75e2	-0.0690725
44	0x3e814531	0.252481
45	0xbe6f01fd	-0.23340602
46	0x3d38901b	0.045059305
47	0xbe4a908e	-0.19781706
48	0x3df092f5	0.1174678
49	0xbd0ec878	-0.03485915
50	0x3e080e08	0.13286602
51	0xbde93348	-0.11386734
52	0xbdcd3d1a	-0.1002142
53	0x3b886cdc	0.0041633677
54	0xbe1b53de	-0.15168712
55	0x3d6b53e4	0.05745305
56	0x3e22d0fd	0.15900035
57	0x3e80dbb5	0.25167623
58	0xbd8d92c8	-0.06912762
59	0x3e6f379c	0.23361057
60	0xbe7f3606	-0.24922952
61	0x3e46c407	0.19410716
62	0xbe57b65e	-0.21065661
63	0xbe629c57	-0.22129951
64	0x3c297409	0.010342606
65	0x3e252f59	0.16131343
66	0xbe09250a	-0.13393036
67	0xbe830121	-0.255868
68	0x3e57f061	0.21087791
69	0x3e4af7be	0.19821069
70	0x3e0ae3db	0.13563482
71	0x3e4a5a68	0.1976105
72	0xbe121080	-0.14264107
73	0x3e103fbf	0.14086817
74	0xbe1479a1	-0.14499523
75	0x3c8333cf	0.016015915
76	0x3e6c6b80	0.23087883
77	0x3e5025a3	0.20326857
78	0xbe57c977	-0.21072946
79	0xbe8744ca	-0.2641967
80	0xbc1c3c58	-0.009535871
81	0xbe54044c	-0.20704764
82	0xbd976bd7	-0.07393616
83	0xbe3e5368	-0.18586504
84	0x3e2bc0bc	0.16772741
85	0x3e4e411f	0.20142029
86	0xbe873211	-0.26405385
87	0x3e5c083b	0.21487515
88	0xbe6925a0	-0.22768259
89	0xbe57fce4	-0.21092564
90	0x3e06d920	0.13168764
91	0xbe813656	-0.25236768
92	0x3e036dfc	0.12834924
93	0x3e35fdb4	0.17772561
94	0x3d98f77b	0.07469078
95	0xbdeef248	-0.11667305
96	0xbe7e2df7	-0.24822222
97	0xbcfd7579	-0.030939804
98	0x3e24ec79	0.16105832
99	0x3e3cb548	0.18428528
100	0xbe67bdfd	-0.22631069
101	0xbe459d4f	-0.1929829
102	0x3df6f2c2	0.12058021
103	0xbd84a96d	-0.06477628
104	0x3e03c77d	0.12869067
105	0x3de29218	0.110630214
106	0xbd804d6f	-0.06264769
107	0xbe15f255	-0.14643224
108	0x3c7778a4	0.015104447
109	0xbe342ed1	-0.17595984
110	0x3c139dce	0.009009792
111	0xbd0acaeb	-0.033884924
112	0xbd8f73b7	-0.07004493
113	0xbe6dea21	-0.23233844
114	0xbe87e878	-0.26544547
115	0x3d82bf57	0.063841514
116	0xbdd799ad	-0.10527358
117	0x3c83571d	0.01603275
118	0xbe81dd1c	-0.25364006
119	0xbe497b0a	-0.19675842
120	0xbd9d08f6	-0.07667725
121	0xbd96133f	-0.0732789
122	0x3de509c6	0.11183505
123	0x3d4b95b6	0.049703322
124	0x3e087e1a	0.13329354
125	0xbe2e195f	-0.17001866
126	0xbe8a3a6d	-0.269977
127	0xbe1e33c5	-0.15449436
128	0xbe67ff91	-0.22656085
129	0x3dcc8f25	0.0998824
130	0xbe1f6a1e	-0.15567824
131	0x3ddb0c29	0.10695679
132	0xbe434fea	-0.19073454
133	0x3e08dcd4	0.13365489
134	0xbd109a3b	-0.035303336
135	0xbd692551	-0.056920353
136	0x3e5c8bf6	0.21537766
137	0xbdf49cc8	-0.11943966
138	0xbe4179f3	-0.18894176
139	0x3aa26fce	0.001239294
140	0x3c126326	0.008934772
141	0xbd4e8763	-0.050422084
142	0xbe1ecb38	-0.1550721
143	0x3d0e3c1a	0.034725286
144	0x3e341901	0.17587663
145	0xbc825463	-0.01590938
146	0xbe199cef	-0.15001272
147	0xbe7ef237	-0.24897085
148	0x3e8862cc	0.26637876
149	0x3d2adc29	0.041713867
150	0xbcbd74cf	-0.023126988
151	0x3e3b0b7e	0.18266103
152	0x3e07a172	0.1324518
153	0xbd34f9ab	-0.044183414
154	0xbdba1a15	-0.09087006
155	0x3dc6e3af	0.09711396
156	0xbe579b43	-0.21055321
157	0xbe5511d1	-0.20807578
158	0xbd5fbef8	-0.05462548
159	0xbe1e5721	-0.15462925
160	0xbe757f6b	-0.23974387
161	0xbe5dbe71	-0.21654679
162	0xbd39470e	-0.04523378
163	0xbe5ae216	-0.21375307
164	0xbe523142	-0.20526603
165	0x3e2f98a5	0.17148073
166	0xbda8e87e	-0.08247469
167	0xbe169f4a	-0.14709201
168	0xbdc706d7	-0.097181015
169	0xbaaea599	-0.0013324498
170	0x3e0f4491	0.13991
171	0xbe0621d3	-0.1309884
172	0xbe13869c	-0.14406818
173	0x3bb53fb5	0.005531276
174	0x3d12678b	0.035743278
175	0x3e4a2c4e	0.19743463
176	0x3e8eb5e8	0.27873158
177	0xbe1aae34	-0.15105516
178	0x3e5b635d	0.21424623
179	0x3c93a205	0.018021593
180	0xbe506e2b	-0.20354526
181	0xbe739881	-0.23788644
182	0x3c9e82d9	0.019349502
183	0x3dcfeeae	0.101529464
184	0x3e16e7e6	0.147369
185	0x3e2556e6	0.1614643
186	0xba99115e	-0.001167815
187	0x3db7f8f7	0.08983033
188	0x3d3df59e	0.046376817
189	0x3d82326a	0.06357272
190	0x3d358504	0.044316307
191	0xbd6296d4	-0.055319622
192	0xbe4510c5	-0.19244678
193	0x3e7c7d03	0.24657063
194	0x3b3ba2e8	0.0028631035
195	0x3e852335	0.26003423
196	0x3e65a160	0.22424841
197	0x3e1be927	0.1522566
198	0xbe66b6ed	-0.22530718
199	0x3e2dfd0a	0.16991058
200	0x3e1130d3	0.14178781
201	0xbe76e57d	-0.2411098
202	0x3d660967	0.05616131
203	0xbd0ac3b7	-0.033878054
204	0xbde00491	-0.10938371
205	0xbe4b8767	-0.1987587
206	0xbc952411	-0.018205674
207	0xbca99ac2	-0.020703677
208	0xbe142a49	-0.14469256
209	0xbe803fc0	-0.25048637
210	0x3e310668	0.172876
211	0x3d83435b	0.064093314
212	0x3e7f0eea	0.24908033
213	0x3d2c7b80	0.042109966
214	0xbcd6589c	-0.0261653
215	0x3df8270e	0.12116824
216	0x3d79f5fa	0.061025597
217	0x3e846f04	0.25865948
218	0xbde3c70d	-0.1112195
219	0x3d869530	0.06571424
220	0x3e57f476	0.21089348
221	0x3e2f8409	0.17140211
222	0x3e3299d1	0.17441489
223	0xbe21ef81	-0.1581402
224	0x3d66205e	0.05618321
225	0x3d07d8ee	0.033165865
226	0xbd4c1f86	-0.04983475
227	0xbdc1e8f4	-0.094682604
228	0x3e29f946	0.16598997
229	0x3e3118c7	0.17294608
230	0xbde0efa0	-0.10983205
231	0x3e11e2c8	0.14246666
232	0x3dd6b4d7	0.10483711
233	0x3e39b322	0.1813474
234	0x3e8a74f9	0.27042368
235	0x3e4996bc	0.19686407
236	0x3e83a02d	0.25708142
237	0x3d4ad3ca	0.049518384
238	0x3d893a55	0.06700579
239	0xbe0fd8d0	-0.14047551
240	0xbddeea67	-0.108845524
241	0x3e346a43	0.1761866
242	0x3ce0f126	0.027458739
243	0x3ce04e27	0.027381016
244	0xbe7732f7	-0.24140535
245	0xbbd656d9	-0.0065411148
246	0x3d8fc54e	0.07020055
247	0xbe22ae6c	-0.15886849
248	0x3dbab0b2	0.09115733
249	0xbe1f42c4	-0.15552813
250	0xbd271664	-0.040792838
251	0x3e2d10c6	0.1690093
252	0x3e2d3fe6	0.16918907
253	0x3d9693f2	0.07352437
254	0xbd4d3da9	-0.05010763
255	0xbd432385	-0.047641296

in_proj.bias f4 [64]
0	0xbc2f6e7e	-0.010707496
1	0xb9d08281	-0.00039770085
2	0x3b096021	0.0020961838
3	0xbb9262c2	-0.0044673393
4	0xb9ddde8f	-0.00042318224
5	0x3ab331a5	0.0013671411
6	0xbaf2dbb4	-0.0018528611
7	0x3aa20c63	0.0012363311
8	0xbbd0a537	-0.0063673514
9	0xbabaf5e4	-0.0014263955
10	0xbbd55bb0	-0.006511174
11	0x3b4bc701	0.0031093957
12	0xbbe0b927	-0.0068580094
13	0xba54a660	-0.000811195
14	0xbbaac164	-0.0052110422
15	0xba68bb98	-0.00088780513
16	0xbbd92f46	-0.00662795
17	0x3b8802d6	0.0041507287
18	0x3b87263e	0.004124432
19	0x3b98a581	0.0046584015
20	0xb94192b0	-0.0001846056
21	0x3b93d3bb	0.004511324
22	0x3b8b30b4	0.004247749
23	0xbb0b2d13	-0.0021236583
24	0x38f31b59	0.00011592237
25	0xbbd628f4	-0.0065356437
26	0xbb97355b	-0.0046145148
27	0x3b3ee684	0.0029129097
28	0x3a0eb896	0.00054443756
29	0xbb54a9f4	-0.0032449933
30	0xbbd6e636	-0.006558205
31	0x3b36f1fd	0.0027915232
32	0x3b3f6b93	0.0029208406
33	0xbbde8b5e	-0.006791516
34	0xbbaef6c7	-0.0053394767
35	0xbb9261b2	-0.0044672126
36	0x3b6860ec	0.003545816
37	0xbbe797cd	-0.0070676566
38	0xbae2de7c	-0.0017308737
39	0xbbd79fe8	-0.0065803416
40	0x3bdb7320	0.0066970736
41	0xbbcf9def	-0.006335966
42	0x3bfe6d30	0.007764481
43	0x3b82e316	0.003994356
44	0xbb6d25b6	-0.0036185808
45	0x3a69fded	0.00089260825
46	0x3c22b419	0.009930634
47	0x3b8db2f8	0.0043243133
48	0xb7770ff8	-1.4726065e-05
49	0xba6e7926	-0.0009097032
50	0x3b90ef16	0.0044230325
51	0x3b81a553	0.0039564758
52	0xbc080757	-0.008302531
53	0xbc0ca97b	-0.008585329
54	0x3b3554ea	0.002766902
55	0xbb81165e	-0.003939434
56	0x3b4ba865	0.0031075713
57	0x3b7d3bd7	0.0038640404
58	0xbbbcf8e7	-0.005766976
59	0xbb84f866	-0.0040579317
60	0xbb977566	-0.0046221493
61	0xb9c2b38c	-0.00037136336
62	0x3ac2671f	0.0014831758
63	0x3a9477b6	0.001132718

adapt.E1 f4 [3, 8]
0	0x3c35f4cb	0.0111057265
1	0x3c87e0bc	0.016586654
2	0x3c150527	0.009095467
3	0x3c706b40	0.014674008
4	0xbc28739d	-0.010281471
5	0x3c61ca0a	0.01378108
6	0xbb906cdc	-0.0044075083
7	0x3c370798	0.011171244
8	0xbbdf9d47	-0.006824169
9	0xbae55bff	-0.001749873
10	0xbb33e888	-0.0027451832
11	0x3ba8d16f	0.0051519196
12	0x38b4ca33	8.6207314e-05
13	0xbb19d483	-0.0023472614
14	0xbbbf1e01	-0.005832434
15	0xbab4b9f5	-0.001378833
16	0xbb9c84ba	-0.0047765644
17	0x3c0976ce	0.008390142
18	0x3a23b3c4	0.00062447437
19	0xbb872d57	-0.004125278
20	0xbc7130a5	-0.01472107
21	0x3c6b09ea	0.014345625
22	0x3bc267b6	0.0059327735
23	0x3c20fb73	0.009825575

adapt.E2 f4 [3, 8]
0	0xbb571baa	-0.0032822886
1	0x3c8776ae	0.016536083
2	0x3bb74411	0.005592831
3	0xbb8734df	-0.004126176
4	0x3affd9c3	0.0019519854
5	0xbc810bdc	-0.015752725
6	0x3c4636b7	0.012098006
7	0xbc7d1074	-0.015445817
8	0xbbacd554	-0.005274454
9	0xbc18c9b2	-0.009325432
10	0x3bb21fe0	0.0054359287
11	0xbc6abb0c	-0.014326822
12	0x3cb32fad	0.02187332
13	0x3c766a91	0.015040056
14	0xbbbb0d41	-0.005708367
15	0x3c2d0a57	0.010561547
16	0x3c18b917	0.009321473
17	0xbc2c87a2	-0.010530384
18	0x3bd607dd	0.006531699
19	0x3b423676	0.0029634512
20	0x3a5c8422	0.00084120233
21	0xb983a15c	-0.0002510649
22	0xb99c3c68	-0.00029799645
23	0xbc26ff94	-0.0101927705

support_mix.w_logits f4 [3]
0	0x3c2657c0	0.010152757
1	0xbc264284	-0.0101476945
2	0x3c262c72	0.0101424325

blocks.0.filter_conv.conv.weight f4 [64, 64, 1, 2]
0	0x3e02d021	0.12774707
1	0xbd9b4858	-0.07582158
2	0xbdc0cc15	-0.094139256
3	0x3d2940ff	0.04132175
4	0x3df78f5a	0.12087889
5	0xbc9fc9a6	-0.019505333
6	0xbd73f7d7	-0.05956253
7	0xbe01ae8d	-0.12664242
8	0xbc9261d1	-0.017868908
9	0x3db57cb2	0.08861674
10	0xbe038d3c	-0.12846845
11	0xbd882e8e	-0.066495046
12	0xbe03ae11	-0.1285937
13	0x3d5c1ec2	0.05374027
14	0x3ddb4880	0.10707188
15	0x3e1518ad	0.14560194
16	0x3e1d7ef5	0.15380462
17	0x3d8909f1	0.06691349
18	0x3cc8a851	0.024494322
19	0xbdaf923e	-0.08572815
20	0xbd922c1d	-0.0713732
21	0xbc5ff68b	-0.01366962
22	0x3dc5b8a8	0.09654361
23	0x3cf0bc11	0.029386552
24	0x3d411312	0.047137327
25	0xbdb48ac5	-0.08815531
26	0x3dc7ef31	0.09762419
27	0xbdf3ce34	-0.119045645
28	0x3ccbd302	0.02488089
29	0x3d587d41	0.052853826
30	0x3d8547d1	0.065078385
31	0xbc5f5a47	-0.013632364
32	0xbdabb771	-0.08384598
33	0xbc868b40	-0.016423821
34	0x3deda0a7	0.11602908
35	0x3ce5a344	0.028031953
36	0x3e146cec	0.14494675
37	0xbcda8a11	-0.026677163
38	0xbc0a9293	-0.008457798
39	0x3da21f2b	0.07916101
40	0x3c1fd303	0.009754899
41	0xbe14c3c5	-0.14527805
42	0x3dd2d1d6	0.10293929
43	0x3cc97932	0.024593923
44	0x3e040cb1	0.12895466
45	0x3e195d31	0.14976956
46	0x3daabc82	0.08336736
47	0x3de9bb11	0.11412633
48	0xbd96876f	-0.07350051
49	0xbd65d731	-0.056113426
50	0x3d0e297a	0.034707524
51	0xbd348698	-0.04407367
52	0xbd1c576a	-0.038169302
53	0xbd90f214	-0.07077423
54	0xbd813397	-0.06308668
55	0xbd764e12	-0.060133047
56	0xbb0a2aa8	-0.0021082554
57	0x3931e081	0.0001696367
58	0xbd8dcbc7	-0.06923633
59	0x3c9fb7ae	0.019496765
60	0xbe17db02	-0.14829639
61	0xbe0d84ec	-0.13820237
62	0xbdc04e47	-0.0938993
63	0xbe03bb82	-0.12864497
64	0xbdfa03e5	-0.12207774
65	0x3df6f125	0.120577134
66	0xbe0896cb	-0.13338773
67	0xbdca12ea	-0.09866889
68	0xbd9540f8	-0.072877824
69	0xbdddc9ee	-0.10829531
70	0x3ddd2033	0.10797157
71	0xbe10baa3	-0.14133696
72	0xbdc83254	-0.09775224
73	0xbde6e488	-0.112740576
74	0xbd7b622c	-0.06137292
75	0x3d3b2237	0.045686927
76	0x3e0113b0	0.12605166
77	0x3c06cf3d	0.00822812
78	0xbd8959d4	-0.067065865
79	0xbe0b44a2	-0.136004
80	0x3e015162	0.12628701
81	0xbdb7d8b9	-0.089768834
82	0x3c43fe13	0.0119624315
83	0xbd1b0d21	-0.037854318
84	0xbdad96b2	-0.084760085
85	0xbd9ea5c0	-0.07746458
86	0x3debc3a6	0.11511926
87	0x3d0a1814	0.03371437
88	0xbbbdee50	-0.0057962313
89	0x3d715f34	0.058928683
90	0xbe126dfa	-0.14299765
91	0xbe17da6d	-0.14829417
92	0xbe04db86	-0.12974367
93	0x3da90bbe	0.08254193
94	0x3c621f4c	0.013801407
95	0xbdcad342	-0.099035755
96	0xbe1c68df	-0.1527438
97	0xbd1915d7	-0.037374344
98	0x3decbaab	0.115590416
99	0xbd896809	-0.06709296
100	0xba8b16a4	-0.0010611606
101	0x3e05762f	0.13033365
102	0xbd1f102c	-0.038833782
103	0xbda8721e	-0.08224891
104	0xbdd499f4	-0.10380927
105	0x398034bb	0.0002445335
106	0x3d993082	0.07479955
107	0x3d379654	0.0448211
108	0x3a4e8a19	0.00078788545
109	0x3c9bc7fa	0.019016255
110	0xbdea7bee	-0.11449419
111	0x3dfc68f7	0.12324708
112	0x3dd74769	0.10511667
113	0xbdd2beee	-0.10290323
114	0xbd44ad22	-0.048016675
115	0x3d49b0c3	0.04924084
116	0xbdb37284	-0.087620765
117	0xbdc49c41	-0.096001156
118	0xbd073c43	-0.033016454
119	0xbdc789d3	-0.09743085
120	0xbd959d7f	-0.073054306
121	0xbdecc2eb	-0.11560615
122	0xbd99318a	-0.07480152
123	0x3dc5bc8a	0.096551016
124	0xbd092ced	-0.03349011
125	0x3ceef66e	0.029170241
126	0xbddb0a03	-0.10695269
127	0xbcb7b2ec	-0.022424184
128	0x3c789f73	0.015174734
129	0x3db5633b	0.08856817
130	0x3da54963	0.08070638
131	0x3d4bbbca	0.049739636
132	0x3cb7ed65	0.022452066
133	0xbe09d834	-0.13461381
134	0x3dfb3346	0.12265639
135	0xbe0874ba	-0.13325778
136	0x3e03bbee	0.12864658
137	0xbd5c8ac0	-0.05384326
138	0xba23dd2f	-0.00062509155
139	0xbe135a11	-0.14389826
140	0x3cf739c9	0.030178921
141	0x3bde3431	0.006781124
142	0xbdf55705	-0.11979488
143	0xbde2228d	-0.11041746
144	0x3d8aa7bd	0.06770275
145	0x3d3820c3	0.04495312
146	0xbd64a4aa	-0.0558211
147	0x3cac220c	0.021012329
148	0x3c20e48e	0.009820117
149	0xbce617aa	-0.028087456
150	0x3e0ae9a7	0.13565694
151	0xbd073629	-0.033010636
152	0x3d94e6fb	0.072706185
153	0x3d43c94b	0.04779939
154	0xbda82838	-0.08210796
155	0xbdb8caf9	-0.09023089
156	0x3e024e04	0.12725073
157	0x3d18c2e7	0.03729525
158	0x3d787ef1	0.060667936
159	0x3ccac46f	0.02475187
160	0x3ddaedf0	0.10689914
161	0xbd947436	-0.07248728
162	0xbe0da3ce	-0.13832018
163	0x3d2f4f7a	0.042800404
164	0xbe10cae3	-0.14139895
165	0xbdaa55ee	-0.08317171
166	0xbd74ae0b	-0.059736293
167	0x3de1a088	0.11016947
168	0xbdba0262	-0.09082486
169	0xbdab2007	-0.08355718
170	0xbe019778	-0.12655437
171	0x3c168c4a	0.009188721
172	0xbd9aa0f1	-0.075502284
173	0xbe073cea	-0.1320683
174	0x3d9db3a2	0.07700278
175	0xbdaf563e	-0.08561371
176	0xbe1a3e91	-0.1506293
177	0xbdb5ff2b	-0.0888656
178	0x3d5b688c	0.0535665
179	0x3e1aaf3e	0.15105912
180	0x3cdf85c0	0.027285457
181	0x3c82e24c	0.015977047
182	0xbd044aef	-0.032298025
183	0xbbafb2db	-0.0053618974
184	0xbd9766c9	-0.073926516
185	0x3c8181d8	0.015808985
186	0xbe0c785c	-0.13717788
187	0xbdda0a14	-0.106464535
188	0x3e1dc6b3	0.15407829
189	0xbdc21933	-0.094774626
190	0x3e0236a6	0.12716159
191	0xbd008d29	-0.03138462
192	0xbb9f81f4	-0.0048677865
193	0xbe187dfa	-0.14891806
194	0x3d8e68ff	0.0695362
195	0x3bc5850f	0.0060278247
196	0xbab1bf1b	-0.0013560982
197	0xbd7ac2c1	-0.061220888
198	0x3cc58267	0.024110032
199	0x3d08bf29	0.03338543
200	0xbe04e6b7	-0.12978636
201	0x3ba47a82	0.005019487
202	0xbd4cac54	-0.049969032
203	0xbc3b82f7	-0.011444799
204	0xbe0462b4	-0.12928277
205	0xbdbebb5c	-0.0931308
206	0x3d505033	0.050857734
207	0xbe0c542e	-0.13703987
208	0xbda08185	-0.07837204
209	0xbd8e9d75	-0.06963626
210	0xbbf484b4	-0.0074621085
211	0xbe057218	-0.13031805
212	0xbdf970bf	-0.12179708
213	0x3d0bdd27	0.034146454
214	0xbdbc4d65	-0.09194449
215	0xbd90ee0e	-0.07076655
216	0xbd67a192	-0.05655057
217	0x3ddd2f70	0.108000636
218	0xbd02ae52	-0.031904526
219	0x3c8b83d0	0.017030627
220	0xbc5155bd	-0.012776789
221	0xbdc2ecef	-0.09517848
222	0xbd532891	-0.05155236
223	0xbe09af3e	-0.13445756
224	0xbdf0bdaf	-0.11754929
225	0x3db69031	0.08914221
226	0x3d4b4000	0.049621582
227	0xbd75bb63	-0.05999316
228	0xb7b672b0	-2.1749496e-05
229	0xbd94a498	-0.07257956
230	0x3df18014	0.11792007
231	0xbca89c1e	-0.020582255
232	0xbdea53ce	-0.11441766
233	0x3d94e84d	0.0727087
234	0xbd6c3493	-0.057667326
235	0xbda1fb9d	-0.079093195
236	0x3dd4cd17	0.1039068
237	0x3e026c87	0.12736712
238	0xbd2c6115	-0.042084772
239	0xbca7b429	-0.02047165
240	0x3e048544	0.12941462
241	0xbd3cc324	-0.046084538
242	0x3b95c27c	0.0045703035
243	0xbdba683c	-0.091019124
244	0x3da7c3d1	0.08191646
245	0x3d3a4621	0.045477036
246	0x3de96fa3	0.11398246
247	0x3d9da755	0.07697932
248	0x3d3e6f6a	0.04649297
249	0x3d9588ff	0.073015206
250	0xbd39d2cb	-0.045367043
251	0xbe150fc1	-0.14556791
252	0xbe1dc796	-0.15408167
253	0xbe020e3c	-0.12700742
254	0x3c0461e4	0.00807998
255	0x3d308a08	0.043100387

blocks.0.filter_conv.conv.bias f4 [64]
0	0x3b5d2d55	0.0033748944
1	0xbbd105f7	-0.006378885
2	0x3b802659	0.0039108214
3	0xbbafaa20	-0.0053608567
4	0xba78207d	-0.00094652903
5	0x3b229b18	0.0024811681
6	0xbbb1c4b5	-0.0054250606
7	0x3956019c	0.0002040923
8	0xbb526964	-0.0032106275
9	0xbb8220e8	-0.003971208
10	0xba841a67	-0.0010078669
11	0x39af6d94	0.00033460243
12	0xbb98940d	-0.004656321
13	0x3a2830e8	0.0006415979
14	0xbbc7ef78	-0.006101545
15	0x3a84b91a	0.0010125965
16	0xba873481	-0.001031533
17	0xbaa8854b	-0.0012857107
18	0xbb6e596c	-0.0036369218
19	0xbb4c37d6	-0.003116121
20	0x3c2a33a0	0.010388285
21	0x39dad25c	0.0004173693
22	0x3b2b6d58	0.0026157703
23	0x3b8ec24e	0.004356659
24	0x3bad16d6	0.0052822633
25	0xbb9720a7	-0.0046120468
26	0x3bf892a4	0.0075858403
27	0x3b01a41e	0.001978166
28	0x3b266466	0.0025389432
29	0x3b266bed	0.0025393919
30	0x3c0167b2	0.007898258
31	0x3bf9bf2f	0.007621668
32	0x3af9d405	0.0019060379
33	0xbaaa8c9e	-0.0013011878
34	0x3b27b0f0	0.002558764
35	0x3b8c357d	0.0042788372
36	0x3b76ae0b	0.0037640359
37	0xba922e3f	-0.0011152698
38	0xbb138a92	-0.0022513014
39	0x3b50b71a	0.0031847418
40	0xbb6bbacc	-0.0035969494
41	0xbbfdeb44	-0.007748993
42	0x3b82ca3a	0.0039913924
43	0xbb3669eb	-0.0027834128
44	0x3b552964	0.0032525891
45	0x3bbae9ec	0.005704155
46	0x3b03ee08	0.0020130891
47	0x3c31215b	0.010811175
48	0xbb118541	-0.002220467
49	0x3bfff6f1	0.00781142
50	0x3b37773f	0.002799466
51	0xbb3e4341	-0.0029031786
52	0x3b45c43e	0.0030176784
53	0xbb965c4e	-0.0045886403
54	0x3ba497ae	0.0050229644
55	0xbb219bdc	-0.002465955
56	0xbc1765eb	-0.009240608
57	0xbb8463ea	-0.004040231
58	0x3b3e7fca	0.0029067867
59	0x3bc9b04c	0.0061550494
60	0x3b3e80e0	0.0029068515
61	0xbb235a5e	-0.002492569
62	0x3bf01785	0.0073270225
63	0xba753775	-0.0009354272

blocks.0.gate_conv.conv.weight f4 [64, 64, 1, 2]
0	0xbded87da	-0.11598177
1	0xbd81a9bc	-0.063312024
2	0xbc9565f9	-0.0182371
3	0x3e0a38ba	0.13498202
4	0xbcc35d8c	-0.023848318
5	0xbdfc36c1	-0.12315131
6	0x3ddcaa82	0.10774709
7	0x3d8df62a	0.06931718
8	0x3da9dc91	0.08294023
9	0xbe0c786d	-0.13717814
10	0x3d06f137	0.032944884
11	0x3c79d8d0	0.015249446
12	0xbe1196a3	-0.1421762
13	0x3ddabb3e	0.10680245
14	0x3e1cd7dd	0.1531672
15	0xbd62b0e4	-0.055344477
16	0xbd0f7192	-0.03502042
17	0x3dc380f3	0.095460795
18	0x3d897d5f	0.06713366
19	0xbddff09e	-0.10934566
20	0x3dbcbe9b	0.092160426
21	0xbdfd3baf	-0.12364899
22	0xbde3759e	-0.11106418
23	0x3dadad75	0.0848035
24	0xbdc082c6	-0.09399943
25	0x3d9037fe	0.0704193
26	0x3d10a02b	0.035308998
27	0x3d4e7ff3	0.05041499
28	0xbda23364	-0.07919958
29	0x3c4acbee	0.012377722
30	0x3d8c3198	0.06845397
31	0x3d3dd51e	0.046345823
32	0x3d46e297	0.048555937
33	0x3d656490	0.056004107
34	0xbda2aea0	-0.07943463
35	0xbd264437	-0.0405924
36	0xbe04ff31	-0.12987973
37	0xbaca3931	-0.0015428421
38	0xbdae5870	-0.08512962
39	0x3da88d29	0.08230049
40	0xbd273a27	-0.040826943
41	0xbe1ff290	-0.15619874
42	0xbdbac1ef	-0.09119021
43	0xbde0f19e	-0.10983585
44	0x3dafed5e	0.08590196
45	0xbd86ade8	-0.06576139
46	0xbc62507b	-0.013813133
47	0x3ddf7dad	0.10912643
48	0x3e0ccb58	0.13749444
49	0xbe0fe93e	-0.14053819
50	0x3bb3b420	0.005484119
51	0xbcb951cc	-0.022622012
52	0x3d47b91c	0.04876052
53	0x3da0a0e0	0.078431845
54	0xbc8396a7	-0.016063048
55	0x3e013deb	0.12621276
56	0xbe0108b5	-0.12600978
57	0xbe1641fb	-0.14673607
58	0xbcbb6d6c	-0.022879325
59	0x3bba954d	0.0056940676
60	0xbcfa62a9	-0.030564623
61	0xbe08c9fb	-0.133583
62	0x3d47370b	0.048636477
63	0xbd261bb9	-0.040553782
64	0xbc71382f	-0.014722868
65	0x3e1fc914	0.15604049
66	0x3de815d5	0.11332289
67	0x3df0da9d	0.11760447
68	0x3e15629e	0.145884
69	0xbdfc517d	-0.1232023
70	0xbdffcecc	-0.12490615
71	0xbe04b622	-0.12960103
72	0x3dc5ae46	0.09652381
73	0xbdf24450	-0.11829436
74	0xbd97cc79	-0.07412047
75	0x3d6195b1	0.055074397
76	0xbddfa763	-0.10920598
77	0xbdc4cac0	-0.09608984
78	0xbdde0329	-0.108404465
79	0x3ca0ec48	0.019643918
80	0xbd9cebcd	-0.07662163
81	0x3d8008de	0.06251691
82	0x3dca82ac	0.09888205
83	0xbd8cad39	-0.06868977
84	0x3dcc1105	0.09964184
85	0xbc9aea2b	-0.018910488
86	0x3dc5214f	0.09625494
87	0xbe04fdb8	-0.12987411
88	0xbe05aead	-0.13054915
89	0xbcca9116	-0.024727385
90	0x3db9faae	0.090810165
91	0x3d90c759	0.070692725
92	0xbdf829a3	-0.121173166
93	0x3d6b0b09	0.05738357
94	0x3e0806a0	0.13283777
95	0xbd8ef9bf	-0.06981229
96	0x3df59508	0.11991316
97	0xbdda877a	-0.10670371
98	0xbe03666d	-0.12832041
99	0xbda70890	-0.0815593
100	0x3d5ea986	0.05436089
101	0xbd8a3fee	-0.06750475
102	0x3d9919a1	0.074755915
103	0xbd4544fd	-0.048161495
104	0xbdc669d6	-0.09688155
105	0xbb13570f	-0.002248231
106	0xbdb62bcf	-0.088950746
107	0x3c69dfb8	0.01427453
108	0xbd199cfc	-0.037503228
109	0x3d160cbf	0.03663325
110	0xbd210460	-0.039310813
111	0xbcb879bc	-0.022518985
112	0x3d26dd31	0.04073829
113	0xbd8ce71f	-0.0688002
114	0xbd1f3ef3	-0.038878392
115	0x3d4b1111	0.049576823
116	0x3dc61679	0.09672255
117	0xbdc85f59	-0.09783811
118	0x3db0d105	0.08633617
119	0xbdf38a9e	-0.118916735
120	0x3db16f30	0.086637855
121	0x3d8d92cc	0.06912765
122	0x3dcf8ecb	0.101346575
123	0xb9aea851	-0.00033313272
124	0x3ded7ce5	0.11596087
125	0x3b5b67fa	0.0033478723
126	0xbdfd022e	-0.12353931
127	0xbdf222a9	-0.11823017
128	0x3c973edf	0.018462596
129	0xbdf675c9	-0.120341845
130	0xbd9c3580	-0.07627392
131	0x3e07bcbb	0.13255589
132	0xbde7be42	-0.11315586
133	0xbd8c7cab	-0.06859716
134	0xbd872727	-0.065992646
135	0xbe0b0603	-0.13576512
136	0x3db5ecfa	0.0888309
137	0xbdf13a17	-0.11778658
138	0xbdbb12ac	-0.09134421
139	0xbd1664df	-0.036717292
140	0x3d87c183	0.06628706
141	0xbddc34de	-0.10752271
142	0xbdab966f	-0.08378302
143	0xbda14648	-0.07874733
144	0xbdf7be30	-0.12096822
145	0xbdfd1c4a	-0.12358911
146	0x3e0d6cf5	0.13811095
147	0x3d30cc47	0.043163564
148	0x3e06b247	0.13153945
149	0x3cac0ff5	0.021003703
150	0xbc99db22	-0.018781248
151	0xbd9461d9	-0.072452255
152	0xbe0cefac	-0.13763303
153	0x3d3fc43d	0.046818007
154	0x3d89d4a3	0.0673001
155	0x3cac92ad	0.021066034
156	0xbdf94263	-0.121708654
157	0x3d33465f	0.043768283
158	0xbb8828f3	-0.004155272
159	0xbd2c6437	-0.04208776
160	0x3df9bcf0	0.1219424
161	0xbc37acd8	-0.011210643
162	0x3de06ac4	0.10957864
163	0xbe2310db	-0.15924399
164	0xbceec9d7	-0.02914898
165	0x3caa4cea	0.020788629
166	0xbd5cfe95	-0.053953726
167	0xbdc79dc8	-0.09746891
168	0xbe1dcdde	-0.15410563
169	0xbbc562ef	-0.0060237567
170	0xbdefa346	-0.11701064
171	0x3d9e6b67	0.07735329
172	0xbe0f15da	-0.1397318
173	0x3c8c4815	0.017124215
174	0x3d8c70a8	0.06857425
175	0xbe128493	-0.14308386
176	0x3e0ea600	0.13930511
177	0xbdf7fcc4	-0.12108758
178	0x3d8b01ee	0.067874774
179	0x3d5e0a06	0.054208778
180	0x3d778a23	0.06043447
181	0x3e1a6382	0.15077022
182	0xbdb4077a	-0.087904885
183	0x3d99b8a9	0.07505924
184	0xbdc75bb3	-0.09734287
185	0x3da836b6	0.0821356
186	0xbc839a42	-0.016064767
187	0x3a9007a2	0.0010988603
188	0x3e00b1e7	0.12567864
189	0xbd826e64	-0.063687116
190	0xbb487d65	-0.003059232
191	0xbdfb20d9	-0.122621246
192	0xbd0640f9	-0.032776807
193	0x3ceda7f8	0.029010758
194	0x3d20ac96	0.03922709
195	0xbd5db383	-0.054126274
196	0x3e1006d5	0.14065106
197	0xbd3371dd	-0.04380976
198	0xbd36a535	-0.044591147
199	0x3d883494	0.066506535
200	0x3c60e09c	0.013725426
201	0x3d7295d6	0.059224926
202	0x3e01e950	0.12686658
203	0x3e043f7a	0.1291484
204	0x3dcc8d84	0.099879295
205	0x3d123c65	0.035702128
206	0xbe151768	-0.1455971
207	0xbe00596b	-0.1253411
208	0xbc10448d	-0.008805406
209	0x3d0e1296	0.034685694
210	0xbe1ebe46	-0.15502271
211	0x3d80b3ec	0.062843174
212	0x3bab3dee	0.0052258885
213	0xbdbdebec	-0.09273514
214	0x3e16b108	0.1471597
215	0xbd0580ac	-0.032593414
216	0x3cefbec9	0.029265778
217	0xbbf8fac8	-0.007598255
218	0xbb7abd49	-0.0038259795
219	0x3dbe9f39	0.09307713
220	0xbbaa33f2	-0.0051941806
221	0xbcdb3244	-0.026757367
222	0x3db7bf31	0.08972014
223	0xbde8f06c	-0.11373982
224	0xbd8dc605	-0.06922535
225	0xbe1dd85b	-0.15414564
226	0x3d70821e	0.05871784
227	0xbdfd8ad8	-0.12379998
228	0xbe071fd3	-0.13195734
229	0xbdb2f82a	-0.0873874
230	0x3cd026b0	0.025409073
231	0x3e016376	0.12635598
232	0xbd89e776	-0.06733601
233	0xbdc0a40e	-0.09406291
234	0xbda963f5	-0.082710184
235	0xbdab81d7	-0.08374374
236	0x3dfcd558	0.123453796
237	0x3d43042c	0.0476114
238	0xbdc04234	-0.09387627
239	0xbdb6c621	-0.08924509
240	0xbc8a79e2	-0.016903821
241	0x3df1f8b9	0.11815018
242	0xbbe493f4	-0.006975645
243	0x3d99ebcf	0.0751568
244	0xbd165cbd	-0.036709536
245	0xbd89ba19	-0.067249484
246	0x3d997bf9	0.07494349
247	0xbd5e8394	-0.0543247
248	0x3dad7aea	0.084707096
249	0x3e18cb8d	0.14921398
250	0xbd739cd6	-0.059475742
251	0xbde2d2e6	-0.11075382
252	0xbca68b90	-0.02033022
253	0x3ca9e972	0.020741198
254	0x3c117641	0.008878292
255	0xbe0173e1	-0.1264186

blocks.0.gate_conv.conv.bias f4 [64]
0	0xba631299	-0.0008662134
1	0xbbb14ec7	-0.0054110023
2	0x3c455466	0.012044048
3	0xbbc3d5e7	-0.005976427
4	0x3c28811a	0.010284686
5	0x3b37c3af	0.002804022
6	0xbbc9f9ea	-0.0061638253
7	0xbc42d81d	-0.011892346
8	0x3bcd575f	0.006266519
9	0x3bea53b1	0.00715109
10	0xbaf11cf0	-0.0018395465
11	0xbc1b4691	-0.009477274
12	0x3c1d451f	0.009598999
13	0xbb805851	-0.003916778
14	0xbb8d2712	-0.004307636
15	0xbba6d889	-0.005091731
16	0x3c1ffaab	0.009764354
17	0x39837c38	0.00025078817
18	0x3bdd9134	0.0067616943
19	0x3be75b46	0.007060441
20	0xbc2ef45a	-0.010678375
21	0xbbab77f7	-0.005232807
22	0x3b6e606a	0.0036373385
23	0xbb928494	-0.004471371
24	0xbbf87e81	-0.00758344
25	0x3bf1e9c2	0.0073826024
26	0xbba68bb0	-0.00508257
27	0x3c34841d	0.011017826
28	0x3b6e6a69	0.0036379343
29	0x3bca0852	0.0061655426
30	0x39ff2464	0.00048664503
31	0x3c425d19	0.0118630165
32	0xbb002077	-0.00195506
33	0x3c0a8995	0.008455654
34	0x3b9b1108	0.004732255
35	0xbb092a61	-0.00209298
36	0x3b90d6a4	0.0044201184
37	0xb87fa7a8	-6.095288e-05
38	0xba83463d	-0.001001544
39	0xbb389438	-0.0028164517
40	0x3af9ae81	0.0019049199
41	0x3b2e050b	0.0026553299
42	0x3c82e67b	0.015979042
43	0x3c48b86c	0.012251001
44	0xbc0df3be	-0.00866407
45	0x3ab5df44	0.0013875742
46	0x3bec590a	0.0072127627
47	0x3b80a5fc	0.003926037
48	0xbbacf787	-0.005278531
49	0x3b92a75a	0.0044755163
50	0xbc11b711	-0.008893744
51	0xba817cda	-0.0009879128
52	0xbb87fe92	-0.00415022
53	0xbb815501	-0.003946901
54	0x3bee79a6	0.007277685
55	0x3bce6ab2	0.00629934
56	0xbb661917	-0.003511017
57	0x3c03035c	0.007996406
58	0xbc005ac6	-0.007834142
59	0x39eea390	0.0004551676
60	0x3992bf0a	0.00027989625
61	0x3b40e78a	0.0029434883
62	0xbafd7e98	-0.0019340096
63	0xbc0e1bea	-0.008673647

blocks.0.residual_conv.weight f4 [64, 64, 1, 1]
0	0xbe0f4a2c	-0.13993138
1	0xbe473886	-0.19455156
2	0xbd09128d	-0.033464957
3	0x3db62668	0.08894044
4	0x3dc26b3b	0.09493109
5	0xbcfed00f	-0.03110507
6	0x3e14b978	0.14523876
7	0x3e378464	0.17921597
8	0x3d516253	0.05111916
9	0x3d917d9d	0.07104037
10	0xbe049e15	-0.12950929
11	0x3db4599d	0.08806155
12	0xbe31a264	-0.17347103
13	0xbe4449ce	-0.19168779
14	0xbd2cf8c0	-0.042229414
15	0x3e152c5e	0.14567706
16	0x3e4eb8d2	0.20187691
17	0x3d181c35	0.037136275
18	0xbe20e9b9	-0.15714158
19	0x3e0a019d	0.13477178
20	0x3c198744	0.009370629
21	0xbd4b9503	-0.049702656
22	0xbe0d8791	-0.13821246
23	0xbe2f738e	-0.17133924
24	0xbc3e6062	-0.011619659
25	0xbd5140b1	-0.051087085
26	0x3dfa7e7c	0.12231156
27	0x3dcf163c	0.10111663
28	0x3d19a1a7	0.03750768
29	0xbe4f0834	-0.20217973
30	0xbe08f449	-0.13374437
31	0xbe059c83	-0.13047986
32	0x3d81d02a	0.06338532
33	0xbd9b5055	-0.075836815
34	0x3d81a3a9	0.06330044
35	0x3cc618a7	0.024181677
36	0xbdd7de60	-0.105404615
37	0x3d0bfb03	0.03417493
38	0x3e3ce2d7	0.18445908
39	0x3e4d03f8	0.20021045
40	0x3e565d39	0.20933999
41	0xbe43b539	-0.191121
42	0xbe1f33c4	-0.15547091
43	0xbe301414	-0.17195159
44	0xbe302c4b	-0.17204396
45	0xbcfd2290	-0.03090027
46	0x3dca90d9	0.09890909
47	0x3e1d0750	0.15334821
48	0xbd70904a	-0.058731355
49	0xbd042b18	-0.03226766
50	0xbcf1651c	-0.029467158
51	0xbe18ca59	-0.1492094
52	0xbe1c443e	-0.15260407
53	0xbe18a2e5	-0.1490589
54	0xbe467550	-0.19380689
55	0xbe1d6a12	-0.15372494
56	0xbd9ba140	-0.07599115
57	0x3cb38798	0.021915242
58	0xbcc2738a	-0.023736734
59	0x3ce14bf3	0.027502036
60	0x3e2a3b0d	0.16624089
61	0xbdf4c3e3	-0.11951425
62	0xbc867cda	-0.016416956
63	0xbe04b6e9	-0.129604
64	0x3dfb5277	0.12271588
65	0xbe106e74	-0.14104635
66	0x3d0ae576	0.033910237
67	0xbd820da6	-0.063502595
68	0xbe268c52	-0.16264465
69	0x3b587156	0.0033026538
70	0xbe1decc1	-0.15422346
71	0xba9cf413	-0.0011974595
72	0x3cf1a293	0.029496467
73	0xbe098b8f	-0.13432144
74	0x3e12374d	0.14278908
75	0xbdddae0d	-0.10824213
76	0x3e4f51f6	0.2024611
77	0xbe295b96	-0.16538844
78	0x3d955deb	0.07293304
79	0xbdbe0dd3	-0.092799805
80	0x3e37edd4	0.17961818
81	0xbda0c558	-0.0785014
82	0xbe4591c5	-0.19293888
83	0x3e41c34f	0.1892216
84	0x3cc107e3	0.023563331
85	0xbe42afd6	-0.19012389
86	0x3dfed1a9	0.12442333
87	0x3e2d0ba8	0.16898978
88	0x3dfb33e1	0.122657545
89	0xbd0320a6	-0.032013558
90	0xbe509c62	-0.20372155
91	0xbdfd492f	-0.12367474
92	0x3e30872a	0.17239061
93	0xbe5ee2fc	-0.21766275
94	0xbdb657b4	-0.08903447
95	0x3e5962e3	0.21229129
96	0xbe45d1bb	-0.19318287
97	0x3e0ee9d2	0.13956383
98	0xbd9b0b03	-0.0757046
99	0x3d7667c1	0.06015754
100	0x3e4c85e7	0.19972955
101	0x3e1fac0d	0.15592976
102	0x3c6786bc	0.014131244
103	0xbe318dad	-0.17339201
104	0xbe3f9215	-0.1870807
105	0xbc8e8a25	-0.017399857
106	0xbe5631d4	-0.20917445
107	0xbe1d9164	-0.15387493
108	0xbdc6d64e	-0.09708844
109	0xbdb46f01	-0.08810235
110	0x3db1416a	0.08655055
111	0x3d62fd43	0.05541731
112	0x3e498eeb	0.19683425
113	0x3da1fad6	0.07909171
114	0x3d1425a6	0.036168717
115	0xbdb8ab74	-0.09017077
116	0xbddc5ac1	-0.107594974
117	0x3db606af	0.088879935
118	0x3e2a9a79	0.16660489
119	0x3c97cbb2	0.018529747
120	0xbe149e05	-0.14513405
121	0x3d009938	0.03139612
122	0xbe06d6fe	-0.1316795
123	0x3d9f1018	0.077667415
124	0x3cbc0ac4	0.022954352
125	0xbd62c62b	-0.05536477
126	0xbdd4aa24	-0.10384014
127	0x3d935e6a	0.071957424
128	0xbdd9dcb2	-0.106377974
129	0xbe56f4c5	-0.2099181
130	0xbe076d13	-0.13225202
131	0xbd889d65	-0.066706456
132	0x3d9a3803	0.07530215
133	0x3e3c9f68	0.18420184
134	0xbe227a36	-0.15866932
135	0x3d2e9f67	0.042632487
136	0xbb80f88a	-0.003935878
137	0x3e0fbddd	0.14037271
138	0x3e3438e9	0.17599835
139	0x3d509541	0.05092359
140	0xb9eea5da	-0.00045518467
141	0x3e470ee4	0.19439274
142	0xbe0eb4db	-0.13936178
143	0xbc7cfa56	-0.015440544
144	0x3e47cc67	0.19511567
145	0xbe4841a4	-0.1955629
146	0x3d30fe71	0.043211404
147	0xbd22e752	-0.039771385
148	0xbd97d9db	-0.074145995
149	0xbdb5b90e	-0.08873187
150	0xbd2f2c19	-0.042766664
151	0x3d016818	0.031593412
152	0xbd34c64b	-0.04413442
153	0x3aa0273f	0.0012218727
154	0xbe3b285b	-0.18277113
155	0x3d9a3525	0.07529668
156	0x3c25b6bc	0.010114368
157	0x3e083e91	0.13305117
158	0xb7ff8ae2	-3.0463041e-05
159	0x3e450881	0.19241525
160	0xbe043e71	-0.12914445
161	0xbcac09a0	-0.021000683
162	0xbe517f1f	-0.20458649
163	0x3e2ed7f1	0.17074563
164	0xbe0db326	-0.13837871
165	0xbe621742	-0.22079185
166	0x3e434611	0.19069697
167	0x3df5b008	0.11996466
168	0x3e357572	0.17720583
169	0xbdef2b2f	-0.116781585
170	0xbd651ed0	-0.05593759
171	0xbe2dbf0d	-0.16967411
172	0x3e0c9bcd	0.13731308
173	0x3dd3e974	0.10347262
174	0x3e0900fc	0.13379282
175	0x3e374c2c	0.17900151
176	0xbe01f7ab	-0.12692134
177	0x3e13cf74	0.14434606
178	0x3e39f552	0.18159989
179	0xbe0376c9	-0.12838282
180	0x3e08b1d1	0.13349082
181	0xbdc15fdc	-0.09442112
182	0xbe198470	-0.14991927
183	0xbe0a6ce8	-0.13518107
184	0x3d26d2a6	0.040728234
185	0x3dde4f1e	0.10854934
186	0xbd83eec7	-0.064420275
187	0x3c92a1bd	0.017899388
188	0x3cce99cd	0.025219822
189	0xbe11a862	-0.14224389
190	0x3de1867f	0.11011981
191	0x3e328d99	0.17436828
192	0xbd21eb27	-0.0395309
193	0x3e02ec1b	0.1278538
194	0x3e177d46	0.14793882
195	0x3e16da9e	0.14731833
196	0xbd64f212	-0.05589492
197	0x3de78d66	0.113062665
198	0x3d5586e0	0.05213058
199	0xbe0ce025	-0.1375738
200	0x3d569ab6	0.052393638
201	0x3d92c6a2	0.071667925
202	0xbe5a4503	-0.21315388
203	0x3e278ffe	0.16363522
204	0xbd4f7a61	-0.05065382
205	0x3ccf79d0	0.02532664
206	0x3e159071	0.14605881
207	0x3e10715b	0.14105742
208	0xbdffe9a7	-0.124957375
209	0xbe0506b1	-0.12990834
210	0xbda09b51	-0.07842124
211	0xbe5383e3	-0.2065578
212	0x3c98acb9	0.018637048
213	0x3e091e57	0.1339048
214	0x3d3057a4	0.04305233
215	0x3cf1dc8b	0.029524108
216	0xbde04260	-0.1095016
217	0x3e3d72bd	0.185008
218	0x3e1bea30	0.15226054
219	0xbdc79f36	-0.09747164
220	0x3e031fb5	0.12805064
221	0xbdde8d40	-0.10866785
222	0xbd471816	-0.048606955
223	0xbe35b324	-0.17744118
224	0x3d274b70	0.040843427
225	0x3dfd3a00	0.12364578
226	0x3e3a9b3b	0.18223278
227	0x3d350f26	0.0442039
228	0xbcb87739	-0.022517787
229	0x3cbdc2cd	0.023164177
230	0x3dec8a4a	0.11549814
231	0xbcd2a6b8	-0.025714263
232	0x3be9e755	0.0071381726
233	0xbb456d73	-0.0030125051
234	0x3b128b5b	0.0022360894
235	0xbe1f90cc	-0.1558258
236	0xbd5ece97	-0.05439624
237	0x3e05b5a0	0.13057566
238	0x3e103e7e	0.14086339
239	0xbdb6de46	-0.08929114
240	0x3d64053a	0.055669047
241	0xbc2d08dd	-0.010561195
242	0xbe4df968	-0.20114672
243	0xbdc4844d	-0.09595547
244	0x3e1973dc	0.14985603
245	0x3d966c1a	0.073448375
246	0x3e296290	0.16541505
247	0x3dfe3e64	0.12414244
248	0x3e4a909e	0.1978173
249	0x3defc761	0.117079504
250	0xbe007341	-0.12543966
251	0xbe01cfae	-0.1267688
252	0x3e5749d0	0.21024251
253	0xbda9962d	-0.08280597
254	0x3da1c948	0.078997195
255	0xbd7dd3a6	-0.06196942

blocks.0.residual_conv.bias f4 [64]
0	0x3bda2215	0.006656895
1	0xbbb3f4bb	-0.0054918206
2	0xbbb38f7b	-0.0054797507
3	0x3c8e2178	0.017349944
4	0x3b4788fc	0.003044664
5	0xbc550b49	-0.013003179
6	0x3c708ecd	0.014682484
7	0xbc346d3e	-0.0110123735
8	0x3a02e4cb	0.0004993199
9	0x3c0b0d1c	0.008487012
10	0x3c690a2d	0.0142236175
11	0xbb89d721	-0.0042065536
12	0x381f11fd	3.7925307e-05
13	0x3c8ac2d4	0.016938604
14	0x3b1b4f51	0.00236984
15	0x3c963ddd	0.018340046
16	0x3c967760	0.01836747
17	0x39987518	0.0002907894
18	0x3b141e12	0.002260093
19	0xbbc5ab8c	-0.006032413
20	0xbc12468a	-0.008927951
21	0x3b6fc55f	0.0036586148
22	0xbb56d1e6	-0.0032778918
23	0x3c5b12f8	0.013371222
24	0x3c952b0c	0.018209003
25	0xbc119f52	-0.008888083
26	0x3bae96c5	0.0053280317
27	0x3c1ae8fe	0.009454964
28	0xbb8a7ab1	-0.0042260517
29	0xbc5aacb0	-0.013346836
30	0x3bbe5f09	0.005809669
31	0x3c0ded44	0.008662526
32	0xbbc02c4d	-0.005864656
33	0xbba53436	-0.0050416244
34	0x383f456a	4.5602595e-05
35	0x3a2a43e9	0.0006495105
36	0x382f41e3	4.1784613e-05
37	0xbc547dfd	-0.012969491
38	0x3c07d37a	0.008290166
39	0x3a984226	0.0011616393
40	0xbb957e5c	-0.0045621824
41	0x3c10b807	0.008832938
42	0x3c879091	0.016548427
43	0x3babc942	0.0052424977
44	0xbb7b1b01	-0.0038315656
45	0xbc1510db	-0.009098257
46	0x3a58f648	0.0008276445
47	0xba64cefa	-0.00087283517
48	0xbb0c90f1	-0.0021448696
49	0x3bd88b94	0.006608436
50	0x3b0b01ee	0.0021210867
51	0xbae502dd	-0.0017472167
52	0xbc012415	-0.007882138
53	0xbb53c947	-0.0032316016
54	0x3ba76d53	0.005109468
55	0x3af43f74	0.0018634633
56	0xbc6244c4	-0.01381034
57	0xb9a99004	-0.00032341492
58	0x3bdb72a4	0.006697016
59	0xbca03368	-0.019555762
60	0x3bbe5ede	0.005809649
61	0xb6db7198	-6.5399327e-06
62	0xbb9b50be	-0.00473985
63	0xbadcfadb	-0.0016859429

blocks.0.skip_conv.weight f4 [128, 64, 1, 1]
0	0xbd830052	-0.063965455
1	0x3db869a8	0.09004527
2	0xbbdd4304	-0.0067523737
3	0xbc13c564	-0.00901923
4	0x3ded6477	0.11591428
5	0xbd0f27c6	-0.03495004
6	0x3df9ff3d	0.12206886
7	0x3e14d551	0.14534499
8	0x3e2cefa6	0.16888294
9	0x3c952135	0.01820431
10	0x3dcf54d9	0.10123605
11	0x3b6a87c1	0.0035786482
12	0xbdcea533	-0.10090103
13	0x3e2d5ffa	0.16931143
14	0xbe33fdb4	-0.17577249
15	0x3d9cd58c	0.07657918
16	0xbd8b4ab2	-0.068013564
17	0xbe0edcfe	-0.1395149
18	0x3dfc18d7	0.12309425
19	0x3db91b86	0.09038453
20	0x3e0ace8b	0.13555352
21	0xbe1e9b7a	-0.15488997
22	0x3e1f0647	0.15529738
23	0xbe13c5c1	-0.14430906
24	0x3d4b3205	0.04960825
25	0x3e1cc994	0.15311271
26	0xbdbccf21	-0.09219194
27	0xbe07aa8b	-0.1324865
28	0xbd79c96b	-0.060983103
29	0x3e11edc8	0.14250863
30	0xbd7845fd	-0.06061362
31	0x3e08a09e	0.1334252
32	0xbdf98c80	-0.121850014
33	0xbddfc790	-0.109267354
34	0x3e178589	0.14797033
35	0x3df0caed	0.11757455
36	0xbe19c55d	-0.15016694
37	0x3d993750	0.07481253
38	0xbd994a75	-0.07484905
39	0x3e34005f	0.17578267
40	0xbe140db7	-0.14458357
41	0xbe269a49	-0.16269793
42	0x3cfc02db	0.03076308
43	0xbcf7e442	-0.030260209
44	0xbdfb48d1	-0.12269748
45	0xbe223368	-0.15839922
46	0xbd701a30	-0.058618724
47	0x3e20494d	0.15652962
48	0xbd171216	-0.036882482
49	0xbdce98f5	-0.10087768
50	0x3deaa6e7	0.11457615
51	0x3d3ff300	0.046862602
52	0xbe2afd6e	-0.16698238
53	0x3d25a5a7	0.04044118
54	0x3d8b9716	0.06815927
55	0xbdbcc0bd	-0.092164494
56	0xbde3f666	-0.11130981
57	0xbb81a452	-0.003956356
58	0xbd88ff96	-0.06689374
59	0x3cfd4fc6	0.030921828
60	0xbaf6904e	-0.0018811317
61	0xbde9359f	-0.113871805
62	0xbddeb610	-0.108745694
63	0xbdbbb7ef	-0.09165942
64	0xbd29a9e1	-0.041421775
65	0xbdbdfe8d	-0.09277067
66	0xbdd2c187	-0.10290819
67	0xbe2141c5	-0.15747745
68	0xbcbac68f	-0.022799758
69	0x3d3d8991	0.04627377
70	0xbdffebcf	-0.12496149
71	0xbd7e58e1	-0.06209648
72	0x3e208b95	0.15678246
73	0xbdfd2fe0	-0.12362647
74	0xbdedbf07	-0.11608701
75	0xbdf85e68	-0.121273816
76	0x3e1552dc	0.1458239
77	0xbba228a9	-0.0049486947
78	0xbd08c266	-0.033388518
79	0x3e339e60	0.17540884
80	0x3e14bda6	0.1452547
81	0xbda6fc16	-0.0815355
82	0xbe29f696	-0.16597971
83	0x3cb6d91f	0.022320328
84	0x3db99eea	0.090635136
85	0xbbbc340f	-0.0057435106
86	0xbda0f0b6	-0.07858412
87	0xbc9f37dc	-0.019435816
88	0x3dd46306	0.1037045
89	0x3dd9911f	0.10623383
90	0x3e3554e5	0.17708166
91	0xbe20ebd2	-0.15714958
92	0xbdfbc355	-0.12293116
93	0x3dcc7e05	0.09984974
94	0x3bd6c67f	0.0065544243
95	0x3d4f56e1	0.050619964
96	0x3c2fec78	0.010737531
97	0xbcd7c8ef	-0.02634093
98	0xbd87f27d	-0.06638048
99	0xbd42f400	-0.047595978
100	0x3e1461f9	0.14490499
101	0xbde71915	-0.11284081
102	0x3dc7f6a1	0.097638376
103	0xbc180037	-0.009277395
104	0x3c5070fc	0.01272225
105	0x3dc8d4d9	0.098062225
106	0x3bd45e33	0.006480956
107	0x3e06eef5	0.13177092
108	0x3e0368ed	0.12832995
109	0x3e2ee307	0.17078792
110	0x3de4e49c	0.11176416
111	0xbe21e6fc	-0.1581077
112	0xbbfe90fa	-0.0077687474
113	0x3d9ef804	0.07762149
114	0xbd8e21fc	-0.06940076
115	0x3e0e7531	0.13911892
116	0x3d6fe32b	0.058566254
117	0xbc9c8036	-0.019104104
118	0xbcfc5540	-0.03080237
119	0xbdb83084	-0.089936286
120	0x3dc52c2d	0.096275665
121	0x3d391cd7	0.04519352
122	0xbe0466cb	-0.12929837
123	0x3e28e64a	0.16494098
124	0xbe260e53	-0.16216402
125	0xbd3d3c58	-0.046200126
126	0xbe2e792e	-0.17038414
127	0x3c8082c3	0.015687352
128	0xbdf6c9f6	-0.1205024
129	0xbd383e5d	-0.04498135
130	0x3d4b0688	0.049566776
131	0x3dd434ca	0.10361631
132	0xbddec877	-0.108780794
133	0x3d0337a3	0.03203548
134	0xbde8798a	-0.11351307
135	0xbe2e8683	-0.170435
136	0xbe03e86f	-0.12881635
137	0xbe0193cc	-0.12654036
138	0x3de21342	0.110388294
139	0x3dae24e2	0.085031286
140	0xbccfe67f	-0.025378464
141	0x3d7d4df9	0.06184194
142	0xbd9adddd	-0.07561848
143	0x3de38594	0.111094624
144	0x3e32fe9d	0.1747994
145	0x3ddae258	0.10687703
146	0x3d1c67e5	0.03818502
147	0xbe33e778	-0.17568767
148	0x3db07fe6	0.08618145
149	0x3b16935c	0.0022976017
150	0xbe1327ab	-0.14370601
151	0x3d06e6af	0.03293484
152	0xbde39809	-0.11112983
153	0x3c55b7c5	0.013044302
154	0x3e09655f	0.13417576
155	0xbc88dd13	-0.016706979
156	0xbde3591d	-0.111009814
157	0x3e29abf2	0.16569498
158	0xbcfcaf18	-0.03084521
159	0x3dd65313	0.10465064
160	0xbe350c39	-0.17680444
161	0xbde2997c	-0.11064431
162	0xbda3aae2	-0.07991578
163	0xbb497b7f	-0.0030743775
164	0xbd0e6dce	-0.034772687
165	0xbd47428a	-0.04864744
166	0x3d31c63a	0.043401934
167	0x3e1373b9	0.14399613
168	0x3db0f0d9	0.08639688
169	0x3c570b50	0.013125256
170	0x3a3934f9	0.00070650835
171	0xbb6036c7	-0.0034212337
172	0x3e37dee2	0.17956117
173	0x3d47cd42	0.048779733
174	0x3dfbe32b	0.12299188
175	0x3e1d3707	0.15353023
176	0x3cfc9090	0.030830652
177	0x3b5d5bec	0.0033776714
178	0xbd3ac0e7	-0.045594122
179	0xbc0d7490	-0.008633748
180	0x3bd75397	0.006571244
181	0xbcfa4ffd	-0.03055572
182	0x3e2fca94	0.17167121
183	0xbd4f217f	-0.050569054
184	0x3de70b24	0.11281422
185	0x3df99a94	0.121876866
186	0x3d97513f	0.07388543
187	0x3cb13f60	0.021636665
188	0x3cd6c764	0.026218124
189	0xbe0414e7	-0.12898599
190	0x3d4d9bb0	0.050197303
191	0xbd5b22c3	-0.05349995
192	0x3d9e8785	0.07740692
193	0xbcb940e8	-0.022613958
194	0xbe031d87	-0.12804233
195	0xbd05112b	-0.032487076
196	0x3e0909e3	0.13382678
197	0xbe22467f	-0.15847205
198	0xbe2aafca	-0.1666862
199	0x3e06426e	0.13111278
200	0xbe0b9919	-0.13632621
201	0xbdfb22ae	-0.12262474
202	0xbd948ec6	-0.07253794
203	0xbe1bf6ab	-0.15230815
204	0x3e2dc3b8	0.16969192
205	0x3dd40715	0.10352913
206	0xbe2a2737	-0.16616522
207	0xbd848715	-0.06471077
208	0xbdff53e0	-0.1246717
209	0x3dd57fe5	0.104247846
210	0xbddb2692	-0.10700716
211	0x3e29119e	0.16510627
212	0xbdf183c4	-0.117927104
213	0x3e08848e	0.13331816
214	0xbe241f64	-0.160276
215	0xbe218403	-0.15773015
216	0xbd92dc16	-0.07170884
217	0x3d77a42b	0.060459297
218	0x3dd3e0a9	0.10345585
219	0xbd88e6db	-0.06684657
220	0xbe2b964a	-0.1675655
221	0xbd40bf03	-0.047057163
222	0xbd8112a8	-0.063023865
223	0x3ddb00b4	0.106934935
224	0xbda19d14	-0.078912884
225	0xbe07f9fd	-0.13278957
226	0x3e2439d8	0.1603769
227	0x3d5dd684	0.054159656
228	0x3e08bfae	0.1335437
229	0x3e25f7d6	0.16207823
230	0x3e06d6e4	0.13167912
231	0x3dad60d4	0.08465734
232	0xbe1e35ac	-0.15450162
233	0x3e02a98a	0.12759987
234	0x3d11967e	0.03554391
235	0x3e28c2f0	0.16480613
236	0x3cc16b53	0.023610746
237	0x3e1617b9	0.14657487
238	0x3d3c35c8	0.045949727
239	0x3e05332e	0.13007805
240	0x3c7c4d52	0.015399294
241	0x3bd5c2ae	0.006523452
242	0xbc215cc9	-0.009848782
243	0xbe1d0a30	-0.15335917
244	0x3e32d63d	0.17464538
245	0xbdce84b9	-0.100839086
246	0xbda748fb	-0.08168217
247	0xbddbeea5	-0.10738877
248	0xbe1b1ea5	-0.15148409
249	0x3d86e3d1	0.06586421
250	0x3cedcc1a	0.029027987
251	0xbe08352b	-0.13301532
252	0x3de152c5	0.11002115
253	0x3d22e6bb	0.039770823
254	0xbe2e9113	-0.17047529
255	0x3e041f53	0.12902574

blocks.0.skip_conv.bias f4 [128]
0	0x3a9d6ae0	0.0012010001
1	0x3b6f7fe3	0.0036544732
2	0x3c11968b	0.00888599
3	0xbb08342a	-0.0020783045
4	0x3a00ab67	0.00049083534
5	0x3b8a270d	0.004216081
6	0x3beb0796	0.007172535
7	0xbad5a9ea	-0.0016301249
8	0xbb47c653	-0.00304832
9	0x3b5556f7	0.0032553056
10	0x3b1c0e7d	0.0023812347
11	0x3c16a87d	0.009195444
12	0xbb15ced2	-0.002285887
13	0x3be2222d	0.0069010467
14	0x3c06e528	0.008233346
15	0xb97d8bfa	-0.00024180106
16	0xbbd5fcb7	-0.00653037
17	0x3b45f43b	0.0030205387
18	0xb93ad006	-0.00017815837
19	0xba4d22c6	-0.0007825311
20	0xbb8b030c	-0.0042423066
21	0xbb977d3a	-0.0046230825
22	0xbaf0f94f	-0.0018384847
23	0xbb1f07bb	-0.0024266082
24	0x3b5a7b59	0.003333768
25	0xba5cfe40	-0.000843022
26	0x3b65ea8a	0.0035082423
27	0xbb944ba9	-0.004525621
28	0x3b207602	0.00244844
29	0x3c148b18	0.009066366
30	0xbb92d281	-0.0044806604
31	0x3badc289	0.0053027314
32	0x3b022f60	0.0019864663
33	0x3bb3ca64	0.0054867733
34	0xbbb34ea8	-0.005472023
35	0xbae88335	-0.0017739298
36	0xbac96480	-0.0015365034
37	0xbb3c9df4	-0.002878067
38	0x3b976db1	0.0046212305
39	0x3b5023cd	0.003175962
40	0x3bdf7e94	0.006820509
41	0x3ba84563	0.0051352247
42	0x3b5d4d30	0.003376793
43	0xbb534212	-0.0032235426
44	0x3b91fda7	0.0044552865
45	0x3b3b1455	0.0028546054
46	0x3bf2efea	0.007413854
47	0x3b272b6c	0.002550806
48	0xbb75572a	-0.0037435987
49	0x3af567ce	0.0018722953
50	0x3b81ea3e	0.0039646914
51	0x3b421d96	0.0029619685
52	0x3b82e8af	0.003995023
53	0x3be67c0b	0.00703383
54	0x3ba33104	0.0049802084
55	0x3bca7368	0.0061783083
56	0x3c42e9bd	0.011896548
57	0xba91f8e0	-0.0011136793
58	0x3c28c386	0.010300523
59	0x3c2414a4	0.010014687
60	0x3b591c88	0.0033128578
61	0x3b59372f	0.0033144464
62	0x3b5118eb	0.0031905721
63	0xb9c4471a	-0.00037437008
64	0x3a0163c4	0.0004935826
65	0x3bc31697	0.0059536207
66	0x3bf1671d	0.0073670284
67	0x3b64aa69	0.0034891611
68	0x3ae12356	0.0017176669
69	0xbb9619cb	-0.0045807115
70	0x3aff18ab	0.0019462308
71	0x3ba1746c	0.0049272086
72	0x3baded53	0.0053078323
73	0x3a970f1b	0.0011524888
74	0xbbad58f1	-0.0052901437
75	0xbaf5142f	-0.0018698032
76	0xbbc8b5c1	-0.0061251824
77	0xbb16643e	-0.0022947933
78	0x3c0a2c54	0.00843342
79	0xbbec2d86	-0.0072075753
80	0x3a3adb5a	0.0007128023
81	0x3b64692d	0.0034852729
82	0xbb2f3602	-0.0026735072
83	0x3b975c3f	0.004619151
84	0x3a8cde5b	0.001074742
85	0xbb6f7d21	-0.0036543088
86	0x3ac9c662	0.0015394206
87	0x3bcbe020	0.006221786
88	0xbbf408dd	-0.0074473456
89	0x3bec16d7	0.007204871
90	0xbb4d8e67	-0.0031365396
91	0xbb5f9df6	-0.0034121252
92	0xba336ccb	-0.00068445195
93	0xbb2c5059	-0.0026293008
94	0x3b77bf5c	0.0037803268
95	0xbc07e14d	-0.008293462
96	0x3a93fee0	0.0011291169
97	0xbaa59ae8	-0.0012634667
98	0x3af0f8fb	0.0018384749
99	0x3b00f7ec	0.0019679023
100	0x3bdc6a74	0.0067265574
101	0x39e3d4b3	0.00043455287
102	0xbafb0b17	-0.0019153085
103	0x3bece4dd	0.007229431
104	0x3a9e0eec	0.001205889
105	0x3b99e807	0.0046968493
106	0xbaaa7232	-0.0013004004
107	0xbb8dad13	-0.0043236106
108	0xbc04f190	-0.008114234
109	0xbb89c508	-0.004204396
110	0x3b8c9dea	0.0042912858
111	0xba8d0ee1	-0.001076188
112	0x3b659d96	0.0035036555
113	0xbbd70c46	-0.0065627424
114	0xbbfeee3b	-0.007779864
115	0xbba9c100	-0.005180478
116	0xba96770f	-0.0011479574
117	0xba18b0ef	-0.0005824705
118	0x3a383b4a	0.0007027878
119	0x3b8274c2	0.003981204
120	0xbb80323a	-0.0039122375
121	0x3a36896d	0.0006963227
122	0xbc13d7b3	-0.009023595
123	0xba9e4cd8	-0.0012077345
124	0xbada4700	-0.001665324
125	0x3b67d407	0.003537418
126	0x3bbf2af7	0.005833979
127	0xbabf3a39	-0.0014589495

blocks.0.bn.weight f4 [64]
0	0x3f800f0c	1.0004592
1	0x3f810c0c	1.0081801
2	0x3f8122ce	1.0088747
3	0x3f80bb7c	1.0057216
4	0x3f80048e	1.000139
5	0x3f7f5673	0.99741286
6	0x3f7cb824	0.98718476
7	0x3f7f1322	0.9963857
8	0x3f7e5836	0.9935335
9	0x3f8046ae	1.002157
10	0x3f7f8141	0.998066
11	0x3f82b64c	1.0211883
12	0x3f7c9dd5	0.9867833
13	0x3f7e6212	0.99368393
14	0x3f814ec9	1.0102168
15	0x3f7ef39b	0.9959046
16	0x3f802f36	1.0014408
17	0x3f7d8d04	0.990433
18	0x3f7ebf1f	0.9951038
19	0x3f81722f	1.0112971
20	0x3f7d4035	0.989261
21	0x3f7ece9e	0.9953402
22	0x3f7e31c0	0.9929466
23	0x3f804289	1.0020305
24	0x3f80a24a	1.0049527
25	0x3f8021bb	1.0010294
26	0x3f7fa08f	0.9985437
27	0x3f802bcd	1.0013367
28	0x3f8026a4	1.0011792
29	0x3f805f0b	1.0029005
30	0x3f814833	1.0100158
31	0x3f7fae38	0.9987521
32	0x3f806f93	1.003405
33	0x3f81f95d	1.0154225
34	0x3f7da3ac	0.9907787
35	0x3f7fda73	0.999427
36	0x3f80b20f	1.0054339
37	0x3f803383	1.001572
38	0x3f7da83b	0.99084824
39	0x3f810739	1.0080329
40	0x3f7f1c15	0.99652225
41	0x3f7c5b51	0.9857684
42	0x3f7dc85e	0.9913386
43	0x3f7d9d68	0.9906831
44	0x3f7ff688	0.9998555
45	0x3f7f2d8d	0.9967888
46	0x3f7e31d3	0.99294776
47	0x3f81bb34	1.0135255
48	0x3f801632	1.0006773
49	0x3f7f5fbb	0.9975545
50	0x3f80eb50	1.0071812
51	0x3f813d03	1.0096744
52	0x3f810ee6	1.0082672
53	0x3f80860f	1.0040911
54	0x3f80820c	1.0039687
55	0x3f806069	1.0029422
56	0x3f7d024a	0.9883162
57	0x3f7d4e98	0.9894805
58	0x3f815d59	1.0106612
59	0x3f820dfa	1.0160515
60	0x3f806178	1.0029745
61	0x3f804d13	1.0023521
62	0x3f806fca	1.0034115
63	0x3f7e66ed	0.993758

blocks.0.bn.bias f4 [64]
0	0xbc448b2c	-0.011996072
1	0xbc4156dc	-0.011800494
2	0x3b62ad2b	0.003458808
3	0x3bb16562	0.005413697
4	0x3c21487e	0.009843944
5	0x3c245532	0.010030078
6	0x3bcff63d	0.0063464926
7	0xbb763987	-0.003757091
8	0x3a9a5d89	0.0011777143
9	0x3afce62b	0.001929467
10	0x3badda75	0.005305583
11	0xb96235c0	-0.00021573063
12	0xba649461	-0.000871962
13	0xba12eade	-0.0005604456
14	0xbb5fcc27	-0.0034148784
15	0x3b8941be	0.0041887453
16	0xba216bee	-0.00061577454
17	0xba912251	-0.0011072849
18	0xb5e520c0	-1.7071361e-06
19	0x3ae8c2b1	0.0017758218
20	0x3b931208	0.0044882335
21	0x3bc78db3	0.00608989
22	0xbba22ab3	-0.004948938
23	0xba96c759	-0.0011503502
24	0x3b61eedc	0.0034474647
25	0x3bcecb89	0.0063108844
26	0x3bbad7cf	0.005701996
27	0x3bbc76b4	0.005751455
28	0xbb42a32f	-0.0029699316
29	0xbb8174f5	-0.00395071
30	0x3a60cc83	0.00085753965
31	0xbbb7dcb9	-0.005611029
32	0x3a422ed6	0.0007407492
33	0xbb8f92c7	-0.004381511
34	0x3bd8a19d	0.0066110627
35	0xbb9d98bb	-0.0048094667
36	0x3bc6f486	0.00607163
37	0xbb45212d	-0.0030079589
38	0x3b99629e	0.0046809455
39	0xbb8b8383	-0.004257621
40	0x3a60a82b	0.0008569981
41	0xb912ac68	-0.00013987871
42	0xba7e6264	-0.00097039924
43	0x3b0b2852	0.002123375
44	0x3aff2fe0	0.0019469224
45	0x3a8fce49	0.0010971512
46	0xbad963e7	-0.0016585559
47	0x3b223c73	0.0024755269
48	0x3b0618c5	0.002046154
49	0xbb51e59b	-0.0032027725
50	0xb9b11576	-0.0003377606
51	0xbaf66118	-0.0018797247
52	0xbad6a54e	-0.0016376169
53	0x3b5902b5	0.0033113186
54	0xbbc24899	-0.0059290645
55	0xbb97a9c5	-0.0046283924
56	0xbb31ff74	-0.0027160319
57	0x3b6644e0	0.0035136268
58	0x3c01c86e	0.007921321
59	0x3b12549c	0.0022328263
60	0x3a1c99b9	0.0005973834
61	0x3c1c74de	0.009549348
62	0xbb328dd6	-0.0027245185
63	0xba7e8c08	-0.00097101973
