TGNN2026/artifacts_MTGNN1m_1SoftUtility/fold_02_weights.pt (torch, 802453 bytes, 83 tensors)

A_static f4 [3, 3]
0	0x3eaaaaab	0.33333334
1	0x3eaaaaab	0.33333334
2	0x3eaaaaab	0.33333334
3	0x3eaaaaab	0.33333334
4	0x3eaaaaab	0.33333334
5	0x3eaaaaab	0.33333334
6	0x3eaaaaab	0.33333334
7	0x3eaaaaab	0.33333334
8	0x3eaaaaab	0.33333334

in_proj.weight f4 [64, 15]
0	0xbe802424	-0.25027573
1	0xbe83fc33	-0.2577835
2	0xbe0f8327	-0.14014874
3	0xbe24441d	-0.16041608
4	0x3e3236cc	0.17403716
5	0xbd788d53	-0.060681652
6	0xbcfa1c6c	-0.03053113
7	0x3dcff67f	0.10154437
8	0x3e90450b	0.28177676
9	0xbccd98da	-0.0250973
10	0x3ddfd1f6	0.10928719
11	0xbdef1022	-0.11672999
12	0x3cfc3efd	0.030791754
13	0xbde7841f	-0.11304497
14	0x3e0c759f	0.13716744
15	0x3cee44bf	0.029085515
16	0x3d8551bf	0.065097325
17	0xbe7d774a	-0.24752536
18	0x3d7577d0	0.059928715
19	0x3e6ef0ee	0.23334095
20	0x3e01fe48	0.12694657
21	0x3d2428bb	0.040077906
22	0x3e1a55e0	0.15071821
23	0xbd789b78	-0.06069514
24	0xbe5b2498	-0.21400678
25	0x3de4c0b0	0.11169565
26	0xbe6c71e5	-0.23090322
27	0x3bb460b1	0.0055046906
28	0xbe8b01bd	-0.27149764
29	0x3e6e0ddd	0.23247476
30	0x3d134273	0.035952043
31	0xbe4ae887	-0.19815265
32	0xbdcf754e	-0.10129796
33	0xbe3a3ed9	-0.18188037
34	0xbdbd6fbc	-0.09249827
35	0x3e155df6	0.14586625
36	0xbe885658	-0.26628375
37	0xbe800ceb	-0.25009856
38	0xbe2282b4	-0.15870172
39	0x3cf3a655	0.0297424
40	0xbd792062	-0.0608219
41	0xbe7130cf	-0.23553775
42	0xbe2594ea	-0.16170087
43	0xbe213dbd	-0.15746208
44	0x3e5f704c	0.21820182
45	0x3d919802	0.07109071
46	0xbd43b071	-0.04777569
47	0x3e2f56a3	0.17122893
48	0xbe6f7805	-0.23385628
49	0xbc6400a6	-0.01391617
50	0x3e85f435	0.26162878
51	0x3db5bbb9	0.08873696
52	0xbd686328	-0.056735188
53	0xbe167b75	-0.14695533
54	0xbe190d1a	-0.14946404
55	0xbe8c5864	-0.27411187
56	0xbdc87fd5	-0.09790007
57	0x3dab4fcc	0.083648294
58	0x3e278a91	0.16361453
59	0x3d858be0	0.0652082
60	0x3e2a7d39	0.16649331
61	0x3e56ef37	0.2098969
62	0xbddf62e3	-0.10907533
63	0x3de9fdde	0.114253744
64	0x3dd7f1a5	0.10544137
65	0xbe2745da	-0.1633524
66	0x3e5a69db	0.21329443
67	0xbe83f23b	-0.25770745
68	0x3e813399	0.25234678
69	0xbe306437	-0.17225729
70	0x3db078ee	0.086168155
71	0xbe017941	-0.12643911
72	0xbbb017fd	-0.0053739534
73	0xbd1f4d0a	-0.03889183
74	0x3e3bf3ad	0.18354674
75	0xbe31d6f1	-0.1736715
76	0xbe25b265	-0.16181333
77	0xbe042178	-0.12903392
78	0xbe19b6de	-0.15011165
79	0x3d87881c	0.06617758
80	0xbd928f6a	-0.0715626
81	0x3e6b234a	0.2296268
82	0xbdf92450	-0.12165129
83	0xbe2d684f	-0.16934322
84	0x3dccbeee	0.099973544
85	0xbd3bb859	-0.045830105
86	0x3e4f4fa1	0.2024522
87	0xbe678ebd	-0.22613044
88	0xbdaf8faa	-0.085723236
89	0xbe724b14	-0.23661453
90	0xbe876d01	-0.2645035
91	0x3e272c77	0.16325556
92	0x3da1cca1	0.07900358
93	0xbdc056af	-0.093915336
94	0x3d44aac9	0.048014436
95	0xbd40d51f	-0.047078248
96	0x3e0f2598	0.13979185
97	0xbdde358e	-0.108500585
98	0x3e5d8d9d	0.21636052
99	0xbe0479cf	-0.12937091
100	0xbcb119d3	-0.02161876
101	0x3ddd641b	0.10810109
102	0x3d68a58c	0.056798503
103	0x3e5c7f6a	0.2153298
104	0xbe81e343	-0.253687
105	0x3e17076d	0.14748926
106	0x3d3ed0ee	0.04658597
107	0x3e359b83	0.17735104
108	0xbe474144	-0.1945849
109	0x3e6b2d89	0.22966589
110	0xbe0cbab2	-0.13743094
111	0x3e1e8612	0.15480831
112	0x3dfcd9c5	0.12346224
113	0x3ba1ff31	0.0049437513
114	0x3e4e1186	0.20123872
115	0x3e4307ae	0.19045898
116	0x3e7a569c	0.24447101
117	0xbe8ab061	-0.2708769
118	0x3e289dd6	0.1646646
119	0x3e4048c8	0.18777764
120	0x3e5d459d	0.21608587
121	0xbe80cd0a	-0.25156432
122	0xbd613b05	-0.054987926
123	0xbe5b8343	-0.21436791
124	0x3df1f8c2	0.11815025
125	0x3da63aeb	0.081167065
126	0xbd9cdee6	-0.07659702
127	0x3e1d86a8	0.15383399
128	0x3e3cc1b8	0.18433273
129	0x3dc8f519	0.09812374
130	0x3e81b6ac	0.2533468
131	0x3e0ae823	0.13565116
132	0xbe4f315a	-0.2023367
133	0x3dbc70f7	0.09201234
134	0xbe16bceb	-0.14720504
135	0x3e84cfd4	0.2593981
136	0x3e25d1ef	0.16193365
137	0xbe7ff96e	-0.24997494
138	0xbd95b974	-0.07310763
139	0xbe46b5ff	-0.19405364
140	0xbe810e7d	-0.25206366
141	0xbe4349f1	-0.19071175
142	0x3e3ab01e	0.18231246
143	0x3d9da874	0.076981455
144	0x3cefc67e	0.029269453
145	0x3e145fcd	0.1448967
146	0x3e80fdcb	0.2519363
147	0xbe11911e	-0.14215514
148	0x3e362bfa	0.17790213
149	0x3c161916	0.009161254
150	0x3e010570	0.1259973
151	0xbdbf7cdd	-0.09349988
152	0xbe6cc8d5	-0.23123486
153	0xbe5ec1d6	-0.2175363
154	0xbe0ec4c3	-0.13942246
155	0x3e0caaec	0.13737077
156	0x3d5b21d5	0.05349906
157	0xbe3458de	-0.17612025
158	0xbdf421a4	-0.11920479
159	0xbd64d326	-0.05586543
160	0xbe551492	-0.20808628
161	0xbd881ebd	-0.06646488
162	0xbda4686e	-0.08027731
163	0x3d9d7907	0.076891
164	0x3e0a1abd	0.13486762
165	0x3c5a6de1	0.013331861
166	0xbdc5c2ee	-0.096563205
167	0x3e12bb7e	0.14329335
168	0xbd22a3f9	-0.039707158
169	0x3d3cbb0d	0.046076823
170	0x3ca8753c	0.020563714
171	0x3e689bf6	0.22715744
172	0xbe6b8a6f	-0.23002027
173	0xbc8ff4be	-0.017572757
174	0xbe04bc35	-0.1296242
175	0xbda3091c	-0.07960722
176	0x3e894c6e	0.26816124
177	0xbe67f1cd	-0.22650833
178	0x3e05dcdb	0.13072531
179	0xbe00bb3d	-0.12571426
180	0xbdcaa1fa	-0.09894176
181	0xbe388b7d	-0.1802196
182	0xbc16ac23	-0.009196314
183	0xbe85fd0a	-0.26169616
184	0xbe35e788	-0.17764103
185	0x3d02a229	0.03189293
186	0x3d01b774	0.031669095
187	0xbdc26b92	-0.09493174
188	0x3c88fc33	0.01672182
189	0xbdcf7a5a	-0.101307586
190	0xbe196d36	-0.14983067
191	0x3e81c31b	0.25344166
192	0xbe0fd56a	-0.14046255
193	0x3e4fcfd3	0.20294122
194	0xbe508968	-0.20364916
195	0x3d81bf0e	0.06335269
196	0xbe2f3328	-0.17109358
197	0x3e861efd	0.26195517
198	0xbe263342	-0.16230491
199	0x3d2cdf5c	0.0422052
200	0x3e0f280b	0.13980119
201	0x3dd06a26	0.10176496
202	0xbe161cf9	-0.1465949
203	0x3c882e29	0.016623573
204	0xbdbaa574	-0.09113589
205	0xbe739b07	-0.23789607
206	0x3e08a342	0.13343528
207	0x3cac0a4a	0.021001
208	0x3da2a1cc	0.079410166
209	0x3e37ddda	0.17955723
210	0xbe80d68a	-0.2516368
211	0x3e2de3c8	0.16981423
212	0xbe12491c	-0.14285702
213	0x3e2d5074	0.16925222
214	0x3d327fbd	0.043578852
215	0xbdb80fb5	-0.08987371
216	0xbe2977f3	-0.16549663
217	0xbda67a3a	-0.081287816
218	0xbdf95990	-0.12175286
219	0x3d6a250c	0.057164237
220	0xbc7261b1	-0.014793799
221	0xbb442275	-0.0029927765
222	0xbe482ba5	-0.19547899
223	0x3e56c1db	0.20972387
224	0x3e51a556	0.20473227
225	0x3e464f4d	0.19366188
226	0x3c6ddadb	0.014517511
227	0xbe6c4c0b	-0.23075883
228	0x3e68611e	0.22693297
229	0x3e608472	0.21925524
230	0x3d1ff2db	0.039049964
231	0x3d47902d	0.04872148
232	0x3c091ea5	0.008369123
233	0x3dc00b8a	0.09377201
234	0xbe68b348	-0.2272464
235	0x3e75ef2f	0.24017023
236	0xbcb4de9d	-0.022078807
237	0x3d89e9ac	0.067340225
238	0xbd497954	-0.049187973
239	0xbdf5df41	-0.12005473
240	0xbbf7cc3b	-0.007562188
241	0x3d4d5f94	0.05013998
242	0x3df0199f	0.11723637
243	0xbe8d8433	-0.27639922
244	0xbe36f925	-0.17868479
245	0x3e6a52d3	0.22883157
246	0xbe8a7967	-0.27045748
247	0x3c7915f2	0.015202986
248	0xbb7e43a7	-0.0038797648
249	0xbe4b17a0	-0.19833231
250	0x3d5733e8	0.052539736
251	0x3e0f1130	0.139714
252	0x3e48401d	0.19555707
253	0xbe881ca4	-0.2658435
254	0xbe5c943e	-0.21540925
255	0x3e1a2e4a	0.1505672

in_proj.bias f4 [64]
0	0x36b51280	5.396374e-06
1	0xbbc84036	-0.00611117
2	0x3b6e196f	0.0036331078
3	0x3ba966df	0.005169734
4	0x3ae99362	0.0017820413
5	0xb9ef5b23	-0.00045653534
6	0x3b876992	0.004132458
7	0xbb123b2f	-0.0022313108
8	0x3a72e0cc	0.0009265065
9	0x3a1f3cdc	0.00060744374
10	0xb9ccc4c8	-0.00039056526
11	0xbb29f5a0	-0.0025933757
12	0xbb674c03	-0.003529311
13	0xbb329e29	-0.0027254915
14	0xbb1c6952	-0.0023866487
15	0xba8d5119	-0.0010781615
16	0xbb51204a	-0.0031910115
17	0xbb08210c	-0.002077165
18	0xba2f7804	-0.0006693604
19	0x3b8b6d0d	0.004254943
20	0xba809ef2	-0.0009812994
21	0xbc3de228	-0.011589564
22	0xb9ce9189	-0.00039399814
23	0x3ab89a8f	0.0014084148
24	0x3b7e3010	0.0038785972
25	0xb9275865	-0.0001595929
26	0x3c02ef28	0.00799159
27	0x3b86b98a	0.0041114734
28	0x3b987a22	0.0046532312
29	0xb9ed425e	-0.0004525361
30	0xbaadea6d	-0.0013268717
31	0xbc084691	-0.008317606
32	0x3aa727f8	0.0012753
33	0xbb0e0556	-0.002167066
34	0xbadd08ae	-0.0016863549
35	0xbb8b0c90	-0.004243441
36	0x3bb19bd6	0.0054201884
37	0x3b898b61	0.0041975235
38	0x3b5b9946	0.0033508106
39	0xbb6fc3e2	-0.003658526
40	0xbb3582f5	-0.0027696465
41	0xbb813aba	-0.0039437683
42	0x3b048067	0.0020218135
43	0x3b729516	0.0037015132
44	0x3aa9f745	0.0012967369
45	0xbb48cc4e	-0.0030639353
46	0x3b9fd28a	0.004877393
47	0xbc0a4b72	-0.008440839
48	0xbbd953bd	-0.006632297
49	0x3b877052	0.0041332627
50	0x3b8925ea	0.004185428
51	0x39d27d2a	0.00040147576
52	0xbb0b0469	-0.0021212345
53	0xbadd7a80	-0.001689747
54	0xbc35223a	-0.0110555235
55	0xbb6a385d	-0.0035739162
56	0xbb1234b6	-0.002230925
57	0x3a6da8ef	0.00090660056
58	0x3aaf7048	0.0013384903
59	0xbaf0d386	-0.0018373586
60	0xbb0582a7	-0.0020372064
61	0xbb97d5a7	-0.0046336236
62	0x3b36b349	0.0027877858
63	0x3a519c2e	0.000799599

adapt.E1 f4 [3, 8]
0	0xbc4f7d92	-0.012664216
1	0xbc2e737c	-0.010647651
2	0xbcab9ba4	-0.020948239
3	0xbbcd05b9	-0.0062567857
4	0x3c512fd9	0.012767755
5	0x3b80066b	0.003907015
6	0x3c44bc84	0.012007836
7	0x3cd92597	0.026507182
8	0xbc5a45b5	-0.0133222835
9	0x3cff6f9c	0.03118115
10	0xbc56548d	-0.013081682
11	0x3a290e28	0.0006448948
12	0x3d06d0ef	0.0329141
13	0x3b3a511c	0.0028429693
14	0x3c42a280	0.011879563
15	0x3cc50b66	0.024053287
16	0xbacff3d3	-0.0015865512
17	0x3b2c9c7d	0.0026338391
18	0x3b3363f2	0.0027372804
19	0x3b599ec1	0.0033206197
20	0xbc25da6b	-0.010122876
21	0xbacda6c7	-0.0015689962
22	0x3bf0063d	0.0073249624
23	0x3b994e6a	0.004678537

adapt.E2 f4 [3, 8]
0	0x3c1a7027	0.009426153
1	0xbbe496a7	-0.006975967
2	0x3b0f19c7	0.0021835433
3	0xbbd97e52	-0.006637373
4	0x3c22a2d3	0.009926516
5	0xba0cafb0	-0.00053667556
6	0xbbf54950	-0.007485546
7	0xbb84702f	-0.0040416936
8	0xbb81fd5a	-0.0039669694
9	0xbb2f2efb	-0.0026730883
10	0x3c3d0720	0.011537343
11	0x3c6e8f79	0.014560574
12	0x3b9f9293	0.004869768
13	0x3c212e8e	0.00983776
14	0xbc4bafff	-0.012432097
15	0x3b4f429c	0.0031625396
16	0xbcbc7fa9	-0.023010092
17	0x3c50d929	0.0127470875
18	0xbcab3a4c	-0.020901822
19	0x3b6bc231	0.0035973901
20	0x3d2573cb	0.040393632
21	0x3c0bdd7b	0.008536692
22	0x3c1a64aa	0.009423414
23	0x3d0f4080	0.03497362

support_mix.w_logits f4 [3]
0	0x3bf99564	0.0076166857
1	0xbbfa8fa2	-0.007646517
2	0x3bfb8849	0.0076761586

blocks.0.filter_conv.conv.weight f4 [64, 64, 1, 2]
0	0x3e0ef29e	0.13959739
1	0xbde382d4	-0.11108938
2	0xbdd19a94	-0.102345616
3	0xbce80553	-0.028322851
4	0x3dd3d947	0.10344177
5	0xbd09e84b	-0.033668797
6	0x3ccc795c	0.024960212
7	0xbdd7ea1f	-0.10542702
8	0xbc914e52	-0.017737541
9	0xbcc86ac9	-0.024464982
10	0x3d6f0f4f	0.05836421
11	0x3e05bbf0	0.13059974
12	0xbb63b064	-0.0034742588
13	0x3d9e46c4	0.07728341
14	0x3d74287a	0.059608914
15	0xbcaee2fb	-0.021348467
16	0x3dac9964	0.084276944
17	0xbd6e42a7	-0.058169033
18	0x3b9569af	0.0045597176
19	0x3e0204fb	0.12697212
20	0xbd61206f	-0.05496257
21	0xbd343611	-0.043996874
22	0xbd903811	-0.07041944
23	0x3e0da77d	0.13833423
24	0xbe068e31	-0.13140179
25	0x3ca07cb2	0.01959071
26	0x3dec52c0	0.11539221
27	0x3df7998e	0.12089835
28	0xbdc5cd19	-0.0965826
29	0x3d97c7e3	0.07411172
30	0xbe15c9ed	-0.1462781
31	0x3e217600	0.1576767
32	0x3deff38b	0.11716374
33	0xbda7fc04	-0.08202365
34	0xbe17025d	-0.14746995
35	0x3e151b1f	0.14561127
36	0xbde2b152	-0.110689774
37	0x3e1edbcf	0.15513538
38	0x3d6bd8ca	0.057579793
39	0xbddd1478	-0.1079492
40	0x3e06219d	0.1309876
41	0x3d562e93	0.05229051
42	0xbdb204bd	-0.0869231
43	0xbdff95de	-0.12479757
44	0x3dfcfd87	0.12353044
45	0xbc8ebc03	-0.017423635
46	0xbc797c41	-0.015227378
47	0xbd83a8ae	-0.064286575
48	0x3d8802f6	0.0664119
49	0x3d7d104f	0.06178313
50	0xbc014bb9	-0.007891589
51	0x3db9f5d1	0.09080089
52	0x3cf0f61b	0.029414227
53	0x3e03c14d	0.12866707
54	0x3d8750fb	0.06607243
55	0x3d168b78	0.0367541
56	0xbc11c478	-0.008896939
57	0xbc97c109	-0.018524664
58	0x3b3dcdd6	0.00289618
59	0xbd6deb98	-0.058086008
60	0x3d48610c	0.048920676
61	0xbd522d14	-0.05131252
62	0xbd446a63	-0.04795302
63	0x3d839a26	0.06425886
64	0x3df7791e	0.12083648
65	0x3d337996	0.043817125
66	0x3e11ec4f	0.14250301
67	0xbdcc7899	-0.0998394
68	0xbe0a1982	-0.13486293
69	0x3e123682	0.14278606
70	0x3db17769	0.08665354
71	0xbe054ec1	-0.13018323
72	0xbabe6202	-0.0014525058
73	0x3d0d2e95	0.034468252
74	0x3dc9438e	0.09827338
75	0x3e0a8c2f	0.13530038
76	0xbdb16bd1	-0.086631425
77	0xbc99071a	-0.018680144
78	0x3e0ac689	0.13552298
79	0xbd866a77	-0.06563275
80	0xbdc2a349	-0.095038004
81	0x3e007f75	0.12548621
82	0xbdbef9af	-0.09324967
83	0xbcd6f73a	-0.026240934
84	0x3e013c36	0.12620625
85	0x3d4b5d05	0.049649257
86	0xbd907758	-0.07054013
87	0x3db61ce5	0.0889223
88	0xbdb040ac	-0.08606085
89	0xbd802e30	-0.062588096
90	0xbce86853	-0.028370058
91	0x3d9da355	0.07697169
92	0x3d10da2b	0.03536431
93	0xbdb0c35d	-0.086310126
94	0xbc2e1edd	-0.010627476
95	0xbdcf053c	-0.1010842
96	0x3d9a0515	0.075205006
97	0x3e0b8a17	0.13626896
98	0xbd976d4b	-0.07393893
99	0xbdc58fe6	-0.09646587
100	0x3e053c20	0.13011217
101	0xbddffbef	-0.109367244
102	0x3d41a0ed	0.04727261
103	0xbd6ca9e6	-0.057779215
104	0x3e0c2165	0.13684614
105	0xbdff6d41	-0.124720104
106	0x3dfa2394	0.12213817
107	0xbd8483d8	-0.0647046
108	0x3caa3e8e	0.020781782
109	0x3da784d9	0.081796356
110	0x3d519eb0	0.051176727
111	0xbe164e06	-0.14678201
112	0x3e1299d8	0.14316499
113	0xbd5d4e90	-0.05403
114	0x3c0b033d	0.008484659
115	0x3dd2f2cc	0.10300216
116	0x3de4e298	0.11176032
117	0xbdba24ac	-0.09089026
118	0x3d77eac3	0.06052662
119	0xbd52d4b0	-0.051472366
120	0x3d6fcc9b	0.058544736
121	0xb998fd38	-0.00029180362
122	0x3d621d07	0.055203464
123	0x3c1f8501	0.0097363
124	0x3e0abfbe	0.13549706
125	0x3e1e807b	0.15478699
126	0x3d836991	0.064166196
127	0x3db72934	0.08943406
128	0x3da67f73	0.08129778
129	0x3d16e310	0.036837637
130	0x3dfd2795	0.12361065
131	0xbd0444b6	-0.03229209
132	0x3d6619c8	0.05617693
133	0xbdcfed9f	-0.101527445
134	0x3de0e93c	0.10981986
135	0x3d1eab1d	0.038737405
136	0xbd81085a	-0.06300421
137	0xbe142342	-0.14466575
138	0xbde688bd	-0.112565495
139	0x3d43ebc2	0.047832258
140	0xbe142cb3	-0.14470176
141	0xbd0ca351	-0.03433544
142	0xbcc6e6a1	-0.024279894
143	0x3de17952	0.11009468
144	0x3d178bc2	0.036998518
145	0x3dddd4fa	0.10831638
146	0xbd754fcb	-0.05989055
147	0x3c6320ef	0.013862832
148	0xbdd0ea2e	-0.10200916
149	0xbd519f0e	-0.051177077
150	0x3d8afe9d	0.06786845
151	0x3e028d07	0.1274911
152	0x3e01d7a2	0.12679914
153	0x3deed14c	0.11661014
154	0xbbca6bf9	-0.006177422
155	0x3cac037a	0.020997752
156	0xbc319a02	-0.010839941
157	0xbda2c6d5	-0.079480805
158	0x3c1249fb	0.008928771
159	0xbd0634e3	-0.03276528
160	0x3e0e47d5	0.13894589
161	0x3e11d920	0.14242983
162	0xbd5055e4	-0.05086316
163	0x3c0df269	0.008663752
164	0xbca54217	-0.020173116
165	0xbdf58744	-0.119886905
166	0x3d771b15	0.06032856
167	0xbdbde1a1	-0.09271551
168	0x3d2c6b49	0.042094503
169	0x3d621b26	0.055201672
170	0xbc9428a9	-0.018085795
171	0x3e0e9721	0.13924839
172	0xbb507b55	-0.0031811793
173	0xbdc53e0b	-0.096309744
174	0xb9d7689e	-0.00041085941
175	0x3dafe3df	0.08588385
176	0x3c9f1031	0.0194169
177	0x3d57bc92	0.05267007
178	0xbcbfdfd9	-0.023422169
179	0x3dc63873	0.096787356
180	0x3e0e8eb7	0.13921629
181	0x3c2738a0	0.010206372
182	0x3dbd6026	0.092468545
183	0xbda5f876	-0.08104031
184	0x3df5cb45	0.12001661
185	0xbd146bab	-0.036235493
186	0x3e0042a7	0.12525426
187	0xbd8a8111	-0.06762899
188	0x3bc2beaf	0.0059431414
189	0xbe055d8f	-0.13023971
190	0x3d621427	0.055195
191	0x3cc1ef90	0.023673803
192	0xbdeb4306	-0.11487393
193	0xbc3b65c7	-0.01143784
194	0xbcd26a40	-0.02568543
195	0x3e08c02e	0.1335456
196	0xbc86a451	-0.016435774
197	0xbc93cf4d	-0.018043185
198	0x3e16a682	0.14711955
199	0x3e008c6d	0.12553568
200	0xbdf5dfba	-0.12005563
201	0x3dc1596f	0.09440886
202	0x3dfa4ec6	0.12222056
203	0x3dbea494	0.093087345
204	0xbde1901c	-0.11013815
205	0x3d6fdb09	0.058558498
206	0x3b9a8794	0.004715869
207	0x3db3ef2b	0.08785852
208	0x3c9f9b5f	0.019483266
209	0x3d381d1c	0.044949636
210	0xbc20ee22	-0.0098224
211	0x3d56db76	0.052455388
212	0xbde6816a	-0.112551525
213	0xbd270dff	-0.040784832
214	0xbd4f6e4a	-0.05064229
215	0xbe00ebea	-0.12589994
216	0x3dd3644a	0.10321863
217	0xbce18946	-0.027531277
218	0xbd502656	-0.05081781
219	0x3e030829	0.12796082
220	0x3c0a5c41	0.008444847
221	0x3d9f2c0a	0.07772072
222	0xbdbfd228	-0.09366256
223	0x3d0b2199	0.033967588
224	0xbd96ce82	-0.07363607
225	0xbd2d11c3	-0.042253267
226	0x3d4ff856	0.05077394
227	0xbdc1ce64	-0.09463194
228	0xbdfd2fa2	-0.12362601
229	0x3e0e82f1	0.13917138
230	0xbdb1f495	-0.086892284
231	0x3d81ee12	0.063442364
232	0x3d95bda7	0.07311564
233	0x3cd093d6	0.025461119
234	0xbd3b7253	-0.045763325
235	0xbdc0b9e7	-0.09410458
236	0xbd8feba7	-0.07027369
237	0xbe0ceb52	-0.13761643
238	0xbc7d41db	-0.015457596
239	0xbd85a2e3	-0.06525209
240	0xbd4dd25c	-0.050249442
241	0xbdc4e039	-0.096130796
242	0x3dcce6ba	0.10004945
243	0x3db2f4fe	0.08738135
244	0x3d7f27c1	0.06229377
245	0x3df30858	0.11866826
246	0x3db63975	0.08897678
247	0xbdc4a95a	-0.09602614
248	0x3cf8ee6a	0.030387122
249	0xbddaf38c	-0.10690984
250	0x3dc6e55c	0.097117156
251	0xbe05a71f	-0.13052033
252	0x3dc880de	0.097902045
253	0xbc2be747	-0.010492153
254	0xbdf5d9cf	-0.12004434
255	0xbe046729	-0.12929977

blocks.0.filter_conv.conv.bias f4 [64]
0	0xb713c974	-8.808787e-06
1	0x3aa753ee	0.0012766102
2	0x39f47a97	0.00046630643
3	0x3b490363	0.0030672185
4	0xbb6b1bef	-0.0035874804
5	0xbbe21835	-0.0068998584
6	0x3ac1251e	0.0014735793
7	0xbb78d1ac	-0.003796677
8	0xbb69c42a	-0.0035669901
9	0xba15e0e2	-0.0005717409
10	0x3a680083	0.0008850174
11	0x3b0822dc	0.002077273
12	0xbb9cba12	-0.0047829235
13	0x3bcbadc2	0.006215782
14	0xbba17572	-0.0049273307
15	0xbb96a381	-0.004597128
16	0x3b70553c	0.0036671897
17	0x3ba40089	0.0050049466
18	0xbb92adbd	-0.0044762776
19	0xbb8e7197	-0.004347037
20	0x3ab8ff1d	0.0014114116
21	0xbb4844a0	-0.0030558482
22	0xbb94be81	-0.0045393114
23	0x3b887289	0.0041640443
24	0x3bcf566c	0.006327441
25	0xbb100df2	-0.0021980968
26	0x3b4b4fce	0.003102291
27	0x3bb747e0	0.005593285
28	0xbb26f468	-0.0025475267
29	0xbb5456f9	-0.0032400473
30	0xba786096	-0.00094748416
31	0x3b1fa675	0.002436069
32	0x3b99d5f1	0.0046946933
33	0xba6e334a	-0.0009086622
34	0xb9e1dcdf	-0.00043079906
35	0x3b1b61c5	0.0023709398
36	0xbb44ef9b	-0.0030050043
37	0xba8efb51	-0.0010908638
38	0xbb437dcb	-0.0029829617
39	0xb9796719	-0.00023784897
40	0xbb187de6	-0.00232684
41	0x3b0bff7c	0.0021361997
42	0x3b6b5fbb	0.0035915214
43	0xbb930e61	-0.004487798
44	0xbb994cc0	-0.0046783388
45	0x38c64704	9.4546034e-05
46	0xbb06a718	-0.0020546373
47	0xbb63bf39	-0.0034751429
48	0xba1b4710	-0.000592337
49	0xba7259d8	-0.0009244955
50	0x3b03c291	0.0020104984
51	0x3bd6c6c6	0.0065544574
52	0xbad32cc5	-0.0016111365
53	0xbbcd0a19	-0.0062573073
54	0x3a504552	0.00079449
55	0x3a88a25a	0.0010424361
56	0x3b964c95	0.004586766
57	0x3ba788c1	0.005112738
58	0x3a7da526	0.0009675793
59	0xba3ead65	-0.00072737626
60	0x3a2f9e4d	0.0006699309
61	0xba2e6f7a	-0.00066541845
62	0x3bb04755	0.005379597
63	0xb9c66b12	-0.00037845277

blocks.0.gate_conv.conv.weight f4 [64, 64, 1, 2]
0	0xbca12a59	-0.019673513
1	0xbd99429b	-0.07483407
2	0xbe156b4a	-0.14591709
3	0xbd833623	-0.0640681
4	0xbd41d97e	-0.047326557
5	0x3d1c8ba3	0.038219105
6	0x3d856c40	0.06514788
7	0x3d9c31f6	0.07626717
8	0x3730b424	1.053236e-05
9	0x3cd2ee0c	0.025748275
10	0x395c8b4b	0.00021032726
11	0xbc704ef8	-0.014667265
12	0xbda0bd0b	-0.07848557
13	0x3d874e62	0.06606747
14	0xbe097617	-0.13423954
15	0x3daece3c	0.0853543
16	0x3e183ec7	0.14867698
17	0x3e10c3b0	0.14137149
18	0xbda36e10	-0.07979977
19	0x3d7e6ac5	0.062113542
20	0x3d98264f	0.07429182
21	0xbcb9d0bc	-0.02268254
22	0x3de966b4	0.11396542
23	0xbd02a8d0	-0.031899273
24	0x3db87339	0.09006352
25	0xbd944bbe	-0.07241009
26	0x3dc744bf	0.09729909
27	0x3ddc7788	0.10764986
28	0xbd461d8e	-0.04836803
29	0x3cf427f1	0.029804202
30	0x3da88d1f	0.08230042
31	0x3cc5cebd	0.024146432
32	0xbde86f22	-0.11349322
33	0xbda42691	-0.080151685
34	0xbdc78db7	-0.09743827
35	0x3e17bf12	0.14818981
36	0x3d3d341f	0.046192285
37	0xbe1169b4	-0.14200479
38	0xbc85783f	-0.01629269
39	0xbda9e1a4	-0.08294991
40	0x3c2509ba	0.01007312
41	0x3d36823b	0.04455779
42	0xbdfe9375	-0.12430469
43	0xbe021e9f	-0.12706994
44	0xbe10cf6a	-0.14141622
45	0xbcc59e38	-0.024123296
46	0x3ba06ad2	0.0048955465
47	0xbb5a7d6c	-0.0033338917
48	0x3dc50f27	0.09622031
49	0xbd857ead	-0.06518302
50	0xbdb41027	-0.08792143
51	0xbe07cb06	-0.13261041
52	0x3d950b44	0.07277539
53	0x3d4f087b	0.050545197
54	0x3cc08332	0.023500059
55	0x3da2df6d	0.07952771
56	0xbd85788a	-0.065171316
57	0xbdfbbd10	-0.1229192
58	0xbdeb60bd	-0.11493061
59	0xbd98e4ad	-0.074654914
60	0x3a890875	0.0010454791
61	0xbdf55da7	-0.119807534
62	0xbc312b46	-0.01081354
63	0x3d2b241e	0.04178249
64	0x3db835a6	0.089946076
65	0xbdb1aada	-0.086751655
66	0xbde4c1c0	-0.111697674
67	0x3cadf8d8	0.021236822
68	0x3baba4a6	0.0052381335
69	0x3dd626e9	0.1045664
70	0x3d0f4b22	0.03498376
71	0x3d92f54a	0.071756914
72	0x3d38c980	0.04511404
73	0xbda19071	-0.07888878
74	0xbdf26b31	-0.118368514
75	0xbbac9527	-0.005266804
76	0x3d44dff6	0.04806515
77	0xbd67e038	-0.056610316
78	0xbd48033d	-0.048831213
79	0xbdaeb885	-0.08531288
80	0xbb63fddf	-0.003478877
81	0x3a00f0db	0.0004918703
82	0x3d9a8051	0.07544006
83	0xbd8f50ab	-0.06997808
84	0xbe034d25	-0.12822397
85	0x3d908d4d	0.07058201
86	0x3d81b69b	0.06333657
87	0xbce2ac73	-0.02767012
88	0x3dfaafa2	0.122405306
89	0x3db61e7b	0.088925324
90	0xbd6ba44c	-0.057529733
91	0xbd943cac	-0.07238135
92	0x3d0046cf	0.03131753
93	0x3d48609f	0.04892027
94	0xbe11d280	-0.14240456
95	0xbd6b7de6	-0.057493113
96	0xbca3d6cf	-0.01999989
97	0x3e071485	0.13191421
98	0x3d808278	0.06274885
99	0x3e1b147c	0.15144533
100	0x3d977030	0.07394445
101	0xbdf15b4f	-0.11784994
102	0xbdca2341	-0.098700054
103	0x3ddb665c	0.10712883
104	0x3d90bf7d	0.070677735
105	0x3dd7fc69	0.1054619
106	0xbdd74467	-0.105110936
107	0x3c989d56	0.018629711
108	0xbe0a1bf7	-0.1348723
109	0xbda9f2a9	-0.08298237
110	0xbe126110	-0.14294839
111	0x3d797c83	0.06090976
112	0xbd8ab8e8	-0.06773549
113	0xbdfb197b	-0.122607194
114	0x3d200340	0.0390656
115	0xbe18ca94	-0.14921027
116	0xbe06ca95	-0.13163216
117	0x3dd1bda1	0.10241247
118	0xbd9eff94	-0.077635914
119	0xbd6556fe	-0.055991165
120	0x3d3fa358	0.046786636
121	0xbd19e383	-0.037570488
122	0x3c1485db	0.009065117
123	0x3ad2f13b	0.0016093621
124	0x3dd1d47c	0.10245606
125	0x3db07027	0.08615141
126	0x3d82a5ec	0.06379303
127	0xbcd8fe7d	-0.026488537
128	0x3d2a5bc7	0.041591432
129	0x3dffb7c1	0.1248622
130	0x3e0fbb1d	0.14036222
131	0x3ccb3bb7	0.024808748
132	0xbdd4c5ba	-0.10389276
133	0xbe14da2d	-0.14536352
134	0x3de81661	0.113323934
135	0xbd9102a9	-0.070805855
136	0xbcc38a06	-0.023869526
137	0xbe1d95b4	-0.15389138
138	0xbc5a31d9	-0.013317549
139	0xbd3f6697	-0.046728697
140	0x3e01d6ff	0.12679671
141	0x3d1180a8	0.035523087
142	0x3e14e1c2	0.14539245
143	0xbd75d254	-0.060015038
144	0x3d8d2352	0.068915024
145	0xbe1bdc93	-0.15220861
146	0xbe04e82e	-0.12979195
147	0x3de6ba27	0.112659745
148	0x3def3056	0.11679141
149	0xbe04aa83	-0.1295567
150	0x3d86754a	0.0656534
151	0x3c08c43e	0.008347569
152	0xbd8ea46b	-0.06964954
153	0xbd1264a7	-0.03574052
154	0xbd8144ac	-0.06311926
155	0xbe023a6a	-0.12717596
156	0xbd036586	-0.032079242
157	0xbddb1972	-0.10698213
158	0x3e0826c0	0.13296032
159	0xbc12404f	-0.008926465
160	0x3e174f2a	0.14776292
161	0xbd72b62d	-0.059255768
162	0x3dc3396d	0.095324375
163	0xbc949ea1	-0.018142046
164	0x3df194e2	0.11795975
165	0x3bc3af6d	0.00597184
166	0xbd5c4092	-0.053772517
167	0xbd4696c2	-0.048483618
168	0xbe1f357a	-0.15547743
169	0x3da34f03	0.07974055
170	0xbd3b3580	-0.04570532
171	0x3e0f62e6	0.1400257
172	0x3ddd5ba2	0.10808493
173	0x3dff4841	0.12464953
174	0x3d8cb8ab	0.0687116
175	0x3e025a58	0.12729776
176	0x3da4818b	0.08032521
177	0x3d10f656	0.035391174
178	0x3e05c64f	0.1306393
179	0x3ddd82b1	0.10815943
180	0xbdf77b1d	-0.12084029
181	0x3d249345	0.04017951
182	0x3d81488d	0.06312666
183	0x3dfe48db	0.1241624
184	0xbde7858f	-0.11304771
185	0x3b4c76f5	0.0031198834
186	0xbd899d77	-0.06719487
187	0xbd303192	-0.043016024
188	0x3e14ef77	0.14544474
189	0xbe0a07e2	-0.1347957
190	0x3e1b46ed	0.15163775
191	0x3cf46d6b	0.02983733
192	0x3d0172bc	0.03160356
193	0xbc9c408b	-0.019073745
194	0x3b6cc47c	0.0036127856
195	0x3db40c99	0.08791465
196	0x3b8b75e3	0.0042559966
197	0xbdd6ae86	-0.104825065
198	0xbe077d52	-0.132314
199	0xbe1dd412	-0.1541293
200	0xbd459a30	-0.048242748
201	0xbdf03532	-0.11728896
202	0xbd8e7876	-0.0695657
203	0xbd909bee	-0.07060991
204	0xbdd37cad	-0.103265144
205	0xbcee5cea	-0.02909704
206	0x3bb7f2a7	0.005613643
207	0x3e036f7d	0.12835498
208	0x3d0581e4	0.032594576
209	0x3e05be4c	0.13060874
210	0xbdb00e1e	-0.08596443
211	0xbd6212dd	-0.05519377
212	0x3e148d76	0.14507088
213	0xbdd7c615	-0.10535828
214	0x3e00a1b4	0.12561685
215	0xbe0f20e8	-0.13977396
216	0x3de1a9d6	0.11018722
217	0x3d7056cc	0.058676526
218	0x3ca01a43	0.019543773
219	0xbd3ac5b4	-0.0455987
220	0x3dbacc80	0.091210365
221	0x3e1a29ad	0.1505496
222	0x3dea89a2	0.114520326
223	0xbda66247	-0.08124214
224	0x3db11162	0.08645894
225	0x3dc33e25	0.095333375
226	0xbdcd2c65	-0.10018233
227	0x3e191b71	0.14951874
228	0x3dbe326e	0.092869624
229	0xbd5b76f1	-0.05358023
230	0x3d7db608	0.061941177
231	0x3e037082	0.12835887
232	0xbd048e0a	-0.03236202
233	0xbd41ff57	-0.04736265
234	0x3e087776	0.1332682
235	0x3ddf6a77	0.109089784
236	0xbdccd28a	-0.10001095
237	0xbd3c6ef7	-0.04600426
238	0xbe0d3b33	-0.13792114
239	0xbc6d6516	-0.014489433
240	0xbdbcbb37	-0.09215396
241	0xbc4ba5e9	-0.012429693
242	0x3df433cd	0.11923943
243	0xbd860c21	-0.06545282
244	0x3dfea2d1	0.124333985
245	0xbdf7f345	-0.12106947
246	0x3d078f3e	0.03309559
247	0x3d256c02	0.040386207
248	0x3cefc7ab	0.029270014
249	0xbd702826	-0.05863204
250	0x3c85f6a4	0.016352959
251	0xbce8df35	-0.028426746
252	0xbd5c8ed1	-0.053847138
253	0xbd4b7c75	-0.04967924
254	0xbdcb8da2	-0.09939124
255	0xbdd26f66	-0.10275154

blocks.0.gate_conv.conv.bias f4 [64]
0	0x3c158a19	0.009127163
1	0xbbd1fa32	-0.0064079994
2	0x3b6a53f7	0.0035755613
3	0x3bd1ca9a	0.006402326
4	0xbb685f58	-0.003545722
5	0x3b7b3409	0.0038330576
6	0xbb49a402	-0.0030767922
7	0x3abffd56	0.0014647644
8	0x39db96dc	0.00041883334
9	0xbb588a52	-0.003304143
10	0x3bb99198	0.005663108
11	0xbaa9f227	-0.0012965844
12	0x3ba82332	0.0051311487
13	0xbb7b47c1	-0.003834233
14	0x380b3fc8	3.3199583e-05
15	0xba2cd37a	-0.0006592792
16	0x3c465a7f	0.012106537
17	0x3c14ab42	0.009074034
18	0xbba37a4a	-0.004988943
19	0xbc0ef074	-0.008724321
20	0x3b95a2f9	0.004566547
21	0x3adce75b	0.0016853617
22	0xb8c4e922	-9.389433e-05
23	0x3b1c4be4	0.0023848945
24	0x3afec087	0.001943604
25	0x3bc68e6c	0.0060594585
26	0x3c1eca57	0.009691796
27	0xbc1fb424	-0.009747539
28	0x3a9427c8	0.001130336
29	0xbbaf3aa4	-0.0053475667
30	0xbbcbf7b5	-0.0062245973
31	0xbc573661	-0.013135524
32	0xb96150b7	-0.00021487741
33	0x3ab5630e	0.0013838725
34	0xba348558	-0.0006886325
35	0x3b4ec561	0.0031550752
36	0xbb019c64	-0.0019777054
37	0xbbab8240	-0.005234033
38	0xbae76f1c	-0.0017657015
39	0x3bb33bf0	0.0054697916
40	0x3b5be5a0	0.0033553615
41	0xba9f4261	-0.001215052
42	0xbb86a65c	-0.004109187
43	0xba99dbc2	-0.0011738467
44	0x3a5b24a7	0.00083596486
45	0x390f7146	0.0001367974
46	0x3ba2de5c	0.004970355
47	0xbb9c85e3	-0.0047767027
48	0xbadb96cd	-0.0016753316
49	0xbb4168bd	-0.0029511892
50	0x3c2d0230	0.010559604
51	0x3be614bc	0.0070215147
52	0x3bffac87	0.0078025493
53	0xb9ec364e	-0.00045053888
54	0x3c257731	0.010099218
55	0x3ba1ea1a	0.004941237
56	0x3b01d833	0.0019812703
57	0xbb6a9e1c	-0.0035799807
58	0x3a689215	0.00088718656
59	0xbbd38eff	-0.0064562554
60	0xba70cc00	-0.0009185672
61	0xbacc46db	-0.0015585081
62	0xb9288d4d	-0.00016074367
63	0xba9e4abe	-0.0012076718

blocks.0.residual_conv.weight f4 [64, 64, 1, 1]
0	0x3c06879c	0.008211043
1	0x3e133363	0.14375071
2	0xbd848840	-0.064713
3	0xbdd53477	-0.104103975
4	0x3e1e7b1e	0.15476653
5	0x3ccc38dd	0.024929458
6	0xbc017fff	-0.007904052
7	0x3e454e9f	0.19268273
8	0x3dc4bb0f	0.09605991
9	0x3dcaa04f	0.09893858
10	0xbe653a4f	-0.22385524
11	0xbb9c0558	-0.004761379
12	0xbe03491c	-0.12820858
13	0xbdca3e0c	-0.09875116
14	0x3e42b18a	0.19013038
15	0xbd930289	-0.07178218
16	0xbe19f1e9	-0.15033688
17	0x3d1237f4	0.035697892
18	0x3e3ea8e2	0.18619111
19	0x3d99312c	0.07480082
20	0xbd47cd78	-0.048779935
21	0x3d8bfe7b	0.06835648
22	0x3e2fb23f	0.17157839
23	0xbdaf66f6	-0.0856456
24	0xbe0b0a17	-0.13578068
25	0xbd617b50	-0.05504924
26	0xbd603598	-0.05473861
27	0xbc7cd0d4	-0.015430648
28	0xbe1f9c2a	-0.15586916
29	0xbe32cadc	-0.17460197
30	0x3db2bbc1	0.087272175
31	0x3df01ff9	0.11724848
32	0x3db6056c	0.08887753
33	0x3e5abef6	0.21361908
34	0xbe279f8f	-0.1636946
35	0x3df274c2	0.11838676
36	0xbdd5957b	-0.10428902
37	0x3dec73d4	0.1154553
38	0x3d85e2e1	0.06537414
39	0xbcf07857	-0.029354258
40	0x3e0144b8	0.1262387
41	0x3d176af6	0.03696724
42	0xbd79bdc4	-0.06097199
43	0xbdf68cca	-0.12038572
44	0xbdbf7236	-0.09347956
45	0xbe54e366	-0.2078987
46	0xbe36a1d0	-0.17835164
47	0x3e270f11	0.16314341
48	0x3dced066	0.100983426
49	0x3cb40abd	0.021977777
50	0x3e4561ac	0.1927554
51	0xbe5b6ed1	-0.21428992
52	0x3da02e5d	0.07821343
53	0x3e19690c	0.14981478
54	0x3e080edc	0.13286918
55	0xbbe90758	-0.007111471
56	0xbcc7b50d	-0.024378324
57	0x3d95569d	0.07291911
58	0x3e1d858b	0.15382974
59	0xbe32da25	-0.17466028
60	0x3e3beeb4	0.18352777
61	0xbc8723a4	-0.016496487
62	0x3d99aebd	0.07504032
63	0xbd7452b0	-0.05964917
64	0x3d853c17	0.06505602
65	0x3d29a43b	0.041416388
66	0x3e2a6cfa	0.16643134
67	0xbca1b6c2	-0.019740466
68	0xbdb7cff7	-0.08975213
69	0xbdeb2ec3	-0.114835285
70	0xbc5f55a4	-0.013631258
71	0x3d0aff4b	0.033934873
72	0xbd962e4d	-0.0733305
73	0x3e09de9b	0.13463823
74	0x3e3df1a0	0.18549204
75	0xbab5ec11	-0.0013879557
76	0x3d88a5a0	0.066722155
77	0x3dbdfdba	0.0927691
78	0x3d3167ad	0.043311764
79	0xbe2a1686	-0.16610155
80	0x3db2635a	0.08710356
81	0x3ddcff8c	0.10790929
82	0x3c87990b	0.016552469
83	0xbdc33b16	-0.09532754
84	0x3d449f5f	0.04800355
85	0x3d1ca103	0.03823949
86	0xbe3c02c7	-0.18360434
87	0xbe123230	-0.14276958
88	0xbe37cca7	-0.17949162
89	0xbe0dbb1d	-0.1384091
90	0xbe58d31e	-0.21174285
91	0xbdee0f63	-0.116240285
92	0x3df70286	0.12061028
93	0xbd966aa8	-0.07344562
94	0xbe2d87e8	-0.16946375
95	0x3dda29bb	0.10652491
96	0xbc5bb885	-0.013410692
97	0xbe06cc6c	-0.13163918
98	0x3e3be335	0.18348391
99	0xbd57d916	-0.052697264
100	0x3e0ab1ef	0.13544439
101	0x3e240aad	0.16019697
102	0x3e2517ac	0.16122311
103	0xbe1e0fab	-0.15435664
104	0x3d3fe66f	0.046850618
105	0xbd8ab1c9	-0.06772191
106	0xbe0313d3	-0.12800531
107	0x3e3012e3	0.17194705
108	0xbd51b668	-0.051199347
109	0x3e513dd5	0.20433743
110	0xbce8a117	-0.028397126
111	0xbe62bd39	-0.22142495
112	0x3c8704c6	0.016481768
113	0x3c978e58	0.018500492
114	0xbe423efe	-0.18969342
115	0x3e58706d	0.21136637
116	0xbd5b2b4f	-0.0535081
117	0xbe01e7ea	-0.12686124
118	0xbe13a63d	-0.14418884
119	0x3e284dd0	0.16435933
120	0xbde99b20	-0.11406541
121	0xbd1c9958	-0.038232177
122	0x3e394f95	0.18096764
123	0xbe05c907	-0.13064967
124	0xbe35c63c	-0.17751402
125	0xbdeb6c9a	-0.114953235
126	0x3e23621f	0.15955399
127	0x3d76f118	0.06028852
128	0x3db05406	0.08609776
129	0x3d32a5c0	0.043615103
130	0x3c60e9ba	0.0137276
131	0x3e1d634f	0.15369914
132	0xbd3df341	-0.046374563
133	0x3d807e55	0.06274096
134	0xbc3ec317	-0.011643193
135	0x3c652b60	0.013987392
136	0xbd826443	-0.0636678
137	0x3e110c8d	0.14164944
138	0xbde11288	-0.10989863
139	0xbcd28932	-0.025700185
140	0xbc62a48e	-0.013833178
141	0xbe1feee2	-0.1561847
142	0xbc48aff4	-0.012248982
143	0xbbe7462c	-0.0070579257
144	0xbe37d52e	-0.17952415
145	0x3db02998	0.086016834
146	0xbe01b105	-0.12665184
147	0xbe3ca57e	-0.18422505
148	0x3dc2b283	0.09506705
149	0x3d5bd273	0.053667497
150	0xbd5eb6f5	-0.0543737
151	0x3e39103f	0.18072604
152	0xbd05b0c5	-0.032639284
153	0x3e55b664	0.20870358
154	0x3d83b021	0.06430078
155	0xbe2ca7cf	-0.16860889
156	0xbdca01cc	-0.09863624
157	0x3e2f5dcd	0.17125626
158	0xbda622ba	-0.08112092
159	0x3a3ebdd1	0.00072762097
160	0xbdca093b	-0.09865042
161	0x3dbff825	0.09373502
162	0xbd3036a3	-0.043020856
163	0x3ddc935e	0.107702956
164	0x3ce05ca9	0.027387934
165	0x3e15f4b9	0.14644136
166	0x3e37df3a	0.17956248
167	0x3d2c5ff4	0.042083696
168	0x3e0bdd6a	0.13658682
169	0xbe2a7bef	-0.1664884
170	0xbd901859	-0.07035894
171	0x3e279048	0.16363633
172	0xbe138f4c	-0.14410132
173	0x3c17c7ac	0.009263914
174	0x3e2d9a10	0.16953301
175	0x3e1e4bd7	0.15458618
176	0xb9f66e55	-0.0004700298
177	0xbdf8f184	-0.121554404
178	0x3d46e86a	0.04856149
179	0x3dc9f937	0.09861987
180	0x3b0a388c	0.0021090833
181	0x3d4d888d	0.050179053
182	0x3e2b489b	0.16726916
183	0xbdd9b826	-0.10630827
184	0x3d6ab5d1	0.0573023
185	0xbd3b216d	-0.045686174
186	0x3de64c0a	0.11244972
187	0x3e188b81	0.14896967
188	0x3d833f47	0.064085536
189	0x3c1db741	0.009626211
190	0xbe2519ca	-0.16123119
191	0xbd842d33	-0.064539336
192	0xbdb6dfda	-0.08929415
193	0x3d7fc4fa	0.06244371
194	0x3e39bf1b	0.18139307
195	0x3e312801	0.17300417
196	0xbd7f65ff	-0.06235313
197	0x3bd03202	0.0063536176
198	0x3e25409c	0.16137928
199	0x3bd9a17f	0.0066415663
200	0x3dfb565a	0.1227233
201	0x3c7e44c5	0.015519326
202	0xbe1777c5	-0.14791782
203	0xbe25d1ac	-0.16193265
204	0x3ce1fcb2	0.027586315
205	0xbdc4da55	-0.09611956
206	0xbba2a297	-0.00496323
207	0xbe1cdd1b	-0.1531872
208	0x3c09de7a	0.008414859
209	0x3d2e38df	0.042534705
210	0xbe1cd2f5	-0.15314849
211	0xbe14f18b	-0.14545266
212	0x3de74e78	0.112942636
213	0xbd677fe6	-0.056518458
214	0xbe11f8c4	-0.14255053
215	0xbe25c37b	-0.16187851
216	0xbcd7fe3c	-0.026366346
217	0x3d8cabc2	0.06868698
218	0xbd7b8a0f	-0.06141096
219	0x3e1d69c9	0.15372385
220	0x3cbc6b6c	0.023000441
221	0xbe47afaa	-0.19500604
222	0xbe045a37	-0.12925039
223	0xbdaf64fd	-0.08564184
224	0xbe500c77	-0.20317255
225	0xbe383bde	-0.17991588
226	0x3e5a39be	0.2131109
227	0xbe27b82a	-0.16378847
228	0x3d43e6b8	0.047827452
229	0x3dcbefe3	0.09957864
230	0x3db8c854	0.090225846
231	0xbe10786c	-0.14108437
232	0x3cf6bc3d	0.030119056
233	0xbe2b6a3f	-0.16739748
234	0x3e33f7a4	0.17574936
235	0x3c8260b2	0.015915249
236	0x3d3418f3	0.043969106
237	0x3e3ff299	0.18744887
238	0x3e18446b	0.1486985
239	0xba8bf0ff	-0.0010676681
240	0x3d96691a	0.07344265
241	0x3db7a315	0.08966652
242	0x3e1933e6	0.14961204
243	0x3e4adb06	0.19810113
244	0xbe0299f4	-0.12754041
245	0x3ddff6f8	0.109357774
246	0x3d68bdbf	0.05682158
247	0x3e2a56a0	0.16634607
248	0x3d111446	0.035419725
249	0xbe4fe3af	-0.20301698
250	0x3e170e45	0.14751537
251	0xbdea7913	-0.11448874
252	0xbca64120	-0.020294726
253	0x3d301016	0.04298409
254	0xbb5c2a21	-0.0033594447
255	0x3de74856	0.11293094

blocks.0.residual_conv.bias f4 [64]
0	0x3a6a9aaf	0.0008949441
1	0x3c210404	0.009827618
2	0xbbb0d4f9	-0.005396482
3	0xb9dbed1b	-0.00041947592
4	0x3c42991a	0.011877323
5	0xbb2da0fc	-0.002649366
6	0xba26f0b5	-0.00063682656
7	0x3c501b0b	0.01270176
8	0x3b79fc56	0.0038144789
9	0x3b28c714	0.0025753425
10	0x3a66ff1b	0.00088118174
11	0x3c412612	0.011788862
12	0xbbdab3ac	-0.0066742506
13	0xbbd36598	-0.00645132
14	0xbbee1b44	-0.007266434
15	0x3bab75d5	0.0052325525
16	0xbc4811ca	-0.0122112725
17	0x3ab6d5a8	0.0013949173
18	0x3a979944	0.0011566062
19	0xba8be565	-0.0010673223
20	0x3a964055	0.0011463264
21	0x3b4e7cfa	0.0031507597
22	0x3bb4cc85	0.0055175447
23	0x3bd8c685	0.0066154622
24	0xbaff3f9e	-0.0019473915
25	0x3b831ce1	0.0040012454
26	0xbbb6c386	-0.0055775074
27	0x3b6c1095	0.0036020626
28	0x3ab12d43	0.0013517517
29	0x3b66632b	0.0035154324
30	0x3bd3f0ac	0.0064678993
31	0xbbd8db8b	-0.0066179684
32	0xba83b92b	-0.0010049691
33	0xbbf15755	-0.007365147
34	0x3ae6075d	0.0017549802
35	0xbb773b9e	-0.0037724744
36	0x3bb582bd	0.005539267
37	0x3b45f408	0.0030205268
38	0xbbeea729	-0.0072831106
39	0x3b9459b9	0.0045272973
40	0xbc2b48f4	-0.010454405
41	0x3b8170ae	0.0039502
42	0x3c1dade2	0.009623976
43	0xbc046c4e	-0.0080824625
44	0x3bc1ab53	0.005910316
45	0x3ade127d	0.0016942766
46	0xbb7f8328	-0.0038988087
47	0xbbbce3ca	-0.0057644593
48	0xbbd8ed5c	-0.0066200923
49	0x3c5eafd7	0.013591728
50	0xbc0536c7	-0.008130736
51	0xbbc7f2ab	-0.0061019263
52	0x3b73ba03	0.003718973
53	0x3bd87fb7	0.0066070217
54	0xbb87e244	-0.004146846
55	0x3bb0076e	0.0053719794
56	0x3a98399b	0.0011613847
57	0x3c3d8976	0.011568418
58	0x3be21b0c	0.006900197
59	0xbc0f809a	-0.008758688
60	0xbc0c0f55	-0.008548577
61	0x3bafbf16	0.0053633554
62	0xb9eaf546	-0.000448147
63	0xbaeac42e	-0.0017911249

blocks.0.skip_conv.weight f4 [128, 64, 1, 1]
0	0x3d81e42b	0.06342348
1	0x3c303b77	0.010756365
2	0x3dfd4678	0.123669565
3	0xbe191cba	-0.14952365
4	0x3c8fc946	0.01755203
5	0x3cdd183b	0.026989093
6	0xbd45f2ca	-0.048327245
7	0xbe0e3bfc	-0.1389007
8	0xbdb68447	-0.08911949
9	0xbb8b48c4	-0.0042506177
10	0xbe059581	-0.13045312
11	0x3dc22a7d	0.0948076
12	0x3d96ad73	0.073573016
13	0xbd961fe3	-0.07330301
14	0x3d737e02	0.059446342
15	0xbdb5051f	-0.088388674
16	0x3c86eaad	0.016469324
17	0x3d714740	0.05890584
18	0xbdd82720	-0.105543375
19	0xbc6433cf	-0.013928368
20	0xbdb34590	-0.08753502
21	0xbd8d01dc	-0.0688512
22	0xbe22530c	-0.15851992
23	0xbcdbd313	-0.026834046
24	0xbe0049b2	-0.12528113
25	0x3e0d6f43	0.13811974
26	0x3dcb58c6	0.099290416
27	0xbccd30d1	-0.025047692
28	0xbda02fe0	-0.078216314
29	0xbdaf37a1	-0.08555532
30	0xbd305f0e	-0.0430594
31	0x3d0b5179	0.034013245
32	0x3dda37aa	0.10655148
33	0x3e34ae44	0.17644602
34	0x3e36f722	0.17867711
35	0x3d5fc03a	0.05462668
36	0xbe0f61d3	-0.1400216
37	0x3cd01906	0.025402557
38	0x3d52c241	0.051454786
39	0x3e08ad58	0.13347375
40	0x3e3088d8	0.17239702
41	0x3e25f1f4	0.16205579
42	0xbdbaa035	-0.09112588
43	0x3d8d26f5	0.06892196
44	0xbcc96e88	-0.024588838
45	0xbc3dfd1f	-0.011595993
46	0xbda1eb57	-0.07906216
47	0xbdaa2efb	-0.08309742
48	0x3db317b1	0.08744753
49	0x3d42d179	0.04756305
50	0xbe2aceb1	-0.16680409
51	0xbd8d22e4	-0.068914205
52	0x3e17f02f	0.14837717
53	0x3d4a0dc8	0.04932955
54	0x3dbee253	0.09320512
55	0xbc8d3518	-0.017237231
56	0x3dc50b4f	0.096212976
57	0x3e0ab0dc	0.13544029
58	0xbd238c3e	-0.039928667
59	0x3e08914e	0.1333668
60	0xbdeadc3f	-0.1146779
61	0xbd3ae607	-0.045629527
62	0xbcbca4b7	-0.02302776
63	0xbdba60cb	-0.09100493
64	0x3dcd4b6e	0.10024153
65	0x3de8e3d3	0.11371579
66	0xbce93136	-0.028465848
67	0xbc56aed5	-0.013103207
68	0x3e169139	0.14703836
69	0x3d9a6099	0.07537956
70	0x3d8234ae	0.06357704
71	0x3d1e8b9f	0.03870737
72	0xbd9ea25d	-0.07745812
73	0x3d1667d7	0.036720123
74	0x3d4189e6	0.04725065
75	0x3bddc995	0.006768415
76	0x3d037449	0.03209332
77	0x3dee7a26	0.11644392
78	0x3d2333e8	0.039844424
79	0xbd56ca28	-0.052438885
80	0x3dd79c03	0.10527804
81	0x3e1979f4	0.14987928
82	0xbe3366ee	-0.17519733
83	0xbc62ab98	-0.013834856
84	0x3dc88209	0.09790427
85	0xbdedcc6b	-0.11611255
86	0x3d586639	0.052831862
87	0x3e0b193b	0.13583843
88	0xbe218282	-0.15772441
89	0x3d8bec4d	0.0683218
90	0xbcd42be0	-0.025899827
91	0xbe2ae304	-0.16688162
92	0x3e0629da	0.13101903
93	0xbc391f1b	-0.01129892
94	0xbd548bba	-0.051891066
95	0xbe343dcf	-0.17601703
96	0xbe1afe35	-0.15136035
97	0x3c3297a2	0.01090041
98	0x3dbebe99	0.09313697
99	0xbd30d82e	-0.043174915
100	0x3dc4ecae	0.096154556
101	0x3e224901	0.15848161
102	0x3d207552	0.039174385
103	0xbe34db40	-0.17661762
104	0xbdc5d65d	-0.09660027
105	0x3d4d32be	0.05009722
106	0xbc2e7c97	-0.010649822
107	0x3de8ee62	0.11373593
108	0x3dd3569e	0.10319255
109	0xbddd446c	-0.10804066
110	0xbe08305d	-0.13299699
111	0xbcf7a117	-0.03022818
112	0xbc32513e	-0.010883627
113	0xbe158025	-0.14599665
114	0xbde4e88b	-0.111771666
115	0x3da5014f	0.0805689
116	0x3df4abfe	0.119468674
117	0xbd08cb43	-0.03339697
118	0xbe1491ad	-0.14508696
119	0x3d30e869	0.043190394
120	0xbd40f46c	-0.0471081
121	0xbe24169e	-0.16024253
122	0xbd7b68be	-0.061379187
123	0xbc0bdc0f	-0.008536353
124	0xbddf8ae5	-0.10915164
125	0x3d3bf8fb	0.045891743
126	0xbd921c16	-0.07134263
127	0xbe1a05bd	-0.15041251
128	0x3d47d194	0.048783854
129	0x3c282e6e	0.010264976
130	0x3e0be7fc	0.13662714
131	0x3d9f6acc	0.07784042
132	0x3e0d34ad	0.13789625
133	0x3cc2ce1f	0.023779927
134	0x3e23ee0d	0.16008778
135	0xbd14efd6	-0.036361538
136	0xbe23116d	-0.15924616
137	0x3c6b2b43	0.014353576
138	0xbe0ba269	-0.13636173
139	0x3d77a9f8	0.06046483
140	0x3e2892e2	0.16462281
141	0x3db940f6	0.090455934
142	0x3d1fd064	0.039017096
143	0x3e239d7b	0.15978043
144	0x3bc3bf48	0.0059737302
145	0xbd44f8d5	-0.048088867
146	0xbdf261c3	-0.11835053
147	0xbdf76d26	-0.12081365
148	0x3cd4528f	0.025918273
149	0x3e147227	0.1449667
150	0x3e2b9bae	0.16758606
151	0xbd919de1	-0.07110191
152	0xbdc7767c	-0.09739396
153	0xbd95973c	-0.07304236
154	0xbc9e3378	-0.019311652
155	0x3e0af8b7	0.1357144
156	0x3e142458	0.14466989
157	0x3b952dd0	0.0045525804
158	0x3dc30140	0.09521723
159	0x3ddbf995	0.10740963
160	0xbdba4b91	-0.090964444
161	0x3e2d1659	0.16903056
162	0x3d756254	0.059908226
163	0xbe0c673b	-0.13711254
164	0xbe35a6e6	-0.17739448
165	0xbe0b121a	-0.13581124
166	0xba6bf7c2	-0.00090014574
167	0xbda3777e	-0.07981776
168	0x3da205ea	0.07911284
169	0x3e36c9d7	0.17850433
170	0x3ca70836	0.020389657
171	0x3db6476d	0.08900342
172	0x3e1976b8	0.14986694
173	0xbdc5c5ca	-0.09656866
174	0xbe282bd7	-0.16422974
175	0xbcace969	-0.021107392
176	0x3cfad030	0.03061685
177	0x3d8b97ce	0.06816064
178	0x3d43b873	0.047783326
179	0x3e1dcaee	0.15409443
180	0x3de811a5	0.113314904
181	0x3e27fd29	0.16405167
182	0x3dc07339	0.09396977
183	0x3d822278	0.06354231
184	0xbe228ec6	-0.15874776
185	0xbdd58f64	-0.1042774
186	0x3cb4063d	0.02197563
187	0xbbf84623	-0.0075767203
188	0x3ca18f32	0.019721601
189	0x3db7a875	0.089676775
190	0xbde307dd	-0.11085484
191	0xbd70ca86	-0.05878689
192	0xbd4544c1	-0.048161272
193	0x3e14ed30	0.14543605
194	0xbdb7d539	-0.08976216
195	0xbd72b3f4	-0.059253648
196	0xbd9c70f5	-0.07638732
197	0xbc1a49d6	-0.009417018
198	0xbd408070	-0.046997488
199	0x3e015bd1	0.12632681
200	0xbdd6a1cb	-0.10480078
201	0xbe0daf93	-0.13836507
202	0x3e0ee357	0.13953911
203	0xbdfc41ce	-0.12317239
204	0xbc72b61f	-0.014813929
205	0x3e131dc1	0.14366819
206	0xbe16b020	-0.14715624
207	0xbd04c9a3	-0.03241886
208	0xbdbfa365	-0.09357337
209	0xbd6e4f98	-0.058181375
210	0xbac697ed	-0.0015151479
211	0xbdf9df18	-0.12200755
212	0x3c1f1081	0.009708525
213	0x3decc7b3	0.11561527
214	0x3ccb1dc8	0.024794474
215	0x3dfeac91	0.12435258
216	0xbd494d65	-0.049146075
217	0x3dc80fb9	0.09768624
218	0x3d94c2a1	0.07263685
219	0xbd29a3d2	-0.041415997
220	0xbe1e8abf	-0.15482615
221	0xbd40ff5d	-0.047118533
222	0xbcbc333d	-0.022973651
223	0x3da6d299	0.08145637
224	0x3df312ed	0.11868844
225	0x3d34fbdb	0.0441855
226	0xbd6d81b9	-0.05798504
227	0x3dd708eb	0.10499748
228	0x3e21b1cb	0.15790479
229	0xbc25c9a6	-0.0101188775
230	0xbdb8bf5b	-0.09020873
231	0x3da924ab	0.08258947
232	0x3c01aad3	0.007914263
233	0xbe02bb7d	-0.12766834
234	0xbd38db89	-0.04513124
235	0x3da9532d	0.08267818
236	0xbe051f4e	-0.13000223
237	0x3b415f38	0.0029506218
238	0x3e0c181b	0.1368107
239	0x3dd78e22	0.105251566
240	0x3c151b1d	0.009100703
241	0xbdb5e1d7	-0.08880966
242	0x3df1518b	0.11783131
243	0x3da0f1ef	0.07858645
244	0x3e19c98f	0.15018295
245	0xbd810f8a	-0.06301792
246	0x3daea8d8	0.08528298
247	0x3e30848a	0.1723806
248	0x3d1b3760	0.037894607
249	0x3dd738cc	0.1050888
250	0x3e26e124	0.16296822
251	0x3dedaf37	0.11605685
252	0xbdc124f5	-0.09430877
253	0x3e031d67	0.12804185
254	0x3cc6f919	0.0242887
255	0x3e03a1c5	0.12854679

blocks.0.skip_conv.bias f4 [128]
0	0xba58131c	-0.00082425936
1	0xbbc1c311	-0.0059131463
2	0x39eb327c	0.00044860307
3	0xbb8f0109	-0.004364137
4	0xbb85c732	-0.004082584
5	0x3ba0c1af	0.0049059014
6	0xbb99453c	-0.004677443
7	0xb9698352	-0.00022269532
8	0xbb96fc51	-0.004607715
9	0x3b84b18e	0.0040494865
10	0xbb8a6be8	-0.004224289
11	0x3b9dce71	0.0048158695
12	0x3b8da143	0.0043222024
13	0xbbd65d20	-0.006541863
14	0x3b84b01a	0.0040493133
15	0x3b43dea8	0.0029887352
16	0xbba24bfc	-0.0049529057
17	0xbaecafdb	-0.001805778
18	0x3bfb4acf	0.00766883
19	0xbbda328a	-0.0066588568
20	0xba646270	-0.0008712178
21	0x3c3054e3	0.010762426
22	0x3b40a6dc	0.002939633
23	0xba5017bd	-0.00079381076
24	0x3b1abe60	0.0023612007
25	0xba9827fd	-0.0011608597
26	0xba0eb433	-0.0005443722
27	0x3992ab31	0.00027974838
28	0xbbca74a6	-0.0061784564
29	0xba28a930	-0.00064339023
30	0x3b52311b	0.0032072726
31	0x3a9e1e34	0.0012063445
32	0xba962e70	-0.0011457931
33	0x3b90ce31	0.004419111
34	0x3ad9e0d3	0.0016622789
35	0x3bad4e65	0.0052888864
36	0x3b028eea	0.001992161
37	0xb80ce0f4	-3.3588105e-05
38	0x3bddd696	0.0067699654
39	0x3b968d08	0.004594449
40	0xbb601ead	-0.0034197972
41	0xbb928551	-0.004471459
42	0x3b00717a	0.0019598887
43	0x3aa975d2	0.001292879
44	0xbb4f3d4a	-0.0031622224
45	0xbbc2c6ae	-0.0059440946
46	0xbbbc9fbe	-0.0057563474
47	0x3ad88f99	0.0016522288
48	0x3b90d08b	0.0044193915
49	0xbaef3d2e	-0.0018252486
50	0xbb2911cd	-0.0025797964
51	0xbaf175ab	-0.0018421909
52	0xbb4518ab	-0.0030074518
53	0x3ba803ae	0.005127392
54	0x3bdc4c2a	0.0067229467
55	0x3b278222	0.0025559743
56	0x3aff393d	0.0019472014
57	0xba14c999	-0.00056757923
58	0xb9b42aef	-0.00034364263
59	0xb90fb07b	-0.00013703287
60	0x3b4576f2	0.0030130711
61	0x3b86e162	0.004116223
62	0x3b3aa2e7	0.0028478445
63	0x3bd626d9	0.0065353927
64	0xbb8d72cc	-0.0043166634
65	0xbb463182	-0.0030241911
66	0x3bdd509f	0.0067539955
67	0x3b24887a	0.002510576
68	0xbbadb676	-0.005301292
69	0xbb9a9bc0	-0.004718274
70	0x3bc866a3	0.006115751
71	0x3ad4e606	0.0016242869
72	0x3b953d24	0.0045544077
73	0xba239cd7	-0.00062413275
74	0x3b0f31c8	0.002184974
75	0xba0a1cd9	-0.0005268581
76	0xbba013ab	-0.004885157
77	0xbacc0354	-0.0015564957
78	0xbc27f03e	-0.010250149
79	0x3b7f693d	0.003897264
80	0x3b9fdc6d	0.0048785717
81	0x3b41d9b7	0.002957923
82	0x3b633ff1	0.0034675563
83	0x3b986660	0.004650876
84	0x3b1609bc	0.0022893986
85	0x3b999d2c	0.004687926
86	0xbadc4005	-0.0016803747
87	0xbb6a2695	-0.0035728563
88	0xbabcde3d	-0.0014409494
89	0xbbc03ca3	-0.0058666035
90	0x3ada723e	0.0016666127
91	0x3b288093	0.0025711402
92	0xbbac5dcd	-0.0052602054
93	0x3bd9d1de	0.0066473326
94	0x3ae016ff	0.0017096697
95	0x3b2a0e39	0.0025948419
96	0xbb1ff649	-0.0024408272
97	0xb997e9c2	-0.00028975127
98	0x3bc52eeb	0.006017556
99	0xbb98b823	-0.0046606227
100	0x3b0d541b	0.0021565023
101	0x3bab2989	0.0052234572
102	0x3ab38930	0.0013697501
103	0xb9f3a175	-0.00046468867
104	0x3ada6a31	0.0016663728
105	0x3abf2f9e	0.0014586335
106	0xbaf5c9e1	-0.0018752181
107	0xbb997662	-0.004683302
108	0x3c01625e	0.007896988
109	0x3b37eede	0.002806596
110	0x3bfc96f5	0.007708425
111	0xbb66f48a	-0.0035240971
112	0xbb6305f8	-0.0034641009
113	0x3b92c690	0.004479237
114	0x3c0e02cf	0.008667662
115	0x3acc6c47	0.0015596234
116	0xba1d961a	-0.00060114416
117	0xb93fb958	-0.00018284225
118	0x3ae89ec6	0.0017747513
119	0xbb622245	-0.003450529
120	0x3c06e845	0.008234088
121	0xbb7da75c	-0.003870449
122	0x3be62c9e	0.0070243618
123	0x3b802d04	0.0039116163
124	0xbbb5deb8	-0.005550232
125	0x3becd4b7	0.007227506
126	0x3bc999aa	0.0061523514
127	0xbb4cf343	-0.0031272925

blocks.0.bn.weight f4 [64]
0	0x3f8002cf	1.0000857
1	0x3f81566a	1.0104496
2	0x3f7e7681	0.9939957
3	0x3f80d36d	1.0064522
4	0x3f816312	1.0108359
5	0x3f804a62	1.00227
6	0x3f7e9fdb	0.9946267
7	0x3f800a27	1.0003098
8	0x3f7f98a2	0.99842274
9	0x3f7f67f9	0.99768025
10	0x3f7db169	0.9909883
11	0x3f7f78c1	0.9979363
12	0x3f80ab92	1.0052359
13	0x3f7d9be1	0.9906598
14	0x3f7e9520	0.99446297
15	0x3f7f508b	0.99732274
16	0x3f7db6ad	0.99106866
17	0x3f7fe4ed	0.9995869
18	0x3f7e2117	0.9926924
19	0x3f7f4f5f	0.99730486
20	0x3f80110c	1.0005202
21	0x3f803cf5	1.0018603
22	0x3f7dc98d	0.9913567
23	0x3f8099e0	1.0046959
24	0x3f802565	1.0011412
25	0x3f80d324	1.0064435
26	0x3f7fc992	0.99916947
27	0x3f8084b7	1.0040501
28	0x3f806989	1.0032207
29	0x3f7dc44b	0.99127644
30	0x3f7faf4e	0.9987687
31	0x3f801f4f	1.0009555
32	0x3f806fcd	1.0034119
33	0x3f810f5a	1.008281
34	0x3f7fe438	0.9995761
35	0x3f7fc554	0.99910474
36	0x3f7f1a26	0.99649274
37	0x3f809fbf	1.0048751
38	0x3f7f6002	0.9975587
39	0x3f7fd248	0.9993024
40	0x3f81095b	1.008098
41	0x3f7f5e70	0.99753475
42	0x3f802f8b	1.0014509
43	0x3f7ebb6c	0.99504733
44	0x3f8004a9	1.0001422
45	0x3f80e661	1.0070306
46	0x3f80826b	1.00398
47	0x3f80cab8	1.0061865
48	0x3f80dcc2	1.006737
49	0x3f80388a	1.0017254
50	0x3f7ff606	0.99984777
51	0x3f7fb192	0.99880326
52	0x3f8066ab	1.0031332
53	0x3f80af38	1.0053473
54	0x3f7fcb9b	0.9992005
55	0x3f7f2550	0.9966631
56	0x3f8042d6	1.0020397
57	0x3f7f258a	0.99666655
58	0x3f7e6bb2	0.9938308
59	0x3f7f527a	0.99735224
60	0x3f80bc79	1.0057517
61	0x3f7f6e97	0.9977812
62	0x3f80984e	1.004648
63	0x3f7fd34d	0.99931794

blocks.0.bn.bias f4 [64]
0	0x3a77bcca	0.0009450434
1	0x3b31bba6	0.0027119904
2	0xbb165715	-0.0022940089
3	0xbb4418f9	-0.0029922111
4	0xb9851caf	-0.00025389108
5	0x3b828363	0.0039829477
6	0xb93b121d	-0.00017840457
7	0xbb4fd8ec	-0.003171499
8	0xbb594b83	-0.003315658
9	0xbad459b5	-0.0016201051
10	0xbb399e4b	-0.002832311
11	0xb9d3dc09	-0.00040408995
12	0xb7120ca8	-8.705225e-06
13	0xb9ee4e42	-0.00045453204
14	0x3ba6b65c	0.005087657
15	0x3affd939	0.0019519693
16	0x3a22f341	0.0006216057
17	0xbb42aa68	-0.002970362
18	0x3b85508d	0.0040684403
19	0x3b3a1c0c	0.0028398065
20	0x3bff9d83	0.0078007593
21	0xbbf66596	-0.007519434
22	0xb92ca0b9	-0.00016463072
23	0xbb8cbe69	-0.0042951596
24	0xbb6c86b6	-0.0036091036
25	0xbbb04549	-0.005379353
26	0x3b132d10	0.002245728
27	0xbb8441c4	-0.00403616
28	0xbb17d0fb	-0.0023165334
29	0x3a5b4ebe	0.00083659205
30	0x3b65ad71	0.0035046006
31	0xbaec789b	-0.0018041314
32	0xbbafbe7c	-0.0053632837
33	0xbb00b481	-0.0019638839
34	0x3c03e243	0.0080495505
35	0x3b830b3d	0.0039991424
36	0x3b021426	0.0019848435
37	0xbab64397	-0.0013905641
38	0xba41b168	-0.00073888013
39	0x3bc037a3	0.0058660074
40	0xbb9eba32	-0.0048439736
41	0x3b1a8d2f	0.0023582687
42	0xba3fce72	-0.00073168345
43	0x3be4a42f	0.00697758
44	0x3c39b7d3	0.011335331
45	0x3c478316	0.012177249
46	0x3be442c3	0.0069659664
47	0x3a62f2cc	0.00086573954
48	0x3b94d7c0	0.004542321
49	0x39eb1c85	0.00044843942
50	0xbb46038e	-0.003021452
51	0x3b8fe3a9	0.004391153
52	0x3b0ae40c	0.0021193055
53	0xbb5e089d	-0.0033879646
54	0x3ba26235	0.004955555
55	0x3ae96156	0.0017805498
56	0xb9113870	-0.00013849302
57	0x3b45f9f3	0.0030208796
58	0x3b309816	0.002694612
59	0x3b4f784b	0.0031657394
60	0x3b1c64e3	0.0023863844
61	0x3b917667	0.0044391635
62	0xba820fd7	-0.0009922934
63	0xbc1e8fb4	-0.009677816
