TGNN2026/artifacts_MTGNN1m_1SoftUtility/fold_03_weights.pt (torch, 802453 bytes, 83 tensors)

A_static f4 [3, 3]
000000 ab aa aa 3e ab aa aa 3e ab aa aa 3e ab aa aa 3e
       0.33333334 0.33333334 0.33333334 0.33333334
000010 ab aa aa 3e ab aa aa 3e ab aa aa 3e ab aa aa 3e
       0.33333334 0.33333334 0.33333334 0.33333334
000020 ab aa aa 3e
       0.33333334

in_proj.weight f4 [64, 15]
000000 cd 2c 69 be 5b b7 56 be d9 15 45 3e 83 7b 3a 3e
       -0.22770996 -0.20968382 0.19246615 0.18211178
000010 64 cd 85 3e f7 e9 57 be ee dc b6 39 79 87 cd bd
       0.26133263 -0.21085344 0.0003487835 -0.10035605
000020 e1 6f 10 3d 01 16 1a be bd c0 2e be 97 63 f9 3d
       0.035262946 -0.15047456 -0.17065711 0.121771984
000030 ad 95 35 3e e0 c0 d0 bd a7 40 93 3d 5f fb d8 bd
       0.17732878 -0.10193038 0.07190066 -0.1059482
000040 25 c1 fe bd ac ed e8 bd bf 01 f4 3d de f1 14 3e
       -0.12439183 -0.11373457 0.119143955 0.1454539
000050 b8 c4 16 be a8 b1 42 3e 1c 55 6d 3e 86 63 28 3e
       -0.1472348 0.19013083 0.23176998 0.16444215
000060 8f 7e 99 bd 17 79 83 bc 6e 58 dc bd 0e 9f 4d bd
       -0.07494842 -0.016048951 -0.10759054 -0.050200514
000070 72 bb 51 3e 87 9b 73 3e 0e c1 50 be a9 5f 63 bd
       0.20481661 0.23789798 -0.20386145 -0.05551115
000080 01 38 b6 3d 85 f2 ff bd 3f bd a8 3d 37 4f 93 be
       0.08897401 -0.12497429 0.08239221 -0.28771374
000090 75 be 0e 3d 30 94 49 3e ba e1 15 bb d0 a0 78 3d
       0.034849603 0.19685435 -0.002287014 0.060700238
0000a0 56 a3 12 3e ff 68 f5 3d 3d e0 61 be 7e 3b 9a bd
       0.1432012 0.11982917 -0.22058196 -0.075308785
0000b0 77 9c 43 bc b0 f0 1f bd 25 b2 6d be ed 75 77 3e
       -0.01193916 -0.039047897 -0.23212488 0.24166079
0000c0 b0 a4 2c 3d a8 e5 33 b7 bc ff bc 3d ef 7d 43 3e
       0.042149246 -1.0722702e-05 0.09228465 0.19091009
0000d0 eb 0e 3a 3e 12 88 9b bc b5 1e 54 bd 94 65 f0 bb
       0.18169753 -0.018985782 -0.051787097 -0.007336328
0000e0 b1 9a ac bd 17 2f 74 be 23 50 8c bd 72 b0 1c 3e
       -0.084279425 -0.23846088 -0.06851222 0.15301684
0000f0 34 d9 5f 3e a0 31 4c 3e 13 cf 54 be 4a 43 cf 3d
       0.218602 0.19940805 -0.20782118 0.10120256
000100 3e e8 4b be 9b 28 0d be f0 1d 66 3e ba 89 7e 3e
       -0.19912812 -0.13785021 0.22472358 0.24857226
000110 10 35 71 3d 9b 8f 0e 3e 46 32 ea bd e7 00 30 3e
       0.058888495 0.13921969 -0.1143537 0.17187844
000120 ce 62 5c be 52 3c a6 bd 97 b2 19 be d3 20 f4 bd
       -0.21522066 -0.08116974 -0.15009533 -0.11920323
000130 e6 28 15 be ef 7b 64 3e 2e 7e 8d be 53 4a 57 3e
       -0.14566383 0.22312902 -0.2763533 0.21024446
000140 9a a6 61 3e 73 82 b4 bc e5 74 fb bd 5e 55 5c 3d
       0.2203621 -0.02203486 -0.12278155 0.05379235
000150 ec a3 ca bd 94 65 53 3d 95 52 17 be 3a 19 70 3e
       -0.09894547 0.051610544 -0.14777596 0.23447123
000160 74 13 bf 3d 0e 7e 08 3e 3e 29 f8 bc 8d 5a 1b 3d
       0.09329882 0.13329336 -0.030293103 0.037928153
000170 36 45 0c 3d 75 ea 5a 3e 30 45 20 3d 4c 6c 50 be
       0.034245692 0.21378501 0.039128482 -0.20353812
000180 71 15 84 3d b4 8e d3 3d ac 1b 7d 3e 6c 9e e7 bd
       0.06449402 0.10329953 0.24717587 -0.113095134
000190 43 c8 5f 3d 22 e3 4a 3b 95 02 6b be f9 df 89 bd
       0.054634344 0.0030958136 -0.22950204 -0.067321725
0001a0 a4 97 11 be 4b b4 1b be 94 da 7a be 0e 73 70 be
       -0.14218003 -0.15205495 -0.24497443 -0.2348139
0001b0 db 3f 14 3d 3c 5a 68 3e 98 7a 68 be 00 12 eb 3d
       0.03619371 0.22690672 -0.22703016 0.114780426
0001c0 d4 af fb 3d 7a f0 f1 bd 6b 88 7b bd d0 c9 22 3d
       0.12289396 -0.118134454 -0.061409395 0.039743245
0001d0 7d c6 7e be 16 49 66 3e 60 2a e2 b9 29 59 18 3e
       -0.24880405 0.22488818 -0.0004313765 0.14877762
0001e0 6c c5 2e bc ec 87 5a be cb 39 13 3d 50 e7 2f bd
       -0.010667186 -0.21340913 0.035943788 -0.042945206
0001f0 40 c6 ec bd d5 70 87 bc f3 1a 11 be 38 d7 90 bd
       -0.11561251 -0.016533295 -0.14170437 -0.070723
000200 6a ed 87 be 35 40 a1 bd e9 92 20 3e a4 fe c3 3d
       -0.2654832 -0.07873575 0.15681042 0.09570053
000210 3c e2 55 be e6 02 14 3d 71 cd 47 be 07 5f 40 3e
       -0.20887083 0.036135577 -0.19511963 0.1878625
000220 d7 b8 e0 3d 2c de ab 3d 74 df 78 3e 7c 80 86 be
       0.109727554 0.08391985 0.2430399 -0.262699
000230 20 e7 80 3e 3f 55 6a be d8 71 85 be 7b 27 41 3e
       0.25176334 -0.22884081 -0.26063418 0.18862717
000240 a2 4c 09 3e f0 8f 10 bd 36 ae 86 3e 15 43 7b 3c
       0.1340814 -0.03529352 0.26304787 0.015335818
000250 1f 8b 05 3d 4c 17 ca bd 89 04 4e 3e 0c 8a e2 3c
       0.03260338 -0.09867725 0.20118918 0.027653717
000260 1d fa 77 3e df dd 69 3d 42 c0 99 bc 44 bf 83 3e
       0.24216504 0.05709636 -0.018768433 0.25731862
000270 eb 91 5c be 48 fa 27 3e 10 f4 14 be 61 ec 40 bc
       -0.21540038 0.16404068 -0.14546227 -0.011775107
000280 60 a0 43 be d0 96 59 3e 8d 08 6f 3e 92 2e 4b be
       -0.19104147 0.21248937 0.23343106 -0.19841984
000290 86 7e b1 bd 27 12 db 3d e8 a6 69 be 4f 2b 8a 3e
       -0.086667106 0.10696822 -0.22817576 0.26986167
0002a0 4b 8c 28 3e c0 e2 17 be cc 2c 87 3e 42 7a 42 bd
       0.16459768 -0.14832592 0.26401365 -0.047479875
0002b0 9a 36 97 bd 85 08 8b 3d d5 1b 31 be a2 c0 ca 3d
       -0.07383461 0.06788734 -0.17295773 0.09900023
0002c0 c1 f7 1b be e4 d5 c4 3d ac 09 16 3e 9b d6 c7 3c
       -0.1523123 0.09611109 0.14652127 0.024394324
0002d0 65 01 34 be 80 f3 47 be 16 99 5b 3e 70 be 7f 3d
       -0.17578657 -0.19526482 0.21445116 0.062437475
0002e0 78 9a ef bd ee a9 1a 3e d5 99 11 3e fd b8 10 be
       -0.116993845 0.15103886 0.14218839 -0.14133067
0002f0 f8 71 19 be a6 af 47 3e f0 f5 19 3e 9e cd 23 3d
       -0.14984882 0.19500598 0.15035224 0.039991014
000300 c7 0a 42 be a9 0f 06 3e e5 df c2 ba 13 57 14 be
       -0.18949424 0.13091911 -0.0014867751 -0.14486341
000310 fb 6b 0f 3e 35 77 87 be a0 c2 93 3d aa 84 bd bd
       0.14006035 -0.26458135 0.07214856 -0.09253819
000320 83 e7 2d bc cb ff 19 3e 0b 03 1f 3d 71 86 ea ba
       -0.010614279 0.15038984 0.03882126 -0.001789285
000330 86 c4 ee bd 4d 8d 10 be ea be 36 3e 7e 8a 03 bd
       -0.116585776 -0.14116402 0.17846265 -0.0321145
000340 7f c2 fd bd f7 01 8f bd 9a ba 6e bd 5c 0a 17 bd
       -0.12390613 -0.06982797 -0.058283426 -0.036875114
000350 69 65 86 be c6 a8 33 3e 68 82 f6 bd 67 b6 07 3e
       -0.26249245 0.1754485 -0.12036592 0.13253175
000360 92 97 e8 bd 60 64 bd 3d b7 c7 16 3d bf fb 1d bb
       -0.11357035 0.09247661 0.036811557 -0.0024106351
000370 37 80 c2 3d b4 44 46 bd e6 16 ef bd 69 1f bd bc
       0.09497111 -0.048405364 -0.116742894 -0.023086267
000380 ad 01 8c 3e 47 e5 e9 bd 6e 86 24 bd b7 c0 5f 3c
       0.2734503 -0.11420684 -0.040167265 0.013656787
000390 ff f3 88 3e e9 17 01 be dc 37 39 be 83 06 82 3e
       0.26748654 -0.12606777 -0.18087715 0.25395593
0003a0 fc 4d 06 be 53 19 85 be 7d 85 5b be ab bc 10 be
       -0.13115686 -0.25995883 -0.2143764 -0.14134471
0003b0 91 c6 29 3e 6f a3 0b 3e e7 84 33 3d d7 5c 53 bc
       0.16579653 0.13636564 0.043827917 -0.012900553
0003c0 31 8e 0d 3e e2 43 55 bc 50 d4 bb bd c6 9f 6b 3e
       0.13823773 -0.013016673 -0.09171355 0.23010167
0003d0 dc 9a 14 3d 22 3f 6b 3b be cb 1e 3d 38 39 2e be
       0.036280498 0.0035895784 0.038768522 -0.17014015
0003e0 cd 04 c6 3d b5 63 8c 3e be c4 b8 bc dc 75 75 3e
       0.096688844 0.2741982 -0.022554751 0.23970741
0003f0 74 58 7c 3d b5 40 3a 3e 8c 5a 75 be 8e b6 bd bc
       0.061607793 0.18188746 -0.23960322 -0.023158338

in_proj.bias f4 [64]
000000 31 54 98 ba 6b 7d 0f 3c ed 8f eb bb 33 32 e0 ba
       -0.0011621771 0.008757929 -0.007188788 -0.0017104804
000010 13 77 c1 3a 87 8e 8f 3b 85 1c d9 ba 66 29 81 ba
       0.0014760218 0.0043810043 -0.0016564286 -0.0009854257
000020 54 ba 6d bb 9d fd 8b bb 52 2c 9f ba 5e 02 07 bc
       -0.003627439 -0.0042721764 -0.0012143946 -0.0082403105
000030 52 6c 00 3c fb 44 ca 3b 8e cb 81 ba 9d 9b 93 bc
       0.007838326 0.006172774 -0.0009902583 -0.018018538
000040 4d 15 a3 b9 c9 af f8 3a 31 a1 15 3b 08 b6 98 3b
       -0.00031105653 0.0018973286 0.0022831673 0.0046603717
000050 8c e2 15 ba c3 23 e1 ba 1a ad 9b 3b 8f 80 a7 ba
       -0.0005717657 -0.0017176796 0.00475086 -0.0012779402
000060 e7 60 ee bb 94 ea 8f 3b 12 ec 5d bb a6 cb e0 bb
       -0.0072747353 0.0043919776 -0.0033862633 -0.0068602143
000070 f2 19 26 bb 17 7d e8 3a 6d 37 64 ba d9 62 40 bb
       -0.0025345054 0.0017737475 -0.0008705769 -0.0029355793
000080 60 8c c8 bb 62 f1 c8 bb 63 51 2b bc b8 6c f3 ba
       -0.0061202496 -0.0061322907 -0.010456416 -0.001857183
000090 48 b2 0c bc c6 c2 83 bb 15 51 b2 ba bd 00 5e 3b
       -0.008587427 -0.0040210215 -0.0013604487 0.0033874952
0000a0 75 05 ce 3b 44 c8 18 3c 01 ed 0f bc 62 d1 04 3c
       0.0062872716 0.009325091 -0.0087845335 0.008106561
0000b0 7e 52 01 3c f4 11 49 3b 0e d6 15 3c 32 51 bb 3b
       0.007893203 0.0030680867 0.009145273 0.0057164663
0000c0 74 1e cc bb d2 18 90 bb 7c 2d d7 3b bb 98 8c b9
       -0.0062292162 -0.00439749 0.0065667015 -0.00026816674
0000d0 52 b8 0f 3c 09 b0 5e ba a4 32 70 bb 96 e1 1a bc
       0.008771973 -0.0008494859 -0.0036651278 -0.009453198
0000e0 90 85 95 bb c0 74 fa 3b 5a 7f 54 3b 5d 79 5a bb
       -0.004563041 0.007643312 0.003242454 -0.0033336498
0000f0 28 57 d5 3b 0e ad f3 bb a4 e1 a1 3a 38 b6 0d bc
       0.006510634 -0.007436401 0.0012350571 -0.008649401

adapt.E1 f4 [3, 8]
000000 a0 ae 8a 3d 3f bf 83 bd 7f 0f 26 3d 1e 28 91 3d
       0.06771588 -0.06432962 0.040542122 0.0708773
000010 ec 4f 51 3d 9b 4a 78 bd 69 9c 94 3d eb ea 9f 3d
       0.05110161 -0.060618024 0.07256395 0.07808479
000020 fd bf 06 bc 3b 7f 44 bc 16 b7 b2 bb 7c 1c 43 bc
       -0.0082244845 -0.011993225 -0.0054539545 -0.011908647
000030 bc 78 9b bc 37 78 3c 3c 7c 94 58 3c cb 19 cd 3b
       -0.01897847 0.011503271 0.013218995 0.0062591783
000040 80 b6 87 bc 30 23 ff 3b 9d 67 31 bc f0 2a 08 bc
       -0.016566515 0.007786177 -0.010827926 -0.008311018
000050 91 66 6c ba aa ed 56 3c ad f8 b9 3b 20 b5 ee bb
       -0.0009017969 0.013118187 0.0056753964 -0.0072847754

adapt.E2 f4 [3, 8]
000000 35 05 54 3c 31 8b b0 bb 7f d1 c4 3a fd 0e f4 3b
       0.012940695 -0.0053876867 0.0015016048 0.007448076
000010 84 1c 1f bc 29 17 04 3c 2d e5 f5 bb 2e 72 27 bc
       -0.0097113885 0.008062162 -0.0075041265 -0.010220094
000020 53 e2 c7 3b 25 79 73 3b 2f a0 05 3c 53 bb 1e 3b
       0.006099978 0.0037151065 0.0081558665 0.002422054
000030 51 13 95 3a 52 23 11 bb 0d 8d 86 bc 73 f3 68 bb
       0.0011373555 -0.0022146297 -0.01642468 -0.0035545498
000040 bc c8 8c 3d ce 8d a1 bd eb d0 30 3d 63 7c 99 3d
       0.068742245 -0.07888375 0.04316799 0.07494428
000050 48 5b 42 3d cb 1c b5 bd ca 22 88 3d d4 57 87 3d
       0.047450334 -0.088433824 0.066472605 0.06608549

support_mix.w_logits f4 [3]
000000 d7 cf 05 3d 2a c4 08 bd 50 aa 0b 3d
       0.032668915 -0.0333902 0.03409797

blocks.0.filter_conv.conv.weight f4 [64, 64, 1, 2]
000000 01 97 b5 bb 29 d9 ee bd 02 0f 39 bd a9 fb c8 3c
       -0.0055416827 -0.11662514 -0.04518033 0.024534063
000010 41 fd bd bd d3 e3 0d be 74 49 85 bd 3c f5 1f 3e
       -0.0927682 -0.1385644 -0.06508151 0.15620893
000020 8e 5c 67 bd 1e e4 71 bc 6f 5a e1 bd 37 74 74 bd
       -0.05648475 -0.01476386 -0.11003577 -0.059681144
000030 25 a8 11 3b f3 7b f7 3d 58 14 52 bd 63 9e 47 bd
       0.0022225466 0.12084188 -0.051288933 -0.048735034
000040 1c 8a 17 bd c6 19 e7 bd 65 ec 24 bd 58 b6 fb bd
       -0.036996946 -0.11284213 -0.040264506 -0.12290639
000050 ac d4 cc 3c c6 6a 17 3e 11 ff 4b 3d cb 54 9d bd
       0.025003754 0.14786825 0.049803797 -0.076821886
000060 38 53 9e 3d 57 b0 b7 3d c6 55 49 3d 96 84 0b 3d
       0.077307165 0.08969181 0.049154066 0.03406199
000070 72 85 81 3d bb f4 14 3e 81 97 a3 bd c8 0c 87 bd
       0.06324281 0.14546482 -0.079878815 -0.06594235
000080 30 d5 b9 bd 1b c4 24 bd b8 b6 1d 3e 2c b9 66 3b
       -0.090738654 -0.040226083 0.15401733 0.0035205586
000090 5d bf 16 3e 80 7a b3 3d 75 0a 1d be e9 e3 e4 3d
       0.14721437 0.087635994 -0.1533602 0.11176283
0000a0 f6 e2 1c be 4f eb bc bd f8 bb 71 3d 6b 18 86 bd
       -0.15320954 -0.09224569 0.05901715 -0.06547626
0000b0 47 bd 1c 3b f6 c5 d7 3d dd a4 a6 bd 02 a5 b4 3c
       0.002391653 0.10535805 -0.08136914 0.022051338
0000c0 4c 59 9a 3d 10 c3 1c bd 94 5b 1e 3d 8c f1 c3 bd
       0.07536563 -0.038271964 0.038661554 -0.09567556
0000d0 0e 29 90 3d 30 fa ff 3d 97 22 bd bd 25 68 a4 bb
       0.070390806 0.12498891 -0.09235113 -0.005017298
0000e0 2f 0b 7f bd 1f 73 99 bd fc 50 94 bc 53 4b f4 3d
       -0.062266525 -0.07492661 -0.018105023 0.119284295
0000f0 1d 26 1b 3d 64 ce 27 bc 24 c6 01 bd 84 2d f9 bd
       0.037878145 -0.010242078 -0.031683102 -0.121668845
000100 20 d4 22 bd bd b8 fa 3c 5b c7 df 3d 8b 9b 84 3d
       -0.03975308 0.030605668 0.10926696 0.0647498
000110 d0 a3 81 bd 35 ce 0d 3d 05 c3 1d be b3 42 be ba
       -0.06330073 0.034620482 -0.15406425 -0.0014515728
000120 0e 05 9e bd e0 26 b3 bd 93 1a a1 3c f9 ac 92 bd
       -0.07715808 -0.08747649 0.019665992 -0.07161898
000130 79 57 16 be a0 5c 8c 3d 7f cb cf bd ac bb d7 3c
       -0.14681806 0.06853604 -0.10146236 0.026334606
000140 45 96 f0 bd cd 5d 8e 3d fd 16 16 3e af 18 57 3b
       -0.11747412 0.06951485 0.14657207 0.003282111
000150 ce 4f ef bd 47 be db bd cc 92 c3 bd 5b d9 1e 3d
       -0.116851434 -0.10729652 -0.09549484 0.038781505
000160 39 f0 ab 3d 72 d9 e4 3c 2d 64 35 3c 04 a2 dd 3d
       0.08395428 0.027935717 0.011071247 0.10821918
000170 63 0e b2 bc 81 45 74 3c 02 ab c8 bd dc cf 0b 3e
       -0.021735376 0.014909149 -0.09798242 0.13653511
000180 ea 1a e5 bd e7 50 bf 3d 5b f0 0b be 0d 41 d8 bc
       -0.11186774 0.09341603 -0.13665907 -0.026398206
000190 14 82 e9 bd 0f 5a f3 bd 62 29 d6 bd cc 5d 87 bd
       -0.114017636 -0.11882412 -0.10457112 -0.06609687
0001a0 83 7c 03 3e 98 47 0e 3e 31 51 53 3d ee 71 d1 3c
       0.12840466 0.13894498 0.051591102 0.025567021
0001b0 3e 0d a3 3c b7 11 3d 3d 8e 28 9e bd 1e 22 18 be
       0.019903775 0.046159472 -0.07722579 -0.14856765
0001c0 8d 13 d1 3d 65 f6 53 bd 13 7f f0 bc 8f 7e 1c be
       0.10208807 -0.051748652 -0.029357469 -0.15282653
0001d0 cd af 95 bc ba 4f 88 3d ba 8a be 3d 37 22 83 bd
       -0.018272305 0.06655832 0.09303804 -0.0640301
0001e0 5e bc f4 3d b3 ae c6 3d e1 88 13 3e b4 60 fd 3c
       0.11949991 0.0970129 0.14407684 0.0309299
0001f0 9d 13 22 bd bf b5 51 3d c1 63 b7 3a 38 d9 00 be
       -0.039569486 0.051198717 0.0013991521 -0.12582862
000200 d1 2c 34 bb 03 69 06 3d d1 ef f4 3d 90 27 31 3d
       -0.0027492533 0.03281499 0.11959804 0.04325062
000210 34 34 11 bd b5 5b 0a 3e b4 aa c4 3c 0d a1 53 3d
       -0.035450175 0.13511546 0.024007179 0.051667262
000220 ed cd b6 bc 96 27 cd bd 7c 9c 5a 3d 47 15 e6 3d
       -0.02231499 -0.10017316 0.05337189 0.11234527
000230 7c bc 2f 3d 36 fd d3 bd 37 aa 12 be 2a 24 18 be
       0.042904362 -0.103510305 -0.14322744 -0.14857545
000240 15 d2 df 3d 0e b8 b5 3d 10 16 de 3d e5 48 fa 3c
       0.10928742 0.08872996 0.10844052 0.030552337
000250 25 b7 91 3d be d3 d6 bb 48 59 b1 3d 5f 97 a9 3d
       0.0711501 -0.0065560034 0.08659607 0.08280825
000260 d6 07 64 bc f8 e0 56 3d 5e 1f aa 3d 6b 33 db bd
       -0.013917884 0.05246064 0.08306764 -0.107031666
000270 09 de 98 bd f4 72 da 3d 65 5b 0e 3e 68 ea 28 3d
       -0.07464225 0.10666457 0.13902052 0.041239172
000280 b6 f6 08 bd 17 8a 03 3e 8e 72 bc bd 89 3d ac bb
       -0.033438407 0.12845646 -0.09201537 -0.005256359
000290 63 f7 07 be 1f 27 a9 bd 71 5b 18 3d fc 4d a4 3d
       -0.13277964 -0.08259415 0.03719658 0.08022687
0002a0 33 72 b4 bd 36 d7 a9 bd 44 d0 f4 bd 8c ee 16 be
       -0.08810844 -0.08293001 -0.11953786 -0.14739436
0002b0 cf fe 0e 3d fd 5f 12 3c 09 a1 bc 3c a2 82 09 be
       0.034910973 0.008934018 0.023026006 -0.13428739
0002c0 9a bf 8b bc 1e 09 be bd 07 47 88 3d ae 88 bc bd
       -0.017059136 -0.09279083 0.066541724 -0.09205757
0002d0 5c 0a b0 3d 19 5e 83 bc 53 92 7b bd 36 17 03 3e
       0.08595726 -0.01603608 -0.061418843 0.12801823
0002e0 a8 59 92 3b c8 9a ec bb 46 c4 b0 3d 8f ca c8 bd
       0.0044662543 -0.0072206 0.08631186 -0.0980426
0002f0 42 36 9a 3d a3 5b 1b be 2a b6 b0 3d 96 3c 12 3e
       0.0752988 -0.15171675 0.08628495 0.14280924
000300 38 41 48 3d f2 8e 93 3d dc 2a e6 bc 73 79 9a bc
       0.048890322 0.07204999 -0.028096609 -0.01885674
000310 73 70 4c 3d 5b bf 99 bd 5c c8 9c 3d 89 4d 50 3d
       0.049911927 -0.07507201 0.07655403 0.050855193
000320 07 1c 99 3c c3 93 e6 3d 37 f5 85 bc fb f0 a0 bd
       0.018690122 0.11258652 -0.01635228 -0.078584634
000330 7b d9 98 3d cd d1 d4 3d fb 53 e9 bc 58 da 6f bd
       0.07463356 0.10391579 -0.028482428 -0.05855784
000340 18 1e e2 bd 0c ec c3 3d 2f ca 8f 3d 2c b4 0c 3d
       -0.11040896 0.09566507 0.07020985 0.034351513
000350 a2 3b f5 bc 01 8f 2e 3d db 30 f1 bd 45 09 34 bc
       -0.029935662 0.042616848 -0.117768966 -0.010988538
000360 c6 8a b2 bd 9b 16 b3 bd 2e b0 29 be 76 60 09 be
       -0.08717875 -0.08744546 -0.16571113 -0.13415703
000370 12 94 bf bd 3e 76 13 3e 98 c3 4c bd f9 6a 30 bb
       -0.09354414 0.14400575 -0.04999122 -0.002691923
000380 26 83 22 3e 2a 69 d2 bd 94 fb 66 bc 84 f0 f9 3c
       0.15870342 -0.10273965 -0.014098067 0.030510195
000390 8b f6 cb bd 51 78 e7 bd 6a 22 58 3d fe 19 9e bd
       -0.09959134 -0.113022454 0.052767195 -0.07719801
0003a0 8a cb 8a 3d 2a 90 d3 bd 93 ff 0b 3e 3b 3e c9 bd
       0.06777103 -0.103302315 0.13671713 -0.09826323
0003b0 8c c4 23 3d f8 1f 1c 3e 05 1f 2b 3c 99 99 a5 bd
       0.039982364 0.1524657 0.010444407 -0.08085937
0003c0 18 81 9c 3d e4 ad a4 bd 37 26 fd bd 6e 0d 87 3c
       0.0764181 -0.080409795 -0.123608045 0.016485896
0003d0 98 d1 cc bc 15 86 0f 3e d2 a8 ec 3d d4 f6 e2 3d
       -0.025002286 0.14015992 0.115556374 0.11082235
0003e0 b5 69 b2 bd d1 02 cc bd 21 9c de 3d 43 1e f2 3d
       -0.08711568 -0.09961475 0.10869623 0.11822178
0003f0 cb ee bb 3d 36 88 f7 bd 9c 2e 07 be d7 e7 76 bd
       0.091764055 -0.12086527 -0.13201374 -0.060279693

blocks.0.filter_conv.conv.bias f4 [64]
000000 8b c5 9b 3b fc b6 9c bb 66 76 5a bb 34 66 8a 3b
       0.0047537736 -0.0047825556 -0.003333473 0.0042236093
000010 f2 77 4d 3b 97 48 9b 39 86 3f fc 3b 94 8c e1 bb
       0.003135201 0.00029617987 0.0076980023 -0.0068832133
000020 20 58 48 bb 5e 12 8e ba 67 aa 56 3c 2d 51 c1 ba
       -0.0030570105 -0.0010839214 0.0131021505 -0.0014748924
000030 cf 24 c6 b8 fb b0 8b 3b e5 fa 0b bc 7e f5 84 ba
       -9.448232e-05 0.004263041 -0.008543705 -0.0010143963
000040 77 06 b6 bb da fe 1f 3b 19 4b f6 3a ff 09 07 bb
       -0.00555497 0.0024413378 0.0018790691 -0.0020605323
000050 2c 70 86 ba fe 9a 55 bb 5d ca e5 3b 0f 1a f9 bb
       -0.0010256818 -0.0032593603 0.007012649 -0.0076019834
000060 f8 f6 c9 3b ed d7 eb bb 8f 54 12 3a e6 ce bf bb
       0.006163474 -0.007197371 0.0005582058 -0.0058535216
000070 87 a8 36 bb 79 b4 0d 39 24 ce d5 bb 6f 05 af bb
       -0.0027871446 0.00013514039 -0.006524818 -0.005341224
000080 ad ba 4e 3c 3a 12 c8 ba 19 37 b9 bb f7 6a 9c 3b
       0.012617749 -0.0015264221 -0.00565232 0.0047734934
000090 09 42 63 3b 09 2b 1f 3c e7 f4 b7 3a ad 85 50 bb
       0.0034676811 0.00971485 0.0014034779 -0.0031817958
0000a0 80 6c 0a bc 65 a0 66 3c 85 4c fa 3b 2a da 7e 3b
       -0.00844872 0.014076327 0.0076385164 0.003888736
0000b0 ab e8 5f 3b 48 1e 78 ba 91 24 71 3b bc 64 d6 3a
       0.003416578 -0.00094649615 0.0036795477 0.0016356925
0000c0 15 03 fe 3b d8 15 0c 3a 84 52 69 3b 1b 29 8b 39
       0.0077518323 0.0005343831 0.0035602162 0.00026542772
0000d0 4c f9 b1 bb 1b 1b b4 bb 90 60 d5 3b 0f 6a 30 3c
       -0.00543133 -0.0054963953 0.0065117553 0.010767474
0000e0 d7 e5 64 3b 41 3b c5 bb 8e 16 be 3a 9b 27 c6 ba
       0.0034927034 -0.0060190265 0.0014502571 -0.0015118005
0000f0 77 4f 1d bb e7 10 00 bc 8c 1c c0 bb 96 c9 23 bb
       -0.0024003664 -0.00781653 -0.005862778 -0.002499198

blocks.0.gate_conv.conv.weight f4 [64, 64, 1, 2]
000000 92 9c 68 bd 29 5c 12 3e d9 7a 9b bd 40 f2 14 bc
       -0.056789942 0.14292969 -0.07591791 -0.00909096
000010 9e 1e c9 bd d8 bd 13 3e 52 14 17 3e e7 1c a8 bb
       -0.09820293 0.14427888 0.14753845 -0.0051303986
000020 ac 8a 05 3e da 5e db 3d 88 6c 98 3d a0 fd 75 3d
       0.1304118 0.10711451 0.07442576 0.06005633
000030 bf 37 cf bc ba c3 07 3e b1 b7 a8 bd b8 e8 1e 3d
       -0.025295136 0.13258258 -0.08238161 0.038796157
000040 b7 73 bd 3d fa b9 c0 3d cd 62 00 be 65 bd 04 3d
       0.092505865 0.09410472 -0.1253769 0.032407183
000050 d9 59 57 bc 56 ac ce bd 14 85 06 bd e7 52 92 3d
       -0.01314398 -0.10091464 -0.032841757 0.071447186
000060 e7 1e 0c 3e 2a 59 7e bd ba 92 d3 bd 0b 59 e1 bd
       0.13683663 -0.062096752 -0.1033072 -0.11003312
000070 fe 47 bc bd fd f9 54 bb 94 86 8a 3d 35 0b 4a bd
       -0.09193419 -0.0032497637 0.0676395 -0.049327094
000080 79 32 b8 bc a3 b7 b2 3d c3 aa 85 3d f3 73 b6 bd
       -0.022485005 0.08726432 0.06526711 -0.08908834
000090 6a 99 6f 3b 2f 4d b4 3c ed 1c fa bd 5a 5a 4d 3d
       0.0036559948 0.02200946 -0.122125484 0.050134994
0000a0 4c 91 cc 3d a6 57 01 be a3 37 24 bd 35 b0 0d 3e
       0.09988651 -0.12631091 -0.04009212 0.13836749
0000b0 cb dc ba bd c0 a0 d3 bd a2 3f 7d bd eb c5 99 3d
       -0.09124144 -0.10333395 -0.061828263 0.07508453
0000c0 d5 49 f2 bc 6f 7d 18 3d 6a 29 80 3d 75 1c ad bd
       -0.029576221 0.037228998 0.06257899 -0.084526934
0000d0 53 89 11 3e cd ef 20 bc d7 f7 00 3e 40 49 0f be
       0.14212541 -0.009822798 0.12594543 -0.13992786
0000e0 e7 a6 41 3d 5d 79 6a bd 11 37 15 be e2 1e 49 3d
       0.04727831 -0.057244647 -0.14571787 0.049101718
0000f0 84 d3 9b 3d d8 34 03 be 60 f4 36 bd b9 1c 13 3d
       0.07608703 -0.12813127 -0.044666648 0.035916064
000100 45 a6 39 ba c1 9a 0a be 8c cb b6 3d 53 41 9a 3d
       -0.0007081966 -0.13535596 0.08925542 0.07531991
000110 a2 20 a3 bd ca 70 d9 3d ae 6e a8 bd a1 66 b0 3d
       -0.079652086 0.10617216 -0.082242355 0.08613325
000120 94 6e 21 be dc 53 0e 3e f8 8a c8 3c a6 74 33 3d
       -0.15764838 0.13899177 0.024480328 0.043812416
000130 96 46 6d bd ee 91 11 bd 81 af 1c 3e 21 04 06 be
       -0.057928644 -0.03553956 0.15301324 -0.13087513
000140 ee 1e de bd d3 3e 21 be b9 d9 c1 3d 49 fb f7 bd
       -0.10845743 -0.15746622 0.094653554 -0.12108476
000150 d5 14 bc bd 39 ea f9 3d 0a 71 e4 bd e3 80 b5 bc
       -0.09183661 0.122028776 -0.11154373 -0.022156185
000160 23 40 13 3e 07 fa c2 3d 18 9c 1b 3d 96 c3 30 3d
       0.14379935 0.09520345 0.03799066 0.043155275
000170 69 02 9c 3c 94 92 38 bd 45 9d b5 3c 0d 68 85 3d
       0.019044118 -0.045061663 0.022169719 0.06513987
000180 0c ff 02 be 00 d3 7f 3d 79 f2 0d 3e 9f 3e 89 bc
       -0.12792605 0.062457085 0.13862027 -0.016753493
000190 1c 99 15 3e 14 27 a4 bd cf d8 5c bd 2c 30 69 3c
       0.14609188 -0.08015266 -0.053917702 0.0142326765
0001a0 a9 32 e1 3d a4 32 d6 bb 90 08 da 3d 33 bc 01 3e
       0.10995991 -0.0065367986 0.106461644 0.12669449
0001b0 dd 33 07 3e 64 a7 da bd 39 4e 37 bd 0a 0b f2 3d
       0.13203378 -0.106764585 -0.044752333 0.11818512
0001c0 40 8d 0f be 36 50 1b bd b3 b8 0c 3e d5 d9 2b 3d
       -0.14018726 -0.037918292 0.13742332 0.041955788
0001d0 ac e1 b6 bd 3f 05 6b bd 02 d0 b3 3d 87 d6 15 3e
       -0.08929762 -0.05737805 0.08779909 0.14632617
0001e0 97 c3 d7 3d a6 c6 77 bd 68 b1 9e bd c0 04 e6 bd
       0.10535353 -0.06049218 -0.07748681 -0.11231375
0001f0 6c 89 68 bd d5 93 c7 3d 88 95 c9 bd 20 aa 1a 3e
       -0.05677168 0.097449936 -0.09842974 0.1510396
000200 17 5f 13 be 77 6e f5 3d d5 66 84 3d 98 30 53 3a
       -0.14391743 0.1198396 0.06464926 0.0008056252
000210 91 5c ae bd 1a f0 56 3c bb f2 79 bd 68 9d 6b 3d
       -0.085137494 0.013118768 -0.0610225 0.05752316
000220 9d 68 f2 bd 5c ae 01 be ee 2a bd bd 6b 00 af 3d
       -0.1183636 -0.12664169 -0.09236704 0.085450016
000230 dc e8 19 3d be dc 87 bc 31 d1 71 3d 73 ff e0 bb
       0.037575588 -0.01658475 0.05903739 -0.0068663894
000240 fa f5 76 3d f2 48 29 3c 60 4b 0a be ea fe 3b 3d
       0.060293175 0.010332333 -0.13505316 0.045897402
000250 ba 1e 71 bd 16 b9 9e 3d 4c 3c a1 bd ed bc 19 3c
       -0.058867194 0.07750146 -0.07872829 0.009383422
000260 3d b3 d6 3d a7 f6 e0 bc 33 92 09 be a5 49 0c 3c
       0.10483406 -0.027461363 -0.13434677 0.00856248
000270 ec 1a 67 3d 54 c0 0d 3e f9 77 f2 3d 70 5a a9 3c
       0.05642216 0.13842899 0.11839289 0.020673007
000280 29 a8 d7 bd 75 10 11 be 4b 04 1c be 85 27 98 3d
       -0.10530121 -0.14166434 -0.15236013 0.07429413
000290 85 47 be bc 8c d0 81 3c 0e ef 29 bd 13 c5 d0 3d
       -0.023227463 0.015846513 -0.041487746 0.10193839
0002a0 92 11 d8 bd 81 d0 fd 3d c0 69 a0 bd d0 bd 1c be
       -0.10550226 0.123932846 -0.0783267 -0.15306783
0002b0 3e 16 97 3d ad 05 47 bc a9 ba 3e bd 98 89 f4 bb
       0.07377289 -0.012147349 -0.04656473 -0.0074626915
0002c0 26 d1 06 be a2 b9 19 3e f3 8e da bd ed 9d 15 be
       -0.13165721 0.1501222 -0.10671797 -0.14611025
0002d0 6e e3 8f bd 24 b6 00 bd 9e 27 c5 3c a9 b9 d8 bb
       -0.07025801 -0.031423703 0.024066743 -0.0066139293
0002e0 9b a8 9d bb 72 96 9e bc 1f ff e3 3d 0f 0e 77 bd
       -0.004811359 -0.019358847 0.11132645 -0.06031614
0002f0 12 bc 65 bd 9f 12 13 3d b3 80 00 3e 47 ed 0d 3e
       -0.05608756 0.03590643 0.12549095 0.13860045
000300 b5 23 58 bd db fc 46 bd 40 c3 93 3c 87 6f 86 bd
       -0.052768428 -0.048580986 0.018037438 -0.06564241
000310 db d6 2f bd d6 fe 33 3d 76 aa 54 bd 61 0d d7 3d
       -0.04292951 0.043944202 -0.051920377 0.10500599
000320 ff 12 06 bd d8 6b 04 be 0b 98 be bd 9d e4 07 3d
       -0.03273296 -0.12931764 -0.09306344 0.033177007
000330 7e 07 9b 3d 41 73 5e 3d f5 27 0b be 58 20 70 3d
       0.075697884 0.054309133 -0.13589461 0.058624595
000340 e0 90 18 3d c0 ae 5c bc d4 c7 ca 3d 2b 28 55 3d
       0.03724754 -0.013469398 0.099013954 0.05204026
000350 bc df 8c 3c 8f 36 a0 3d 46 9b b1 3d 77 74 6c bd
       0.017196529 0.07822906 0.08672194 -0.057728257
000360 14 81 9a bd 9b a7 94 bd 2f 78 c6 3d 0a 96 d5 3d
       -0.07544151 -0.07258531 0.09690892 0.10429008
000370 94 37 5b 3d 35 e3 87 bc 05 2f 80 3c 22 51 d7 3d
       0.0535198 -0.016587833 0.01564742 0.10513522
000380 1f 24 29 bd 0b 23 12 bc 5e b0 e9 bd 17 54 40 bd
       -0.041294213 -0.008919488 -0.114105925 -0.046955194
000390 1d 0f b9 bd 4f 6e bf bd fe f9 7e 3d cf 59 c7 3d
       -0.09036086 -0.093472116 0.06225013 0.097339265
0003a0 92 c9 01 be 4e 9c 02 3e 38 62 e0 3c 93 f2 8b 3b
       -0.12674549 0.12754938 0.027390584 0.0042708605
0003b0 20 94 c7 bd 07 dd 64 3b 71 0d 2b be 22 37 b8 bc
       -0.097450495 0.0034921782 -0.16704346 -0.022487227
0003c0 07 06 0b 3e 53 4d fe 3c af 89 7e bc 82 25 d9 3c
       0.13576518 0.03104273 -0.015535756 0.026507143
0003d0 7d 66 19 3e 82 31 14 3e b1 c9 b8 bd 8a 69 19 3c
       0.14980502 0.1447201 -0.090228446 0.009363541
0003e0 51 5e 52 3d aa 3f 01 3e e3 f8 2e 3a 3f 75 be bd
       0.05135948 0.12621942 0.000667466 -0.09299707
0003f0 71 c0 0a be c4 d2 a8 3d 5e f9 36 bd 55 61 ac 3d
       -0.13549973 0.08243325 -0.04467141 0.08417002

blocks.0.gate_conv.conv.bias f4 [64]
000000 64 2c b9 3b c7 e4 ce 3b 72 84 ac bb a3 67 63 bb
       0.0056510437 0.0063138935 -0.005264812 -0.0034699223
000010 7a ec 3a b8 66 8b 64 bc 95 f5 4f 3b 0e 9d d7 bb
       -4.456609e-05 -0.013949251 0.0031732072 -0.0065800017
000020 79 94 2b 3c 7a ca 4b 3a 2f 15 56 ba 89 55 06 3a
       0.01047241 0.0007774007 -0.0008166609 0.000512444
000030 9c 97 ca ba 36 68 a9 3b 6d bf 29 3c df 65 04 bc
       -0.001545656 0.0051698936 0.010360581 -0.008080929
000040 84 35 37 bb c2 97 3e 3b e6 2e 00 3c 8d 6b 18 bb
       -0.0027955482 0.0029082154 0.007823681 -0.0023257465
000050 b4 c5 0b bc 9d a1 af bb e3 b9 12 bc 20 21 01 3c
       -0.008531023 -0.005359842 -0.008955452 0.007881433
000060 f7 ad b4 39 c1 e5 c5 3b 10 c4 24 b8 8e b0 34 3c
       0.0003446189 0.0060393517 -3.9283244e-05 0.011028422
000070 fc 81 81 3c b2 4b d5 3b 76 4d c5 3b aa 6a 93 b9
       0.015809052 0.0065092677 0.006021197 -0.00028117496
000080 e2 07 ff ba 48 69 7c 39 ab e0 80 3a 74 62 58 bc
       -0.0019457305 0.00024071813 0.0009832581 -0.013207067
000090 08 4c 07 3c b9 0d de 3b d4 46 b1 3b 67 02 0b 3c
       0.008257873 0.006776538 0.0054100547 0.0084844595
0000a0 f7 40 32 3a fb fa da bb 38 6a 58 3c 84 f5 a4 bb
       0.00067998416 -0.0066827512 0.013208918 -0.0050341506
0000b0 d5 97 b1 3a f8 36 3d 3c 7d f6 c3 3a b0 8b 48 3a
       0.0013549278 0.01154875 0.0014950779 0.00076502096
0000c0 8c 1a 96 3c 4f 08 ff 3a 22 60 a2 3b a0 43 92 3c
       0.018323205 0.0019457432 0.0049553076 0.017854512
0000d0 d7 b9 2c bb 50 21 77 3c 3c 83 d7 bb b8 fe 39 3b
       -0.0026355886 0.015083626 -0.0065769237 0.0028380584
0000e0 f6 22 90 3c 6c 3a 2b bb 68 63 64 bc fe 67 75 3b
       0.017594796 -0.0026127351 -0.013939716 0.0037446017
0000f0 34 3a 47 3b f7 02 09 bb 8a 11 d7 3b 1e ec 5f 3b
       0.0030399682 -0.0020906308 0.00656337 0.0034167836

blocks.0.residual_conv.weight f4 [64, 64, 1, 1]
000000 aa ff 3b 3e 9e f3 cd bc 9b f4 1a 3d aa c8 9b 3b
       0.18359247 -0.02514058 0.03783093 0.0047541456
000010 e1 5b 4e be 66 d3 12 3e 04 0f ec 3b b4 7b 37 3e
       -0.20152237 0.14338455 0.0072039384 0.17918283
000020 5e 21 c6 3d 90 c1 14 3e be 1f 21 be f1 92 bc bd
       0.09674333 0.14526963 -0.15734765 -0.09207714
000030 a9 52 f4 bc 0c 03 51 be 4a e1 12 3c 5d 83 20 be
       -0.029824572 -0.20411319 0.008964846 -0.15675111
000040 25 b2 fd 3d 7c c7 85 3d 2f 85 e6 bc 96 2f 8f 3d
       0.12387494 0.06532189 -0.028139679 0.06991498
000050 38 fc 3c be d2 31 3b be 4d 3f a1 3c 29 48 b6 3d
       -0.18455589 -0.18280724 0.019683504 0.08900482
000060 6a de cf 3d 9a d5 89 bd 90 52 45 3e d7 ec 37 3e
       0.10149844 -0.067301944 0.19269776 0.17961441
000070 cc ca bf bd b1 92 81 bd 45 a6 e9 3d f0 61 da 3d
       -0.09364852 -0.06326807 0.114086665 0.10663211
000080 79 30 fb 3c 73 f2 65 3d ca 6a 19 be 69 95 59 bd
       0.030662762 0.05613942 -0.14982143 -0.053121004
000090 67 97 0a bd b1 1c 21 bd b6 48 17 be 86 be e7 bd
       -0.033835795 -0.039334003 -0.14773831 -0.11315636
0000a0 6e fe 21 3e 5e cc ad bb e7 fb 2d 3e 36 01 b2 3c
       0.15819713 -0.0053039035 0.16990624 0.021729093
0000b0 a2 5c 86 3d e5 1d 39 3e 68 71 4d bd 59 42 ea bd
       0.06560637 0.1807781 -0.05015698 -0.11438436
0000c0 f9 db 1c 3e 62 5c 95 3d 0d fb 55 be 72 e5 3e bd
       0.15318288 0.07293011 -0.2089655 -0.046605535
0000d0 7c c3 06 3d 7d 12 3e bc 36 0f 5a 3b fb 8e f9 3c
       0.032901272 -0.011601088 0.0033273227 0.030463686
0000e0 87 3a 0c 3e b0 78 14 bd fc cd db 3c 11 d5 8e bd
       0.13694201 -0.03624791 0.02683162 -0.06974233
0000f0 b6 ae 2c be 57 78 4c be a8 15 47 bb 7a 69 33 3e
       -0.16863522 -0.19967781 -0.0030377898 0.17520705
000100 b4 f6 26 be b6 b7 29 be 44 4f 77 bd 6d 79 5b bd
       -0.16305047 -0.16573986 -0.060378328 -0.053582598
000110 7d 3b 8a 3d c2 fe f7 3d 1c 8c a8 bd 2e e6 1f be
       0.06749628 0.12109138 -0.08229849 -0.1561515
000120 ed 2f 2f 3e 28 75 d7 3d 59 b2 30 3e 40 19 00 3e
       0.17108126 0.10520393 0.17255534 0.12509632
000130 06 47 e0 3d fe a4 4f 3e 76 56 4e be b2 7c 03 3e
       0.10951047 0.20277783 -0.2015017 0.12840536
000140 37 28 4a be 6a b1 48 3e b6 3f 5b 3e bc 50 0b bd
       -0.19741903 0.19598928 0.21411023 -0.03401254
000150 57 dc 0a be 05 53 52 bd 3a 33 be bc bb a3 81 bc
       -0.13560615 -0.051348705 -0.023217786 -0.015825143
000160 5d a2 bf bd f0 da a1 3d ac e4 86 bb 94 51 c7 3d
       -0.0935714 0.07903087 -0.0041166153 0.09732357
000170 08 58 79 bd 59 58 92 bc e1 cf a5 bb 15 f2 7b 39
       -0.06087497 -0.017864393 -0.0050601815 0.00024027408
000180 b7 41 5a be 12 cd c2 3d 22 2a 56 be 10 67 1f be
       -0.2131413 0.0951177 -0.2091451 -0.15566659
000190 7d 96 c7 3d fe 2d 1b 3d 92 32 e0 bd f7 95 88 3c
       0.097455 0.03788566 -0.109471455 0.016673071
0001a0 f0 bf f1 3c 68 5c fa 3d 24 02 0c be d9 cc 13 be
       0.029510468 0.12224656 -0.13672692 -0.14433612
0001b0 37 00 ce 3b 47 f2 54 bc 7f 70 ef 3d f4 73 fe 3c
       0.0062866467 -0.012997217 0.11691379 0.03106115
0001c0 51 6f 19 bd 44 13 91 3c e7 28 a9 bd 64 85 d0 bd
       -0.037459675 0.017709382 -0.08259755 -0.10181692
0001d0 73 5f 8b bd cd a8 2a be b4 aa 27 bd d6 49 d9 bd
       -0.06805315 -0.16665955 -0.04093428 -0.10609786
0001e0 f3 d3 d3 3d 61 fe 8b bd 9c 6f 5e bc 06 bc 2d bd
       0.103431605 -0.06835628 -0.013576414 -0.04241564
0001f0 30 f4 f8 bc 3c d4 44 3e 33 25 2e 3c 20 c4 06 bc
       -0.030389875 0.19221586 0.010628986 -0.008225471
000200 95 52 38 bd e6 b7 37 bd 78 44 ad bb 77 93 94 bc
       -0.04500063 -0.044853114 -0.005287703 -0.018136723
000210 f3 26 34 be d4 83 4e 3e 47 0c ad bd ac ec 07 3e
       -0.17592983 0.20167476 -0.08449607 0.13273877
000220 e5 c6 0c be 7c e6 2e 3e 22 af 52 bd aa bc 53 be
       -0.13747747 0.1708011 -0.05143655 -0.20677438
000230 35 99 b1 3d e6 28 b6 bd 2e 60 24 be 5f e4 90 bd
       0.086718 -0.088945195 -0.16052315 -0.07074808
000240 55 c2 2e ba a0 f5 42 be e4 dc c3 3d 94 92 39 3e
       -0.0006666531 -0.19039011 0.09563616 0.18122321
000250 06 c0 b8 3d 53 44 85 bd 21 65 fa bc ee fc b1 3d
       0.090210006 -0.065071724 -0.0305658 0.08690821
000260 e6 31 89 3d 9e f0 18 bd 5f a7 80 3d 36 48 0a 3d
       0.066989705 -0.037338845 0.062819235 0.033760272
000270 cd 40 47 bd 9b 43 22 3e cc 54 a4 bd 2c e1 1a 3e
       -0.048645783 0.15846102 -0.08023986 0.15124959
000280 1e 1b c1 bb 1d 41 01 be e4 39 95 3d 60 53 04 be
       -0.005893125 -0.12622495 0.072864324 -0.1292243
000290 55 fa 25 be 77 d5 a9 3d 38 7b 5c 3e 70 05 8d 3c
       -0.16208775 0.08292668 0.21531379 0.017214507
0002a0 c1 79 1c 3e 79 6b d4 bd 07 61 b9 bb a6 22 4f 3e
       0.1528082 -0.10372061 -0.0056573185 0.20228061
0002b0 86 f8 49 be 00 ab bc bd c4 5b 4c 3e 1f 5d 2b be
       -0.1972371 -0.09212303 0.19956881 -0.16734742
0002c0 b2 0e 46 3e 84 c6 25 3e 82 06 38 3e cc 9e ac bd
       0.19341543 0.16189009 0.17971233 -0.084287256
0002d0 82 a0 92 3d fc ec 14 3e d0 c0 52 3e d9 d7 4d be
       0.07159521 0.14543527 0.20581365 -0.2010187
0002e0 e8 de 42 3d 75 82 9e bd 2f 5c cf bd fc 43 13 bb
       0.04757586 -0.077397265 -0.101250045 -0.0022470942
0002f0 de bc 3e 3e 28 8d 8b bd 82 e4 59 3e 44 2b fa bd
       0.18626735 -0.06814033 0.21278575 -0.122152835
000300 d2 5b 9e bd 8d d7 a8 bd b3 66 36 be 71 83 46 3e
       -0.07732357 -0.08244238 -0.17812614 0.19386078
000310 ed ce b6 bd d2 9b 86 3d 26 65 b8 bc a5 11 07 be
       -0.08926187 0.06572689 -0.022509169 -0.13190325
000320 12 b8 d2 bd f6 39 19 3e d7 99 ac 3d b0 98 45 bd
       -0.10289015 0.14963517 0.0842778 -0.048241317
000330 ed e5 4d be 85 c7 32 be 79 69 8c 3c 53 d1 2c 3e
       -0.20107241 -0.17458923 0.017140137 0.16876726
000340 a6 cd 0f be d9 39 bb 3c cb 0d 9b 3b 13 57 f8 3d
       -0.14043292 0.022854732 0.004731869 0.12125983
000350 e1 af cd 3d 6d fa 53 3e 6d 5d 4c be 36 8a 3c 3e
       0.10043312 0.20700999 -0.19957514 0.18412098
000360 c5 cc 53 bc aa 2a 11 be f7 75 fa 3d 66 35 f9 3d
       -0.012927239 -0.14176431 0.12229531 0.12168388
000370 d1 a9 24 bd 33 cd 03 be af 60 f5 bc 8f 9c 03 be
       -0.040201012 -0.12871246 -0.029953329 -0.12852691
000380 d2 67 30 be 51 b1 ab bc 60 c1 40 3d cc af 32 3e
       -0.17227104 -0.020958574 0.047059417 0.17449874
000390 6c a8 d2 bd 50 e9 d2 3d 9e c8 15 be a3 e4 2c be
       -0.1028603 0.10298407 -0.1462731 -0.16884093
0003a0 7d ea 0c 3e ef bd 15 be 17 b2 f5 bb 9e ff c6 bd
       0.13761325 -0.14623235 -0.0074980366 -0.09716724
0003b0 44 99 ae 3d d8 22 1b bd 0f 46 e8 3d d7 08 23 3a
       0.08525327 -0.037875026 0.113414876 0.0006219274
0003c0 52 25 3a bd 28 6d 65 3d a9 e0 8f bd 44 da e7 bc
       -0.045445748 0.056012303 -0.070252724 -0.02830232
0003d0 65 3c f1 3c e0 09 b5 3d 9b cb 0c 3e f9 29 f5 3d
       0.029447744 0.08839774 0.13749544 0.11970896
0003e0 f8 d9 21 be d9 9a 3b 3e c0 b9 0c be 26 1e ea 3d
       -0.15805805 0.18320788 -0.13742733 0.114315316
0003f0 46 48 4c 3d 70 cf af 3d 8f 5c 60 bc 19 c1 44 be
       0.049873613 0.085844874 -0.013693943 -0.19214286

blocks.0.residual_conv.bias f4 [64]
000000 0e a9 89 3c 8a e8 00 36 34 18 7d bc 7d c0 ac 3c
       0.016804244 1.9208842e-06 -0.015447665 0.02108788
000010 c2 10 d2 3c d3 dd 0d 3c 28 00 1a bc 55 bc fa bc
       0.025642756 0.008658844 -0.009399451 -0.030607382
000020 62 8f 87 bc 54 29 20 bb ac ab a6 bc 4a 5a 8a bc
       -0.016547862 -0.0024438696 -0.020345531 -0.016888756
000030 d9 f8 8e bb 2a 09 9f bb f2 38 f2 3c 7f 5a 9d 3c
       -0.004363161 -0.0048533874 0.02956817 0.019208191
000040 43 57 30 3c fc 6a ad 3c e2 2b 8c bc f0 7f 13 bc
       0.010762992 0.021169178 -0.017110769 -0.009002671
000050 5b 69 c4 bb e2 61 39 bc 5e 6f 2e bc b2 20 a5 3a
       -0.0059940047 -0.011314841 -0.010646669 0.0012598245
000060 bb 27 e6 bb fa 8e ac bc f2 53 d2 bc a6 d1 13 3d
       -0.007023779 -0.02106427 -0.025674794 0.03608861
000070 e4 4e e3 3b ae 85 10 3c ac 4d 68 bc cc 08 b7 bc
       0.0069368947 0.008820934 -0.014178675 -0.022343062
000080 eb 27 dc bc 8d 95 6f bc 12 dd 95 bc 22 0a 12 bb
       -0.026874503 -0.014623058 -0.018293891 -0.0022283872
000090 ba b4 97 bc 1c 06 d8 bc 84 ac 04 3d ce bd 5e 3c
       -0.018518794 -0.0263701 0.032391086 0.013595058
0000a0 e1 6f 46 bc ad 7d a5 3c d6 e7 ae 3c a9 e8 0f 3c
       -0.012111635 0.020201528 0.021350782 0.008783498
0000b0 59 f9 c5 3b de e9 0c bc 53 c8 fd bc 1c db ad bc
       0.0060416874 -0.00860068 -0.030979311 -0.021222644
0000c0 61 2e 54 3c 5f 6a 74 3c 24 c2 08 bd 07 4e 1a 3a
       0.012950511 0.014917939 -0.033388272 0.0005886261
0000d0 49 c1 14 bb fd eb ef bc a7 de af 3c ce 29 9d bc
       -0.0022698215 -0.029287333 0.021468474 -0.019184973
0000e0 c7 b9 13 bc ee 2a cf bc 52 a6 a2 3b c8 ec 22 bb
       -0.009016461 -0.025289025 0.0049636746 -0.002486037
0000f0 ac 31 09 bc 46 a6 06 bd 49 5c 6a 3c e0 96 fa bb
       -0.008373659 -0.032873414 0.014304229 -0.00764738

blocks.0.skip_conv.weight f4 [128, 64, 1, 1]
000000 c0 6f 02 bd 7a bf 03 bb fe 01 b5 3d a5 18 ca bd
       -0.031844854 -0.0020103143 0.088382706 -0.09867982
000010 87 77 06 be b6 03 fb bc f4 4c b9 bd 9f 6c 34 3b
       -0.13131534 -0.030641418 -0.09047881 0.0027530564
000020 24 72 ed bd 99 9e 13 3e 07 16 67 bd 3f b5 2c 3e
       -0.11594036 0.14415969 -0.05641749 0.16866015
000030 eb bd ef 3d 1a b9 d6 3d eb 55 7b 3b a9 cf 94 bc
       0.11706146 0.10484524 0.0038350772 -0.018165426
000040 5c 8c 2c bc 5c f7 33 bc d5 d9 43 be 4f 4c a7 bc
       -0.010531511 -0.010984268 -0.19126065 -0.020422129
000050 c8 28 0b be d1 d7 3c 3d 7a 4f a9 3b a2 f2 eb bd
       -0.13589776 0.046104256 0.005166945 -0.11520888
000060 71 0b 31 3d 2a 7f 23 3e 97 11 e3 3d 1b 96 0f 3e
       0.043223802 0.15966478 0.11087339 0.14022104
000070 dd 24 f8 3d b5 48 07 be 37 36 89 3c be c7 e2 bc
       0.12116406 -0.1321133 0.016749484 -0.027683135
000080 e4 96 cd 3d d0 3f d6 3d 32 9a 81 3d 76 85 c6 bc
       0.10038546 0.1046139 0.063282385 -0.024233561
000090 d2 ff da bd 45 8f 15 3e 5c 3c 1a bc d6 d6 05 3e
       -0.10693325 0.14605434 -0.009413805 0.13070235
0000a0 8f 1a 23 3e f3 0e 18 bd b1 6a 1b 3e aa ac 73 bd
       0.159281 -0.03712363 0.15177418 -0.059490837
0000b0 2a ce 90 bc 49 e5 e8 3d e5 94 94 3d b6 25 04 be
       -0.017676432 0.11371858 0.07254962 -0.1290501
0000c0 5a 63 2b 3e af 23 22 be f7 71 b1 3d 98 55 bb bb
       0.16737118 -0.15833925 0.08664315 -0.0057169907
0000d0 f6 21 63 bb 62 1d d2 bd 91 bc 54 bd 30 a8 11 bd
       -0.0034657693 -0.102595106 -0.051937643 -0.035560787
0000e0 46 9a e1 3c fa 2e de 3d 8b ea b5 bd e3 17 3c 3c
       0.027539384 0.10848804 -0.08882626 0.011480304
0000f0 4d 4f c4 3d 60 62 e5 3d 33 6d 68 3c 9d 8a 17 be
       0.09585438 0.11200404 0.014186191 -0.1479897
000100 fe c6 c0 3c ac 82 69 3d 6c fd fa 3d dd e8 ca bd
       0.023532387 0.057009384 0.12255368 -0.099076964
000110 b7 80 c8 bd 33 78 c0 bd 4e dc a3 3d da 94 ff ba
       -0.097901754 -0.09397926 0.08001004 -0.0019499317
000120 40 10 86 3d 20 72 08 bd aa f6 aa bd a6 9f 1d 3e
       0.06546068 -0.033311963 -0.08347829 0.15392932
000130 82 e6 b9 bd cf c1 55 bd bf f2 0b be e3 00 b6 bd
       -0.09077169 -0.052186783 -0.13666819 -0.08886888
000140 29 dc 8e 3d 09 b0 20 be ec a7 18 be 2c 24 89 bd
       0.06975586 -0.15692152 -0.14907807 -0.06696352
000150 01 e7 fe bb d0 b8 5c 3d 0f 00 c0 3d 17 5f f1 bc
       -0.0077790027 0.05388719 0.09375011 -0.029464288
000160 9b fc 88 bd 1c 0d 14 be 01 49 23 bd d7 79 ad bd
       -0.06688806 -0.14458126 -0.039864544 -0.08470505
000170 78 9b b9 3d 9b 03 2f be 0a c5 b1 3d fa c0 0e be
       0.090628564 -0.17091219 0.0868016 -0.13940802
000180 fe 85 c1 3d 21 58 0c be 77 0e 28 3d 3f b2 bd bc
       0.09449385 -0.13705494 0.04102942 -0.023156283
000190 26 90 a1 bd 6f 13 a3 bd 67 8c 5f bd df 04 f9 3c
       -0.07888822 -0.07962691 -0.054577257 0.03039783
0001a0 a7 3a b0 bb 11 0d ed bc 65 74 c6 3d 97 ca c6 3d
       -0.0053780857 -0.028936895 0.09690169 0.0970661
0001b0 c0 04 ce 3c 3b 58 0d 3e 1f 95 fb 3d 5c 4e 1c 3e
       0.02514875 0.13803189 0.12284302 0.15264267
0001c0 90 e4 68 3d 12 7d f3 bd de 56 f4 3d 47 5e aa 3d
       0.0568586 -0.1188909 0.11930631 0.08318763
0001d0 cc d9 97 ba 6c 15 44 bd 4e ab 38 bc 13 55 2d be
       -0.0011585294 -0.047871992 -0.011271311 -0.16926984
0001e0 79 8a 23 be 99 71 a4 3d de 00 07 bd ae 83 58 3c
       -0.15970792 0.080294795 -0.03295981 0.013214989
0001f0 91 04 a1 bc ad f4 04 be ef 55 13 be 73 ae 0e 3e
       -0.019655498 -0.12983961 -0.1438825 0.13933735
000200 c0 30 85 3d 97 ac e0 bc bb 99 18 be f3 f8 d5 3c
       0.06503439 -0.027426047 -0.14902394 0.026119685
000210 78 7f 56 3c 46 9d 22 be 04 da d7 3d 88 68 2d 3e
       0.013091914 -0.15880308 0.1053963 0.16934407
000220 ce 19 8e bd 3f d4 03 3e 2b f9 d2 3c 39 6c 87 3d
       -0.069385156 0.12873934 0.025753578 0.06612439
000230 7d ab 31 be 83 f1 30 3c 74 e3 2e 3c 4b b5 a5 3c
       -0.17350574 0.010799768 0.010674346 0.020228049
000240 a4 9f e8 ba 37 42 85 3c 24 5f ed bd 66 a4 93 3d
       -0.0017747772 0.016266925 -0.11590412 0.07209091
000250 1f c3 14 3e 02 e5 91 bd e2 93 8d 3d 6c bd 12 3d
       0.14527558 -0.07123758 0.06912972 0.035825178
000260 b8 b1 1a 3e dc 79 e2 3d fb 56 17 be ae 9f 8f 3d
       0.15106857 0.11058399 -0.14779274 0.07012878
000270 64 29 ac 3d eb 57 f3 bd 97 f6 7d bd ea ab 3f 3c
       0.08406332 -0.118820034 -0.062002745 0.011698702
000280 0a e3 80 3c 76 a0 06 3d c2 c7 30 3d b0 e8 a4 3d
       0.01573326 0.03286787 0.043159254 0.08052194
000290 65 e9 a7 3d 39 e0 19 be 77 9e b7 bd 9e a6 30 3d
       0.08198813 -0.1502694 -0.08965772 0.04312765
0002a0 ac bc eb 3d dd 51 26 3e 81 e8 0b 3e 5c b5 7e 3c
       0.11510596 0.16242166 0.13662912 0.015546169
0002b0 78 58 f7 3d cc c5 bf bc 05 41 f4 3c 6e 0d 2f be
       0.12077421 -0.023409747 0.02981616 -0.17094967
0002c0 47 68 16 bd b1 af 06 be b8 bb b1 bc 13 2a 12 bd
       -0.03672054 -0.13152958 -0.021695957 -0.035684656
0002d0 04 21 01 be 18 c9 eb 3d 72 4c 99 bd b2 36 cf 3d
       -0.1261025 0.11512965 -0.07485284 0.10117854
0002e0 ef 58 4f bd 32 5d 21 3e 3e 18 b1 3c c4 27 2f 3e
       -0.050621923 0.15758207 0.021618005 0.17105013
0002f0 49 d4 31 be a2 1d ac 3d c6 50 23 3e 1f 82 2c be
       -0.17366137 0.084040895 0.15948781 -0.16846512
000300 18 ce 88 bd 5b 83 57 3c dd 70 81 3d ed e6 ae 3d
       -0.06679934 0.013153876 0.06320355 0.08540139
000310 72 3e 8e bc b1 06 d6 bd 18 2e 24 bd 3e f1 76 bd
       -0.01736376 -0.10450495 -0.04008302 -0.06028866
000320 39 9a 19 bd b4 54 ac bd 9f 4f 40 3d a4 ba 9f 3c
       -0.037500594 -0.08414593 0.046950933 0.019498177
000330 30 bd 29 be 09 e8 10 be ee 01 03 bd e7 14 06 3e
       -0.16576076 -0.14151014 -0.031984262 0.13093911
000340 cf f8 c4 bc 3a 04 72 3d e7 4f ee 3d a2 1d c8 3d
       -0.024044422 0.059086062 0.11636334 0.09771277
000350 5d 78 34 3d e7 b0 ba 3d ed b3 06 be 7c af 04 bd
       0.0440601 0.09115773 -0.13154574 -0.032393917
000360 42 4f 29 bd 06 6e 1f 3e 34 9e b1 bd f2 a4 e5 3b
       -0.04133535 0.15569314 -0.08672753 0.0070081884
000370 ec 3b 14 bc 64 a3 aa 3d 63 1c f5 bd ef b5 de bd
       -0.00904749 0.083319455 -0.11968305 -0.10874545
000380 11 5a ad 3d 0b e4 98 3d 21 d9 16 3e f9 51 d1 bd
       0.084644444 0.07465371 0.14731266 -0.10220713
000390 4b 23 0b 3e 5f 1d 0e be 31 2e 1e 3e 5d 1a 98 3d
       0.13587682 -0.13878392 0.15447308 0.074269034
0003a0 1c e4 76 bc 07 5e d8 bd eb 92 a6 bd 4a 18 f1 bc
       -0.015069034 -0.10564809 -0.08133491 -0.029430527
0003b0 6f 05 b6 bc 87 09 5b 3d a6 d6 ec 3d 3b 77 8a 3d
       -0.022219388 0.053475883 0.115643784 0.06761023
0003c0 5d c2 13 be 2e b6 72 3d 67 68 83 3d 92 15 db 3d
       -0.14429612 0.05925577 0.064163975 0.106974736
0003d0 67 d7 c9 b9 dc f9 b1 bc de 9f d8 3d 4f 16 8e 3c
       -0.00038498195 -0.021725588 0.10577367 0.017344622
0003e0 fd 6c 03 3e 75 db f0 3d f1 49 58 bd 5e da 00 3e
       0.12834544 0.11760608 -0.05280489 0.125833
0003f0 bc 62 80 3d 0f 5a de bc 2c a5 11 3e 5d 08 28 be
       0.06268832 -0.027142553 0.14223164 -0.1640944

blocks.0.skip_conv.bias f4 [128]
000000 ae 41 0d 3b d8 47 3d 3c 94 00 3d 3b 61 33 9f 39
       0.002155404 0.011552773 0.0028839456 0.00030365124
000010 79 49 bb 3a 8f d8 69 3b 98 16 95 ba 22 a1 fd ba
       0.0014288864 0.0035682057 -0.0011374531 -0.001935039
000020 d7 68 c8 39 56 fe b9 bb 31 3a 07 3c e1 62 90 3b
       0.00038225084 -0.005676071 0.00825362 0.0044063185
000030 44 c0 f1 b8 73 63 aa ba fb 79 7e bb 5e ba 96 ba
       -0.00011527588 -0.0012999609 -0.003883003 -0.0011499634
000040 82 b0 42 3b 40 43 90 3b 4c 66 29 3c b2 92 c7 3b
       0.0029707258 0.004402548 0.010339331 0.0060904855
000050 ba ac a7 bb 3d 29 f0 bb a9 ea a7 3b 57 31 a9 bb
       -0.005117026 -0.0073291347 0.005124409 -0.0051633525
000060 35 7f 96 3b ee 97 ab 3a 12 2e bb bb 97 67 ae 3b
       0.004592801 0.0013091543 -0.005712279 0.0053224075
000070 c2 92 97 3b 56 98 c9 ba 94 ac 28 b9 61 2c 34 3b
       0.004625649 -0.0015380483 -0.00016086019 0.0027492272
000080 05 22 99 3a 3c 69 a5 38 94 66 87 3b 8e 9b 89 3b
       0.0011683112 7.8874145e-05 0.0041321013 0.0041994518
000090 d8 6e 05 3c 92 0a 3e 3c 8b 48 d5 3a 81 2d 85 3a
       0.008144103 0.0115992 0.001627223 0.0010160656
0000a0 34 11 a3 3b ae 77 db 3a 0c 88 0f bc 5a ae a6 3a
       0.004976416 0.0016744041 -0.008760463 0.0012716756
0000b0 64 e5 fc 3b 32 e8 75 3c 7a 7c 51 bb 76 88 36 3b
       0.007717775 0.015008973 -0.0031965063 0.0027852333
0000c0 85 5f e0 ba 36 30 9c bc e1 3a 01 3a 99 2b 8f ba
       -0.0017118311 -0.019065958 0.0004929733 -0.0010923027
0000d0 24 f0 4a ba 0e 14 51 3b 4d 69 1b 3c 4b 04 e3 3b
       -0.0007741472 0.0031902823 0.009485555 0.006928002
0000e0 30 a7 d4 3b cb 02 88 bb df 67 8f 3b 08 1d 49 3a
       0.006489657 -0.0041507236 0.004376396 0.00076718675
0000f0 10 1c 2f bb e6 77 f4 3b e9 b7 00 bc bf c3 df 3b
       -0.0026719607 0.007460582 -0.007856348 0.0068287547
000100 77 a4 a0 b9 93 da 5d 3b 0b 68 ee 3b 04 fc ae bb
       -0.00030640114 0.0033852204 0.0072755865 -0.005340101
000110 d8 07 1e b9 be 76 e9 bb 3b 87 0d 3a 10 a3 5a 3b
       -0.00015070976 -0.007124751 0.0005398874 0.0033361353
000120 4b a0 44 3b fd 3f bf 3b 7a e7 92 bb 28 c4 d2 3b
       0.0030002769 0.0058364854 -0.0044831606 0.006432075
000130 64 bb 2f 3c 91 7d 37 bc 49 3e 1f bb d9 b1 f5 39
       0.01072583 -0.011199371 -0.00242986 0.00046862548
000140 b2 e6 15 3b db b5 57 3b c7 45 1f 3a 26 e0 4e 3b
       0.00228731 0.003291479 0.0006075766 0.0031566708
000150 4e 5f 99 3b d8 64 a9 3b cd e1 50 39 dc af 43 3b
       0.0046805507 0.005169492 0.00019920543 0.002985946
000160 88 dc 09 3b e3 f7 70 bb 9c 2b 4d bb b7 32 f1 3a
       0.0021035988 -0.0036768846 -0.003130651 0.0018401955
000170 e0 49 a2 ba ab 41 fe 39 1d 2d 16 3b 60 d3 e5 bb
       -0.0012381636 0.00048495582 0.0022915073 -0.0070137233
000180 f3 ab 86 3a 2e bf ac 3a 18 e3 2e bb 7a ad 81 b9
       0.0010274634 0.0013179535 -0.0026685651 -0.00024734047
000190 16 96 6b 3b 94 ec f1 3a 21 07 dd ba 7f a8 b2 3b
       0.0035947612 0.0018457347 -0.0016863086 0.005452215
0001a0 36 db 4f bb d0 a4 fd 3b f7 ad 4a 3b 8f 57 bf b9
       -0.0031716353 0.0077405944 0.0030926445 -0.00036495595
0001b0 fe c8 82 3b a5 e6 dc ba f6 09 a2 ba 16 ad 6f 3b
       0.0039912453 -0.0016853405 -0.0012362588 0.0036571673
0001c0 15 dc a7 bb 43 00 3a bb b8 05 c0 3b 46 2e 95 bb
       -0.0051226714 -0.0028381504 0.0058600567 -0.0045526354
0001d0 e4 d6 27 3b 95 a5 e3 3b 07 f1 df ba 17 31 1a bc
       0.0025610263 0.006947229 -0.0017085382 -0.009411118
0001e0 6d 93 8c 3b 83 b1 ca bb da 84 6d ba 5f 5e 86 3b
       0.0042900355 -0.006185712 -0.0009060629 0.0041006054
0001f0 f2 8c 78 bb e3 9e 14 3a 4b e0 e9 3b 7b e5 97 bb
       -0.0037925807 0.0005669428 0.0071373335 -0.0046355105

blocks.0.bn.weight f4 [64]
000000 47 ec 80 3f c8 9d 80 3f d4 db 7d 3f ea 97 80 3f
       1.0072106 1.0048151 0.99163556 1.004636
000010 97 7b 7f 3f 6d 5d 7f 3f f3 7f 80 3f b7 c0 80 3f
       0.9979796 0.9975193 1.0039047 1.0058812
000020 76 51 80 3f 7c 63 82 3f d6 df 7f 3f 1c 05 80 3f
       1.002486 1.018661 0.9995092 1.0001559
000030 3c ee 7e 3f 89 4b 80 3f f8 76 80 3f c6 c2 7f 3f
       0.99582267 1.0023052 1.0036306 0.99906576
000040 9d 1b 80 3f 80 38 81 3f f1 eb 7e 3f ef 45 7f 3f
       1.0008427 1.0095367 0.9957877 0.99716085
000050 29 1d 80 3f 92 ea 7e 3f d5 5a 82 3f c3 7b 81 3f
       1.0008899 0.99576676 1.018397 1.0115894
000060 57 00 7e 3f 2b 13 7f 3f d3 b4 7e 3f 1a 06 7b 3f
       0.9921927 0.99638623 0.99494666 0.98056185
000070 5f 81 80 3f d8 29 7b 3f 41 02 80 3f 0b af 7e 3f
       1.0039481 0.98110723 1.0000688 0.99485844
000080 97 d8 7f 3f 27 06 7f 3f 4a b2 81 3f 1d ec 80 3f
       0.99939865 0.9961876 1.0132535 1.0072056
000090 81 61 7f 3f 92 6d 80 3f 20 8d 80 3f a5 97 7e 3f
       0.99758154 1.0033438 1.0043068 0.9945014
0000a0 ce 63 80 3f 14 8a 7f 3f 09 0b 83 3f 00 20 80 3f
       1.0030458 0.99820065 1.0237743 1.0009766
0000b0 04 8e 81 3f 63 94 80 3f 87 4d 7f 3f b3 63 80 3f
       1.0121465 1.0045284 0.9972767 1.0030426
0000c0 a7 3f 80 3f bb 6d 7f 3f 61 e1 80 3f 25 6f 7e 3f
       1.0019425 0.9977681 1.006878 0.99388343
0000d0 30 0a 82 3f 09 83 7f 3f 51 7c 80 3f 02 51 7d 3f
       1.0159359 0.9980932 1.0037938 0.98951733
0000e0 5c 35 81 3f 3e a7 7c 3f ef 75 7f 3f 23 60 7f 3f
       1.0094409 0.9869269 0.9978933 0.9975607
0000f0 b3 12 82 3f a8 34 80 3f 3e 0f 80 3f 42 f5 80 3f
       1.0161957 1.001607 1.0004652 1.0074847
