TGNN2026/artifacts_MTGNN1m_1SoftUtility/production_best_weights.pt (torch, 803285 bytes, 83 tensors)

A_static f4 [3, 3]
0.33333334 0.33333334 0.33333334 0.33333334 0.33333334 0.33333334 0.33333334 0.33333334
0.33333334
00000000: abaa aa3e abaa aa3e abaa aa3e abaa aa3e
00000010: abaa aa3e abaa aa3e abaa aa3e abaa aa3e
00000020: abaa aa3e

in_proj.weight f4 [64, 15]
0.08860307 0.051404573 -0.0061558126 -0.23912871 0.1816226 -0.14071816 0.16728233 -0.2642067
-0.010901144 0.015823815 -0.24701315 0.061026193 -0.21730946 -0.15039971 0.10253145 0.17346612
-0.24283238 0.21130143 -0.053446375 -0.09925709 -0.10690136 0.21608344 -0.11223331 -0.14563246
0.18982704 0.22180009 -0.005983935 0.01338401 -0.05429442 0.04347684 0.0023181988 -0.05549192
-0.022845535 -0.11976359 -0.06627931 -0.18327451 -0.25015578 0.21025705 -0.034286972 0.16758347
-0.045297507 0.0056758146 0.09173008 -0.27916813 0.24016687 0.007585714 -0.05547762 0.17334574
0.20029527 0.26268852 -0.17033808 -0.19157979 0.16119249 -0.04660407 0.06386881 -0.017337043
-0.14033233 -0.19141151 -0.20083576 -0.042246725 0.13155542 -0.13358027 -0.067548156 -0.021509657
0.12091414 0.18798867 0.24873105 0.18860392 0.0069253077 -0.2320441 0.18971793 -0.25504363
-0.24373005 -0.22629558 -0.17226195 0.16374934 0.15068871 0.24484931 0.20148319 0.035748497
0.2154773 -0.2250216 0.04295436 0.13726474 -0.060061466 0.01921221 -0.25037184 -0.22720157
-0.24901235 0.26310337 -0.060280338 0.09870563 0.21807347 0.09848353 0.15304786 0.084061034
0.23253144 -0.050802927 0.0062532066 -0.17837645 -0.11446727 0.24871328 0.003261084 0.16623184
0.08214813 -0.18839242 0.063054144 0.27641818 -0.15284763 0.18670861 -0.17901728 0.25852847
0.013228233 -0.068903334 -0.13008347 0.14518355 0.24171327 0.10285031 0.03638471 -0.2518107
0.1228199 0.1465733 0.14477135 0.03410622 0.22671005 0.22462034 0.16018657 0.074691094
-0.07321789 0.036729295 0.10171273 0.17195733 -0.021667274 -0.07975445 0.22410686 0.15807697
-0.12944067 -0.26817253 0.18406227 0.25317407 0.0039133066 0.070150904 -0.1143243 -0.124411836
-0.05937406 -0.050159417 0.25778377 0.22264439 -0.10674439 0.25242993 -0.09143863 -0.025655903
0.072384454 0.211533 -0.24574113 -0.13686879 0.16605522 -0.18618372 0.1349183 0.0035588874
0.11378437 -0.13094604 -0.00849867 0.25603494 -0.107328884 -0.25931332 -0.20869644 -0.0650802
0.16790918 -0.17255816 -0.16798982 0.11336849 -0.05105361 0.26034555 -0.103982955 0.2787821
0.11039439 0.24971822 0.05270733 -0.11068747 0.07907007 0.07297132 -0.04359016 0.012771852
0.14785363 0.27012095 0.11299631 -0.022711273 -0.25308964 0.1853383 -0.097271256 -0.18676385
0.2534429 -0.19726944 0.16452746 -0.10276552 -0.018534875 -0.052653443 0.040783226 0.049166437
0.23304527 -0.019206263 -0.015772533 -0.16869354 -0.15131615 -0.06532355 0.010742951 -0.18742715
-0.13548304 0.18480952 -0.18068244 -0.22596754 0.06256781 0.08078696 -0.19361755 0.006169358
-0.06199764 -0.051397078 0.13793978 -0.071137 0.04760739 0.1310688 0.15454628 0.07533725
0.2678482 0.013936185 0.16672912 -0.1543526 -0.19241883 -0.0078644175 0.052264135 0.223676
0.22316964 0.17043531 0.11689957 -0.18001804 -0.2477071 -0.21886799 -0.15624636 0.26562193
0.21974923 0.20964737 0.26649216 0.01817873 -0.16780627 -0.26690158 0.08734876 0.02346251
0.19841972 -0.23923895 0.23380466 -0.009973498 -0.024146937 0.16859831 -0.22850017 -0.013173263
00000000: 8775 b53d 9a8d 523d b3b6 c9bb 28de 74be
00000010: 46fb 393e 6c18 10be 0f4c 2b3e 1a46 87be
00000020: b69a 32bc f2a0 813c 04f1 7cbe 9af6 793d
00000030: 5f86 5ebe 6202 1abe 02fc d13d 1aa1 313e
00000040: 0da9 78be 675f 583e 96ea 5abd 4d47 cbbd
00000050: 1aef dabd fa44 5d3e 94da e5bd ad20 15be
00000060: 0562 423e 901f 633e e314 c4bb 9b48 5b3c
00000070: d363 5ebd c514 323d ecec 173b 7f4b 63bd
00000080: 8f26 bbbc 9d46 f5bd 72bd 87bd 50ac 3bbe
00000090: 6b14 80be a04d 573e 7f70 0cbd 009b 2b3e
000000a0: e189 39bd 2ffc b93b fbdc bb3d 20ef 8ebe
000000b0: 4eee 753e 9591 f83b 803c 63bd 8c81 313e
000000c0: 341a 4d3e 1c7f 863e 1b6d 2ebe 7e2d 44be
000000d0: a50f 253e e9e3 3ebd a7cd 823d 6a06 8ebc
000000e0: 47b3 0fbe 6101 44be e4a7 4dbe e70a 2dbd
000000f0: 77b6 063e 44c9 08be b056 8abd 0535 b0bc
00000100: d5a1 f73d 1a80 403e 5ab3 7e3e 6321 413e
00000110: b1ed e23b f89c 6dbe 6b45 423e 1495 82be
00000120: 5f94 79be 07ba 67be 7065 30be e8ad 273e
00000130: 244e 1a3e c7b9 7a3e 9c51 4e3e 046d 123d
00000140: 15a6 5c3e 106c 66be e9f0 2f3d 218f 0c3e
00000150: 0303 76bd ed62 9d3c bd30 80be 87a7 68be
00000160: 18fd 7ebe 7cb5 863e 84e8 76bd 2d26 ca3d
00000170: a74e 5f3e bcb1 c93d 94b8 1c3e 3128 ac3d
00000180: b91c 6e3e bb16 50bd b3e7 cc3b 51a8 36be
00000190: d16d eabd b2ae 7e3e e9b7 553b ae38 2a3e
000001a0: 473d a83d f1e9 40be 8822 813d af86 8d3e
000001b0: 1784 1cbe 8b30 3f3e 4e50 37be d85d 843e
000001c0: 3bbb 583c 311d 8dbd 9a34 05be ffaa 143e
000001d0: af83 773e 2fa3 d23d 2208 153d 55ed 80be
000001e0: 0089 fb3d 5017 163e f13e 143e f7b2 0b3d
000001f0: ae26 683e e002 663e f307 243e a5f7 983d
00000200: 43f3 95bd 7571 163d c44e d03d 9515 303e
00000210: 917f b1bc 4d56 a3bd 457c 653e eede 213e
00000220: 188c 04be e94d 89be d27a 3c3e 08a0 813e
00000230: 323b 803b 47ab 8f3d dc22 eabd a2cb febd
00000240: 3732 73bd f673 4dbd 3cfc 833e e4fc 633e
00000250: ce9c dabd 7f3e 813e 2d44 bbbd 542c d2bc
00000260: 4d3e 943d 1b9c 583e 90a3 7bbe 5527 0cbe
00000270: 610a 2a3e f2a6 3ebe 0628 0a3e 393c 693b
00000280: c807 e93d b816 06be 013e 0bbc 0317 833e
00000290: 3fcf dbbd b7c4 84be 85b4 55be c548 85bd
000002a0: 62f0 2b3e 16b3 30be 8605 2cbe bd2d e83d
000002b0: 971d 51bd 034c 853e 04f5 d4bd 87bc 8e3e
000002c0: 7416 e23d 22b6 7f3e a4e3 573d 1db0 e2bd
000002d0: 7def a13d fd71 953d 988b 32bd 0841 513c
000002e0: f166 173e 4b4d 8a3e 9c6a e73d fe0c babc
000002f0: f794 81be 53c9 3d3e 2736 c7bd 063f 3fbe
00000300: 45c3 813e 0001 4abe e379 283e bb76 d2bd
00000310: 73d6 97bc 23ab 57bd 500c 273d bf62 493d
00000320: 6ba3 6e3e 7456 9dbc 6635 81bc 00be 2cbe
00000330: 9ff2 1abe 5ac8 85bd 3403 303c e7ec 3fbe
00000340: 11bc 0abe b53e 3d3e d104 39be 0964 67be
00000350: 8d23 803d a273 a53d ae43 46be 5328 ca3b
00000360: 3df1 7dbd be85 52bd 1640 0d3e 47b0 91bd
00000370: f7ff 423d e636 063e 6141 1e3e 6b4a 9a3d
00000380: 6623 893e 9954 643c 0abb 2a3e 9c0e 1ebe
00000390: 7109 45be c2d9 00bc eb12 563d 520b 653e
000003a0: 9586 643e 9886 2e3e 0b69 ef3d a656 38be
000003b0: eea6 7dbe ee1e 60be 0cff 1fbe 99ff 873e
000003c0: f105 613e cdad 563e a971 883e 8feb 943c
000003d0: 68d5 2bbe 53a7 88be e8e3 b23d 7334 c03c
000003e0: 8a2e 4b3e 0efb 74be 7d6a 6f3e e267 23bc
000003f0: cccf c5bc 09a5 2c3e f3fb 69be abd4 57bc

in_proj.bias f4 [64]
-0.008069452 -0.010786999 -0.0021623932 0.008138113 -0.0035087247 -0.002102965 -0.009200555 -0.0058435122
-0.011926268 -0.01320334 0.0114021255 -0.0085909255 0.001516402 -0.008889195 -0.0027497422 0.0045104227
-0.0024552208 -0.0061739134 0.0047495314 0.003668392 -0.004019858 0.0063129286 -0.014377479 -0.0078064636
-0.0030080203 -0.0057165097 -0.009229877 0.0008669785 0.0008859659 0.0057978714 0.0024080304 0.01177303
0.0035115122 0.006097419 -0.0052161007 0.00024075019 0.015438938 -0.0036240767 0.0113124065 -0.0012773187
-0.006099044 0.0014568073 -0.011499379 -0.008672017 0.006528493 -0.0051176455 0.010577411 -0.002259521
-0.002550927 -0.0075516542 0.0070490493 -0.014590547 -0.004791038 0.0013640695 0.0033714345 -0.0016978278
0.005191276 0.0043081506 -0.007818323 0.0019072589 -0.0005120337 0.002646231 0.0007692659 0.004609113
00000000: bc35 04bc f4bb 30bc f0b6 0dbb b855 053c
00000010: a2f2 65bb e6d1 09bb edbd 16bc ef7a bfbb
00000020: 6566 43bc d252 58bc fbcf 3a3c f4c0 0cbc
00000030: 02c2 c63a fca3 11bc 0535 34bb 2bcc 933b
00000040: c5e7 20bb 8a4e cabb f5a1 9b3b 6869 703b
00000050: 03b9 83bb afdc ce3b 858f 6bbc 5dcd ffbb
00000060: 3522 45bb 8f51 bbbb e938 17bc f145 633a
00000070: 2a40 683a 12fc bd3b 0cd0 1d3b abe3 403c
00000080: 6621 663b dccc c73b d3eb aabb e371 7c39
00000090: 99f3 7c3c eb81 6dbb ac57 393c b46b a7ba
000000a0: 7dda c7bb 57f2 be3a e467 3cbc 1315 0ebc
000000b0: f8ec d53b ecb1 a7bb e14c 2d3c 7914 14bb
000000c0: 742d 27bb de73 f7bb b6fb e63b 310d 6fbc
000000d0: 24fe 9cbb 94ca b23a 49f3 5c3b a689 deba
000000e0: 941b aa3b 632b 8d3b 6c18 00bc fdfc f93a
000000f0: 003a 06ba 646c 2d3b 90a8 493a 0b08 973b

adapt.E1 f4 [3, 8]
-0.0108770775 0.010709355 0.01995063 -0.00907858 0.0071031596 0.017229147 -0.0067009875 0.0019708409
-0.003110052 0.014540119 0.00027836554 -0.0066579073 -0.00063846057 0.024291314 0.011222274 0.00060240546
0.0061398195 0.015774548 -0.0040703425 -0.00028102298 0.0070563415 -0.018945368 0.0013573526 0.014872458
00000000: c535 32bc 4a76 2f3c 816f a33c 53be 14bc
00000010: 9fc1 e83b 2424 8d3c f593 dbbb 3929 013b
00000020: 04d2 4bbb ae39 6e3c 97f1 9139 932a dabb
00000030: 5d5e 27ba 94fe c63c a1dd 373c bfea 1d3a
00000040: 8a30 c93b a039 813c 8260 85bb 4456 93b9
00000050: e238 e73b 5133 9bbc 32e9 b13a 9cab 733c

adapt.E2 f4 [3, 8]
0.0026201955 -0.014661368 0.0013719917 0.0031992327 -0.0012858144 0.0053481264 -0.00096172263 -0.002265818
-0.018851502 0.007379549 -0.012714971 -0.009424307 -0.008966016 -0.0070187817 -0.01139404 -0.009092826
0.0012839851 -0.0060067577 0.0068586194 0.021000843 -0.0027665724 -0.00014693194 0.0015243988 -0.008514378
00000000: 96b7 2b3b 3c36 70bc 67d4 b33a 38aa 513b
00000010: c688 a8ba 563f af3b 1d1c 7cba 1e7e 14bb
00000020: 776e 9abc 25d0 f13b 7452 50bc 6968 1abc
00000030: 32e6 12bc cffd e5bb 11ae 3abc 14fa 14bc
00000040: 644b a83a 56d4 c4bb 45be e03b f609 ac3c
00000050: 624f 35bb be11 1ab9 56ce c73a e47f 0bbc

support_mix.w_logits f4 [3]
0.024238015 -0.024237422 0.024236394
00000000: cd8e c63c 8f8d c6bc 678b c63c

blocks.0.filter_conv.conv.weight f4 [64, 64, 1, 2]
0.11972212 -0.091869086 0.02812329 0.12009882 -0.067521326 -0.012061578 0.014221314 -0.13531564
-0.10578708 0.113572545 0.06346389 -0.13110901 -0.09766673 0.055868253 -0.096827835 0.15507114
-0.1177273 0.065991946 0.13643304 0.05727109 -0.14842556 -0.009326951 0.07881349 -0.049304266
-0.14529642 -0.106252275 -0.07603799 0.05950639 -0.09723691 0.08451591 -0.084548704 0.064247556
-0.057040676 0.10442904 0.08131179 0.05608347 0.120748565 -0.1056274 0.15196484 -0.10179495
0.061932985 0.07799569 -0.072689034 -0.11869615 -0.15538132 -0.112499386 -0.001956899 0.1401441
-0.08380386 -0.050699323 0.02058131 -0.108320035 -0.0071226596 0.008236785 0.07994999 -0.112479314
-0.086907566 -0.11091102 -0.12460418 0.06555698 -0.10989286 -0.122682855 0.101614304 0.014127758
0.034486294 0.08407819 0.1417577 0.10990278 -0.105990395 0.11446583 -0.12357421 0.012075061
0.09331156 0.020612305 0.10642621 -0.14694972 -0.047920246 0.015801547 0.074955344 0.11207501
-0.028040078 0.13908136 -0.14760485 -0.1288744 -0.11875284 0.10781118 0.08092851 -0.15279521
-0.00012425972 0.1332293 -0.07592476 -0.09643988 -0.10212775 0.111258 0.023753848 -0.07829993
-0.14493936 -0.14304212 -0.08399615 -0.074316226 -0.03642284 -0.06355804 -0.118826866 -0.031868223
0.016959982 -0.051339027 -0.089704074 -0.14340103 -0.035623737 -0.0019516773 0.05570294 -0.1434767
-0.05104622 0.067010045 -0.011823105 0.07764891 0.12678735 -0.06560427 0.052088186 0.074010305
-0.039292723 0.13107026 -0.052270193 0.12362841 -0.13812944 -0.115185104 0.05788717 0.045847878
0.065772094 -0.056969713 0.10858996 0.054646097 -0.10411195 0.10454856 -0.011597114 0.15436968
0.14593537 -0.13672459 0.061676525 -0.11597481 -0.015173267 0.1254778 -0.03470602 0.060387876
0.02175814 -0.031600345 0.095286146 0.053725395 -0.0012782858 0.046716843 0.092963934 0.07852657
0.13099568 0.050679654 -0.038396746 0.028719194 -0.05113772 0.019814646 -0.09483244 -0.14387
0.014889966 -0.060939427 0.0592331 0.110945225 0.12861605 0.081739575 0.05404121 0.0001183259
0.043631297 0.005110753 -0.062716 0.008086352 -0.12808573 0.032618962 -0.035420977 -0.095453024
-0.053535808 -0.0014815399 0.07804619 0.09448977 0.055358827 0.05429616 -0.09798904 0.11464035
0.101210155 -0.014761452 -0.09973517 0.08370817 0.05025527 -0.018657928 0.022337532 -0.14902191
0.013608449 -0.0045462903 0.11933954 -0.11144676 -0.0055658566 0.1458895 -0.019536799 -0.10775859
-0.0860046 -0.10211366 -0.11945049 -0.11557922 -0.10151581 0.09429512 0.045038074 -0.03639793
0.048092194 -0.04509085 -0.114861876 0.075775534 0.13471276 0.0070690825 0.1250255 0.025049943
0.15438901 0.09325318 -0.14176968 -0.10472822 -0.075054206 -0.14543378 0.11768943 0.0305666
0.12601249 -0.13357614 -0.1376486 0.13459474 -0.09809848 0.089658365 0.14576791 0.033407006
0.033614554 0.053103797 -0.007959991 -0.072964326 0.10825448 -0.06592959 -0.13579646 -0.12465762
-0.15779522 -0.09960417 -0.15098962 -0.014983888 0.025244199 0.07157023 -0.10115919 -0.15097389
-0.08884674 0.1402068 0.08145893 0.12243707 -0.017977344 0.037414193 -0.085084565 0.032040793
00000000: df30 f53d dc25 bcbd d062 e63c 5ff6 f53d
00000010: 9f48 8abd ed9d 45bc 8400 693c 2f90 0abe
00000020: e6a6 d8bd b998 e83d 5bf9 813d 7141 06be
00000030: 7f05 c8bd 1cd6 643d ac4d c6bd f8ca 1e3e
00000040: 031b f1bd c926 873d 1ab5 0b3e 1795 6a3d
00000050: dffc 17be 11d0 18bc f868 a13d 45f3 49bd
00000060: 96c8 14be cb9a d9bd ceb9 9bbd f9bc 733d
00000070: 2524 c7bd ad16 ad3d df27 adbd 3994 833d
00000080: 7ca3 69bd e4de d53d cc86 a63d c8b7 653d
00000090: 064b f73d 2e53 d8bd ac9c 1b3e df79 d0bd
000000a0: 71ad 7d3d 34bc 9f3d fddd 94bd f816 f3bd
000000b0: 481c 1fbe 1466 e6bd 513f 00bb ef81 0f3e
000000c0: 5ca1 abbd 18aa 4fbd 239a a83c e5d6 ddbd
000000d0: 3365 e9bb 95f3 063c d2bc a33d 8e5b e6bd
000000e0: 98fc b1bd 5125 e3bd 7a30 ffbd bd42 863d
000000f0: 820f e1bd 2641 fbbd 291b d03d 1d78 673c
00000100: 8041 0d3d 3031 ac3d ee28 113e b514 e13d
00000110: 7e11 d9bd 106d ea3d 7a14 fdbd 7ad6 453c
00000120: 221a bf3d 23db a83c fcf5 d93d fd79 16be
00000130: 0548 44bd 3f72 813c 3082 993d 9587 e53d
00000140: 4eb4 e5bc 586b 0e3e ba25 17be a7f7 03be
00000150: b034 f3bd 1ccc dc3d d9bd a53d 5976 1cbe
00000160: b74b 02b9 436d 083e 717e 9bbd 4682 c5bd
00000170: 5b28 d1bd 3cdb e33d 6e97 c23c b75b a0bd
00000180: fc6a 14be a279 12be 2c06 acbd 1b33 98bd
00000190: 1e30 15bd b82a 82bd 805b f3bd 4188 02bd
000001a0: a9ef 8a3c df48 52bd c5b6 b7bd b8d7 12be
000001b0: 32ea 11bd 6ccf ffba c428 643d 8eeb 12be
000001c0: d715 51bd 903c 893d b2b5 41bc 6406 9f3d
000001d0: 8bd4 013e 885b 86bd 6c5a 553d b792 973d
000001e0: 68f1 20bd 4837 063e 4519 56bd e430 fd3d
000001f0: ce71 0dbe 2be6 ebbd 191b 6d3d fcca 3b3d
00000200: 85b3 863d 1359 69bd 6a64 de3d 96d4 5f3d
00000210: a538 d5bd 8e1d d63d d201 3ebc 1613 1e3e
00000220: 1570 153e 8801 0cbe 86a0 7c3d 3484 edbd
00000230: 4b99 78bc 417d 003e e627 0ebd 4759 773d
00000240: 203e b23c 5d6f 01bd 6225 c33d 290f 5c3d
00000250: 278c a7ba 295a 3f3d e063 be3d 8ad2 a03d
00000260: bb23 063e 7895 4f3d e845 1dbd 8444 eb3c
00000270: c975 51bd 5352 a23c 8337 c2bd a852 13be
00000280: 0bf5 733c 9f9b 79bd 689e 723d 4037 e33d
00000290: edb3 033e 1467 a73d 515a 5d3d bc25 f838
000002a0: bbb6 323d 1a78 a73b 3f71 80bd 9e7c 043c
000002b0: e828 03be 769b 053d 9615 11bd e07c c3bd
000002c0: 5d48 5bbd 3b30 c2ba aed6 9f3d da83 c13d
000002d0: f0bf 623d a665 5e3d 7aae c8bd 8fc8 ea3d
000002e0: 4547 cf3d 04da 71bc f441 ccbd 306f ab3d
000002f0: 78d8 4d3d 83d8 98bc 33fd b63c 3399 18be
00000300: f9f5 5e3c 0cf9 94bb 4a68 f43d 333e e4bd
00000310: ca61 b6bb 0f64 153e a30b a0bc 89b0 dcbd
00000320: 2e23 b0bd f720 d1bd 75a2 f4bd ccb4 ecbd
00000330: 85e7 cfbd cd1d c13d d879 383d ff15 15bd
00000340: 52fc 443d 2fb1 38bd b43c ebbd 3430 9b3d
00000350: 24f2 093e c3a3 e73b af06 003e 8a35 cd3c
00000360: 2718 1e3e 86fb be3d 122c 11be c07b d6bd
00000370: 05b6 99bd 98ec 14be 2807 f13d ce66 fa3c
00000380: 6b09 013e 2fc8 08be c1f3 0cbe 34d3 093e
00000390: dbe7 c8bd ce9e b73d 2f44 153e c9d5 083d
000003a0: 6aaf 093d 5e83 593d 9f6a 02bc 526e 95bd
000003b0: 86b4 dd3d 1806 87bd 3a0e 0bbe 7f4c ffbd
000003c0: 1295 21be 45fd cbbd 069d 1abe fb7e 75bc
000003d0: eccc ce3c 6a93 923d 8d2c cfbd e698 1abe
000003e0: 48f5 b5bd 5f92 0f3e f1d3 a63d 49c0 fa3d
000003f0: 3945 93bc a03f 193d d140 aebd 353d 033d

blocks.0.filter_conv.conv.bias f4 [64]
0.001869353 -0.0056707584 -0.0131426295 -0.0070630657 -2.6706246e-05 0.013763216 -0.0009414158 0.0024546855
-0.0092664305 0.0009208638 0.0019676902 -0.0045758747 -0.0009129269 -0.0039991867 0.0029525724 0.005066331
0.0036946447 0.003266287 -0.005934556 -0.0028091487 -0.0025177272 0.00077201193 0.003872462 -0.004228105
0.014821726 -0.0022675246 -0.000745945 0.010636828 -0.0029919643 0.0037824179 0.0019745484 0.0010285196
-0.00023154734 0.0013790567 0.0028205614 0.0020975715 -0.0014250145 0.0043644835 -0.004426397 0.0022217412
-0.005879062 0.0013724242 -0.010031593 -0.002748919 -0.0032413004 -0.00931023 -0.0036455716 -0.014711503
0.0006843311 0.00124263 -0.0053832335 0.010674298 -0.0012791961 -0.012574123 -0.0041454863 -0.012812755
-0.0034645884 -0.0028394077 0.001658568 -0.0014074317 0.011137619 -0.0042003784 -0.004753342 0.0035063422
00000000: 1405 f53a c5d1 b9bb 2f54 57bc 4a71 e7bb
00000010: 3a07 e0b7 1d7f 613c 58c9 76ba cade 203b
00000020: 3ad2 17bc 2066 713a 5df4 003b 38f1 95bb
00000030: 7d51 6fba 9c0b 83bb f27f 413b 7703 a63b
00000040: da21 723b 340f 563b aa76 c2bb b219 38bb
00000050: 7400 25bb d860 4a3a 22c9 7d3b ea8b 8abb
00000060: d3d6 723c c09a 14bb 868b 43ba 1746 2e3c
00000070: d514 44bb 71e2 773b 6d67 013b 64cf 863a
00000080: 84cb 72b9 77c1 b43a 2bd9 383b 6977 093b
00000090: 8dc7 baba f103 8f3b 4f0b 91bb a29a 113b
000000a0: 26a5 c0bb eae2 b33a 8d5b 24bc 3527 34bb
000000b0: ff6b 54bb ef89 18bc 8bea 6ebb 8408 71bc
000000c0: af64 333a bedf a23a d665 b0bb 40e3 2e3c
000000d0: b3aa a7ba b203 4ebc dcd6 87bb 97ec 51bc
000000e0: 260e 63bb 5b15 3abb 4f64 d93a 9279 b8ba
000000f0: 8f7a 363c 54a3 89bb ecc1 9bbb a9ca 653b

blocks.0.gate_conv.conv.weight f4 [64, 64, 1, 2]
-0.10713941 -0.14588527 0.06729011 -0.13644175 -0.08972661 0.08217706 -0.06598573 -0.12505104
0.03668118 0.06848723 -0.026520733 0.11201171 -0.05595003 -0.10853303 0.16655885 -0.07488295
0.08087272 0.12687705 0.050651953 0.074518844 0.0007558332 0.022189979 -0.094605066 0.08999731
-0.044717845 -0.113731734 0.094274916 0.054201458 0.06887963 -0.08790354 -0.14563188 -0.04026321
-0.12880021 -0.0039078947 0.06623129 0.090798646 -0.036588512 0.015788805 -0.11104859 0.020601688
0.123132505 0.056973122 -0.053626645 -0.11321962 -0.12631428 0.0858414 -0.050255865 0.032280214
0.10796525 0.03759461 -0.06195384 0.101408616 -0.018589025 0.009733855 0.0935933 -0.1601214
0.0544658 0.04973423 0.1355622 -0.08575625 0.06383572 -0.034860283 0.013839567 0.097650565
0.040861785 -0.082069926 0.09455387 -0.06035067 -0.058543343 -0.035896536 -0.04333193 -0.047175802
0.049494244 0.10207833 -0.14019127 0.1396269 0.029350907 -0.009541403 -0.03812746 -0.07333445
-0.10596963 0.13828325 -0.05867515 0.15005696 0.15252697 0.09688038 0.03201557 -0.039283648
-0.05987484 0.060525853 -0.09068934 -0.13457328 0.09307218 0.08566477 -0.08093898 -0.097901665
0.14566442 -0.032953616 0.051420443 0.057823993 -0.037849426 0.05222071 0.15525529 0.105382144
0.13685861 0.051787134 -0.013560875 -0.0657494 0.08626343 0.080887266 0.009897376 -0.15081276
-0.13719013 0.071023084 -0.13971792 -0.087887414 -0.0864419 -0.03813942 -0.15685958 -0.025280533
0.10127883 0.044523336 0.048092876 0.13076751 -0.11258548 0.079797804 -0.07189836 0.122135065
-0.087235056 -0.13555484 0.07383002 0.080378786 -0.12331865 -0.0010137073 0.087218955 -0.13688083
0.017912013 0.15495375 0.06995807 0.052477 -0.047125217 -0.07788633 0.13636465 -0.008304441
0.09254169 -0.029715555 0.081570774 -0.08760886 -0.042813145 -0.15530953 -0.06412391 0.01600315
0.0741129 -0.10312894 0.15216035 -0.022440905 -0.0667121 0.0061960304 0.1331249 0.0036386144
0.11602344 -0.012103642 -0.06761157 -0.055785414 -0.04828329 0.14888169 0.10094581 0.07727725
0.12275994 -0.11452733 0.10364314 -0.008319122 0.13187312 0.03419482 -0.11107757 0.035853475
-0.012831606 0.14424971 -0.12781453 -0.019927 0.0030523564 -0.026703198 0.04014789 0.06814085
-0.09940988 0.114210255 0.057672974 -0.047144312 0.00093613274 0.04086211 -0.08194086 -0.05502223
0.034458667 -0.07080919 0.08111126 0.059469804 0.11998168 0.059231315 0.024328116 -0.14013755
-0.0016236982 -0.044811223 0.018336434 0.14080374 0.16078867 0.07059005 -0.11803521 -0.096993536
-0.06655041 0.14424278 -0.12100926 -0.03404495 -0.117888555 0.11572967 0.13383299 -0.007813235
-0.07671007 0.09248734 -0.033671547 0.13522074 0.112403125 -0.065892994 0.041332696 -0.14034066
0.13984302 -0.09232022 0.05681157 -0.014719652 -0.031053187 -0.13141336 0.08390066 -0.1151879
-0.080019176 0.14164703 0.08179378 0.018795349 0.043147687 0.05060494 -0.043124214 -0.11450553
-0.00597916 0.10567568 -0.1183078 0.06574603 0.012099164 -0.04596132 -0.045918025 0.15306947
-0.05805512 -0.14026476 -0.12983423 0.059167907 -0.13603966 0.014186247 0.0516479 -0.11225731
00000000: e86b dbbd f362 15be 66cf 893d 63b7 0bbe
00000010: 96c2 b7bd 724c a83d 8723 87bd 610d 00be
00000020: 013f 163d 0843 8c3d 0242 d9bc 6566 e53d
00000030: dc2b 65bd 9146 debd 678e 2a3e 3b5c 99bd
00000040: 99a0 a53d 0fec 013e 6c78 4f3d 569d 983d
00000050: 1c23 463a c2c7 b53c 4dc0 c1bd 8250 b83d
00000060: 0f2a 37bd 2fec e8bd 3513 c13d 5902 5e3d
00000070: c310 8d3d c506 b4bd 8620 15be 09eb 24bd
00000080: 34e4 03be cc0d 80bb 45a4 873d a4f4 b93d
00000090: d6dd 15bd 8657 813c 716d e3bd dfc4 a83c
000000a0: e52c fc3d a65c 693d 9da7 5bbd b0df e7bd
000000b0: 8858 01be 9ecd af3d 18d9 4dbd 4238 043d
000000c0: e31c dd3d cefc 193d 4fc3 7dbd 52af cf3d
000000d0: 0348 98bc bf7a 1f3c d8ad bf3d ddf6 23be
000000e0: 8817 5f3d 1fb6 4b3d d1d0 0a3e f9a0 afbd
000000f0: 4dbc 823d a8c9 0ebd 5abf 623c 05fd c73d
00000100: b05e 273d 4714 a8bd 76a5 c13d 4432 77bd
00000110: 25cb 6fbd 3f08 13bd d27c 31bd 6a3b 41bd
00000120: 7aba 4a3d 720e d13d 4d8e 0fbe 5bfa 0e3e
00000130: 5071 f03c 8b53 1cbc 8a2b 1cbd 5f30 96bd
00000140: 9b06 d9bd 209a 0d3e 5b55 70bd 88a8 193e
00000150: 0830 1c3e 3869 c63d c222 033d e4e7 20bd
00000160: 523f 75bd f5e9 773d 55bb b9bd 94cd 09be
00000170: a19c be3d 0371 af3d 56c3 a5bd ab80 c8bd
00000180: 0e29 153e 5ffa 06bd 3e9e 523d dad8 6c3d
00000190: 0008 1bbd 62e5 553d 3efb 1e3e 98d2 d73d
000001a0: aa24 0c3e bf1e 543d 6f2e 5ebc 9fa7 86bd
000001b0: e2aa b03d 39a8 a53d 9b28 223c a96e 1abe
000001c0: 927b 0cbe 8d74 913d 3712 0fbe 51fe b3bd
000001d0: 7308 b1bd 1538 1cbd cc9f 20be 1f19 cfbc
000001e0: 466b cf3d 1a5e 363d 09fd 443d ebe7 053e
000001f0: 3793 e6bd 086d a33d 733f 93bd f321 fa3d
00000200: 4ba8 b2bd e3ce 0abe 3234 973d a29d a43d
00000210: 7d8e fcbd 5fde 84ba da9f b23d 7d2a 0cbe
00000220: 37bc 923c 32ac 1e3e 2d46 8f3d 1ff2 563d
00000230: 5f06 41bd de82 9fbd 2da3 0b3e 5a0f 08bc
00000240: 7f86 bd3d 096e f3bc 940e a73d 466c b3bd
00000250: d65c 2fbd 7609 1fbe 6653 83bd 0a19 833c
00000260: 81c8 973d 4435 d3bd eccf 1b3e fdd5 b7bc
00000270: 5aa0 88bd 1208 cb3b e551 083e d275 6e3b
00000280: b39d ed3d 5b4e 46bc ef77 8abd 3f7f 64bd
00000290: b3c4 45bd 7174 183e adbc ce3d 8943 9e3d
000002a0: 9069 fb3d 4e8d eabd db42 d43d ed4c 08bc
000002b0: bf09 073e de0f 0c3d a37c e3bd 18db 123d
000002c0: a83b 52bc 32b6 133e d0e1 02be f33d a3bc
000002d0: 0b0a 483b aac0 dabc 1d72 243d 6e8d 8b3d
000002e0: 6897 cbbd 11e7 e93d 7f3a 6c3d 651a 41bd
000002f0: ce66 753a 075f 273d 9cd0 a7bd fd5e 61bd
00000300: 8824 0d3d 6904 91bd a91d a63d 9c96 733d
00000310: f4b8 f53d 899c 723d c24b c73c 3880 0fbe
00000320: 45d2 d4ba f98b 37bd 4a36 963c db2e 103e
00000330: c9a5 243e 8491 903d 72bc f1bd 8ca4 c6bd
00000340: 954b 88bd 61b4 133e b4d3 f7bd b872 0bbd
00000350: 8e6f f1bd ad03 ed3d 840b 093e 1503 00bc
00000360: 2b1a 9dbd 016a bd3d 2deb 09bd 4e77 0a3e
00000370: 9c33 e63d e8f2 86bd 794c 293d 76b5 0fbe
00000380: 0233 0f3e 6212 bdbd 40b3 683d b22a 71bc
00000390: 4163 febc 3991 06be 1cd4 ab3d a2e7 ebbd
000003a0: 18e1 a3bd eb0b 113e 7f83 a73d b4f8 993c
000003b0: a1bb 303d 2047 4f3d 04a3 30bd e081 eabd
000003c0: d4ec c3bb 7e6c d83d 5c4b f2bd dba5 863d
000003d0: 923b 463c f041 3cbd 8a14 3cbd 3ebe 1c3e
000003e0: 35cb 6dbd 91a1 0fbe 44f3 04be 0c5a 723d
000003f0: fb4d 0bbe 6f6d 683c c08c 533d 29e7 e5bd

blocks.0.gate_conv.conv.bias f4 [64]
0.0067273914 0.012640792 0.0007943835 0.009579406 -4.762032e-05 -0.012054822 0.0048120962 -0.0043461854
0.0042035636 0.0102683045 0.001013887 -0.012703239 0.0020355592 -0.010767126 -0.015381599 -0.0075104684
-0.0070686857 -0.0057305214 0.003237626 -0.002938645 -0.0102521125 -0.0028014025 0.014017841 -0.005094396
0.00058907206 0.012752033 0.0006786862 0.014513234 0.002357478 -0.01248639 -0.0048855306 0.009880116
-0.0046037156 0.0030336014 0.005125208 0.004192744 0.016418206 -0.0055160364 0.0032315445 0.0047828807
-0.005972357 0.0024764878 -0.0058713355 0.004460749 -0.0056795683 0.011532489 0.0010495546 0.0013397969
-0.01240822 0.009390734 -0.0036544753 -0.009640993 0.009218963 -0.0008130492 -0.0007682975 0.015249487
-0.00020181522 0.009257852 0.002090263 0.0074933283 0.006179667 0.010701984 -0.007733388 -0.008173563
00000000: 7371 dc3b 531b 4f3c 2d3e 503a f1f2 1c3c
00000010: eebb 47b8 9781 45bc caae 9d3b 726a 8ebb
00000020: 0cbe 893b 643c 283c 67e4 843a 3f21 50bc
00000030: 0467 053b 9a68 30bc 1a03 7cbc 601a f6bb
00000040: 6fa0 e7bb 19c7 bbbb 5a2e 543b 4896 40bb
00000050: 7af8 27bc bc97 37bb 16ab 653c e4ee a6bb
00000060: f56b 1a3a e7ed 503c dce9 313a eac8 6d3c
00000070: eb7f 1a3b b793 4cbc cd16 a0bb 36e0 213c
00000080: c4da 96bb 63cf 463b 5cf1 a73b 4963 893b
00000090: 797f 863c debf b4bb 52c8 533b b6b9 9c3b
000000a0: c3b3 c3bb 924c 223b 5564 c0bb 7a2b 923b
000000b0: ac1b babb c4f2 3c3c 3591 893a 209c af3a
000000c0: d94b 4bbc 98db 193c ec7f 6fbb 41f5 1dbc
000000d0: 220b 173c cf22 55ba 9367 49ba fcd8 793c
000000e0: 5c9e 53b9 3fae 173c cbfc 083b 988a f53b
000000f0: ce7e ca3b 6057 2f3c 5c68 fdbb 68ea 05bc

blocks.0.residual_conv.weight f4 [64, 64, 1, 1]
-0.013986227 -0.093110256 -0.11656448 0.1345035 -0.17060027 -0.1364223 0.08227348 0.21038976
0.0011178122 -0.09249212 0.079989724 -0.0008508079 0.150185 -0.060878824 0.16870604 -0.010584021
0.054685846 -0.2199345 -0.09138547 0.107976854 -0.047197092 0.15322807 -0.18314588 -0.11755807
-0.063992485 0.1213825 0.2151835 0.058570758 0.03355003 0.013114428 0.12169764 0.11791333
0.17747633 0.010537898 -0.0351651 -0.16166782 0.06457489 0.18438461 0.07634391 -0.21712625
0.109276965 -0.0870266 0.12720408 0.0716415 0.20192882 -0.006129837 -0.025676806 -0.05014126
0.10579476 0.16088766 -0.08704773 0.12338628 -0.2109433 0.12926072 -0.0655016 0.01848274
0.11824295 -0.18935561 -0.21596791 0.19624896 0.049645524 -0.14646402 0.014069718 -0.014987179
0.061723284 -0.011095513 -0.19600107 0.17346908 0.09065327 -0.15641356 -0.101242654 -0.1866712
-0.08900998 -0.21967854 -0.0047296216 -0.21396987 0.17408673 -0.1262143 -0.08874833 -0.1838167
-0.1628277 -0.09805279 0.033969216 0.1329492 0.033180077 -0.11297405 -0.17927419 0.07279491
-0.039319716 -0.12617739 -0.16009821 -0.100763224 0.14178932 0.095102675 -0.001386819 0.17605968
-0.21465357 -0.14501852 -0.04748568 -0.19171177 0.05153388 -0.17342725 -0.09483786 -0.14473018
0.080001466 -0.07076655 -0.14470242 0.056104925 0.0031895738 -0.063266605 -0.07265435 0.056336604
-0.07934288 -0.021516064 -0.020592563 0.07662232 -0.11107538 0.18512273 0.21649791 -0.07445846
-0.14526574 0.0065525216 0.17020142 -0.13924587 -0.02923897 0.19148582 -0.066631965 -0.1995714
0.17686369 -0.0030252107 -0.12792052 0.18951204 0.03587633 0.06693038 -0.04805168 0.17433336
-0.121963054 -0.020182451 0.12064996 0.21800834 0.19279258 0.07936792 0.08612822 -0.20124072
0.07694778 0.1676682 -0.15098397 0.11934458 0.21048658 0.025020748 -0.15659425 0.13039389
0.07221983 -0.036733527 0.0006882708 0.104334235 0.21826212 0.14069435 0.009447892 0.11467883
0.19652103 0.11570636 0.06796294 0.14616388 0.04179856 0.187668 -0.10534755 -0.052801877
-0.16727279 -0.17913775 0.081016 -0.062448915 -0.07125436 -0.19649133 -0.024826461 -0.07140034
-0.09560357 -0.039254066 0.061914053 0.07575122 -0.19848377 0.22137363 -0.15289831 -0.040350392
-0.16757403 0.17303698 -0.06648483 0.18204175 -0.15477222 0.07044042 0.0075452668 -0.13498142
0.053824276 0.140199 -0.074973956 0.2015231 -0.16102302 -0.018035047 -0.16758433 0.037037067
-0.06766998 -0.20677955 -0.0051310793 0.1561186 0.14946365 -0.030415028 0.105844855 0.040445257
0.17319034 0.15034659 -0.11072829 0.19549859 0.024898931 -0.13604696 0.11889999 -0.024828332
0.16292112 0.13952462 -0.13722491 0.14813398 0.058227915 0.027725156 0.06264406 0.10908497
-0.16633841 -0.057968024 0.1814078 0.16095829 0.05820499 -0.11917996 -0.2151153 0.048880022
-0.20270666 -0.08092408 -0.21273845 -0.1380214 0.14819989 0.08426291 -0.10785281 -0.16895574
-0.13572884 0.13388026 -0.12134863 -0.08394977 0.054784015 0.0815449 0.08672383 0.0651829
0.089592375 0.027766338 -0.07252376 -0.1426362 0.116549015 -0.05858634 0.012397826 0.0035495602
00000000: 7d26 65bc 97b0 bebd 5cb9 eebd 49bb 093e
00000010: d6b1 2ebe 4ab2 0bbe 007f a83d 6a70 573e
00000020: 8e83 923a 826c bdbd a7d1 a33d c008 5fba
00000030: 19ca 193e 135c 79bd 47c1 2c3e 9a68 2dbc
00000040: 44fe 5f3d 8236 61be 4e28 bbbd f822 dd3d
00000050: bd51 41bd d2e7 1c3e 988a 3bbe 49c2 f0bd
00000060: 7e0e 83bd 6397 f83d 1059 5c3e e4e7 6f3d
00000070: c26b 093d e6dd 563c 9d3c f93d 8b7c f13d
00000080: 5bbc 353e 26a7 2c3c 4809 10bd 408c 25be
00000090: d73f 843d 52cf 3c3e 325a 9c3d 5856 5ebe
000000a0: 9acc df3d 013b b2bd c941 023e c7b8 923d
000000b0: 6ec6 4e3e cddc c8bb 2a58 d2bc ec60 4dbd
000000c0: ecaa d83d bcbf 243e 1546 b2bd f2b1 fc3d
000000d0: 8501 58be ec5c 043e b425 86bd 1d69 973c
000000e0: 5c29 f23d 70e6 41be b126 5dbe 7df5 483e
000000f0: 1b59 4b3d aafa 15be ad84 663c c98c 75bc
00000100: 8ed1 7c3d f4c9 35bc 81b4 48be e1a1 313e
00000110: 6ca8 b93d e02a 20be 4f58 cfbd bc26 3fbe
00000120: dd4a b6bd 69f3 60be f1fa 9abb eb1a 5bbe
00000130: cb43 323e 523e 01be afc1 b5bd 723a 3cbe
00000140: 4ebc 26be e7cf c8bd 4e23 0b3d d623 083e
00000150: d5e7 073d f05e e7bd a793 37be 7f15 953d
00000160: b60d 21bd a534 01be c9f0 23be f35c cebd
00000170: 3831 113e 31c5 c23d edc5 b5ba fd48 343e
00000180: 25ce 5bbe bc7f 14be 5880 42bd 1750 44be
00000190: 3115 533d ea96 31be 5a3a c2bd 2634 14be
000001a0: cfd7 a33d 0eee 90bd df2c 14be 47ce 653d
000001b0: 2b08 513b ec91 81bd cecb 94bd 36c1 663d
000001c0: 857e a2bd 7542 b0bc bcb1 a8bc 2aec 9c3d
000001d0: 7d7b e3bd d090 3d3e a1b1 5d3e ad7d 98bd
000001e0: 8bc0 14be 89b6 d63b 4849 2e3e 7896 0ebe
000001f0: 9086 efbc dc14 443e 5776 88bd 725c 4cbe
00000200: c11b 353e 9d42 46bb 99fd 02be 720f 423e
00000210: 0ff3 123d cc12 893d d7d1 44bd 7284 323e
00000220: c4c7 f9bd ab55 a5bc 5417 f73d 943d 5f3e
00000230: 6b6b 453e a68b a23d fe63 b03d 0c12 4ebe
00000240: cc96 9d3d 36b1 2b3e 8b9b 1abe ee6a f43d
00000250: cb89 573e 50f8 cc3c 3e5a 20be fa85 053e
00000260: fde7 933d e575 16bd 126d 343a 30ad d53d
00000270: 1b80 5f3e 2e12 103e 55cb 1a3c bcdc ea3d
00000280: cf3c 493e 75f7 ec3d 2730 8b3d fcab 153e
00000290: f834 2b3d 0a2c 403e 75c0 d7bd c846 58bd
000002a0: 8f49 2bbe e36f 37be b7eb a53d 6fca 7fbd
000002b0: ceed 91bd 0635 49be dd60 cbbc 573a 92bd
000002c0: cecb c3bd dfc8 20bd 9799 7d3d 7523 9b3d
000002d0: 543f 4bbe c5af 623e 6091 1cbe 7446 25bd
000002e0: 8798 2bbe 9b30 313e 3329 88bd 2769 3a3e
000002f0: 9c7c 1ebe 1143 903d 493e f73b 9238 0abe
00000300: d876 5c3d 5490 0f3e f28b 99bd 125c 4e3e
00000310: 38e3 24be 3cbe 93bc 3a9b 2bbe 2eb4 173d
00000320: 8f96 8abd 05be 53be 9d22 a8bb 8edd 1f3e
00000330: 000d 193e f028 f9bc 30c5 d83d eda9 253d
00000340: cf58 313e 75f4 193e 84c5 e2bd c830 483e
00000350: d8f8 cb3c e54f 0bbe d781 f33d c964 cbbc
00000360: cbd4 263e 8bdf 0e3e b084 0cbe 6fb0 173e
00000370: 6580 6e3d de1f e33c 874b 803d f167 df3d
00000380: 9e54 2abe e16f 6dbd f7c2 393e 40d2 243e
00000390: 5b68 6e3d 9f14 f4bd 2f47 5cbe 6b36 483d
000003a0: 5692 4fbe 86bb a5bd 1cd8 59be 7b55 0dbe
000003b0: b6c1 173e 0892 ac3d efe1 dcbd bc02 2dbe
000003c0: 80fc 0abe e817 093e a185 f8bd dbed abbd
000003d0: 3465 603d 0301 a73d 439c b13d 9d7e 853d
000003e0: 357c b73d 3b76 e33c 5687 94bd 390f 12be
000003f0: 40b1 ee3d 3bf8 6fbd 4020 4b3c bd9f 683b

blocks.0.residual_conv.bias f4 [64]
0.036287107 0.008018882 0.013475817 -0.027419372 -0.05067151 0.023582866 -0.02510681 -0.029446596
-0.01727283 -0.035659794 0.022161903 -0.034039088 -0.019322338 -0.025474548 -0.059509594 0.007175846
-0.04119269 0.011818787 0.0130927125 0.020223206 0.013531456 -0.011452701 -0.0005543656 -0.0040556635
-0.05546048 0.0056377253 -0.003017833 -0.0033894358 0.0048513813 0.018388415 -0.030650452 -0.02301919
0.0034730542 0.0067603593 0.0236291 0.03548798 -0.017800368 0.018179895 -0.00048140835 -0.013704461
0.016676463 0.019908646 0.01908594 -0.013808504 -0.031190824 0.025426226 0.011145536 -0.012537071
-0.021321237 0.038334258 -0.011281259 0.013323543 -0.0085853655 -0.009307933 -0.00941842 0.039549977
0.044908483 0.040685568 0.037934497 -0.024803795 -0.0013167524 0.039811652 0.01931667 -0.0018179948
00000000: caa1 143d a161 033c acc9 5c3c 979e e0bc
00000010: ee8c 4fbd db30 c13c ccac cdbc fd39 f1bc
00000020: c07f 8dbc 0110 12bd e18c b53c 926c 0bbd
00000030: e149 9ebc 00b0 d0bc 55c0 73bd 5c23 eb3b
00000040: abb9 28bd 96a3 413c d182 563c 23ab a53c
00000050: 0ab3 5d3c 1ca4 3bbc d852 11ba 5fe5 84bb
00000060: 872a 63bd abbc b83b d6c6 45bb 4c21 5ebb
00000070: 56f8 9e3b 4da3 963c a816 fbbc be92 bcbc
00000080: 2e9c 633b 0186 dd3b d091 c13c d85b 113d
00000090: 14d2 91bc 01ee 943c 8965 fcb9 ad88 60bc
000000a0: 149d 883c 7517 a33c 1e5a 9c3c 103d 62bc
000000b0: e683 ffbc a94a d03c c49b 363c 4968 4dbc
000000c0: e0a9 aebc 6204 1d3d 08d5 38bc fd4a 5a3c
000000d0: a2a9 0cbc 4d80 18bc b74f 1abc 28ff 213d
000000e0: f5f1 373d e9a5 263d 3461 1b3d 5431 cbbc
000000f0: e196 acba 8b11 233d fe3d 9e3c c849 eeba

blocks.0.skip_conv.weight f4 [128, 64, 1, 1]
0.013861565 0.091416985 0.13982852 -0.019718243 0.16093983 -0.055687632 -0.14022104 -0.0122242365
0.05455019 -0.090409644 -0.14891201 -0.12941799 0.020595565 -0.017367907 -0.07443286 -0.1569661
-0.05070541 0.10688282 0.14289121 -0.060920227 -0.12287282 0.1518234 -0.098805495 0.1660914
-0.15114689 0.024545291 -0.009761593 -0.053796574 -0.019331042 -0.01703637 0.009799351 -0.06669851
0.15169926 0.026446532 0.16563025 -0.014982088 -0.08479819 -0.1221565 -0.03768139 -0.13247922
0.1647854 0.0074549587 -0.07007386 -0.046699323 -0.04878292 0.18112166 0.06357488 -0.10536892
0.067104876 -0.14574602 0.03156521 0.095649764 0.076431625 0.09955714 -0.06471427 -0.097834386
-0.002981082 -0.12603618 -0.04464707 -0.15406819 -0.17644845 0.059985828 0.08386248 -0.118726365
-0.15100455 0.1076161 0.08032776 0.04029168 -0.058291964 -0.050721593 0.002144579 -0.098459065
-0.03260346 -0.006760139 0.061879624 0.11356889 0.046728805 0.16776328 0.13292354 -0.007887934
0.09901261 0.08133722 0.09037766 -0.027239315 -0.031782296 0.08991159 -0.06554413 -0.06496634
-0.08681483 0.099454485 -0.048187964 -0.06348536 -0.06651076 -0.09393084 0.08652779 0.08876618
0.10925585 0.059262037 -0.013766287 0.14940627 0.17664182 0.102562055 0.042931817 0.02695114
-0.12663892 -0.15441822 -0.16033757 0.024925226 -0.16200003 0.06973452 -0.09656119 0.15438658
-0.08834911 0.098541245 -0.17810644 -0.15099244 0.011912288 0.04524033 -0.18284826 -0.16816449
0.1798025 0.12282946 0.14502655 0.090614 0.049284536 0.04334661 -0.10575053 0.026980499
0.121146195 -0.1748134 -0.034755025 -0.024048042 0.1530316 -0.09803945 -0.11032339 -0.03201934
-0.079474986 -0.16404381 -0.05535161 0.006671759 0.09726856 -0.036191136 0.05097002 0.017090613
0.080119796 -0.030863408 0.027052647 0.14179635 0.1576967 -0.1639213 0.07234354 -0.11902726
0.12284989 0.07109565 0.044444542 -0.10847389 -0.12472059 -0.031370025 0.075673856 0.05362706
-0.13857703 -0.049605023 0.017274093 0.031324245 -0.1708307 0.126111 0.09418296 -0.014947646
0.12288617 0.17159894 0.034943543 -0.15915452 0.16961825 0.06366939 -0.14132941 -0.054663263
-0.062541656 0.028897818 0.14616181 0.10559614 0.12656951 -0.173167 0.09994113 0.03275994
0.09461064 -0.017248917 0.034050286 -0.17424797 -0.13985828 0.11098742 0.00022710979 -0.05199617
-0.15346162 -0.11940899 -0.01200945 -0.11197496 0.1528379 -0.07449548 0.13058972 -0.050218873
-0.0040656887 -0.07704772 0.16337033 -0.09240903 0.020518605 -0.018436803 0.06532315 -0.06013479
-0.15986867 -0.11747109 -0.17110799 -0.032343317 0.16849478 -0.14420564 0.13936004 0.054758977
0.14274837 -0.10313455 -0.08472736 0.16533466 0.09453555 -0.15962857 0.10976897 -0.009121254
0.037298433 0.015827132 0.079362415 0.0010433596 0.08430869 0.008207272 0.0077291974 -0.07580929
0.023531724 0.06799832 0.057237837 -0.03008067 0.04458105 0.08626477 0.00722544 0.106744945
-0.1403215 0.035316415 -0.13407621 0.029741185 -0.15806212 0.05366775 -0.11881296 -0.100803375
-0.13327685 0.030340074 0.1329424 -0.0022085018 0.07087603 0.11545555 0.069793575 -0.024325648
00000000: 9e1b 633c d438 bb3d 352f 0f3e 2788 a1bc
00000010: 69cd 243e b718 64bd 1b96 0fbe 2a48 48bc
00000020: 0570 5f3d b128 b9bd 647c 18be 2686 04be
00000030: 08b8 a83c 2447 8ebc 4170 98bd b9bb 20be
00000040: 7ab0 4fbd 61e5 da3d 1352 123e 7d87 79bd
00000050: bfa4 fbbd 9877 1b3e 895a cabd dd13 2a3e
00000060: 40c6 1abe 3513 c93c 17ef 1fbc cc59 5cbd
00000070: 225c 9ebc db8f 8bbc 758d 203c 3a99 88bd
00000080: 0d57 1b3e 66a6 d83c fa9a 293e 6e77 75bc
00000090: acaa adbd 302d fabd cd57 1abd a2a8 07be
000000a0: 81bd 283e ba48 f43b e282 8fbd ca47 3fbd
000000b0: 99d0 47bd f577 393e 8c33 823d a9cb d7bd
000000c0: 486e 893d 723e 15be 864a 013d 06e4 c33d
000000d0: 2f88 9c3d 9de4 cb3d ea88 84bd 655d c8bd
000000e0: 425e 43bb a10f 01be d9df 36bd 0dc4 1dbe
000000f0: e7ae 34be b3b3 753d 18c0 ab3d cf26 f3bd
00000100: f0a0 1abe d465 dc3d e182 a43d e308 253d
00000110: 8ec3 6ebd 72c1 4fbd 118c 0c3b e8a4 c9bd
00000120: 358b 05bd 2884 ddbb 7d75 7d3d ce96 e83d
00000130: b466 3f3d 23ca 2b3e 1c1d 083e 653c 01bc
00000140: 20c7 ca3d 2194 a63d ec17 b93d fc24 dfbc
00000150: 272e 02bd 9123 b83d 003c 86bd 130d 85bd
00000160: f9cb b1bd cbae cb3d be60 45bd 9d04 82bd
00000170: cb36 88bd d05e c0bd 7b35 b13d 0bcb b53d
00000180: 88c1 df3d c0bc 723d fe8b 61bc f5fd 183e
00000190: 98e1 343e 0e0c d23d 46d9 2f3d a3c8 dc3c
000001a0: a2ad 01be cf1f 1ebe 882f 24be fd2f cc3c
000001b0: 56e3 25be f9d0 8e3d e0c1 c5bd 8417 1e3e
000001c0: 61f0 b4bd fecf c93d 8961 36be c39d 1abe
000001d0: c22b 433c ed4d 393d 933c 3bbe 5033 2cbe
000001e0: 261e 383e 038e fb3d d781 143e d593 b93d
000001f0: 95de 493d 378c 313d bc93 d8bd 3506 dd3c
00000200: 7f1b f83d 4902 33be 495b 0ebd 6600 c5bc
00000210: 51b4 1c3e e8c8 c8bd 3bf1 e1bd b626 03bd
00000220: c8c3 a2bd 1afb 27be 5fb8 62bd c59e da3b
00000230: bd34 c73d 283d 14bd f1c5 503d 9d01 8c3c
00000240: d915 a43d 42d5 fcbc 839d dd3c 1033 113e
00000250: 3e7b 213e fcda 27be da28 943d 90c4 f3bd
00000260: b998 fb3d 999a 913d 7b0b 363d 8f27 debd
00000270: 826d ffbd db7d 00bd e5fa 9a3d 0ca8 5b3d
00000280: 23e7 0dbe a32e 4bbd 6682 8d3c da4d 003d
00000290: 3eee 2ebe 3e23 013e ffe2 c03d f9e6 74bc
000002a0: bfab fb3d a2b7 2f3e f620 0f3d 67f9 22be
000002b0: 68b0 2d3e 1965 823d a8b8 10be 96e6 5fbd
000002c0: d715 80bd 1ebb ec3c 71ab 153e ca42 d83d
000002d0: 709b 013e b152 31be efad cc3d 492f 063d
000002e0: 39c3 c13d 9a4d 8dbc 5078 0b3d 0f6e 32be
000002f0: 0237 0fbe 5f4d e33d 5224 6e39 f0f9 54bd
00000300: 0b25 1dbe b38c f4bd 49c3 44bc 2153 e5bd
00000310: 8a81 1c3e 1691 98bd 50b9 053e 4eb2 4dbd
00000320: 7839 85bb 32cb 9dbd 8d4a 273e f240 bdbd
00000330: a216 a83c c708 97bc 25c8 853d e64f 76bd
00000340: 9db4 23be af94 f0bd ef36 2fbe 6d7a 04bd
00000350: e589 2c3e a5aa 13be 66b4 0e3e f34a 603d
00000360: a12c 123e 3538 d3bd 8a85 adbd 7d4d 293e
00000370: db9b c13d ac75 23be 8ece e03d 5071 15bc
00000380: 3ec6 183d e7a7 813c c388 a23d 57c1 883a
00000390: 09aa ac3d cb77 063c 3545 fd3b e741 9bbd
000003a0: 9ac5 c03c b442 8b3d 3972 6a3d bd6b f6bc
000003b0: 9e9a 363d 95ab b03d 62c3 ec3b 189d da3d
000003c0: 70b0 0fbe f2a7 103d 464b 09be c9a3 f33c
000003d0: 09db 21be b7d2 5b3d 3654 f3bd 0072 cebd
000003e0: ba79 08be bf8b f83c 0d22 083e 83bc 10bb
000003f0: 7427 913d f673 ec3d efef 8e3d 9546 c7bc

blocks.0.skip_conv.bias f4 [128]
-0.0016574895 -0.005633546 -0.0024319447 0.002035861 -0.000280564 -0.005089839 0.0023785078 0.0035154265
-0.0067860074 0.006067654 -0.0066650473 0.009477008 -0.003315137 0.0052088844 0.005512581 0.001532239
-0.0019076859 0.0028350584 -0.0038696774 -0.00011070141 0.0003821851 -0.003264159 -0.003597693 -0.0055663586
-0.0012555533 0.0035335142 0.0046753325 0.005730079 0.0074607916 -0.0013425434 -0.004497062 -0.005936707
0.007987877 -0.007904532 0.005635108 0.002330063 -0.004575012 0.002391116 -0.00031847024 0.0011015411
0.0016622767 -0.0019226793 -0.009883758 -0.0013373799 0.0005491153 0.0009569425 -0.0010475297 -0.0022553299
0.0058576986 0.0026793373 0.0028647508 5.739746e-05 -0.0041419207 0.00075159175 0.0050586397 -0.0043041008
-0.0027389482 -0.00025302637 -0.0011152459 0.007978607 0.011096821 -0.0030518638 -0.010824787 0.006647919
0.0011387281 0.0014673426 0.0020421462 -0.00089211145 0.00849456 0.003506203 0.0068498906 0.006698271
-0.0051692883 0.0017831221 -0.008732877 -0.0009061221 -0.007982068 -0.002298599 -0.00085727376 0.012686437
0.0051009855 -0.0003712236 0.0013837828 0.00055221736 0.0052962 -0.0017124214 0.0121716 0.005468091
0.004012133 -0.00015624924 -0.0017304549 -0.0002400933 -0.0030643516 0.011515237 0.008780296 0.003143461
0.0018505187 0.0023685566 0.0044135186 0.0065219942 -0.008051111 -0.009602808 0.0018246812 0.0015687124
-0.0004614551 -0.0023481038 -0.0024827614 0.0004084403 0.022452677 0.0060572564 -0.0020047561 -0.0075204787
0.00022619456 0.0037508681 0.006982262 -0.0046027624 -0.0013467335 0.0010023694 -0.00027594948 0.007971618
-0.0063619358 -0.0012564847 -0.002329786 0.002155612 0.007164537 -0.0060954536 -0.015516338 0.0020461034
00000000: 1e40 d9ba 9c99 b8bb 4361 1fbb 146c 053b
00000010: aa18 93b9 aac8 a6bb bde0 1b3b 1263 663b
00000020: 285d debb 2cd3 c63b 7866 dabb 7445 1b3c
00000030: c542 59bb 4aaf aa3b e2a2 b43b 69d5 c83a
00000040: 510b faba 63cc 393b 6a9a 7dbb 5e28 e8b8
00000050: 0460 c839 80eb 55bb 46c7 6bbb 0066 b6bb
00000060: 6191 a4ba 8892 673b 8833 993b 63c3 bb3b
00000070: a879 f43b 48f8 afba 175c 93bb b588 c2bb
00000080: 96df 023c 0382 01bc b6a6 b83b f8b3 183b
00000090: fbe9 95bb 45b4 1c3b 5af8 a6b9 9661 903a
000000a0: c0e0 d93a 6902 fcba 7cef 21bc 064b afba
000000b0: 81f2 0f3a 53db 7a3a 444d 89ba 28ce 13bb
000000c0: f0f1 bf3b d297 2f3b 8bbe 3b3b 0ebe 7038
000000d0: f3b8 87bb 7806 453a f2c2 a53b 6a09 8dbb
000000e0: ed7f 33bb a0a8 84b9 712d 92ba b4b8 023c
000000f0: 71cf 353c c701 48bb 735a 31bc c9d6 d93b
00000100: 6041 953a d953 c03a 87d5 053b 96dc 69ba
00000110: c42c 0b3c 53c8 653b 0c75 e03b 2b7d db3b
00000120: 2263 a9bb a6b7 e93a 5714 0fbc d388 6dba
00000130: 38c7 02bc 18a4 16bb abba 60ba c6da 4f3c
00000140: 2b26 a73b caa0 c2b9 0c60 b53a aec2 103a
00000150: bf8b ad3b 5473 e0ba 646b 473c ac2d b33b
00000160: 3678 833b d6d6 23b9 6ed0 e2ba 8ec1 7bb9
00000170: 4ad3 48bb 68aa 3c3c 3bdb 0f3c 8602 4e3b
00000180: 1b8d f23a c939 1b3b 479f 903b 74b6 d53b
00000190: cfe8 03bc 1955 1dbc 242a ef3a 419d cd3a
000001a0: 75ef f1b9 a5e2 19bb d3b5 22bb ee23 d639
000001b0: adee b73c f37b c63b 3a62 03bb 596e f6bb
000001c0: a42e 6d39 20d1 753b 75cb e43b c5d2 96bb
000001d0: e184 b0ba f061 833a 50ad 90b9 649b 023c
000001e0: c977 d0bb a1b0 a4ba 53af 18bb 2b45 0d3b
000001f0: 7ec4 ea3b 5fbc c7bb 3d38 7ebc eb17 063b

blocks.0.bn.weight f4 [64]
1.0117902 1.0117778 1.0024248 1.0009786 0.99784267 0.9902739 0.9985147 0.9974269
0.99856496 1.0058707 1.0213935 1.0110247 0.9935766 0.99637514 1.0065852 1.0044419
0.9953819 0.9926541 1.0078783 0.99910825 1.0028579 1.0029826 1.0136973 1.0095387
0.98411757 1.0035144 0.999265 0.9822164 1.0178475 1.0095172 0.99336743 1.0061498
1.0128634 0.9883079 1.0069175 0.99098027 0.99545896 0.99833834 0.98915344 0.9932363
1.0094235 0.99500674 1.0047654 1.0052739 0.9970055 0.9993204 1.0049297 0.9931991
1.013783 0.9903785 1.0010194 1.0147375 1.0180135 1.0001597 1.0096079 1.0018286
1.0216392 0.9974882 0.99517626 1.0071603 1.0031918 0.981061 1.0176681 1.0044452
00000000: 5782 813f ef81 813f 754f 803f 1120 803f
00000010: 9e72 7f3f 9782 7d3f a99e 7f3f 5f57 7f3f
00000020: f4a1 7f3f 5fc0 803f 06bd 823f 4269 813f
00000030: 095b 7e3f 7112 7f3f c9d7 803f 8d91 803f
00000040: 59d1 7e3f 941e 7e3f 2802 813f 8fc5 7f3f
00000050: a65d 803f bc61 803f d5c0 813f 9038 813f
00000060: 21ef 7b3f 2973 803f d5cf 7f3f 8972 7b3f
00000070: d448 823f dc37 813f 544d 7e3f 84c9 803f
00000080: 82a5 813f bf01 7d3f ace2 803f e2b0 7d3f
00000090: 66d6 7e3f 1a93 7f3f 2939 7d3f bc44 7e3f
000000a0: ca34 813f c3b8 7e3f 279c 803f d1ac 803f
000000b0: c13b 7f3f 76d3 7f3f 89a1 803f 4c42 7e3f
000000c0: a4c3 813f 7289 7d3f 6721 803f ebe2 813f
000000d0: 444e 823f 3c05 803f d53a 813f eb3b 803f
000000e0: 13c5 823f 635b 7f3f dfc3 7e3f a1ea 803f
000000f0: 9768 803f d026 7b3f f342 823f a991 803f

blocks.0.bn.bias f4 [64]
-0.0024082186 0.002138764 0.004766661 0.0030312587 -0.005639363 -0.0052261096 0.00062668294 -0.0055766935
-0.007280919 -0.00035857808 0.001736499 -0.0049767774 0.00041119853 0.0030066713 -0.0063673253 -0.0030704972
0.0013463229 -0.0001933038 0.0013992195 0.004930265 -0.0024725972 0.0097636655 0.0075149494 -0.004696433
-0.0046646055 0.002572038 -0.0025848672 0.00040547212 0.019534847 0.0016908214 -0.0009837996 0.00013879829
-0.009858729 -0.0042845886 0.008239555 0.0062850923 0.0011080386 0.011684518 -0.0029082464 0.012287001
0.009200528 -0.013245087 0.012180148 0.009953722 0.0007443973 -0.009389959 0.004459308 -0.0012711389
-0.0021181542 0.0100020785 6.592772e-05 -0.002122442 0.0036595834 -0.0031479346 0.0033214486 -0.002928046
-0.0028381767 0.0011191921 0.0017510238 0.0027391557 -0.00033160712 -0.004253519 -0.0020694188 -0.004735682
00000000: 34d3 1dbb 812a 0c3b a731 9c3b 15a8 463b
00000010: 68ca b8bb c93f abbb fb47 243a b2bc b6bb
00000020: c694 eebb 89ff bbb9 3d9b e33a 3c14 a3bb
00000030: 2296 d739 930b 453b ffa4 d0bb 653a 49bb
00000040: 1a77 b03a 98b1 4ab9 0466 b73a 0f8e a13b
00000050: 4c0b 22bb c8f7 1f3c f73f f63b 89e4 99bb
00000060: 8cd9 98bb a38f 283b e066 29bb 8c95 d439
00000070: 8b07 a03c 8d9e dd3a d6f2 80ba 628a 1139
00000080: 8286 21bc bc65 8cbb 33ff 063c 2df3 cd3b
00000090: 9b3b 913a 6c70 3f3c 4798 3ebb 6b4f 493c
000000a0: d0bd 163c ec01 59bc 3e8f 473c f014 233c
000000b0: a823 433a 58d8 19bc 631f 923b 589c a6ba
000000c0: bbd0 0abb c2df 233c ad42 8a38 ab18 0bbb
000000d0: 9fd5 6f3b 944d 4ebb a9ac 593b 76e4 3fbb
000000e0: b400 3abb dbb1 923a 9c82 e53a 6883 333b
000000f0: 8edb adb9 1a61 8bbb 169f 07bb c82d 9bbb

blocks.0.bn.running_mean f4 [64]
-0.007952372 -0.108481884 -0.0038446845 -0.14318772 -0.14676923 0.01735455 0.03831961 -0.004544929
-0.00401098 -0.0069369124 -0.028552685 -0.06705022 0.042341076 -0.0665103 -0.0288843 0.06950495
0.010240053 0.00069129054 0.08039078 -0.03905366 -0.004445342 0.045245543 0.11387613 0.0062634367
-0.15077645 0.1303674 -0.065603584 0.020060722 -0.051160976 0.052184775 -0.1259797 -0.090099454
-0.07869766 0.10481227 -0.064741515 0.11911216 0.05595066 0.04713186 0.0019482025 -0.079815306
0.034181394 -0.049343083 0.0464856 -0.12364013 -0.071419336 -0.028987639 -0.012595251 0.008624258
0.03709699 -0.07439729 -0.02262546 0.026175283 0.0052235173 -0.0025189654 0.06848168 0.0430889
0.09171671 0.11943293 -0.12136125 -0.072239384 0.14889538 0.031669583 0.027216244 -0.07542089
00000000: aa4a 02bc c02b debd 1af7 7bbb cd9f 12be
00000010: ac4a 16be 212b 8e3c 06f5 1c3d a1ed 94bb
00000020: 8a6e 83bb 0a4f e3bb 52e7 e9bc a051 89bd
00000030: d66d 2d3d 8d36 88bd c49e ecbc 9c58 8e3d
00000040: e5c5 273c b937 353a eca3 a43d bbf6 1fbd
00000050: 3baa 91bb 6453 393d e337 e93d 843d cd3b
00000060: 2465 1abe 087f 053e 2c5b 86bd 6256 a43c
00000070: 2c8e 51bd b4bf 553d d300 01be 1086 b8bd
00000080: 3d2c a1bd d1a7 d63d 3397 84bd 13f1 f33d
00000090: 852c 653d 560d 413d d45a ff3a 3576 a3bd
000000a0: ca01 0c3d f91b 4abd af67 3e3d 0937 fdbd
000000b0: 4d44 92bd 7c77 edbc 505c 4ebc c34c 0d3c
000000c0: 03f3 173d 9b5d 98bd 0759 b9bc 8c6d d63c
000000d0: 0a2a ab3b 3a15 25bb 1f40 8c3d fd7d 303d
000000e0: f8d5 bb3d 4199 f43d 3f8c f8bd 3ef2 93bd
000000f0: 0878 183e f7b7 013d 9af4 de3c 4476 9abd

blocks.0.bn.running_var f4 [64]
0.06754909 0.13785344 0.06147966 0.06816843 0.12943842 0.15318093 0.07960443 0.08744016
0.095292985 0.09690553 0.046206594 0.15121281 0.107297584 0.0343567 0.15045516 0.15199138
0.12913907 0.053414267 0.088184945 0.114821754 0.064409524 0.20235229 0.14288245 0.068376355
0.109664254 0.09367915 0.20183128 0.12225845 0.124928676 0.14143234 0.09982294 0.10218942
0.17311287 0.09396898 0.06757476 0.1954078 0.15192874 0.22537945 0.12348247 0.14446065
0.03639415 0.084993884 0.21937872 0.075284496 0.17813197 0.103004046 0.084725395 0.08407962
0.18233262 0.108052 0.039429516 0.069764264 0.033292003 0.044932898 0.071917735 0.049506843
0.2148824 0.08383086 0.20178999 0.15245573 0.16352461 0.09491236 0.09320943 0.21218795
00000000: 2d57 8a3d 7429 0d3e 19d2 7b3d e49b 8b3d
00000010: 818b 043e 76db 1c3e a607 a33d d413 b33d
00000020: f828 c33d 6876 c63d 2043 3d3d 88d7 1a3e
00000030: d6be db3d 9cb9 0c3d eb10 1a3e a1a3 1b3e
00000040: 083d 043e ebc8 5a3d 4f9a b43d ab27 eb3d
00000050: 24e9 833d 7035 4f3e c74f 123e e708 8c3d
00000060: a797 e03d dbda bf3d dcac 4e3e a362 fa3d
00000070: 9bda ff3d a4d3 103e f86f cc3d b048 d13d
00000080: 8044 313e cf72 c03d a364 8a3d fb18 483e
00000090: 3593 1b3e dfc9 663e 61e4 fc3d 7eed 133e
000000a0: 0812 153d 4611 ae3d d1a4 603e c22e 9a3d
000000b0: 3a68 363e c9f3 d23d 8284 ad3d f031 ac3d
000000c0: 67b5 3a3e 5e4a dd3d d880 213d 91e0 8e3d
000000d0: 325d 083d 8f0b 383d 9b49 933d b0c7 4a3d
000000e0: 220a 5c3e 84af ab3d 09a2 4e3e 5b1d 1c3e
000000f0: ff72 273e 6961 c23d 96e4 be3d cc47 593e
