TGNN2026/artifacts_MTGNN1m_heads&util/fold_01_weights.pt (torch, 802527 bytes, 83 tensors)

A_static f4 [3, 3]
000000 ab aa aa 3e ab aa aa 3e ab aa aa 3e ab aa aa 3e
       0.33333334 0.33333334 0.33333334 0.33333334
000010 ab aa aa 3e ab aa aa 3e ab aa aa 3e ab aa aa 3e
       0.33333334 0.33333334 0.33333334 0.33333334
000020 ab aa aa 3e
       0.33333334

in_proj.weight f4 [64, 15]
000000 cc 90 ad 3d 4b 55 a1 bc 42 3e e7 3d a2 c9 64 be
       0.084748834 -0.019693991 0.112911716 -0.22342542
000010 1e bf 86 3e 81 d0 70 3e 14 d9 07 3e 5d 90 f4 bc
       0.26317686 0.23517038 0.13266402 -0.029853994
000020 51 9d 89 be bb 82 71 be 3b e5 65 3e 7a 4a ca bd
       -0.26877835 -0.23585026 0.22450726 -0.098774865
000030 64 fd 2c 3e 86 a2 a6 3d b8 8f 87 3e 1e 7b 70 be
       0.16893536 0.08136468 0.26476836 -0.23484465
000040 4e 4c e8 3a a0 25 54 be 4b b1 79 3c 69 14 58 be
       0.0017722936 -0.20717478 0.015240024 -0.21101536
000050 b3 f8 05 bc 67 ff 02 3e 0a 2c 2b 3e 31 fd c5 bd
       -0.00817697 0.12792741 0.16716018 -0.09667433
000060 a8 f7 52 3e 49 21 85 be b9 88 bc bd 62 aa fe ba
       0.20602286 -0.26001957 -0.09205765 -0.001942944
000070 e7 27 6c 3e 19 97 80 be f6 34 8f bd a0 59 70 be
       0.23062097 -0.25115278 -0.06992523 -0.23471689
000080 91 92 0f be 4b 77 10 3e 42 17 0c be 02 7f 40 be
       -0.14020754 0.14108007 -0.13680747 -0.1879845
000090 b9 84 e2 bd fa a4 24 3e c0 8d 0c 3e 4e 11 99 3d
       -0.11060471 0.16078559 0.13725948 0.07474004
0000a0 e7 90 7a 3d c7 f8 f5 3c 9c c2 ee bd 92 bd 45 3e
       0.061173346 0.030025853 -0.116582125 0.19310597
0000b0 22 f5 03 3c 64 44 16 3e 8a 40 1b 3e ac 51 a8 bd
       0.00805405 0.14674526 0.15161338 -0.08218703
0000c0 83 a0 3d 3e 7b a6 f9 bd fd 57 2a bd 68 9d 61 3e
       0.18518262 -0.12189957 -0.04158782 0.22032702
0000d0 bb 89 31 3e 91 52 eb bd 65 4f ce 3d 4f 22 bd 3d
       0.17337696 -0.11490358 0.10073737 0.092350595
0000e0 a8 12 47 3e 45 ab af bd 13 12 80 3e 0d 55 e5 bd
       0.1944071 -0.08577589 0.2501379 -0.11197863
0000f0 de d3 25 be f9 9e ea 3d 5d ce 7a 3d b3 33 5f 3e
       -0.16194102 0.11456103 0.06123196 0.21797065
000100 51 b1 5b be 1a 50 8b bd f1 b6 00 be a1 a8 f0 3c
       -0.2145436 -0.068023875 -0.12569787 0.029377284
000110 12 6a f5 3d 73 82 1a 3c 36 77 53 3b a5 3a 82 be
       0.11983122 0.009430516 0.00322671 -0.25435367
000120 d5 eb 01 3e fd ef 83 be c8 6b 5a 3d 38 25 73 3b
       0.12687619 -0.25769034 0.053325444 0.0037101042
000130 8d 8f 79 3e 58 44 66 3e 8a 74 a7 bd f9 fa de bc
       0.24371167 0.22487009 -0.08176525 -0.027219282
000140 4d 66 5d 3e 65 95 7c 3e 41 f4 b7 3d 90 61 8a 3d
       0.21621056 0.24666364 0.089821346 0.0675689
000150 df 73 81 3e f7 5a 7f 3e 84 fa 94 3b aa 0d 60 be
       0.25283715 0.24937044 0.0045464654 -0.21880212
000160 b9 34 26 be 07 39 b6 3d eb a1 50 3e 8f 95 9e bd
       -0.1623105 0.08897596 0.20374267 -0.0774337
000170 3e e2 99 3d c6 35 25 be e8 b2 77 3e ba ca 7f be
       0.075138554 -0.16133794 0.24189341 -0.24979678
000180 f6 bb 2b 3e 4d d7 06 be f9 d8 95 3b 50 03 01 bd
       0.1677092 -0.13168068 0.0045729843 -0.0314973
000190 55 65 90 3d 3f a6 c6 3d d4 1a 83 3e dc 7d 61 3d
       0.070505776 0.09699678 0.25606406 0.05505167
0001a0 80 fc 59 be c9 94 1d 3e 3e 92 69 3e 1a 5f 1f be
       -0.21287727 0.15388788 0.22809693 -0.15563622
0001b0 5e 61 f6 3b 2f 8b 32 3e b8 8e a8 3d 46 d9 74 be
       0.0075189313 0.17435907 0.082303464 -0.23911008
0001c0 83 6e 31 3e 91 ea b5 bc 72 8f 3a 3e c2 8e ac 3d
       0.17327313 -0.022206577 0.18218783 0.084256664
0001d0 d6 01 a1 3d 6e 1c 3e 3d 33 8d ac bd 52 17 b8 3d
       0.07861678 0.04641383 -0.08425369 0.08988823
0001e0 49 26 13 3d de cc 2a bd 75 ae 77 be fc 08 eb 3d
       0.035925183 -0.041699283 -0.24187644 0.11476323
0001f0 6c 93 d9 3d 84 e3 a8 bd 4d 05 e0 bd 26 9e 4e 3e
       0.106238216 -0.0824652 -0.10938511 0.20177516
000200 85 17 0c 3d a1 ad 31 3e 1e 85 27 bd d1 b3 07 3d
       0.034202117 0.1735139 -0.040898435 0.03313047
000210 f8 96 96 bd 45 8d 80 3d 94 28 60 be 35 2e 83 be
       -0.07353014 0.06276945 -0.2189048 -0.2562119
000220 71 f2 d1 3c 40 15 0b bb b8 55 56 3e 65 07 b2 3d
       0.0256283 -0.0021222383 0.20931137 0.08692817
000230 ea 2c 0f 3e d8 60 73 3e fb fa aa bd 26 7c 44 3d
       0.13981977 0.23767412 -0.08348652 0.04796996
000240 27 ce 32 be ae 4e 36 bd d7 55 12 be 93 d5 0c 3e
       -0.17461453 -0.04450863 -0.14290558 0.13753347
000250 8d 38 d6 bc a5 33 3d 3e 9f 1b ae 3d 06 2e 0e be
       -0.026150012 0.18476732 0.08501362 -0.13884744
000260 f4 ed db bd ea 3e 94 be f0 f9 57 3e 0c 80 60 3e
       -0.10738745 -0.2895425 0.21091437 0.21923846
000270 5a 27 0c be 94 90 d1 bc 8c 33 86 be e3 29 22 3d
       -0.13686886 -0.025581636 -0.26211202 0.039590728
000280 72 26 3a 3e 44 1c 7f 3d fb f8 53 3c e2 f4 d9 bd
       0.18178728 0.062282816 0.01293778 -0.10642411
000290 68 69 21 be cd 6c 19 be 42 9a 7a 3d a3 9a 26 3c
       -0.15762866 -0.1498291 0.061182268 0.010168704
0002a0 10 97 20 3e b8 d1 88 be 16 69 33 3e f0 19 ba bd
       0.15682626 -0.26722503 0.17520556 -0.090869784
0002b0 ea b4 f6 bd 1a 0f 4f 3e 77 1b 02 be a0 a4 4a 3e
       -0.12046225 0.20220605 -0.1270579 0.19789362
0002c0 d6 48 69 be 0f 4f b9 bd 80 e3 55 be ce eb 5f be
       -0.22781691 -0.09048282 -0.20887566 -0.21867296
0002d0 b5 e4 9b bd 21 d0 bb bd 0e e8 1e be 6b dc 7e 3e
       -0.07611982 -0.09170557 -0.1551821 0.2488877
0002e0 11 79 8b 3d 7c 93 64 bd 90 0f b0 3d af e5 fe bd
       0.06810201 -0.055804715 0.08596718 -0.124461524
0002f0 b5 9f 8b be 83 f0 43 3e 9f 23 38 bd 0b 6e 55 3e
       -0.27270284 0.19134717 -0.044955846 0.2084276
000300 bb 81 55 bd 85 93 38 3e 76 f2 eb 3d 81 1a 57 3e
       -0.052125674 0.18025024 0.11520855 0.21006204
000310 84 d2 61 3e 90 2d ad bd 45 35 8b bd eb a5 6d be
       0.22052962 -0.08455956 -0.0679727 -0.23207824
000320 c7 92 82 3e 5f 2c 20 be dd 1d 08 bd e7 15 75 be
       0.25502607 -0.15641926 -0.033231605 -0.23934136
000330 77 e3 83 3e 31 09 6e be b3 0f 40 3e 93 0d e3 3c
       0.2575948 -0.23245694 0.18755989 0.027716434
000340 76 18 70 bd 31 85 ca 3d 23 02 dc bd c0 08 d8 3d
       -0.058617078 0.098886855 -0.10742595 0.10548544
000350 c2 3f 60 be eb 43 fd bd fc 0e 90 bd 6d eb 98 3b
       -0.21899322 -0.1236647 -0.07034108 0.004666737
000360 a4 30 10 3c 9b 11 90 3d 3a a7 dc 3d 34 e2 8c be
       0.008800659 0.07034608 0.107740834 -0.2751633
000370 0b fd 11 be d8 5d 8f be 4c b8 87 be c2 09 6a bd
       -0.14256684 -0.28001285 -0.26507795 -0.057138212
000380 c0 5e 0d be e2 f0 59 3e c5 bc 88 bd d4 fe e7 bc
       -0.13805676 0.21283296 -0.0667663 -0.028319754
000390 fb 49 25 3e 17 50 85 bd 58 ef 54 bd 1d 41 68 3e
       0.16141503 -0.065094166 -0.05198607 0.22681089
0003a0 62 97 8f 3e 94 94 d8 3d e7 40 36 be b5 e2 5c 3e
       0.28045183 0.10575214 -0.17798196 0.21570857
0003b0 47 bd 82 bd 0c e9 89 be 1e dc f1 3d 76 4c df 3d
       -0.06383758 -0.26935613 0.11809562 0.10903256
0003c0 a9 b3 35 be 00 64 2a be 3b 30 1a 3e 4a 24 d7 3d
       -0.17744316 -0.1663971 0.15057461 0.105049685
0003d0 61 a5 ab 3d b4 f2 26 3e 08 e3 eb 3d c4 63 23 3e
       0.08381153 0.16303521 0.11517912 0.15956026
0003e0 e9 67 2e be c7 77 d3 3d b4 a1 f3 bd bd 5c 6b 3e
       -0.17031826 0.1032558 -0.11896077 0.22984596
0003f0 31 14 47 be e2 9b 8e 3c aa 7d 8f be dd 56 58 3d
       -0.19441296 0.017408315 -0.28025562 0.052817214

in_proj.bias f4 [64]
000000 fc a3 36 3c 4c 82 0f bb 38 0f bc ba 74 77 b4 3b
       0.011147495 -0.0021897731 -0.0014347797 0.005507404
000010 65 0b ae bc 7a 17 9b bb 46 cf 85 3b d1 09 8f 3b
       -0.021245668 -0.0047330232 0.004083547 0.004365184
000020 98 ee b5 bc 19 3b 79 bb 33 ed d8 3b 3b 9b d3 3b
       -0.022208497 -0.003802961 0.006620073 0.006457714
000030 30 c5 60 3c c1 06 3d 3c 94 fc bf 3b e7 90 29 bc
       0.013718888 0.011537255 0.005858967 -0.010349489
000040 cf 72 c9 3b 90 a1 38 bb 80 51 58 bb 96 9a a0 bb
       0.0061477195 -0.002817247 -0.0033007562 -0.0049012406
000050 d4 eb 59 3c 13 b3 8d bb 2e 2c e5 bb 64 8d ea 3b
       0.013300855 -0.004324326 -0.006993792 0.0071579684
000060 0c 12 40 bb 4e 34 f2 3b af 47 53 3c db 7e a0 3c
       -0.0029307632 0.007391489 0.012895509 0.01959174
000070 d9 c8 5e 3b 51 f9 7e 3b 61 b3 0b bc 75 50 09 3b
       0.0033994226 0.0038905928 -0.008526654 0.0020952497
000080 3c 5b 08 3c 58 5e 3a 3b 3b 23 3a 3c cc dd 01 3c
       0.008322533 0.002843758 0.011360939 0.007926416
000090 64 3c 30 bc 48 6d bb 3b 9c 6f 84 ba 0a 37 f2 bb
       -0.010756586 0.0057198144 -0.0010104063 -0.007391815
0000a0 65 21 c7 bb e8 b7 5d bb 21 2d 14 3a da 84 03 3a
       -0.006076979 -0.003383154 0.00056524767 0.000501705
0000b0 5b c5 21 bc 4c fe de 39 2f 12 65 bc d0 cf 4c ba
       -0.009873713 0.00042532606 -0.013981386 -0.0007812949
0000c0 cf 87 a6 3b 23 6e 6d 3c 05 b7 d4 bb c7 d3 bb bb
       0.0050821076 0.014491591 -0.006491544 -0.005732033
0000d0 96 a4 1a 3c 2a 47 bf bb fc ab 36 bc 84 3e 3e 3c
       0.009438654 -0.005837341 -0.011149403 0.011611585
0000e0 b6 2a 05 bc b5 0a ef bb db cd 80 ba 33 87 54 bb
       -0.008127859 -0.0072949775 -0.0009826975 -0.0032429218
0000f0 fe 41 04 ba 2b a2 5a 3b 59 86 41 3b 5f 2d c7 bb
       -0.0005045234 0.003336082 0.002952954 -0.0060784067

adapt.E1 f4 [3, 8]
000000 d4 97 bd 3d 4f ad ad bd 84 50 af 3d ee de b6 bd
       0.092574745 -0.084803216 0.08560279 -0.08929239
000010 fd 60 9a 3d 1b f3 a8 3d 97 4e dd 3d 2e 30 91 3d
       0.0753803 0.08249494 0.108060054 0.07089268
000020 6d 67 93 bc 43 33 1a bc c8 08 00 3b d2 e3 1e 3c
       -0.017993653 -0.009411636 0.0019536484 0.009697871
000030 bc 89 3b 3c 95 e6 0e 3b 45 bb a1 3b 4e 22 c1 bb
       0.011446413 0.0021804918 0.0049356543 -0.005893982
000040 27 d9 dd 3d ed 8c fa bd 3a 97 f0 3d c1 05 c6 bd
       0.10832434 -0.12233911 0.11747594 -0.09669066
000050 7b 36 dc 3d 63 f6 d0 3d d5 6c 0c 3e 63 7e fa 3d
       0.10752579 0.102032445 0.13713391 0.122311376

adapt.E2 f4 [3, 8]
000000 f6 5f d1 3b e6 3b 28 3a 13 80 3f bc 48 6f 37 3c
       0.0063896133 0.0006417617 -0.01168825 0.011195965
000010 e2 53 36 bc 66 e8 3a bc 4e 49 c6 bb f6 95 97 3c
       -0.011128398 -0.011407947 -0.006051219 0.018504124
000020 f7 7f e6 3a a7 3f 95 bb cb 1f a5 3b cf 4b a7 3b
       0.0017585744 -0.004554707 0.0050391904 0.0051054726
000030 cb f6 41 bc e4 ca ad bb f9 26 07 ba 21 1e c6 3b
       -0.011838625 -0.0053037275 -0.00051556487 0.006046072
000040 b3 c1 f9 3d 0c bf f5 bd 0d d7 01 3e 4f 06 05 be
       0.12195148 -0.1199933 0.12679692 -0.12990688
000050 a0 87 04 3e 84 24 11 3e 8e ed e4 3d 5e c2 e5 3d
       0.12942362 0.14174086 0.111781225 0.11218713

support_mix.w_logits f4 [3]
000000 7c e1 b2 3c 32 87 e7 bc 21 d7 0c 3d
       0.021836035 -0.028262708 0.03438485

blocks.0.filter_conv.conv.weight f4 [64, 64, 1, 2]
000000 1e 0f f7 bd 72 47 b8 bd 58 3b 7b 3b f1 22 fc bd
       -0.1206343 -0.08998002 0.0038334932 -0.12311352
000010 cc 41 ef bd c8 73 b3 bd ea b0 b9 bd 4e 21 c8 3d
       -0.11682472 -0.08762318 -0.09066947 0.09771977
000020 2b 97 1b 3d 9a a2 70 3c 14 ce ac 3d 61 5a 0a 3e
       0.037985962 0.014687205 0.08437744 0.1351104
000030 da e8 23 3d df f5 9c bd 03 59 80 ba 3c f6 a8 3d
       0.040016986 -0.07664084 -0.0009792153 0.082500905
000040 c1 86 85 3d 0e 08 9c 3c 4f ca 0f be fa 50 0f bd
       0.06519843 0.01904681 -0.14042018 -0.034989335
000050 60 b7 ee bd 77 db fe bd 46 37 a5 3d 73 bd 40 3d
       -0.1165607 -0.12444203 0.08067183 0.047055673
000060 f9 95 ad bc ec d4 b7 3d 21 3e 4a bd ff 1a f6 bd
       -0.021189677 0.089761585 -0.049375657 -0.12016868
000070 01 32 ed bd d1 d7 18 3e e9 40 d9 3c 47 b3 04 3e
       -0.11581803 0.14926077 0.02652021 0.12959014
000080 f5 15 d1 3c 87 04 ec bd f1 c3 12 3d f6 9d 42 3d
       0.025523165 -0.11524301 0.035831396 0.047513925
000090 7d c5 e4 bc 50 33 b9 bd a4 8e 8e bd bb 00 d1 bc
       -0.027926201 -0.0904299 -0.069608 -0.025513044
0000a0 d0 81 53 bd 81 21 05 bc 74 bd 14 3e 7a ac be 3d
       -0.05163747 -0.008125664 0.14525396 0.09310241
0000b0 5e c9 e7 3d 9d e6 12 be 88 53 94 bd 11 f5 86 3d
       0.113177046 -0.14345784 -0.07242495 0.065897115
0000c0 51 15 99 3d 9d 0a 57 3d 40 a2 11 bd ac e9 8e 3d
       0.07474769 0.052500356 -0.035555124 0.06978163
0000d0 d0 89 32 3d a1 d5 a2 3c ad 09 17 bd d0 b5 44 3c
       0.04358846 0.019877257 -0.036874462 0.012006238
0000e0 76 c3 08 3e 4a 62 ed bd a4 a7 8a bd c4 68 00 3e
       0.13355812 -0.11591013 -0.06770256 0.12539965
0000f0 b9 ed ff 3b ff ec fe 3d 33 6d f2 bd cf c5 13 be
       0.007810321 0.12447547 -0.11837234 -0.14430927
000100 69 a1 b7 3d 98 5c 9e 3d 03 fd c2 bd 9f 96 dd 3d
       0.089663334 0.077325046 -0.095209144 0.10819744
000110 a3 66 62 3d b6 ba c7 3d 4c f7 3d 3d 25 7a bc bd
       0.055273663 0.09752409 0.04637842 -0.09202985
000120 ad fc 98 bc cb 28 0d 3e 24 d1 b1 bd 18 b1 83 3c
       -0.018675173 0.13785093 -0.086824685 0.016075656
000130 19 8a 90 3d b5 21 9a 3d 5f 66 0d be 24 0b a2 3d
       0.0705759 0.0752596 -0.13808583 0.07912281
000140 6d b3 26 bb fe f8 bb bc 94 3d ee bd 1c ca d3 3c
       -0.0025436536 -0.022945877 -0.11632839 0.02585321
000150 22 ab c9 3d 43 6f 16 3e 51 b3 e3 3d 1a 07 15 3e
       0.09847094 0.1469088 0.11118186 0.1455349
000160 07 4f 58 3d b9 b4 c2 3d d0 fb 87 3d 22 eb 4c 3d
       0.05280974 0.09507126 0.06639826 0.050028928
000170 81 b3 fc 3d 31 ae bd 3d 0e 5b 9a 3d fd 00 45 3d
       0.12338925 0.0926174 0.075368986 0.048096646
000180 ba 9f 08 be 1b b6 0c 3e 87 4f 61 3d d6 81 86 bc
       -0.13342181 0.13741343 0.055007484 -0.016419332
000190 b6 38 67 3d d0 0d 9b 3d f6 75 02 3d ba bd c0 bd
       0.05645057 0.07570994 0.031850778 -0.094111875
0001a0 c0 07 15 bd 25 f8 ce bd 86 f6 06 bd 68 f5 4b 3d
       -0.036384344 -0.101059236 -0.032949947 0.049794585
0001b0 da 0c 10 bd 99 bb b4 bb de 90 93 3d ed a0 e3 bc
       -0.035168506 -0.0055155274 0.072053656 -0.027786696
0001c0 f2 71 95 bd 87 65 ee 3d 99 aa 19 3d 5b e8 c2 3d
       -0.07297124 0.116404586 0.03751621 0.095169745
0001d0 c7 ab 1a be 38 b7 09 3e 59 de 90 3d 55 83 9e 3d
       -0.1510459 0.13448799 0.070736594 0.07739893
0001e0 e3 98 93 3c b5 ed d8 bc 30 ef e2 3b 0c 38 a4 3d
       0.018017238 -0.026480535 0.006925486 0.080185026
0001f0 45 3c d6 bd bd 2d 54 3d aa ac 90 3d b6 2f 3d bd
       -0.10460714 0.051801432 0.07064183 -0.04618808
000200 13 b3 35 3d 52 54 1d bb 5a af a5 bd aa 6a c0 bc
       0.04436023 -0.0024006558 -0.08090086 -0.023488361
000210 4c 76 40 3c 01 7e 0c bd 91 c5 98 bc 76 9b d6 3d
       0.011746954 -0.034299854 -0.018648895 0.104788706
000220 00 13 44 3c ca 75 98 3d dc d0 64 3b 1e 76 e0 3d
       0.011967421 0.074443415 0.003491453 0.10960029
000230 d0 92 8a 3d 7e 55 93 bd 27 bc 93 3d 33 ab 74 3c
       0.067662835 -0.07194041 0.072136216 0.014933395
000240 3f ba ad bd 05 c5 22 bc 8c e3 93 bd 33 a2 de bd
       -0.08482789 -0.009934668 -0.072211355 -0.10870781
000250 16 24 bf bc c8 b9 9a bd ba a1 00 3e 3e 26 15 3e
       -0.023332637 -0.07554966 0.12561694 0.1456537
000260 aa 4b 06 3e 47 74 d4 bc 42 af 95 3d 5e 2e 97 ba
       0.13114801 -0.025934352 0.073088184 -0.0011534204
000270 e1 f2 0b 3e e3 27 f0 bb 6b 49 30 3a 7f ab 11 be
       0.1366687 -0.0073289736 0.00067248073 -0.14225577
000280 43 c6 10 3e 96 2c af bd 62 be 12 3d 97 84 04 3d
       0.14138131 -0.08553426 0.035826094 0.03235301
000290 74 b7 dc bd d3 4d 4f b8 66 b1 52 bc cd 69 e9 bd
       -0.107771784 -4.9425125e-05 -0.012859678 -0.11397133
0002a0 44 c3 1b 3d 5e 6d 33 bd 57 92 06 be 0c bb cb 3d
       0.038028017 -0.043805473 -0.13141762 0.09947786
0002b0 7c 95 a5 bd 67 43 2a 3d 47 a3 3b 3d a3 08 47 bd
       -0.080851525 0.041568186 0.04581001 -0.04859222
0002c0 89 b0 f7 bd 75 93 25 3c 06 dd 8f 3d 75 45 06 3d
       -0.12094218 0.010105957 0.07024579 0.032781083
0002d0 9a 38 09 be b0 1c f9 3d ed 77 ae bd 7e 04 c8 3c
       -0.13400498 0.12163675 -0.08518968 0.024416205
0002e0 b3 c6 c5 bd 6d 34 cf 3d 46 a1 ea bd af 10 33 bd
       -0.096570395 0.10117421 -0.11456542 -0.043717083
0002f0 c7 4a 2c bd 80 a2 b7 bd 79 23 5f bd 58 06 e1 3c
       -0.0420635 -0.08966541 -0.05447719 0.027468845
000300 2f b1 a6 3c 78 e5 29 3d a4 ca bf 3c 74 fa b2 3d
       0.02034816 0.041478604 0.023412056 0.087391764
000310 49 3d 15 be 4a 24 f6 bd 24 56 ed bc 63 63 03 be
       -0.1457416 -0.1201864 -0.02897174 -0.12830882
000320 10 67 6b 3d 17 0c bc bd 9e cf f7 bd 0d 22 cf 3d
       0.057471335 -0.091819935 -0.12100147 0.101139165
000330 47 f0 7e bd a8 8c 2b 3c 7f 5d 0e be c5 c7 97 bd
       -0.062240865 0.010470547 -0.13902853 -0.0741115
000340 ee e8 d8 bd 73 8d d4 3d 42 f9 ca 3d 53 a9 8a bc
       -0.10591303 0.10378542 0.099108234 -0.016926443
000350 6a fc 12 3e 96 42 34 bd 39 a6 c1 3c 5f 0d 9b 3d
       0.14354101 -0.044008814 0.023638831 0.0757091
000360 aa d9 0f bd 7b 1a 8c bd d0 fc 86 3d ab c9 0c 3d
       -0.03511969 -0.06840988 0.06591189 0.034372013
000370 ed f6 85 bd d9 85 99 bd f8 ab 5e bd 06 72 86 bd
       -0.06541238 -0.074962325 -0.05436322 -0.06564717
000380 bf a4 0f 3d 29 1f 0e 3d bb bc 59 3d df a3 30 bd
       0.035069223 0.034697685 0.053158503 -0.04312503
000390 96 b8 08 3e 98 7e cb 3c aa 22 dc 3d 1f 15 34 3c
       0.13351664 0.024840638 0.10748799 0.010991364
0003a0 71 15 f6 3d ed ed 23 be 59 65 73 3d 34 a2 55 bc
       0.120158084 -0.1600873 0.059422825 -0.0130391605
0003b0 47 9c 9e bd 90 25 9e 3d 2b f7 14 be f2 92 41 bc
       -0.07744651 0.07722008 -0.14547412 -0.01181482
0003c0 cc ce 8a bd c5 c1 0e 3e eb ea fd 3d 3d 4e 0d 3d
       -0.067777246 0.13941105 0.12398323 0.034498442
0003d0 48 55 36 bd e0 34 ce 3d 04 63 e7 bd 49 dc 89 bd
       -0.044514924 0.10068679 -0.112981826 -0.06731469
0003e0 49 e3 1e be 56 a7 64 bd fa df 4b bd d7 01 58 bd
       -0.1551639 -0.055823646 -0.049774148 -0.05273613
0003f0 38 02 dc 3c 07 d5 b6 3d 64 ee bd 3d 2d 24 03 be
       0.026856527 0.089273505 0.09273985 -0.12806769

blocks.0.filter_conv.conv.bias f4 [64]
000000 c0 21 63 bc 83 7c d6 3b 2c 03 f1 ba a6 4e c1 3a
       -0.013863027 0.0065456047 -0.0018387786 0.001474817
000010 39 8d dc 3a 76 8e bd bb f8 23 22 ba 7b 3b 1c 3c
       0.0016826756 -0.005784805 -0.00061851693 0.009535666
000020 28 36 a0 3b aa 57 06 3c d8 71 2d bb 7d d1 7e 39
       0.0048892684 0.008199612 -0.0026465561 0.00024301368
000030 2f 7e f4 b9 51 36 1d bc ec e4 05 3c 46 22 a8 3b
       -0.0004663332 -0.00959547 0.008172255 0.005131039
000040 b4 1b 67 bc a1 fa 96 ba 93 9e 6f bb 49 64 5e bc
       -0.014105726 -0.0011518785 -0.0036563023 -0.0135737145
000050 1c 1d b0 bb 28 16 89 bb a7 ae 65 bc a6 53 f3 3b
       -0.005374564 -0.0041835494 -0.014018691 0.007425743
000060 ee 5d 15 bb 88 60 13 3c 19 04 9a ba f8 73 09 bc
       -0.0022791582 0.008995183 -0.0011750489 -0.0083894655
000070 f4 dc 65 bc e4 c9 df 3a bc 21 88 bc 17 11 f3 39
       -0.01402973 0.0017073718 -0.016617648 0.00046361305
000080 6d 4d aa 3a 9a 43 db 3b 8d cd 68 3c fc 33 ee bb
       0.0012993045 0.0066914083 0.014209163 -0.0072693806
000090 ef 78 7c 3c 70 b6 9f b9 0f 70 c5 bb d3 b3 83 bb
       0.015409692 -0.0003046277 -0.0060253213 -0.0040192395
0000a0 a4 d4 a5 bc 8f 0b 91 3b ae bf 75 bb 40 51 8b 3c
       -0.020242997 0.0044264267 -0.0037498283 0.017006516
0000b0 08 e7 9f 3c c2 c0 eb 3b 5b 23 1e 3a fe 72 c6 bb
       0.019519344 0.0071946094 0.000603249 -0.0060561886
0000c0 20 f7 ed 3b 8e 5d a5 bb ae 8b 0f bc bd 6a 81 3c
       0.0072621256 -0.005046553 -0.00876133 0.015797967
0000d0 b2 d5 90 3a 4a 8c 3b bb 80 05 b1 3c fb 36 dc 3b
       0.0011050014 -0.0028617554 0.021609068 0.0067204214
0000e0 22 87 4b 3b f9 30 31 ba 65 5f 36 ba 05 77 8d bb
       0.0031055887 -0.00067593117 -0.0006956964 -0.0043171667
0000f0 c1 7f 8a b9 94 4b 07 3c c3 3c b8 3b e0 2b 97 ba
       -0.00026416595 0.008257765 0.0056224777 -0.0011533462

blocks.0.gate_conv.conv.weight f4 [64, 64, 1, 2]
000000 8a f0 10 3e d3 f1 a0 bc 47 57 32 3c d2 91 a3 bd
       0.14154258 -0.01964656 0.010885066 -0.079867974
000010 53 7e e9 3d 89 1a 03 be 2e 03 83 3c 4b 24 05 be
       0.114010476 -0.12803091 0.015992727 -0.13002126
000020 5a 5c 8a bd ea 7b cc 3d 95 37 ab ba 8d 49 f2 3d
       -0.06755896 0.09984572 -0.0013062829 0.11830435
000030 6a 58 dc bd 4d 5b 49 bc 63 cf 34 3c 25 ca 7f bd
       -0.10759051 -0.012289834 0.011035773 -0.06244864
000040 41 03 0c be 79 51 c6 bc d7 f5 db bd 11 de 5e bb
       -0.13673116 -0.024208771 -0.107402496 -0.0034006874
000050 5f fd 6b 3d 36 8a a2 3d 7d f5 b9 3d 3f e0 89 3d
       0.05761468 0.07936518 0.09080026 0.06732225
000060 74 2f 56 bd 7f 44 6d 3d 85 de 0c be 84 ec cf bb
       -0.05229135 0.05792665 -0.1375676 -0.0063453335
000070 9d 64 89 3d 9e c1 18 be 8f ab 47 bc b2 29 d8 bd
       0.067086436 -0.14917609 -0.012186899 -0.10554828
000080 79 2e b3 3d d3 99 88 bd 7d a0 f5 bd 04 8f 02 be
       0.08749098 -0.06669965 -0.11993501 -0.12749869
000090 c3 4f 8e 3c 75 a0 13 be dc f4 13 bd a9 7c 16 3d
       0.017372018 -0.14416678 -0.036122188 0.03673998
0000a0 be b0 9d bd 1d 40 01 3e 0c 5c c1 bd b6 d8 e3 bc
       -0.076997265 0.12622114 -0.09441385 -0.027813297
0000b0 97 05 8b bc ee ad 00 3e d9 4f c3 3d cf 6c 18 be
       -0.016970439 0.12566349 0.09536714 -0.14885257
0000c0 bd 0f ea bc 3f 89 eb bd b1 0f 03 3e c6 17 50 3d
       -0.028571958 -0.11500787 0.12798955 0.050803922
0000d0 7e df da 3d ce 52 22 bd fa d7 28 bd 74 5f f5 3c
       0.10687159 -0.03962975 -0.041221596 0.029952742
0000e0 c1 6c 55 3d 11 01 ad 3d d4 91 b9 3d d2 91 cd 3d
       0.05210567 0.08447469 0.09061018 0.10037579
0000f0 be 54 12 3e f7 05 df 3d 57 98 09 3e ff 43 15 be
       0.14290139 0.108898096 0.1343702 -0.1457672
000100 2a cd 93 3d a5 b0 0b 3e b2 a0 08 3e 38 b8 94 bd
       0.07216866 0.13641603 0.1334255 -0.072616994
000110 5e 71 2f bd 30 9f c4 bd ed 56 70 bd 1e d9 2b 3e
       -0.042832725 -0.09600675 -0.05867665 0.16782042
000120 44 dd db 3d 15 1f 09 be 4b a5 8e bb 0d 43 5a bd
       0.107355624 -0.13390763 -0.0043532006 -0.0532866
000130 78 75 18 bc 0a c0 80 bb 13 89 e4 bd 40 20 cc bd
       -0.0093053505 -0.003929143 -0.11158957 -0.09967089
000140 fd 0a 42 bd 85 75 57 3d ea 17 02 be 31 84 11 bd
       -0.04737376 0.05260231 -0.12704435 -0.03552646
000150 34 1c 50 3d 20 82 a8 bd 52 10 0c bd 26 98 0c 3e
       0.050808147 -0.082279444 -0.03419525 0.13729915
000160 ec 19 a4 3d bd 50 f9 3d 2d 26 33 3b 61 6e e4 3d
       0.08012757 0.12173603 0.0027335987 0.111538656
000170 f2 b6 c2 3d 23 cc 0e 3e ee 6a c0 bd 1e da 13 3e
       0.0950755 0.1394506 -0.09395395 0.14438674
000180 54 eb 1a bd 44 1c 53 bd 90 99 b6 3d 54 e4 7a 3d
       -0.037822083 -0.051540628 0.089160085 0.061252907
000190 57 fd b6 bd 2f cd f6 bd 41 77 dd 3d 2e b1 08 bd
       -0.089350395 -0.120508544 0.108137615 -0.033372097
0001a0 ae 38 18 bd 6d 2c 15 be 23 ac e4 3d a6 59 88 bd
       -0.03716343 -0.14567728 0.11165645 -0.06657724
0001b0 40 a7 e2 3d 2a da 90 bd e5 15 44 bd 8b 57 ea bd
       0.11067057 -0.070728615 -0.047872443 -0.11442479
0001c0 1c cf 61 bd 1a 5f d0 3c 4c 51 56 bc b0 79 04 be
       -0.055129156 0.025435973 -0.013080906 -0.12937045
0001d0 3f 67 a3 3c 71 57 eb bc df bb de bd 1c 3a c6 3c
       0.019946693 -0.028728219 -0.10875677 0.02419763
0001e0 52 90 da bd 85 e2 f2 3d 0a aa bc 3c cf 44 0d 3d
       -0.10672058 0.118596114 0.0230303 0.03448945
0001f0 9c d0 92 3c 9a e2 ef 3d 37 e7 ca 3d 01 0b 04 3c
       0.017921738 0.11713143 0.09907382 0.008059264
000200 6b 51 8d 3d 3d 3c 13 3e bd 9a de 3d c0 d3 64 bd
       0.06900295 0.14378448 0.10869358 -0.055866003
000210 3b f2 0e 3e b4 84 ea bd 7e bc c1 3d 39 10 4b 3d
       0.13959591 -0.11451092 0.0945978 0.049576018
000220 51 3c db 3b ba 2d a9 3d df 98 15 be e6 3c 18 be
       0.00669054 0.08260675 -0.14609097 -0.14866981
000230 0e 3f 8b 3d 24 33 8b bd 02 d1 08 be 1d 8e fe 3d
       0.06799136 -0.06796864 -0.1336098 0.1242945
000240 db ad 58 bd 50 b6 c7 bd 5e 0d cc 3d 2a 82 e8 bd
       -0.052900176 -0.0975157 0.09963487 -0.11352952
000250 19 28 ad 3b 93 92 a7 3c f5 fa 73 bd 2a 07 02 3e
       0.005284321 0.020455634 -0.059565503 0.12698045
000260 64 0a 0e be f6 80 ab 3d 4f 6c ad bc 75 19 01 3e
       -0.13871151 0.08374207 -0.02116981 0.12607367
000270 63 9b d2 bc 78 4c b4 bd 04 0e dc bd aa 19 99 3c
       -0.02570886 -0.08803648 -0.10744861 0.018688995
000280 3c 33 a3 bd 4b de 8b 3d 8f 69 07 be ee 28 a2 bd
       -0.079687566 0.068295084 -0.13223861 -0.07917963
000290 d3 d5 74 bd cb bd 92 3d e6 dd 12 be b6 cf 2f bd
       -0.05977423 0.071651064 -0.1434246 -0.042922698
0002a0 14 1c 92 bd 7f 3f 82 bd 98 16 7e 3d 68 50 c1 3d
       -0.07134262 -0.06359767 0.062033266 0.094391644
0002b0 52 89 18 be e2 fa a3 3c 82 67 1c 3d 3a 11 75 3d
       -0.14896134 0.020017091 0.03818465 0.05983088
0002c0 c4 55 0e 3e 2a 26 55 3d 85 0a 3d 3b 34 14 13 be
       0.13899904 0.05203835 0.0028845381 -0.14363176
0002d0 91 66 00 3e 81 01 e1 3d 79 31 9c bd ee 5d 30 3d
       0.12539126 0.10986615 -0.07626624 0.04305833
0002e0 af a7 ef 3d 86 b1 aa 3d 40 62 cd bd 5a e6 d6 bc
       0.11701905 0.08334641 -0.10028505 -0.026232887
0002f0 95 0e 0d 3e 14 1f b6 3d 0e 97 a6 3c 44 62 03 3e
       0.13775094 0.088926464 0.0203357 0.12830454
000300 36 2e 2e bd 3b 5d b9 bc 14 ea ef 3d 6b 3e 96 bd
       -0.04252454 -0.022627464 0.11714569 -0.07336124
000310 1d 39 6c bd 3d 91 cf bd cb 81 1a be b5 64 ba 3d
       -0.057671655 -0.10135124 -0.15088575 0.091012396
000320 d7 35 86 bd 49 87 de bc 05 af 13 be ad 57 90 bd
       -0.06553238 -0.027164118 -0.14422233 -0.07047973
000330 0c f0 98 bd 17 63 1b 3e 3c 79 2a bd 5d d1 46 3d
       -0.0746766 0.15174519 -0.041619524 0.048539508
000340 c5 ec 11 be 7a 40 88 3d 5f 7d da 3c a3 79 d7 3d
       -0.14250477 0.06652923 0.02667111 0.10521247
000350 54 e8 d2 3d f9 09 db bd ed eb 84 bd 21 df 13 3e
       0.10298219 -0.106952615 -0.06490312 0.14440586
000360 54 31 a6 3d aa 1d c0 bc 1a f3 b4 3d 93 ca a7 bd
       0.08114877 -0.023451645 0.088354304 -0.08192935
000370 5f 8f 9e bd 9f 1f 0d bd ee 98 3d bd 51 bb 2b 3d
       -0.077421896 -0.034453984 -0.046288423 0.041926686
000380 64 f0 8f bd ce 7d c7 bc 42 87 2f 3d a4 9a d6 bd
       -0.07028273 -0.02435198 0.0428536 -0.10478714
000390 38 31 b9 3c 7a d7 19 be 10 b4 10 be f6 c9 e7 bd
       0.022606477 -0.15023604 -0.14131188 -0.11317818
0003a0 8b a5 63 3d 07 d0 92 3d 47 c0 8e bd ef 11 65 3d
       0.055577796 0.07168584 -0.06970268 0.055925306
0003b0 08 1f 19 3e 08 0a 47 bd 23 bc 10 3e 00 17 fc bc
       0.14953244 -0.04859355 0.14134268 -0.030772686
0003c0 31 bc c6 bd e3 86 65 3d b4 14 24 3c 49 78 a3 bc
       -0.097038634 0.05603684 0.010014702 -0.019954817
0003d0 33 86 cf 3d 9e e0 ab 3d b7 a1 24 bc 75 b8 07 be
       0.10133018 0.08392452 -0.010048321 -0.13253959
0003e0 76 12 0e 3d 82 3e b8 3d 9a 77 e6 bd c9 41 bf 3d
       0.034685574 0.089962974 -0.11253281 0.093387194
0003f0 8f 0f d5 3d e1 c9 38 3d 86 bc 0b 3e 83 28 f9 bd
       0.10403358 0.0451144 0.13646135 -0.1216593

blocks.0.gate_conv.conv.bias f4 [64]
000000 b4 b3 0a 3c 47 d3 b9 3b 29 14 ed 3a 61 9c d9 bb
       0.008465696 0.005670938 0.0018087673 -0.0066409563
000010 f8 77 06 3c 9f 18 62 bc 44 9f b4 3b 8b a2 3e 3c
       0.008207314 -0.013799815 0.00551215 0.011635433
000020 00 ee 2b 3c d0 07 1e bb 0f 8e 83 bb c2 a2 64 3c
       0.010493755 -0.0024113543 -0.0040147374 0.01395482
000030 0a 43 0b 3a 47 bf b8 3b 74 c1 31 3b 07 9e 74 3b
       0.0005312419 0.0056380364 0.0027123364 0.0037325637
000040 96 83 26 3b 7b ba ab 3b a3 f8 f9 3b a0 cc 91 ba
       0.0025408021 0.005240736 0.0076285168 -0.0011123605
000050 4f 63 bd 3c b2 22 40 3c 2d b9 9d 3b fd 47 d7 bb
       0.023118643 0.011727022 0.0048133344 -0.006569861
000060 07 45 91 bb 73 0b 16 3c 82 3a a5 ba 07 72 7d b9
       -0.0044332775 0.009158003 -0.0012605938 -0.00024170439
000070 6d c3 ac b9 94 d9 30 3c 13 f5 a5 bc 30 78 5c bb
       -0.00032952 0.010794062 -0.020258462 -0.0033640973
000080 21 f9 86 bb 54 62 03 3b 65 ac 56 3c a8 91 a2 ba
       -0.004119054 0.0020047622 0.0131026255 -0.0012403028
000090 90 d4 d7 ba 2e d3 99 3b fa dd 8b ba e3 1b fa 3a
       -0.0016466547 0.004694364 -0.0010671013 0.0019081797
0000a0 8c d8 07 bc 0b 51 88 3c 71 67 d0 ba 8f 94 0b 3b
       -0.008291375 0.016640207 -0.0015899969 0.0021298265
0000b0 63 b2 4e bb 6a 38 b5 3a e0 f3 9f bb 6e 4f 69 3c
       -0.0031539432 0.0013826017 -0.004881367 0.014240129
0000c0 ff 8d bb bb b8 29 9d 3a dd 6c 41 3c a6 6c 13 bc
       -0.0057237144 0.0011990583 0.01180574 -0.008998072
0000d0 e3 b5 9b bb 11 42 15 3c 8c d0 47 3b 2a c9 51 bc
       -0.004751907 0.00910999 0.0030489294 -0.012804309
0000e0 50 17 5b bb ad dd c1 3b 03 53 33 bb 4e 06 21 bb
       -0.0033430643 0.0059163184 -0.0027362711 -0.0024570408
0000f0 0b 7f 55 3a f4 0a fc ba f7 8d e4 3b 45 7d 50 bb
       0.0008144236 -0.0019229339 0.0069749313 -0.0031812948

blocks.0.residual_conv.weight f4 [64, 64, 1, 1]
000000 ed 3b 6b 3d 4d db 40 3d 22 52 54 3e 3e 98 35 3e
       0.057430197 0.04708414 0.20734456 0.17733857
000010 93 07 34 3e 8c 61 1a 3e 85 23 0c 3e 21 c7 f2 3d
       0.17581014 0.15076274 0.13685425 0.11854387
000020 b7 89 5a bc df 91 5f 3d e6 e4 5a be 5d 94 2b be
       -0.013338498 0.054582473 -0.2137638 -0.16755815
000030 3f 6f 41 3e 0b 68 03 3d 25 2a 5d bd 24 e6 98 bb
       0.18890093 0.032081645 -0.05399527 -0.004666107
000040 52 14 40 bb 9a 5f c5 3d 2d b2 e1 3d 1d cb 47 be
       -0.0029308987 0.09637375 0.110203125 -0.19511075
000050 09 db 2f be b9 e2 73 bd 7a 72 49 3c e4 ef 0d be
       -0.17173399 -0.05954239 0.01229536 -0.13861042
000060 cc 8a 37 3e 65 f5 7a bd 96 fb 5c be 03 26 27 3e
       0.1792404 -0.061269183 -0.21580347 0.16323094
000070 ad 87 3f 3e 02 e3 0e be ff e0 05 be ee 56 04 be
       0.187041 -0.13953784 -0.1307411 -0.12923786
000080 fb d2 3b 3e 86 17 01 be 59 14 25 be bd 14 ca 3d
       0.18342201 -0.1260663 -0.16121043 0.09867237
000090 5d 56 89 3d 4e 9e 24 be 39 91 40 be 87 7c aa bd
       0.067059256 -0.16076013 -0.18805398 -0.08324533
0000a0 ea 23 23 3e 9e 42 fe 3b 30 96 4f 3e fe 8e 6e be
       0.15931669 0.007759406 0.20272136 -0.23296735
0000b0 c3 d8 13 3e b2 79 dd bd 52 2d 3a 3e 09 a7 ba 3c
       0.14438157 -0.10814227 0.18181351 0.022784727
0000c0 93 6a 66 bd 3c 92 22 be ca 83 49 be 6e 40 b1 3d
       -0.05625398 -0.15876096 -0.1967918 0.08654867
0000d0 cd 9c f7 3d 58 8e 44 3e 9f a1 ed bd 21 65 02 bd
       0.12090454 0.19194925 -0.116030924 -0.031834725
0000e0 12 e6 1a be b9 12 a6 3d 56 f8 5d bd 91 d4 32 bc
       -0.15126827 0.0810904 -0.05419191 -0.010914938
0000f0 d6 07 2e be d0 a7 3d be 95 a3 07 3e 44 ce 16 be
       -0.16995177 -0.18521047 0.13245995 -0.14727122
000100 91 0a 33 bd c2 ef 83 bd e7 cc df 3b 06 ce 0c be
       -0.04371125 -0.064422145 0.006829846 -0.13750467
000110 23 b5 3f bd 99 b5 ff bd 7d 3a 57 bd 46 f6 d3 3d
       -0.046803605 -0.12485809 -0.052546013 0.10349707
000120 eb 42 63 3d 0f e0 4c be ae d9 24 3e f9 dc 3d 3e
       0.05548374 -0.20007347 0.16098663 0.18541326
000130 a7 e9 ea bd 72 11 14 bd cd ae 51 be c0 a2 79 bd
       -0.11470347 -0.03614945 -0.20476837 -0.060946226
000140 a6 5d fe bd aa 77 9c bd bf c8 12 3e 71 28 2e be
       -0.12420206 -0.076400116 0.14334391 -0.17007615
000150 6a 01 33 be 8a 71 e1 bd 39 55 2a be 86 70 c8 3d
       -0.17481008 -0.11007984 -0.16634072 0.09787087
000160 65 03 35 3e 56 39 1d 3e 27 18 63 3d f6 28 de 3d
       0.17677076 0.15353903 0.055442955 0.108476564
000170 c3 f4 82 bd 3a 46 75 3c 29 a8 c3 3c cc 20 e2 bd
       -0.06394341 0.014970357 0.023883896 -0.11041412
000180 3b 5c e5 bb d1 23 07 3d fb 61 43 3e 4a 02 29 bd
       -0.00699952 0.03299314 0.19080345 -0.04126195
000190 fe fb 08 3d 88 97 b8 bd 54 bc cc bd a8 59 d7 bc
       0.033443443 -0.09013277 -0.09996858 -0.026287869
0001a0 34 2a 9d bd 78 40 4e bd fe 4f 29 be 78 47 ee bc
       -0.07674065 -0.05035445 -0.16534421 -0.029086813
0001b0 46 bf bc 3d 57 c4 e8 bd 09 f5 e5 bb f4 30 5d 3e
       0.0921617 -0.11365574 -0.007017736 0.21600705
0001c0 22 65 0c 3e 35 65 46 3e 7b 78 c4 bc 58 fe 7b bd
       0.13710454 0.19374545 -0.02398323 -0.061521858
0001d0 49 6d 93 bd 27 7c 4b bc 14 55 da bd 8c 14 28 be
       -0.07198579 -0.012419737 -0.106607586 -0.16414088
0001e0 b7 ae 29 be 9f 38 42 3e 00 c2 1d 3e c8 85 4b bd
       -0.16570555 0.18966912 0.15406036 -0.04968813
0001f0 b8 f3 a7 3d 20 d6 c2 bc 0a 0d 00 be e6 82 52 be
       0.082007825 -0.023783743 -0.12504974 -0.20557746
000200 d8 82 7a bc 44 e2 22 bb 0c b4 ed bc 32 d0 8d bd
       -0.015289985 -0.0024854103 -0.029016517 -0.06924476
000210 62 77 ed bd 18 c0 c8 bd df 3b 4a 3e 07 8a f3 bd
       -0.11595036 -0.09802264 0.19749402 -0.11891561
000220 81 62 d9 bd e5 b9 de bd e9 d6 4b be 8b 12 96 3c
       -0.10614491 -0.108753 -0.199062 0.018319389
000230 c1 f5 a4 3d 36 f2 b7 bd 94 b9 e5 3d 2b c1 03 3e
       0.08054686 -0.08981745 0.11217037 0.12866656
000240 c1 cb 55 3e b3 7c 56 bc b0 5e aa bc df a0 42 3e
       0.20878507 -0.013091254 -0.020797104 0.1900668
000250 39 25 fa 3d 41 80 3c be 31 fd 57 bd 29 b5 60 3e
       0.12214131 -0.184083 -0.052731697 0.21944107
000260 a8 1c 38 3e b9 12 07 be 98 66 a7 bd 99 c5 8a 3d
       0.17979681 -0.13190736 -0.08173865 0.0677597
000270 3e b8 8b bc 3d 21 08 3d 94 78 33 3d c9 00 36 bd
       -0.017055627 0.033234823 0.043816164 -0.044434343
000280 e4 33 44 3e c9 ca 31 3e 68 34 36 be 4f 11 43 3e
       0.1916042 0.17362513 -0.17793429 0.19049571
000290 80 32 58 3e 0b 62 d1 bd 69 ee 94 bc 3e b2 cd 3b
       0.21113014 -0.10223778 -0.01818009 0.0062773516
0002a0 0c 1c 93 bd f1 23 c4 bd e0 23 b2 bd e8 ea 15 3e
       -0.07183084 -0.09577168 -0.08698249 0.14640391
0002b0 24 57 5c be ed de b1 bc 73 43 a8 bd 6b 2b 59 3e
       -0.21517617 -0.021712745 -0.0821599 0.21207969
0002c0 7f 72 99 bd 86 c1 3c be 36 34 c1 bd 0e 2e 08 3e
       -0.074925415 -0.18433198 -0.094337866 0.13298818
0002d0 39 59 1d be 07 3d 26 be 55 93 be bd fc 16 06 3e
       -0.15366067 -0.16234218 -0.09305445 0.13094705
0002e0 9c 2f ec bd 18 e7 63 bd 21 93 31 3d 7c d4 29 3e
       -0.11532518 -0.05564031 0.043353204 0.16584963
0002f0 e6 b3 8a 3d 1c a3 61 3e 04 f8 1d 3e 3b 78 24 bd
       0.06772594 0.22034878 0.15426642 -0.040153723
000300 11 db e3 3d 59 30 9d 3d 53 30 3c be c5 2a 73 3c
       0.11125768 0.07675237 -0.18377809 0.01484174
000310 bb 8e 41 be 8d 13 c3 3c f9 31 9d bd 5d 79 15 be
       -0.18902104 0.023813033 -0.07675547 -0.14597078
000320 b3 64 38 3c 4a 5b a7 bd 9a 9a 21 be 84 e8 cd bd
       0.011254477 -0.08171709 -0.15781632 -0.100541145
000330 e7 e4 37 be 7a 1d 16 3e a9 70 15 bd f6 8d 50 be
       -0.17958413 0.14659682 -0.036484394 -0.20366654
000340 ad 44 12 be 9e 79 d1 3d 8c d6 04 be de e1 ca bd
       -0.1428401 0.10228275 -0.12972468 -0.09906362
000350 2e 03 41 be a5 46 e7 3c 54 2b 12 3e 02 9b 67 3e
       -0.18848869 0.028231928 0.14274341 0.22617725
000360 51 92 8f 3a db ca 20 3e ab 91 a0 3d ac e4 f3 bd
       0.001095364 0.15702383 0.07840284 -0.1190885
000370 44 bf 16 3e a0 8f ee 3c d5 7e 76 bd e9 70 04 bd
       0.147214 0.02912122 -0.06017955 -0.032334242
000380 e3 57 0b 3e 27 0f 40 3e 9a 7b 1a 3d 31 69 ba 3d
       0.13607745 0.1875578 0.037715532 0.09102095
000390 18 37 7a bd 13 bf 0e 3e 7b 1a 0e 3e 0d cd 85 bd
       -0.061087698 0.13940077 0.13877289 -0.06533251
0003a0 a6 15 87 bd e1 82 50 3e a9 c0 9b 3c 3b 36 29 be
       -0.06595926 0.20362426 0.019012766 -0.16524594
0003b0 f8 86 ab ba 8b 67 cf 3d c4 e7 8a 3d 56 3d 00 3e
       -0.0013086488 0.10127171 0.06782487 0.12523398
0003c0 d2 b3 15 3d 7e eb 41 bd 46 77 5f bd 3f b0 10 bd
       0.036548443 -0.047343723 -0.054557107 -0.03532433
0003d0 04 1d 47 bb f0 eb 8a bc 1f e0 1c bd 7b fe a2 bd
       -0.0030382285 -0.016958207 -0.038299676 -0.079586945
0003e0 3e 27 f5 3d d2 40 c8 3d 1c 02 4c bd 0c 22 19 be
       0.119703755 0.097779885 -0.0498067 -0.14954394
0003f0 10 71 04 bd 80 e6 eb 3d ac 35 a5 3d 4d c0 87 3d
       -0.032334387 0.11518574 0.08066878 0.06628475

blocks.0.residual_conv.bias f4 [64]
000000 23 14 07 bd 4d 26 85 3c 7c ce 4e bb 2c 50 44 bc
       -0.03297819 0.016253615 -0.003155618 -0.011982005
000010 cd a2 b2 3c 37 d3 4b 3c 49 3d 8f bb e6 b5 85 bb
       0.021806145 0.012440494 -0.0043713194 -0.004080522
000020 bb 2c d4 bc a3 a2 ab 3c 62 8e 6d bb 57 e3 29 bc
       -0.025900235 0.020951575 -0.0036248197 -0.010369143
000030 59 03 da 3a 9e 25 81 3b ff 36 d2 3c e4 77 bd bc
       0.0016633078 0.003941252 0.02566099 -0.023128457
000040 fc 3f 06 bc ab 4c 70 bc fd b9 21 bc 13 e5 90 3c
       -0.008193966 -0.014666717 -0.009871003 0.017687356
000050 47 e9 d3 3a 57 08 a4 bb c2 8c 0b 3b 41 7f 1e 3d
       0.0016167545 -0.005005877 0.0021293615 0.038695578
000060 3a 33 74 3c 77 50 25 3c c2 aa 97 bc 2f f1 64 bc
       0.0149047915 0.010089985 -0.01851404 -0.013973518
000070 14 e0 bc 3c 5c f1 14 3c 5d 34 bc bb 6d f0 76 bb
       0.023056068 0.009090748 -0.005743547 -0.0037679926
000080 67 4a 0f bd 70 a0 49 3b d0 b2 30 3c 70 09 a2 bc
       -0.034983065 0.0030765794 0.01078482 -0.01977989
000090 a6 91 ce bc 2e e8 95 bb 91 e3 b9 bc e4 25 c3 bc
       -0.025215935 -0.004574797 -0.02269152 -0.023821779
0000a0 cf 29 7e 3a 8c 2f 05 bb 17 63 c9 3c 23 b7 63 bb
       0.0009695561 -0.002032253 0.024583383 -0.003474661
0000b0 f9 20 82 3c 50 8f a0 3c fe 22 a4 bc 65 e5 83 3c
       0.015884863 0.019599587 -0.020036217 0.016100595
0000c0 c6 64 10 bd 91 d7 14 3b 2d 68 cb 3c de f2 ee 3c
       -0.035252355 0.0022711495 0.024829948 0.029168542
0000d0 e4 df d7 3c e6 61 23 3d 06 67 1f bc 86 9e 1c bc
       0.026351877 0.039888285 -0.009729153 -0.009559279
0000e0 97 e9 24 3d 07 70 92 3c c3 88 c9 bc 53 5a b6 3b
       0.04026183 0.017875684 -0.024601346 0.0055649667
0000f0 fd 5a 85 39 71 53 6c bc 73 67 85 bc 51 9d 28 bc
       0.00025435528 -0.014424191 -0.01628468 -0.010291413

blocks.0.skip_conv.weight f4 [128, 64, 1, 1]
000000 99 7e 39 be 4d 73 34 3e 5f b1 e1 3d 76 f3 a2 bd
       -0.181147 0.17622109 0.11020159 -0.07956593
000010 b3 d2 99 3c 73 91 f4 bc be 5a 19 be b0 27 cd 3b
       0.018777227 -0.029854512 -0.14976022 0.0062608346
000020 7d 65 0f 3c 27 49 68 3b 73 19 80 3c fa c5 87 bd
       0.008752224 0.0035443993 0.015637135 -0.06629558
000030 2f 2e 2e be 20 09 99 bc c6 64 9d bd 52 bc 2d 3e
       -0.17009805 -0.018681109 -0.07685237 0.1696637
000040 ae 2e ed bd 66 f5 5b bd b7 fb 45 3d d7 7f 54 bd
       -0.11581169 -0.053700827 0.048335757 -0.05187973
000050 bc d9 f4 bc c9 d8 9d bd c7 90 e2 bd 11 9c 2c be
       -0.02988898 -0.07707364 -0.1106277 -0.1685641
000060 31 12 fe bd d9 5e 88 bd 8f 85 44 bd 87 15 32 3d
       -0.124058135 -0.06658716 -0.047978934 0.04347756
000070 cc 65 f9 bd 25 bc f3 3b 7b 4e 76 3d 87 84 f6 bd
       -0.12177619 0.0074382 0.06013344 -0.12036996
000080 89 c8 cf bb 6b 2c 2c 3e 61 30 13 bd 80 19 16 bd
       -0.0063410443 0.16813819 -0.03593481 -0.036645412
000090 fd b2 13 3d f7 68 80 3c 5c 39 f8 3d 67 88 1c bc
       0.03605937 0.015675051 0.121203154 -0.009554005
0000a0 47 e8 5a bd ce 9e 05 be 6b 30 4a bb 31 65 17 3c
       -0.053444173 -0.1304886 -0.0030851613 0.0092404345
0000b0 b6 b5 29 bd 59 bc 34 bd dc b5 09 3e cf 75 06 bc
       -0.04143306 -0.044124935 0.1344828 -0.008206799
0000c0 9d 71 68 3c 66 61 f6 bd b8 5b 35 3e 4d 58 25 3c
       0.014187244 -0.12030296 0.17710769 0.010091853
0000d0 db 31 2e be 35 ed 02 be c4 e0 12 3e 75 9e ba bd
       -0.17011206 -0.127858 0.14343554 -0.091122545
0000e0 4d 0c 09 3e e6 7f 00 bd ce 2f 03 be 86 67 2d be
       0.13383599 -0.031371973 -0.12811205 -0.16934022
0000f0 8e 13 08 3e ae cd d5 3d b1 2f 50 3b 1e 41 45 3d
       0.1328871 0.10439621 0.0031766708 0.048157804
000100 1e b5 ee 3c b4 2f 11 3e 85 cf d7 3c f4 d0 ba ba
       0.029139098 0.14178354 0.02634407 -0.0014252947
000110 6d 22 97 3d c1 52 14 be c9 87 b1 3d 50 e7 d8 3c
       0.07379613 -0.14484693 0.08668477 0.026477486
000120 38 aa 2f 3d 9b a1 3f bd 4d cf 88 3d 84 02 8b 3d
       0.042886943 -0.04678498 0.066801645 0.06787589
000130 25 5d 19 be ec 80 fa 3d fc 8d aa 3d 4f b9 21 bd
       -0.14976938 0.12231621 0.083278626 -0.039483365
000140 71 31 e8 bd ef 1d 1e 3e 63 96 07 be f7 ad 22 be
       -0.11337555 0.15441106 -0.13240962 -0.15886675
000150 cf 08 42 3d ed f7 ef 3d e3 4f 2e be ea 7f a6 3d
       0.04737168 0.1171721 -0.17022662 0.081298664
000160 70 06 04 be 9a 73 1b 3d 20 b4 f3 bd f3 c3 4a bd
       -0.1289308 0.037952043 -0.118995905 -0.049503278
000170 7f 9e 00 3e 12 3d 98 3d 5c fd 82 bc d1 9e d0 bd
       0.12560461 0.07433523 -0.015989952 -0.10186542
000180 3d 82 ff bb 08 5b 92 3d d1 17 e8 bd 1c c8 91 3b
       -0.007797508 0.07146269 -0.113326676 0.0044489037
000190 9e 19 02 be 86 c0 9a bd 42 f0 0f 3d af 91 9c bd
       -0.12705085 -0.07556252 0.035141237 -0.076449744
0001a0 dd 8e 9a bd f1 02 f7 bb 11 59 cf bd f0 38 df 3d
       -0.0754678 -0.0075381924 -0.1012441 0.10899532
0001b0 6d 7d b0 3d c2 84 0c 3e 2e 92 15 3e 26 4d 03 be
       0.08617673 0.13722518 0.14606544 -0.12822399
0001c0 d2 e8 96 3d 1f f2 c2 3d db 45 0c 3e d6 28 54 3d
       0.07368626 0.09518837 0.13698523 0.051796757
0001d0 c0 39 cb 3d 75 38 30 be 02 2f 80 bd 62 f0 86 3d
       0.09923124 -0.17209037 -0.06258966 0.06588818
0001e0 f1 68 bc 3c bd 04 3e 3d 25 d4 db 3d 3d 3d f0 3d
       0.022999259 0.046391238 0.10733823 0.1173043
0001f0 e2 68 e5 3d be 08 55 3d 1c b2 17 3e 42 bc 02 bd
       0.112016454 0.05201029 0.14814037 -0.031917818
000200 5e b9 b3 3d 2f ae 81 3d 8c e9 73 3d dc 54 ef bd
       0.0877559 0.06332051 0.0595489 -0.116861075
000210 0a 24 c1 bc ca 23 93 bc f7 61 fd bd d7 61 1c bd
       -0.023576755 -0.017961401 -0.12372201 -0.038179245
000220 d6 9a a7 3c 74 c7 2c bd 84 a9 0d 3e d1 a2 fb 3d
       0.020459574 -0.0421824 0.13834196 0.12286914
000230 57 2b da bd 72 d9 e6 3d f8 b4 2a 3d af d8 8d bd
       -0.10652798 0.11271943 0.04167649 -0.06926095
000240 c6 77 54 bd 9a 07 e7 3c d5 77 1b be be 8d 33 be
       -0.051872037 0.028201867 -0.15182431 -0.17534539
000250 dd 3d a7 3d b8 12 da 3d a6 f3 ba bd b8 09 e4 bd
       0.08166096 0.106481016 -0.091285035 -0.11134666
000260 7c e3 36 bd 5d a9 0e 3e 05 b3 05 3e 22 13 29 3e
       -0.04465054 0.13931794 0.13056572 0.16511205
000270 64 07 e1 bd ba a7 a8 bd be a7 69 bd 12 1f ca bd
       -0.10987738 -0.08235116 -0.057044737 -0.098692074
000280 df 9b 22 3d 86 0e 51 bc 86 df 8e bd 7d a6 57 3d
       0.03969943 -0.01275981 -0.069762275 0.05264901
000290 62 3c 0d be cc 63 30 3e 79 19 29 3e 4f 2c 2e bb
       -0.13792565 0.1722557 0.16513623 -0.0026576703
0002a0 77 f5 d5 bd 81 41 81 3c 82 7c 11 3e b1 10 20 3d
       -0.10447209 0.015778305 0.14207652 0.03907842
0002b0 19 a7 0f 3e 89 1e 2a be ea 38 7a 3c 9c ca 82 3d
       0.14028586 -0.1661321 0.015272358 0.06386301
0002c0 e6 a6 17 3e 35 17 05 3e a4 97 1c 3e 33 16 f0 3d
       0.1480976 0.12997134 0.15292221 0.11722984
0002d0 18 c5 16 be 2c 4b bc 3d 94 0d e8 bd 67 dd 6b 3d
       -0.14723623 0.091940254 -0.11330715 0.057584193
0002e0 10 ba 66 3d ad 38 2a 3e 9b 71 fe bd d0 63 d9 3c
       0.056329787 0.16623183 -0.12424012 0.026536852
0002f0 51 f6 09 3e d0 b6 c1 bc 3d fb 24 3e 81 0f 99 bd
       0.13472869 -0.023646742 0.16111465 -0.0747366
000300 50 d1 d1 3d c2 2a 25 bd cb 85 a7 3d 11 73 f6 bc
       0.10245001 -0.04032398 0.08179816 -0.030084165
000310 1c 00 b3 bd 30 4e 28 3e ef c6 2e 3e 30 94 a4 bd
       -0.08740255 0.16436076 0.17068075 -0.08036077
000320 74 70 16 3d a7 dd b4 3d b8 2f 03 be a8 8a 93 bd
       0.036728337 0.08831339 -0.12811172 -0.07204181
000330 3b 39 4b bd 59 20 18 be 77 b8 32 3d ef fd 19 be
       -0.049615126 -0.1485609 0.04363295 -0.15038274
000340 e0 0b b4 bd 2e c2 29 3e a2 15 f8 bd 27 a9 05 bd
       -0.087913275 0.1657798 -0.12113501 -0.03263202
000350 5c ca 28 be b0 81 95 bd 63 69 9b bd 3c d6 c5 3d
       -0.16483444 -0.073001266 -0.0758846 0.096600026
000360 51 3e f6 bd 4a 3f 1e 3d 2b 62 1a be a8 ef 5c 3d
       -0.12023605 0.038634576 -0.1507651 0.05393949
000370 75 04 2a bd 52 71 7c 3d 98 00 e0 bd 42 46 cc 3d
       -0.041508157 0.06163151 -0.10937613 0.09974338
000380 b9 6d af bc c7 58 e2 bc 8c a6 3d be 0c 08 cf 3b
       -0.021414625 -0.027630223 -0.18520564 0.006318098
000390 e2 f2 eb 3c 97 5a bd bd ce e9 b1 3d 93 65 83 bc
       0.028802339 -0.09245794 0.08687173 -0.016039645
0003a0 1e b0 12 be 90 2d 19 bd 5a 6f 06 bc 14 5f ae 3d
       -0.14324996 -0.037396967 -0.008205259 0.085142285
0003b0 63 61 35 3d cd 51 3f be 1d 96 b1 3d 1d 1d 8a 3d
       0.04428233 -0.18683548 0.0867121 0.06743834
0003c0 81 fa aa 3d ce fe 09 bd ce 53 21 be 95 b3 73 3d
       0.08348561 -0.033690266 -0.15754625 0.059497435
0003d0 53 0f e3 bb 8a d7 a8 3c 89 b1 58 bd a8 91 14 3e
       -0.006929317 0.02061059 -0.052903686 0.14508688
0003e0 46 89 61 3c 50 22 9a bd 62 4b 0c 3e 9a 41 97 3d
       0.013765639 -0.07526076 0.13700631 0.073855594
0003f0 c5 3e 22 be 4b a9 88 bd b2 32 f7 bb 37 af 15 be
       -0.15844257 -0.06672915 -0.007543885 -0.1461762

blocks.0.skip_conv.bias f4 [128]
000000 d9 b1 84 3c c1 87 ba 3b 2b df e5 3b 15 24 74 3c
       0.016198086 0.0056924527 0.007015129 0.014901181
000010 e0 92 8b 3a 81 0b 6d 3c da 8e 10 3c 29 91 34 bb
       0.001064863 0.014468075 0.008823121 -0.0027552343
000020 6c d7 89 3c 56 11 4d 3b 95 fc 44 3b cd e1 e3 3b
       0.016826354 0.003129085 0.0030057777 0.006954408
000030 c6 0d 18 3c f1 4a 79 3c 3c ed 13 3c fe c7 6a 3c
       0.009280628 0.015215621 0.009028729 0.014329908
000040 76 de 94 3c 1b c0 d8 3b 13 c0 85 bb 75 61 8e 3a
       0.018172484 0.0066146976 -0.004081735 0.0010862785
000050 e2 8c 63 3c d5 cf 89 bb 29 8d aa bb c0 c5 93 3a
       0.01388857 -0.0042056837 -0.005204816 0.0011274144
000060 d4 67 b6 bb 18 93 7f bb 97 b6 76 3c 74 78 d7 b9
       -0.0055665765 -0.0038997587 0.015058181 -0.0004109774
000070 cf 99 a3 3c a9 dc 22 bb 7c 78 0c bb 33 26 4c 3c
       0.019970803 -0.0024850762 -0.002143412 0.012460279
000080 14 71 26 bb 55 01 35 3c 1d df ff bb 4e 17 49 3c
       -0.002539699 0.011047681 -0.0078085796 0.012273623
000090 02 87 b2 bb f9 d3 7d 3c ff 0d ae bb 57 70 95 3c
       -0.005448223 0.015492433 -0.005311727 0.018242044
0000a0 4c bb 6e 3c a5 8d 3a bb e6 6d d3 39 cb 49 55 bc
       0.014571022 -0.0028465774 0.00040326937 -0.013018082
0000b0 09 eb 03 3c 35 28 3a 3c 8c 03 1a bb 99 ef 6f 3c
       0.008051642 0.011362125 -0.002350065 0.014644527
0000c0 9d 9f 00 ba 2f 76 1c 3c 57 91 f1 3b 36 54 27 3a
       -0.0004906597 0.009549662 0.007372062 0.0006383093
0000d0 83 d6 b6 3a a8 e9 9b 3c 16 a7 b5 bb 28 83 2b bb
       0.0013949428 0.019032314 -0.0055436 -0.0026170705
0000e0 a9 54 e5 3b 9d 91 51 3c c3 4f 00 3c b0 b5 12 3b
       0.0069986177 0.012791065 0.007831517 0.0022386126
0000f0 29 a6 80 bb 33 8a 9a 3b 50 ef 02 3c 65 e5 46 3c
       -0.003926058 0.0047161817 0.007991627 0.012139653
000100 1b 82 99 3b 31 ff b2 3c fa 33 94 3b cf 50 c0 3c
       0.0046846992 0.0218502 0.0045227977 0.023476033
000110 05 84 57 3c 13 45 3d 3c 8a 01 63 3a 66 c0 09 b7
       0.0131540345 0.011552113 0.0008659592 -8.210633e-06
000120 8b e4 87 3c 06 67 60 3c 1b 73 03 3b 22 9e b4 3c
       0.01658847 0.013696438 0.0020057622 0.02204806
000130 3e e4 41 3c a2 5f 59 3b 5b ba 11 3c 01 ec 8a bc
       0.011834202 0.0033168574 0.008894528 -0.016958239
000140 2a a0 09 bc 55 04 52 3c 5a 52 78 3c f5 77 83 bb
       -0.0084000025 0.012818416 0.015156353 -0.0040121027
000150 a6 6c 80 3c fd 4e 93 3b ad 14 80 3b 02 ca 02 bc
       0.015676808 0.0044955 0.0039087147 -0.007982733
000160 99 a0 47 3c 92 02 52 3c 35 98 42 3c 46 86 6c 3b
       0.012184286 0.012817996 0.011877109 0.0036090775
000170 f7 91 21 3c 44 4c 18 bc 5c e9 7a 3c d0 3b 45 3c
       0.009861461 -0.009295527 0.015314426 0.012038186
000180 0e 7a 25 bc fb 40 f6 3b 0e ff 65 3b 2f 1e de 3b
       -0.010099901 0.0075150705 0.0035094651 0.0067785005
000190 a5 1e 83 bb 31 74 95 3c 1e d2 26 3c 04 26 78 3c
       -0.004001456 0.018243881 0.010181932 0.015145782
0001a0 e5 24 d1 3b 08 42 f0 3b ae 24 17 bc bd d6 ea 3c
       0.006382572 0.0073320903 -0.009225054 0.028666848
0001b0 45 58 dd 3b 66 2f ef 3b f5 65 84 ba 37 54 96 bb
       0.0067549073 0.0072993515 -0.0010101186 -0.004587676
0001c0 0d d1 aa 39 97 a5 61 bc 2a 5e 01 bc df 1c 94 3b
       0.00032580682 -0.01377239 -0.007895986 0.0045200433
0001d0 c6 93 97 3b ef 72 f0 3b b1 d0 01 3b 88 54 d1 3b
       0.0046257703 0.00733792 0.0019808228 0.0063882507
0001e0 e7 de fb bb 6f 34 44 bb 66 32 35 3b e2 55 af bb
       -0.007686484 -0.002993848 0.0027648448 -0.005350814
0001f0 f5 33 21 3c e9 55 b7 3b 95 f0 9a 3a c9 59 38 3c
       0.009839048 0.005594958 0.0011820967 0.011251875

blocks.0.bn.weight f4 [64]
000000 5f d8 83 3f e3 c5 82 3f 95 78 81 3f 28 8a 7b 3f
       1.0300406 1.021664 1.0114924 0.98257685
000010 84 f2 81 3f 94 17 82 3f d0 00 81 3f 9e 10 80 3f
       1.0152135 1.0163445 1.0078373 1.0005071
000020 34 d9 81 3f 84 ea 80 3f ed 64 7f 3f cd 9e 7d 3f
       1.014441 1.0071568 0.99763376 0.99070436
000030 a3 d1 81 3f e2 0f 7c 3f ce ec 81 3f 0f 0c 81 3f
       1.0142101 0.98461735 1.0150392 1.0081805
000040 2c ff 82 3f 88 49 81 3f f2 06 83 3f 31 42 81 3f
       1.0234122 1.0100565 1.0236495 1.0098325
000050 23 4f 7f 3f 5b b7 80 3f 06 48 7f 3f ce 3d 81 3f
       0.9973013 1.0055956 0.99719274 1.0096986
000060 60 17 82 3f ee 22 7b 3f 08 51 84 3f 41 fc 7d 3f
       1.0163383 0.98100173 1.0337229 0.99213034
000070 75 92 7d 3f 34 9d 80 3f b1 f5 7c 3f a4 06 80 3f
       0.990516 1.0047975 0.98812395 1.0002027
000080 0a 3f 7b 3f 7b 2d 80 3f 69 d7 80 3f 21 ec 81 3f
       0.98143065 1.001388 1.0065738 1.0150186
000090 3b 33 80 3f 03 e0 7e 3f 01 fe 81 3f ab d5 7c 3f
       1.0015634 0.99560565 1.0155641 0.9876353
0000a0 87 19 7f 3f 6b 79 78 3f 18 6e 78 3f a8 36 80 3f
       0.99648327 0.9706027 0.9704299 1.001668
0000b0 4d 99 80 3f b8 1c 82 3f 62 27 80 3f 9e 95 81 3f
       1.0046784 1.0165014 1.0012019 1.0123785
0000c0 3e 32 7d 3f de 0d 7f 3f cb 7e 85 3f 42 7b 82 3f
       0.9890479 0.99630535 1.0429319 1.0193865
0000d0 eb d4 80 3f c5 48 81 3f 6e 31 81 3f 70 0a 80 3f
       1.0064977 1.0100332 1.009321 1.0003185
0000e0 62 83 7d 3f 70 34 80 3f d8 ad 7f 3f 00 94 81 3f
       0.990286 1.0016003 0.9987464 1.0123291
0000f0 84 42 80 3f 97 de 7d 3f 8d 90 81 3f 1e b1 7f 3f
       1.0020299 0.9916777 1.0122238 0.99879634
