TGNN2026/artifacts_MTGNN1m_heads&util/fold_04_weights.pt (torch, 802527 bytes, 83 tensors)

A_static f4 [3, 3]
000000 ab aa aa 3e ab aa aa 3e ab aa aa 3e ab aa aa 3e
       0.33333334 0.33333334 0.33333334 0.33333334
000010 ab aa aa 3e ab aa aa 3e ab aa aa 3e ab aa aa 3e
       0.33333334 0.33333334 0.33333334 0.33333334
000020 ab aa aa 3e
       0.33333334

in_proj.weight f4 [64, 15]
000000 39 c3 9f 3d 81 44 6c bb fe d6 99 3d b0 b0 80 3d
       0.07800908 -0.0036051574 0.0751171 0.062837005
000010 16 0c 74 be c1 d6 94 bd 15 2b 6d 3c 20 c0 85 3e
       -0.23832735 -0.072675236 0.014475604 0.26123142
000020 f9 f8 c0 bd 96 c3 be bd d3 71 8c 3e 23 80 54 bd
       -0.09422488 -0.09314649 0.2743059 -0.051880013
000030 36 39 89 be 1e bd 53 be 8a c4 3b be 1f 59 a3 3c
       -0.2680146 -0.20677611 -0.18336692 0.019939957
000040 4c b7 84 3d 81 7c cf bc a5 82 bf 3d 72 bc 66 3e
       0.064802736 -0.025327923 0.0935109 0.22532824
000050 51 4e fc 3b 70 cf 5a be 01 f4 c1 3d 41 75 8e 3e
       0.0076997657 -0.21368194 0.09470368 0.27823833
000060 ee ed 53 3d 1c 23 3b be 3b 93 8e bd e1 6a 36 3e
       0.05174058 -0.18275112 -0.06961676 0.17814209
000070 13 32 74 3e 32 25 f1 bc cb 35 d0 bd a2 97 d9 3d
       0.23847227 -0.029436681 -0.1016651 0.10624625
000080 71 d0 57 be 02 54 6f be d9 ae 87 3d 63 91 0a be
       -0.21075608 -0.2337189 0.066251464 -0.13532023
000090 6d fb 8f 3d 51 c2 89 3e bd b5 a7 bd 91 83 a9 3b
       0.070303775 0.26906064 -0.08188961 0.0051731546
0000a0 7f 03 af bd 19 4f 12 3d 4a b1 a1 bb 83 1d 74 bd
       -0.08545589 0.035719965 -0.0049344646 -0.059598457
0000b0 3e 13 0a 3e ed f1 3e 3e 7f 38 64 3e 57 50 51 3e
       0.13483903 0.18646975 0.22287177 0.20440803
0000c0 3f f4 94 bd b2 d2 ce 3c 5c 19 14 3e 1e bb 2b be
       -0.07273149 0.025246952 0.14462799 -0.16770598
0000d0 d1 bc 69 be de 68 bb bc 75 60 b8 bd 8c d3 30 be
       -0.22825934 -0.022877153 -0.09002773 -0.17268199
0000e0 51 ad 83 3e f5 60 71 bc 1b 37 16 3d b5 8a 65 bd
       0.25718167 -0.014732589 0.036673646 -0.056040484
0000f0 3e b8 76 be c4 0c 57 bb df 4d 8c 3e ae a2 1d be
       -0.2409372 -0.0032814005 0.2740316 -0.15394089
000100 21 1b 80 3d d4 dd dc bd ca ca fe bc 46 2a 78 be
       0.062551744 -0.10784498 -0.031102557 -0.24234876
000110 3d de 90 bd a0 40 19 bd 7e 43 28 be 82 fa 6c be
       -0.070736386 -0.037415147 -0.16431996 -0.23142436
000120 e6 db 0a 3e ec 83 d0 3c f3 e8 24 3e 52 79 83 be
       0.13560447 0.02545353 0.16104488 -0.25678498
000130 18 13 8c be 1a 66 35 3e c0 e5 1d bd 83 6c 83 3e
       -0.27358317 0.1771473 -0.038549185 0.25668725
000140 e3 8a 36 be 9d 28 e9 bd 4b a4 60 be 2f da 04 3d
       -0.17826419 -0.113846995 -0.21937673 0.03243464
000150 d8 ea 0c be 81 0b 71 3c 78 e4 96 3d ee 6e 09 3e
       -0.13761461 0.014712215 0.07367796 0.13421223
000160 cd c3 12 be 96 dc 87 3e 50 ff ff bd 30 c6 be bd
       -0.14332505 0.2653548 -0.12499869 -0.09315145
000170 30 02 60 be ef 1b 0d bc f9 d2 2e 3c e2 52 0d bd
       -0.21875834 -0.008612617 0.010670417 -0.03450287
000180 d4 29 71 be 52 1d 69 bc b5 54 c1 3d 63 56 87 3e
       -0.23551112 -0.014228182 0.09439985 0.26433095
000190 5f 50 68 3e 73 56 af 3d 65 97 f2 bc c7 d4 61 3e
       0.22686909 0.08561411 -0.029613206 0.22053824
0001a0 35 29 aa 3b c6 f0 3e be f2 9e 2e 3e 1c e5 f5 bd
       0.0051929005 -0.18646535 0.1705282 -0.1200659
0001b0 06 66 c1 bd c8 a6 3f be d7 20 06 be 96 47 0e bd
       -0.094432876 -0.18715966 -0.13098465 -0.03473624
0001c0 31 57 73 bc 0b 92 a5 3d a7 59 2d bd 1b 29 45 be
       -0.014852331 0.08084496 -0.042321827 -0.19253962
0001d0 b1 4d d6 bc 4d 43 00 3e d2 18 5f 3e dc 98 08 be
       -0.026160093 0.12525673 0.21786812 -0.13339561
0001e0 e9 55 9f bd 9b 45 33 bd b4 97 83 be b0 11 74 be
       -0.07780058 -0.043767553 -0.25701678 -0.23834872
0001f0 ee 2c d3 bd b7 f4 fa bc d7 5a af 3c 03 10 68 3e
       -0.10311304 -0.030634267 0.02140562 0.22662358
000200 80 9f 81 be 2a b4 89 be b4 0e e8 3c 76 59 1b 3e
       -0.25317 -0.26895267 0.028327323 0.15170845
000210 c1 1e 86 3e 60 d5 37 3e 8a 67 6e 3e 2c 62 fc 3d
       0.26195338 0.1795249 0.23281685 0.12323412
000220 6d cc 4a bd 47 7f 51 3e 36 0d 58 3e 97 cc 71 3e
       -0.049511362 0.20458709 0.2109879 0.23613201
000230 e0 a8 88 bd bb e8 3f 3e fd 21 4d be 15 13 55 be
       -0.06672835 0.18741123 -0.20032497 -0.2080806
000240 dd e4 30 bd 19 7b af 3d 8e d2 88 3e 95 02 25 3e
       -0.04318701 0.08568401 0.2672314 0.16114266
000250 ed 7f f2 3d c6 44 37 be dc 9f 1e be 9e c7 7e 3d
       0.11840806 -0.17897329 -0.15490669 0.06220209
000260 ad 29 e8 3d 2d b3 d3 bd 7e d9 11 bd 46 3c 86 be
       0.11336074 -0.103369094 -0.035607807 -0.2621786
000270 93 ee c2 3d 6e 60 2e 3d 0c 4a d1 bd 23 62 44 3b
       0.09518161 0.04257243 -0.102192014 0.002996572
000280 18 5c 10 be dc 37 d5 bd 0b 65 35 be 7d d2 b6 3d
       -0.14097631 -0.10411045 -0.17714326 0.08926866
000290 3a 5d 11 bd 35 80 a6 3c ca 01 89 be 85 ca 8b 3d
       -0.0354893 0.020324806 -0.26759177 0.06825737
0002a0 18 e4 45 3e bf 3a b9 3d 36 d4 d1 3d c0 41 53 bd
       0.19325292 0.09044408 0.10245554 -0.051576376
0002b0 75 51 fe 3a f8 af c1 bd 7b 7c 6a bc 69 3e b3 bc
       0.0019402938 -0.094573915 -0.014311905 -0.021880345
0002c0 78 e2 4a 3e 50 88 9f 3d d4 e8 ba bd 57 76 d0 bd
       0.19812953 0.077896714 -0.0912644 -0.101788215
0002d0 54 15 d5 bd 1c 92 2a bd 94 54 2f 3e 01 d2 44 3e
       -0.10404459 -0.041643247 0.17122108 0.19220735
0002e0 f3 a5 bb 3d 6c 6d 10 bd 20 51 0d 3e 94 ba 3b 3d
       0.09162512 -0.035260603 0.13800478 0.04583223
0002f0 44 60 0b be 6b 59 81 3c bd a6 8b 3e 7a 67 ee bc
       -0.13610941 0.015789708 0.2727565 -0.029102076
000300 6b d7 07 3c e8 93 86 3e e8 fc 87 be 96 64 50 3d
       0.008291106 0.2628472 -0.2656014 0.050877176
000310 dc 48 41 be bf 54 a0 bd 6a 52 ee bd 87 70 b7 bc
       -0.1887545 -0.07828664 -0.11636813 -0.022392524
000320 0c 64 a7 3c 82 8a be bd fb ba 84 3e c2 94 34 bd
       0.020433448 -0.09303762 0.25923905 -0.04408718
000330 f5 2c 3d 3e cf 3d 14 be 28 e2 86 be c8 b5 7d be
       0.18474181 -0.14476703 -0.2634442 -0.24776375
000340 08 af 2a 3e 13 5e 20 bd f0 47 8d 3e 7d 2d 18 3e
       0.16668332 -0.039152216 0.27593946 0.14861102
000350 c6 66 42 3e 0a a7 45 3e 69 27 e1 3d fc d9 5a be
       0.18984517 0.19302002 0.10993845 -0.21372217
000360 c7 17 5d bd c1 2f 03 be 26 9f 47 3d 06 3b 7a 3e
       -0.053977754 -0.12811185 0.04873576 0.24436578
000370 19 64 e5 3c c7 37 61 be 6f b4 88 bd 8d a1 7f 3e
       0.028001832 -0.21993934 -0.0667504 0.2496397
000380 30 f3 c0 3d 26 80 0a 3e 0a 18 8d 3e 30 c0 bb bd
       0.09421384 0.13525447 0.27557403 -0.09167516
000390 4b 8b ca bd 3e 3b 5e 3e 02 7d 50 be d6 1f 2a 3e
       -0.09889849 0.21702287 -0.20360187 0.16613707
0003a0 ce b4 79 be 16 9d 89 be 0e 2e 2a 3d 1d 60 f8 3d
       -0.24385378 -0.2687766 0.041547827 0.12127707
0003b0 7a e5 89 3e b8 5c b6 bc a8 5d 15 be 03 91 a1 bd
       0.2693289 -0.022261009 -0.14586508 -0.07888987
0003c0 a9 a4 59 3e 7e d8 52 be fd c4 8b 3e c9 7c 3b 3e
       0.21254219 -0.20590398 0.27298728 0.1830932
0003d0 3b 90 41 3e 29 61 44 3e dd 97 80 3e ff e5 42 be
       0.18902676 0.19177689 0.25115862 -0.19033049
0003e0 7d b4 2d be c4 d5 0e 3e 2d a7 5a 3e d6 74 2b be
       -0.16963382 0.13948733 0.21352835 -0.16743788
0003f0 d2 2c 84 bd 9c 9c 45 bd d8 6e 3f bc a1 12 8b be
       -0.06453861 -0.048245057 -0.011684142 -0.2716265

in_proj.bias f4 [64]
000000 44 05 a1 ba 76 63 21 bb bd 87 d4 3b 71 c4 42 ba
       -0.0012284894 -0.0024625934 0.006485908 -0.0007429785
000010 c4 86 7a 3b f0 28 33 3b 5e 8d 18 3c 0f f4 f3 bb
       0.00382273 0.0027337633 0.009311048 -0.0074448655
000020 f0 5f d9 3a 5a ee 5e 3a 00 ea 26 3b 2a 92 44 bb
       0.0016584378 0.0008504145 0.0025469065 -0.0029994347
000030 b3 97 ac b9 54 78 d3 ba ee 74 6e 3a 06 69 4b 3a
       -0.0003291942 -0.0016133883 0.00090964034 0.0007759485
000040 40 91 b0 3a 65 5d 54 3a 6b 1e 38 3b b9 2d bd 3a
       0.0013471022 0.0008101075 0.0028094302 0.0014433182
000050 2c 71 ad 3b d0 b7 89 ba 8c 0a 98 bb 11 ec 09 bb
       0.005293032 -0.0010507051 -0.004639929 -0.0021045248
000060 6d 54 dd 3a ee 9b 32 3b 00 5a a3 35 7f f2 29 ba
       0.0016886123 0.0027253586 1.217064e-06 -0.0006482973
000070 e4 0f f5 3a e4 23 99 bb 6a ce ca 39 be 87 03 ba
       0.0018696752 -0.004673468 0.00038682233 -0.00050174806
000080 e4 be 7d 3b dd c7 81 3a b9 d1 87 bb 1d ba 25 3b
       0.0038718516 0.0009901483 -0.004144874 0.0025287934
000090 6e 30 0d 3a 64 52 c9 3b 52 60 24 bc 4e 97 d9 3a
       0.000538594 0.006143855 -0.01003273 0.0016600878
0000a0 69 36 59 ba 71 c9 9a 3b 21 0e f4 3b 89 82 8e bb
       -0.0008286001 0.0047237207 0.0074479734 -0.004349057
0000b0 b2 e9 32 ba 4a 9a 36 bb 87 9d 69 3b 52 05 94 3b
       -0.00068249844 -0.002786296 0.0035646872 0.004517236
0000c0 b8 c3 02 bc 10 0d df ba c5 0c 8b ba 90 bc 1e 3a
       -0.007981233 -0.0017017443 -0.0010608664 0.00060553197
0000d0 31 94 fb 3b c8 8e c0 bb 5a 52 2f bc 68 8e 6b ba
       0.007677578 -0.005876396 -0.0107007865 -0.0008985759
0000e0 fd ae 1d bb 50 04 49 b9 8d 94 1d bc 38 a1 f0 bb
       -0.00240606 -0.0001917046 -0.009617937 -0.0073434375
0000f0 00 39 32 ba de 1d b0 ba fa 7b f8 ba 88 56 e6 ba
       -0.0006798655 -0.0013436635 -0.0018957846 -0.0017573396

adapt.E1 f4 [3, 8]
000000 de ce 9f bb c0 63 07 bc 4d 41 22 3c d1 69 b2 3b
       -0.0048769554 -0.008263528 0.009903264 0.005444743
000010 bd f5 60 bb 12 f1 fb 3b 1f bc 76 bb 40 ad 94 3b
       -0.003432616 0.00768865 -0.003764875 0.0045372546
000020 2c 9d 89 bc d8 40 86 bc 55 a2 57 3c c5 e0 15 bd
       -0.016798578 -0.016388342 0.013161262 -0.03659131
000030 31 8b d6 bb 5b 89 f6 3c 42 91 d1 bc ae a0 c4 bc
       -0.0065473546 0.030094793 -0.02558196 -0.0240024
000040 5c d1 e9 bb c1 09 eb bb 98 15 b6 3b 71 7b fb bc
       -0.0071355533 -0.0071727936 0.0055567734 -0.03069851
000050 32 f3 b5 bc 17 26 de 3c eb 2f 4d bc 31 12 b1 bb
       -0.022210691 0.027117772 -0.012523632 -0.00540378

adapt.E2 f4 [3, 8]
000000 3f 4e 5f ba 0b dc 8c bc 59 ea 02 3c c1 f2 0d bb
       -0.00085184345 -0.017194768 0.007990443 -0.0021659585
000010 05 03 5c 3b 28 68 9e bb 1c 9e 3c 3c 6d e1 aa 3b
       0.0033571136 -0.0048341937 0.011512306 0.005214861
000020 33 94 8e 3b ac fc 9d bb 79 1e 61 3b bc b1 b8 bb
       0.004351163 -0.0048213806 0.0034350439 -0.005636422
000030 52 e7 18 3c 61 f4 2c bc a9 96 10 bb fe 7c b2 3a
       0.009332495 -0.010556311 -0.0022062457 0.0013617573
000040 e1 4f 0f bc 47 7c 6c bc 08 ce 17 3c 9c 9a e1 bc
       -0.008747072 -0.014433927 0.00926543 -0.027539544
000050 b5 0b 4c bc 14 2a 8d 3c 87 6d f1 bc f0 28 e1 bc
       -0.012453963 0.017231978 -0.029471172 -0.02748534

support_mix.w_logits f4 [3]
000000 20 a3 05 3a c0 0f 10 ba e2 78 1a 3a
       0.0005097855 -0.0005495511 0.0005892647

blocks.0.filter_conv.conv.weight f4 [64, 64, 1, 2]
000000 92 23 f0 3d aa cd 57 3d e1 99 bc bd f5 7a b0 bd
       0.117255345 0.05268637 -0.092090376 -0.08617202
000010 08 0a 14 3e 3e 8f e8 3c 8a d5 3b 3c 0c 96 cc 3c
       0.14456952 0.028388616 0.011464486 0.024973892
000020 91 43 19 3e 43 21 10 be 8f 13 f0 bd a5 e4 dc 3d
       0.14967181 -0.14075188 -0.117224805 0.10785798
000030 71 06 b0 3d be e2 1d 3e 50 b4 e9 bd 39 49 9b bd
       0.085949786 0.15418527 -0.11411345 -0.075823255
000040 8a a7 ce bd de 30 d3 3c 5b 2b ef 3d b9 27 14 3c
       -0.10090549 0.025780138 0.11678191 0.009042674
000050 08 bb 30 3d 92 20 d7 bd df 81 fb bd 0e 2a c5 3d
       0.043147117 -0.10504259 -0.1228063 0.09627162
000060 c7 3d a2 bd 9b a7 f4 3d b4 49 dc bd ac 84 ff 3d
       -0.07921939 0.11946031 -0.10756245 0.12476477
000070 1b da c2 3c d4 26 4e bd 16 e7 06 3e 12 09 3d bc
       0.023785641 -0.050329998 0.1317409 -0.011537807
000080 77 74 56 3d 8c 60 76 3d 88 62 ea 3b 45 8e a1 3d
       0.052357163 0.060150668 0.007152859 0.07888464
000090 7c 5b 72 bd 9d 9e 2b 3d 64 e2 15 3c 9e 8c 11 3e
       -0.059169278 0.041899312 0.009148214 0.14213797
0000a0 cc be b2 bd 31 05 44 3d 5b 6b dc bd 5d 3e 4b 3d
       -0.08727798 0.047856513 -0.10762664 0.04962002
0000b0 c1 7b cc 3c 9b 24 9a 3d 93 b7 a1 3d fe 2e e4 3b
       0.024961354 0.07526513 0.07896342 0.0069636097
0000c0 8b 75 f0 3d 30 43 13 bd 9a f5 15 be b8 6d 9c 3b
       0.117411695 -0.035952747 -0.14644471 0.0047738217
0000d0 09 b3 d8 bd f1 9c 17 be 74 59 a8 3d a1 7c 09 3e
       -0.10581023 -0.14805962 0.08220187 0.13426448
0000e0 ec fa eb 3d df 12 ee bc 6d f0 84 bd a4 ec c9 bd
       0.11522469 -0.029061733 -0.0649117 -0.09859589
0000f0 f1 91 d7 3d 54 ce 7a 3d 54 28 db 3d 3a 3c 1e 3d
       0.10525883 0.061231926 0.10701051 0.038631655
000100 29 7d a3 bd 4b 8d 0a be 28 7b ab bb 52 a1 1a 3e
       -0.07982857 -0.13530461 -0.005233187 0.15100601
000110 96 cc e2 3d 19 f5 9c bd bb 62 0f be 82 ba 90 bd
       0.11074178 -0.07663936 -0.14002506 -0.070668235
000120 d0 79 c8 3d 92 94 92 bd ec 9c dd 3d 22 1f ab 3d
       0.09788859 -0.07157244 0.10820946 0.083555475
000130 99 12 07 be 4c 11 d8 bc ab c3 65 3d 96 20 19 bc
       -0.13190688 -0.026375435 0.056094807 -0.009346148
000140 a5 52 17 be 07 30 f8 bc 4b fc 06 be 6e 4e ec bc
       -0.1477762 -0.030296339 -0.1318218 -0.028845992
000150 cf b3 f7 bc 13 b8 67 bc a9 92 a3 3d 4d c5 e8 3d
       -0.030237107 -0.014143008 0.079869576 0.11365757
000160 75 d9 17 be 27 e0 c3 3d 73 26 1f bd a7 41 db bd
       -0.14829047 0.09564238 -0.038855027 -0.107058816
000170 6b 27 8c 3c 4b af 40 3d d7 dd 08 be 35 2f fd 3d
       0.01710864 0.047042172 -0.13365875 0.1236252
000180 de 56 bf bd bc 12 18 bd d6 f3 3d bd f1 79 fb bd
       -0.093427405 -0.03712724 -0.04637512 -0.12279118
000190 0c 4c 14 be ea 58 d9 bd db 70 ba bd a2 91 62 3d
       -0.14482135 -0.10612662 -0.09103557 0.055314668
0001a0 64 3c 12 3e 76 cc ca 3d da 47 02 be c5 86 a7 3d
       0.1428085 0.09902279 -0.12722722 0.08180002
0001b0 70 d8 03 bd 4a 3c d6 3d 9e 86 a4 3d 01 cb f4 bc
       -0.032188833 0.10460718 0.08033489 -0.029881956
0001c0 ad 70 f1 bd 39 ec 08 3e 3c 4a b8 3d 96 fc 6b bb
       -0.11789069 0.13371362 0.08998534 -0.0036008707
0001d0 2f fc 2d bd c1 67 60 bd b8 ee 1c be ec 17 d8 3d
       -0.04247683 -0.054786447 -0.15325439 0.10551438
0001e0 ad 65 25 bd 2e 9b 1c bd c7 71 63 bd 0e 30 15 be
       -0.04038017 -0.03823393 -0.05552843 -0.14569113
0001f0 34 44 e9 bd bc db 09 3d ee c5 57 3c b5 5d ce bd
       -0.11389962 0.03365682 0.013169749 -0.10076467
000200 01 86 14 bd 56 f6 c6 bc a6 4a bb 3d 19 6f 8b 3d
       -0.03626061 -0.024287384 0.091450974 0.068082996
000210 18 6a 8a 3d 47 8c 36 3c c8 52 4a bd 2c 3f 1a 3e
       0.06758517 0.011141843 -0.049395353 0.1506316
000220 a0 f9 ae 3b 80 36 9e 3d c1 a0 1d 3b b7 85 0f be
       0.005339816 0.07725239 0.0024052116 -0.14015852
000230 71 a7 98 3d d4 a8 ef 3d 31 4e 00 be 6a e0 b2 3d
       0.07453812 0.11702123 -0.12529828 0.0873421
000240 ee 21 3a bd 10 da 4c bd 22 97 fa bd c0 8e 97 3c
       -0.045442514 -0.050012648 -0.122358575 0.018500686
000250 59 50 07 bd 65 97 f3 bb 43 01 09 bd 2e 84 5e 3d
       -0.03303561 -0.007433819 -0.03344847 0.054325275
000260 ff a4 bd bd c4 76 b6 3b 79 e5 12 be d8 da b4 3d
       -0.09259986 0.005568357 -0.1434535 0.08830804
000270 bb 19 08 be 42 89 4d 3d 9b 95 c8 3c 3f 89 44 bb
       -0.13291065 0.050179727 0.0244854 -0.0029989032
000280 bf 88 b7 3c 7f e3 20 bd 35 85 8e 3d f0 d8 2f bd
       0.022404073 -0.039279457 0.06959001 -0.042931497
000290 cc c1 ac bc ff fa 6c 3d 4a 31 c2 bd b0 b8 7c bc
       -0.021088503 0.057856556 -0.094820574 -0.015424892
0002a0 5a 8f f3 3d 9c 7c 43 bd d4 17 fc 3d ed 1c 04 3e
       0.118925765 -0.04772626 0.12309232 0.1290166
0002b0 8e cb a7 bd 1d dc 21 bd 20 76 a9 3c fb 73 ca bd
       -0.08193122 -0.039516557 0.02068621 -0.09885403
0002c0 7f 4c be 3d fd 0d 02 3e d1 c1 1a be 86 5e 0f be
       0.09291934 0.12700649 -0.15112998 -0.14000902
0002d0 1b ae ba bc e3 20 f0 bd b3 57 9c 3d bc a7 b0 bd
       -0.022788098 -0.11725023 0.07633915 -0.08625743
0002e0 db ed 09 3e ea a3 84 bd 30 0d e9 bc 51 6b f0 3d
       0.13469641 -0.064765766 -0.028448671 0.11739219
0002f0 42 1c ba bd 8f b8 bd bd e1 2a a7 bd a3 1f 10 3d
       -0.09087421 -0.092637174 -0.081624754 0.03518642
000300 4a 65 b4 3d 5b a9 39 bd 6f 12 05 3e b5 f8 c9 3d
       0.08808382 -0.045327526 0.12995313 0.0986189
000310 82 8d ff bc 4a 91 b3 3c 25 d4 09 be 09 90 81 bb
       -0.031195406 0.021919865 -0.13459833 -0.003953938
000320 bc 60 03 be 64 74 00 3d bb 3a f0 3d c5 c4 aa bc
       -0.1282987 0.031361 0.11729952 -0.02084578
000330 3a 7d 34 bd 5f 22 3c bd 3e bb 67 3c 26 02 ba 3d
       -0.044064738 -0.045931216 0.014143763 0.09082441
000340 e1 4c 0b 3e f3 22 e3 bb b8 86 f1 bd c3 5f d2 bd
       0.13603546 -0.0069316565 -0.11793274 -0.10272171
000350 0e 22 9b 3d 7f 5e 55 3d c1 fa 41 bd c2 a5 ea 3d
       0.07574855 0.05209207 -0.04735828 0.11457397
000360 bc c3 ed b9 15 fe 1d bd e4 6c 11 be e4 3d a4 3a
       -0.00045349996 -0.03857239 -0.14201695 0.0012530652
000370 08 75 c8 bd e6 2e bc bd 24 b1 0c 3e 27 fe 54 3d
       -0.09787947 -0.09188633 0.13739449 0.05200019
000380 12 87 08 be a6 c1 28 bc 90 7e 01 3e 26 cf 78 bd
       -0.13332775 -0.010300076 0.12645936 -0.060744427
000390 bd bd b3 bd 23 d0 c2 bc 7c 82 f5 3c 23 53 93 3d
       -0.08776424 -0.023780888 0.029969446 0.071935914
0003a0 cc 3c b7 3c d2 a6 d0 3d 2c 87 b0 3c 91 0f cb 3d
       0.022367857 0.101880684 0.02154883 0.099150784
0003b0 c3 ae 78 bd 47 11 fb bc 58 c0 ba 3c 47 44 c9 3d
       -0.06071354 -0.030647887 0.022796795 0.09827476
0003c0 6a 78 19 be bd 08 d6 bd 95 cd 18 3e c2 9b 28 3d
       -0.1498734 -0.104508854 0.14922173 0.041164167
0003d0 c7 e6 2e bd 5c e3 0b be 5a de 1d be fa 76 d6 3d
       -0.042700555 -0.1366095 -0.15416852 0.10471912
0003e0 14 6c f1 3c 1c 45 1e bd 22 2e 14 3e 56 0f 1a 3e
       0.029470481 -0.038640127 0.14470723 0.15044913
0003f0 8c 26 dc 3d 16 db 4e 3d 14 8f 2a 3d 66 9f 8a bb
       0.1074954 0.050501905 0.041640356 -0.0042304276

blocks.0.filter_conv.conv.bias f4 [64]
000000 9e 25 8e 3b 52 b8 19 3c ac 8d b0 3b bc 37 9d 3a
       0.0043379804 0.009382324 0.0053879824 0.001199476
000010 63 54 23 3b ff b3 83 3b 6f 40 76 bb 44 fa 86 3b
       0.0024922125 0.00401926 -0.0037575027 0.0041191895
000020 a7 ef 25 3b 5f 4c b2 3a a9 64 c1 bb 96 19 d6 bb
       0.0025319846 0.0013603083 -0.005901892 -0.006533812
000030 43 31 ec 3b fc 55 70 3b db dd 5d 3b 47 6a e1 b9
       0.007208021 0.0036672344 0.003385416 -0.00042994527
000040 05 3a 17 3c 5b 0b bc bb af 4e 25 3a 68 bd 02 bb
       0.0092301415 -0.0057386584 0.0006305975 -0.001994932
000050 34 b1 55 bb 4f 73 61 3b 0c 65 c0 3a 02 70 51 3b
       -0.0032606842 0.0034401005 0.0014678552 0.003195763
000060 fd de 3d 3b bd ba 95 bb 1f ef 16 3b 50 86 b2 bb
       0.0028972023 -0.00456938 0.002303071 -0.00544814
000070 66 22 80 bb d5 8f 40 ba fe 4d a3 3b 8a 39 d7 3b
       -0.0039103506 -0.00073456514 0.0049836626 0.0065681385
000080 60 99 f4 38 13 96 81 bb 35 c9 d3 bb 62 13 3f 3a
       0.00011663395 -0.003954658 -0.0064631947 0.000728896
000090 99 59 86 bb 87 4a ce bb ef 9e 93 bb 6e 90 fc 3a
       -0.0041000363 -0.0062955054 -0.0045050303 0.0019269118
0000a0 7c 17 36 bb 1b 28 e5 ba 48 03 a8 3b fd 71 4a ba
       -0.0027784994 -0.0017483266 0.0051273443 -0.0007722674
0000b0 f1 f1 9e bb 2a fc f4 3b ba 2c 3b bb 84 fc 60 3b
       -0.004850619 0.0074763494 -0.0028560595 0.0034330199
0000c0 a3 c4 02 bb da b0 c1 ba 82 40 e3 3a f0 7e a4 3b
       -0.001995363 -0.0014777437 0.001733795 0.005020015
0000d0 da 25 80 3a 74 e6 9e b9 34 db 9a 3b 5d b2 80 3a
       0.0009776906 -0.0003030781 0.004725838 0.0009818781
0000e0 ba 4e d5 bb b7 43 d1 bb f0 27 35 3b ad aa c3 3a
       -0.006509629 -0.006386246 0.0027642213 0.0014928185
0000f0 cc 11 e1 3a 42 21 dc 3a b4 f2 f9 ba 49 e8 ed bb
       0.0017171442 0.001679458 -0.0019069524 -0.0072603566

blocks.0.gate_conv.conv.weight f4 [64, 64, 1, 2]
000000 8d c4 33 3d 28 a4 40 3d 7a 9c a1 3d 4f 3f ea 3c
       0.043888617 0.04703155 0.07891174 0.028594641
000010 c3 25 d0 3c 22 af 94 3d 6a 7d de 3d 3a 07 11 be
       0.025408631 0.072599664 0.108637646 -0.14162913
000020 b6 4d c4 3d 25 52 1b be df d9 4c bc a4 e5 96 bd
       0.09585135 -0.15168054 -0.012503116 -0.07368019
000030 2e ee 15 be c2 74 e7 3d f8 cc b0 3d 9b 55 86 3d
       -0.1464164 0.11301567 0.08632845 0.06559297
000040 9a 59 9b bd 5a 67 03 bc 11 1e 93 3d 83 3e 43 3d
       -0.075854495 -0.008020246 0.07183469 0.047667038
000050 53 a4 4e 3d da 18 cb 3d 7b 1f e7 bd 9f 9e f3 bd
       0.05044968 0.099168494 -0.11285301 -0.11895489
000060 25 34 1e 3e 91 30 fb 3d b7 81 01 3e 3c c8 dc 3d
       0.15449579 0.12265123 0.12647139 0.10780379
000070 0e d5 95 bd 4c 57 9b 3c 61 67 14 3e 6f fe 94 3d
       -0.073160276 0.018962525 0.14492561 0.07275092
000080 2f a5 c0 3d a1 a5 86 3d 09 5c 9c 3d 3f ff e4 bd
       0.09406506 0.0657456 0.07634742 -0.11181497
000090 ae ac c3 3c 78 cc 06 bb a2 ea ed bd ec e2 c6 bd
       0.023886051 -0.002056865 -0.11617018 -0.09711251
0000a0 f2 b3 9a 3d 09 7e 1a bc f8 db 16 3e 6f 8a e2 3d
       0.07553853 -0.009429463 0.14732349 0.1106156
0000b0 db 72 02 be f9 26 22 3d 3a ca dd 3d 4e a2 e1 3d
       -0.12739126 0.03958795 0.10829587 0.11017285
0000c0 a0 58 e1 bd fb 78 c9 bd 73 80 b1 bd c1 95 0e 3e
       -0.11003232 -0.09837528 -0.08667078 0.13924314
0000d0 8d 87 fa bd e4 42 dc bd 9a a1 00 3d b9 70 cf 3c
       -0.122328855 -0.10754946 0.031404115 0.025322305
0000e0 81 0c 04 be 26 32 65 39 42 47 83 3d 55 41 00 be
       -0.12895395 0.00021857824 0.06410076 -0.12524922
0000f0 1f ab d9 3d 3d 38 37 3d 9a 69 93 3d b1 5c 2e bd
       0.10628342 0.044731367 0.07197876 -0.042568866
000100 d4 45 0c 3e 47 05 97 bd 6b 54 2b 3d db 43 75 3d
       0.13698512 -0.073740534 0.041828554 0.059879165
000110 2d d8 0f 3e 7a bd 93 3d f9 f2 28 bc 25 4c 19 3d
       0.14047308 0.07213874 -0.010311835 0.037426133
000120 b2 77 64 bd 04 3c 49 bd b7 4f 0f 3e 2e dd 96 3d
       -0.055778213 -0.0491295 0.13995253 0.073664054
000130 d3 d3 58 bc e1 b4 b4 3c 88 60 17 3e f5 b3 49 bc
       -0.013234097 0.022058906 0.14782917 -0.0123109715
000140 96 46 14 3e 25 0b 17 be 19 f9 0c be 5a 03 62 3d
       0.14480051 -0.14750345 -0.13766898 0.055178978
000150 3c fc 6d 3c de 3d 0e 3e 71 e6 d6 3c c8 31 10 bb
       0.014525469 0.13890788 0.02623293 -0.0022002328
000160 0c e3 0f 3b ff ad 01 3e 75 59 08 be 39 40 af 3d
       0.00219554 0.1266403 -0.13315375 0.085571714
000170 ec da 5d 3d a7 03 b3 bd cc 6b 1d 3d 3a 27 b4 3d
       0.05416386 -0.08740931 0.03843288 0.087965444
000180 f8 dc 10 bd c7 37 dc bd 1b e9 cb bd e6 d0 70 3d
       -0.035366982 -0.10752826 -0.09956571 0.05879297
000190 fc e8 d6 bd e5 f4 b0 bc f9 d6 ed bd ef 9c ac 3b
       -0.10493657 -0.02160115 -0.116132684 0.0052677314
0001a0 47 11 b7 bd d6 27 6a bd e9 5c 8a 3d 0e 9f fe bd
       -0.08938842 -0.057166897 0.067560025 -0.12432681
0001b0 35 b9 bc 3d 0d 76 aa 3d 6b 5a 68 bd fe e0 88 3d
       0.09215013 0.08323298 -0.056726854 0.06683539
0001c0 50 d6 3c bd 18 b7 41 3d 5f ce 90 3d 91 c3 cb 3c
       -0.04610282 0.047293752 0.07070612 0.024873527
0001d0 72 94 8e 3d 91 a8 eb bd ca 28 47 bc 3d 08 04 be
       0.069619074 -0.11506761 -0.012155721 -0.12893768
0001e0 bb 16 15 be 1c 5c 94 3d b0 b9 e9 bb 7d 91 0d be
       -0.14559452 0.07244131 -0.0071327314 -0.1382503
0001f0 c0 68 16 be 43 e5 0e 3e c5 ae b4 3d a1 2f 14 be
       -0.14688396 0.13954644 0.08822397 -0.14471294
000200 fa b6 a3 3d 2c d5 d1 3d 78 ea 07 be cc b1 dd 3b
       0.079938844 0.102457374 -0.13273036 0.00676558
000210 d1 04 cb 3d d2 a7 cf 3c b6 40 56 bc 07 64 0c 3d
       0.09913028 0.025348578 -0.013076952 0.03427508
000220 9e ea 7e bd 8a df 68 3c 26 47 1e 3e 09 ec 75 bd
       -0.062235467 0.014213452 0.15456828 -0.060039554
000230 33 e5 45 bd e8 89 ac 3d 6b ee 49 bd 52 05 4b bd
       -0.048314285 0.08424741 -0.04929964 -0.04956562
000240 7d 5b b5 3c 57 fa 42 bd 11 72 0c be bf bf 00 3e
       0.022138352 -0.047602024 -0.13715388 0.12573145
000250 a0 74 a8 bd 46 94 ff 3d 86 19 f4 bd c3 45 e9 bc
       -0.082253695 0.12479453 -0.11918931 -0.028475648
000260 4f 40 e1 bd 13 98 84 bd d8 a3 58 bd c0 d5 89 bc
       -0.10998594 -0.06474318 -0.05289063 -0.016825557
000270 07 4e 92 3d 27 c7 cb bd 9d f2 f4 bd 85 2a e5 bb
       0.07143789 -0.09950095 -0.11960337 -0.006993594
000280 98 a7 b2 3d b0 60 c7 3d c7 33 39 bd 0f a1 ec 3a
       0.08723372 0.097352386 -0.045215394 0.001805337
000290 1f 20 48 3a 4b 75 e9 bc b3 11 09 3e 59 72 d1 3c
       0.0007634181 -0.028498312 0.13385658 0.02556722
0002a0 65 0d c0 3c 25 87 de 3d 69 83 0e 3e d7 06 03 3e
       0.023443887 0.108656205 0.13917316 0.12795578
0002b0 25 d5 58 b9 48 c1 18 3e a8 6e 28 bb 02 09 06 3e
       -0.00020678768 0.14917481 -0.0025700722 0.13089374
0002c0 c3 e9 ac bd e6 2e 10 bc 06 47 f4 bd a6 d3 d9 bd
       -0.08443024 -0.008800244 -0.11927609 -0.10636072
0002d0 18 12 d4 3d c5 26 d0 bc 3b 81 f7 3d b6 08 c1 3d
       0.103550136 -0.025409112 0.12085196 0.094254896
0002e0 11 c4 b7 bd d3 1b e0 3c 7a 6b 23 bd 8d a6 04 3d
       -0.089729436 0.027357018 -0.03989742 0.032385398
0002f0 cf e8 d9 bd e6 58 d5 3d a6 90 a0 bd fd b5 49 bd
       -0.10640108 0.10417347 -0.078400895 -0.049245823
000300 a8 b8 7f 3c c6 d3 0d 3d aa 8a 15 be 6e c1 c5 bd
       0.01560799 0.03462579 -0.14603677 -0.096560344
000310 3f 6a 01 be 31 ce 8d bc 54 92 cb 3c 61 e5 f5 3c
       -0.12638186 -0.017310234 0.024850048 0.030016603
000320 50 12 cf bd 6c f3 15 bc 84 25 1b 3d f4 a2 ee 3d
       -0.10110915 -0.009152275 0.037877575 0.116521746
000330 2d d5 8f bd 64 a0 78 bd 97 3e b3 bc b5 15 e1 3d
       -0.07023082 -0.060699835 -0.021880431 0.109904684
000340 64 a6 c8 3d d2 2e 5e bd 44 70 54 ba 3d fe fb 3d
       0.097973615 -0.05424387 -0.0008103887 0.123043515
000350 71 50 d2 bb 6f 1d 0d be 9b b6 dc bd da 27 52 bc
       -0.006418281 -0.1378076 -0.10777017 -0.012826884
000360 d5 b1 e9 bd 11 4f a3 3d a7 6e f3 bc 8b df 67 bd
       -0.11410872 0.07974065 -0.02971585 -0.05660967
000370 ed 15 d2 bc a3 f7 8b bd f6 82 db bc 61 79 1b 3e
       -0.02564522 -0.06834342 -0.026795845 0.15183021
000380 93 bb bc 3c 41 d2 d3 bd 67 ae e1 bd 5d 34 16 3e
       0.023038661 -0.10342837 -0.11019593 0.14668413
000390 d4 75 7b 3c e2 d0 30 3d e8 41 76 bd f2 09 d1 3d
       0.015347917 0.043167956 -0.060121447 0.10206975
0003a0 ab e2 c2 bd 1e a1 e8 3d 1f 5a 92 3d 75 18 89 bc
       -0.0951589 0.11358856 0.071460955 -0.016735295
0003b0 89 0c cb bd b3 49 73 3b e5 a8 9c bd 24 e8 0c be
       -0.099145 0.0037122786 -0.076494016 -0.1376043
0003c0 c0 0c 10 3d 81 ed 8c 3d 28 41 22 bd 12 1a 3f 3d
       0.03516841 0.06881238 -0.03961292 0.046655722
0003d0 0b 5d c2 3c 3d 36 04 be 02 18 f3 bc 03 14 a7 3c
       0.023726007 -0.12911315 -0.029674534 0.020395285
0003e0 42 18 cb bd f7 25 04 be 86 01 1f 3e 5b 34 06 be
       -0.09916736 -0.12905107 0.15527925 -0.1310591
0003f0 3e 3c 08 3e a8 1d 5e 3d 07 36 fe 3d b0 32 8b 3d
       0.1330423 0.0542275 0.12412649 0.06796777

blocks.0.gate_conv.conv.bias f4 [64]
000000 55 47 94 3b d9 6b 91 3b b1 35 ea 3a 52 dd ad 3b
       0.004525105 0.0044379053 0.0017868784 0.0053059245
000010 9e dc f8 3b cf 24 7b 3b 3a c6 88 3b 26 f0 08 3c
       0.007594659 0.00383215 0.004174021 0.008358037
000020 36 ab be bb e3 96 13 3b bc 46 2f bc 0c f7 8c bb
       -0.00581875 0.0022520355 -0.010698017 -0.004301911
000030 74 b1 10 bc 1a a0 26 3b 79 68 be ba dc 53 d4 3b
       -0.008831371 0.0025425018 -0.0014526985 0.0064797234
000040 ea 82 af 3a 63 fe ad 3b 24 51 1e bb 56 89 68 ba
       0.0013390456 0.0053098663 -0.002415725 -0.00088705623
000050 f1 2f ae bb fc a3 a9 38 97 19 64 bb b9 f5 81 3b
       -0.0053157737 8.0890924e-05 -0.0034805292 0.00396606
000060 d7 3a 8c 3b a4 78 0a 3c 14 ea b8 3a 04 d7 01 3a
       0.004279475 0.0084516145 0.0014107847 0.00049529993
000070 e0 fd 72 ba 13 bf b8 3b ea e9 64 3b ea 6f df 3b
       -0.00092693977 0.005638012 0.0034929463 0.006818761
000080 fe 64 7d 3b 55 6b 29 3c 80 64 6a bb 75 98 ab bb
       0.0038664932 0.010340531 -0.003576547 -0.00523668
000090 7f 97 a3 3b 32 47 d0 3b 3f a0 1c bc eb 04 19 3b
       0.004992425 0.0063561434 -0.00955969 0.0023348879
0000a0 b5 c3 34 3a 2f fa a1 3a 1f 2f 05 bb 78 1a af bb
       0.00068956177 0.0012357886 -0.0020322276 -0.0053437315
0000b0 fb 25 3d bb 66 2f a7 3b 60 ee 33 3c ae 67 14 bb
       -0.002886175 0.005102086 0.010982126 -0.0022644806
0000c0 64 1c fd 38 ce 04 8a b9 2f 3b cd b9 c6 83 03 bc
       0.00012069268 -0.0002632499 -0.00039144742 -0.008027023
0000d0 6f d4 9d 3a 5c ff 7c 3a 66 9e 31 3a 4c 8e 24 bc
       0.001204146 0.00096510886 0.00067756174 -0.010043692
0000e0 b4 86 0e 3c 28 ea a6 3a 20 08 77 39 62 4c 8e b9
       0.008699108 0.0012734579 0.00023558782 -0.0002714126
0000f0 34 cf 41 bb 29 47 d1 ba 9b 18 76 3b ba 77 0b bb
       -0.0029572966 -0.0015966642 0.0037551287 -0.002128108

blocks.0.residual_conv.weight f4 [64, 64, 1, 1]
000000 3d e5 41 be 60 ae 5e be d8 a4 da bd 3f 0e 21 be
       -0.18935104 -0.21746206 -0.10675973 -0.1572809
000010 b3 43 e0 3d bf b3 84 bd f1 19 b2 3d a9 f3 bc bd
       0.109504126 -0.06479596 0.08696354 -0.09226162
000020 c6 06 d8 bd 05 4b 1b bd 73 db db bc c9 99 9e 3d
       -0.10548167 -0.03791334 -0.02683804 0.07744176
000030 df 5a ef bd 74 4d 08 3c d7 41 9c bd cb 9e e2 3d
       -0.11687254 0.0083192475 -0.076297455 0.110654436
000040 a5 e9 2c be 54 d8 65 3d 85 50 16 3e 12 0b 9b 3d
       -0.16886003 0.05611451 0.14679153 0.07570471
000050 37 13 70 3d 86 2b f4 bc 63 8e f2 ba 9c 7b 9f 3d
       0.058612075 -0.02980591 -0.0018505569 0.077872485
000060 53 11 71 3d 63 0a 1d be b4 a8 93 bd 11 f8 51 bd
       0.058854412 -0.15335993 -0.07209912 -0.051261965
000070 8d 36 e6 3d 4d 7b 42 3e 8c b9 33 be 68 9d 18 3e
       0.112408735 0.18992348 -0.1755125 0.14903796
000080 09 d5 2b 3e 55 72 3b be cf 75 dd bd c2 6e 20 3e
       0.16780485 -0.18305333 -0.10813486 0.15667251
000090 c4 d7 d4 3d e9 19 40 3d fc 09 9e bc 75 58 87 bd
       0.103927165 0.04689971 -0.01929187 -0.06608669
0000a0 7c 4c 37 3e 17 b8 06 bd 62 29 0c bb ed 62 28 be
       0.1790027 -0.032890406 -0.002138697 -0.16443987
0000b0 fa 35 37 be 3d ce cd bd 54 59 25 3e 79 a7 41 3e
       -0.17891684 -0.100491025 0.16147357 0.18911542
0000c0 9a 2a 48 be 18 07 52 3e 0b 8d 7e 3d e9 24 dc bd
       -0.19547501 0.20510519 0.062146228 -0.107492276
0000d0 65 b6 04 be ab 75 eb bc 68 d0 88 bc 18 29 c7 3d
       -0.12960203 -0.028742632 -0.016700938 0.09724635
0000e0 54 ee 3c be c6 b4 16 3e 44 b3 14 3d 11 d9 20 3e
       -0.1845029 0.14717397 0.036303774 0.15707804
0000f0 35 dc 05 be 65 aa ac 3d 93 c4 41 be 95 39 34 3e
       -0.13072284 0.08430938 -0.18922643 0.17600091
000100 96 3c 1d be 7c 0b 49 3e ef 64 94 3d df b6 e5 bd
       -0.15355143 0.19633287 0.07245814 -0.112165205
000110 64 71 d9 3d c3 a0 1e 3d 18 f2 ad bd fd 11 f5 3c
       0.10617331 0.038727533 -0.08493441 0.029915804
000120 52 ff 2f be 0c 9a 40 3e a4 9b f2 3d 81 aa 43 3e
       -0.1718724 0.18808764 0.11846092 0.19108011
000130 d9 f9 23 bc 88 32 32 be 2f f7 4a 3e 31 13 f0 bd
       -0.010008299 -0.17402089 0.19820856 -0.117224105
000140 eb d1 12 3e c3 a5 2c be ab c2 15 be e8 f7 37 3e
       0.1433789 -0.16860108 -0.14625041 0.17965662
000150 21 d2 11 ba c4 dc cc 3d ca f4 5f bc 56 82 a3 3d
       -0.00055626227 0.10003045 -0.013669202 0.07983844
000160 19 f0 8b 3d 5c ed b8 3d d7 0b ba bd 19 ec 16 3e
       0.06832904 0.09029648 -0.090842895 0.14738502
000170 c8 8d 5f bd 63 b2 2c 3e c5 02 c3 bd 9e 1f e7 3c
       -0.054578573 0.16864924 -0.095220126 0.028213318
000180 e0 07 5a 3e 4a 1a 1e be 5e ae 30 3e 87 82 16 be
       0.21292067 -0.15439716 0.17254016 -0.1469823
000190 22 58 9e 3d 91 8c f9 bd 37 ca e8 3d 52 44 25 bd
       0.07731654 -0.12185014 0.113666944 -0.04034836
0001a0 54 59 ec 3d 85 e4 49 bd 71 49 bf 3d b9 9d 2b bc
       0.115404755 -0.0492902 0.0934018 -0.010474616
0001b0 b3 36 0a bd 2e 12 60 3d fa ed 60 3e 91 77 8f 3d
       -0.03374357 0.054704838 0.21965781 0.07005227
0001c0 af 0d c4 bd b0 44 25 be 5a ea c5 bd b7 e1 54 3e
       -0.095729224 -0.16139483 -0.0966384 0.20789228
0001d0 47 a6 c0 3d 60 cf 44 bc 3a 11 42 be b0 36 33 bd
       0.09406715 -0.012012333 -0.18951884 -0.043753326
0001e0 ac 1f 03 3e c1 71 57 3e 83 9e ea 3d 74 66 9c 3c
       0.1280505 0.21039487 0.11456015 0.019091822
0001f0 c0 69 f6 3d c3 15 2d 3d 74 7b 4e 3e 7b 15 4c 3d
       0.12031889 0.04225708 0.20164281 0.049825173
000200 77 8a a7 bd 54 45 4e 3c 38 94 6a bd bd 8a dd 3d
       -0.08180707 0.012589771 -0.05727026 0.10817478
000210 b3 a4 c6 bd 1f 92 8f 3d 1b a6 db 3d d8 40 0c 3d
       -0.09699383 0.07010292 0.107250415 0.034241527
000220 73 c4 96 3d 0a 3b 91 3c 52 af bf 3c a0 03 bd bc
       0.073616885 0.017728347 0.023399029 -0.023073018
000230 12 f5 34 3e 6a 89 17 be 7b 1a 53 be 4e c6 95 bd
       0.17671612 -0.14798513 -0.2061557 -0.07313214
000240 5f b5 70 3d 0b 53 06 be a4 23 cc bb 0b 26 61 3d
       0.05876672 -0.13117616 -0.0062298346 0.05496792
000250 f3 d2 df 3d 37 15 8f bd b1 b3 41 3e 6a 77 9a 3d
       0.10928907 -0.06986468 0.18916203 0.07542308
000260 53 96 49 3e fe 7d 5d be 62 26 04 be 88 8a 1f bd
       0.1968625 -0.21630093 -0.12905267 -0.038950473
000270 cf e4 d0 ba 8d a9 fc bc 4c ae 0e be 30 94 11 3e
       -0.0015937331 -0.030842567 -0.13933676 0.14216685
000280 da 4d a7 bd b0 e0 c0 bc 16 f5 97 bd bf 9a 0d be
       -0.08169146 -0.02354464 -0.07419793 -0.13828562
000290 74 1f 75 bd 4f 05 9e bd 07 ce 8d 3d 96 55 0a 3e
       -0.05984445 -0.07715856 0.06924062 0.13509211
0002a0 45 69 14 3c f9 9f 54 3d 8b f3 63 bd d9 8a ce 3d
       0.009058301 0.051910374 -0.055652183 0.10085077
0002b0 8c 3e 5c 3d b6 6a ea bd d4 a9 d1 3d c7 a9 d6 3d
       0.053770587 -0.11446135 0.1023747 0.10481601
0002c0 f1 35 a7 3d 71 29 d9 bb 9a 19 db bd d0 35 e9 bd
       0.081645854 -0.0066272547 -0.106982425 -0.11387217
0002d0 42 b7 e8 bc 84 3b 8e bd d4 ac 17 be 6e 29 01 3e
       -0.028407697 -0.069449455 -0.14812022 0.1261346
0002e0 51 03 49 3e d6 c8 9c bd 32 1b 9c bd 17 df 4c be
       0.19630171 -0.07655494 -0.076223746 -0.20006977
0002f0 fd f8 b6 3d 6c c8 50 3c 8d 90 dc bd 9f f1 94 bd
       0.089342095 0.012743097 -0.107697584 -0.07272648
000300 7e ff 1a 3e 88 bd 0e 3e f5 ad 53 be bb 2c 4f 3e
       0.15136525 0.13939488 -0.20671828 0.20231907
000310 b1 54 c3 3d 44 a2 ce 3b b3 86 3e be e3 38 17 be
       0.09537638 0.0063059647 -0.18606071 -0.14767794
000320 ca 0b 60 3e 02 f4 5b 3e 8b f7 3a 3e ac 40 81 3d
       0.21879497 0.214798 0.18258493 0.06311163
000330 ad c4 89 bd 0e 95 91 3b f8 19 d6 3b b0 aa 68 3d
       -0.06726966 0.0044428175 0.0065338574 0.056803405
000340 76 e1 80 bd 93 e7 33 3e 9c 0c f5 3d ab db 7e bd
       -0.06293003 0.17568807 0.11965296 -0.06222121
000350 14 c1 3b 3e be 7a 4f 3e 66 48 42 3e 0e a7 9e 3d
       0.18335372 0.20261666 0.1897293 0.07746707
000360 85 b3 62 3d b2 da 8c 39 20 3a 46 3c c3 34 aa bd
       0.055346984 0.00026865822 0.012098819 -0.08310845
000370 f6 0a b5 bc 13 43 23 3e 7b ad d0 bc ec 70 4a bc
       -0.022099953 0.15943556 -0.025473347 -0.012356024
000380 fb 02 92 bd cc ed 2e 3c f3 39 5a bd 90 4e 37 be
       -0.07129475 0.010676812 -0.05327792 -0.17901063
000390 1e a3 5b be d1 46 68 bd 4b ea be 3d 66 36 e0 3d
       -0.21448943 -0.05670816 0.093220316 0.10947876
0003a0 02 f6 fd bd ee b5 e1 3b f6 3e 0e be 3c be d9 bd
       -0.12400438 0.006888143 -0.13891205 -0.106319875
0003b0 d9 d9 0c 3e 71 25 1a 3e ce 9b d2 3b c8 46 cf bd
       0.13754977 0.15053345 0.006427265 -0.10120922
0003c0 b4 34 44 3e 42 ea e8 3d 35 ca 8c 3b 74 7a 23 be
       0.1916073 0.11372806 0.004296566 -0.15964681
0003d0 34 a3 a1 bd c9 36 61 bd e4 f5 bb 3d b0 10 b2 bd
       -0.07892457 -0.054983888 0.09177759 -0.08694589
0003e0 ce f7 53 3e 4e 57 23 3e ac 4a f0 3d e5 93 26 be
       0.20699999 0.15951273 0.117329925 -0.16267355
0003f0 3c 65 d7 3c 65 60 4d be c6 71 46 be 4f 6a 1d be
       0.02629339 -0.20056303 -0.19379339 -0.15372585

blocks.0.residual_conv.bias f4 [64]
000000 f4 fd 4b bb 87 16 18 3a 26 fa 1b 3b 96 2c 80 bb
       -0.003112671 0.00058016967 0.0023800223 -0.003911565
000010 0f e1 4d 3a 2f 86 86 bb c3 05 a6 bb 62 8f d4 bb
       0.0007853666 -0.0041053514 -0.005066605 -0.006486819
000020 1c 12 e2 bb c3 80 03 bb 91 86 9d bb 2b e9 ba 3b
       -0.0068991315 -0.0020065762 -0.0048073013 0.0057040653
000030 e0 9d ac bb 9e 46 27 3c 4c 1b 97 b9 4a 85 15 bb
       -0.0052678436 0.010209708 -0.00028821302 -0.0022815042
000040 65 a5 10 bc 59 24 d8 bb 4a d0 b7 bb cf 7f 6f 3c
       -0.008828496 -0.00659613 -0.005609547 0.014617874
000050 b8 2d 29 3a 44 2a f7 39 cb df b1 ba 47 ce c8 bb
       0.0006453651 0.00047143002 -0.0013570724 -0.006128106
000060 89 a6 63 ba 00 f1 eb bb 5a 99 79 3b 2d 63 34 bb
       -0.00086841785 -0.0072003603 0.003808579 -0.0027524934
000070 c5 0f 16 bc 41 a2 28 ba 53 f3 e2 bb 76 3a b2 3b
       -0.009159033 -0.0006432869 -0.006925979 0.005439098
000080 ab 87 92 bb 5d e1 1c 3b 34 06 03 bc 40 db 97 b8
       -0.0044717393 0.0023938038 -0.007997084 -7.2410796e-05
000090 f6 a1 48 38 85 92 97 3b 28 53 05 bc 32 50 ef 3a
       4.7834554e-05 0.004625621 -0.008137502 0.0018258153
0000a0 cb fc 7d ba aa ad 13 3b dc 17 4c 3b dc 5d bc ba
       -0.0009688853 0.0022533932 0.003114215 -0.0014371234
0000b0 a0 f6 d2 bb 88 e5 dd bb 17 9b 8c 3b f5 04 2b 3c
       -0.0064380914 -0.006771747 0.004290949 0.010438194
0000c0 6e 44 32 bb f9 63 bf bb 5f d8 7c 3b d4 af f3 3b
       -0.0027201432 -0.005840775 0.0038581116 0.007436732
0000d0 0a 08 1d bc 07 2d ce 3b 38 b5 81 bb 58 cb 37 3c
       -0.009584436 0.006291989 -0.0039583705 0.0112179145
0000e0 d2 48 33 bc bd b0 05 3c c1 12 79 3b f5 e5 33 bc
       -0.010942655 0.0081598135 0.0038005563 -0.010980119
0000f0 b4 bf 25 3c ce 34 a2 3a a5 88 ae 3a 5f be 6d bc
       0.010116506 0.0012375356 0.001331587 -0.01451072

blocks.0.skip_conv.weight f4 [128, 64, 1, 1]
000000 25 46 c4 bd 31 98 08 be 04 ae c6 3d 2a aa ac 3c
       -0.095836915 -0.13339306 0.097011596 0.021077234
000010 97 a7 78 bd 19 e1 78 3d 1e 5d a4 3d e1 06 48 3d
       -0.0607067 0.060761545 0.08025573 0.048834685
000020 d2 a6 fc bd c0 c7 e7 bd cc bb 01 be 05 ea d3 bc
       -0.12336506 -0.11317396 -0.12669295 -0.025868425
000030 85 33 6e 3d 08 f1 fc 3d ec 09 16 be 7b 74 9e bd
       0.0581546 0.123506606 -0.14652222 -0.07737061
000040 f1 f8 32 be f9 36 3a 3d b7 ea 2e be 33 94 e8 bd
       -0.17477776 0.045462582 -0.17081724 -0.11356392
000050 fc cf 35 bc 03 ee 1a be 42 70 e4 bc 35 fc b9 bd
       -0.011096951 -0.15129857 -0.02788556 -0.09081308
000060 01 9d bf 3c b3 85 1b be b8 e6 67 bd 32 50 2c bd
       0.023390295 -0.15187721 -0.056616515 -0.042068668
000070 cf 07 e1 bc c7 8f 02 3e 78 d2 0c 3e bc e9 63 3d
       -0.027469544 0.12750159 0.13752162 0.05564283
000080 f6 d3 31 3e 16 97 d4 3c 07 9d c9 bd 49 99 eb 3d
       0.17366013 0.02595095 -0.09844404 0.11503846
000090 17 3d 9d bd 36 b4 0a 3d 5b 71 0c 3e fd 33 0b be
       -0.076776676 0.03386327 0.13715117 -0.1359405
0000a0 db 23 e4 3d 8e f0 c3 3d 9b 13 9b 3d f8 d1 ed bd
       0.111396514 0.095673665 0.07572099 -0.11612314
0000b0 87 f7 51 3b fa c9 20 be 2a d6 13 3c 1d 28 1f 3e
       0.0032038407 -0.15702048 0.009023229 0.15542646
0000c0 32 cd 35 be 20 25 31 3e 6e 3c e3 ba c1 9f 1d 3e
       -0.17754057 0.17299318 -0.0017336735 0.15392973
0000d0 ee 6a 9f bd 42 3e 00 be 4f ac ee 3d 57 2e d2 bd
       -0.07784067 -0.1252375 0.11653959 -0.10262745
0000e0 dd ae c0 bd ef 60 dc bc 99 f9 86 3d 88 08 bb 3c
       -0.094083525 -0.02690169 0.06590576 0.022831216
0000f0 54 32 ab bd 4f ab e1 3d 4e b5 0f be 6e ad 82 3d
       -0.08359209 0.11019003 -0.14034006 0.06380735
000100 e5 10 c2 3c 29 c8 06 3d 95 ef a8 bd c5 ce 2d 3e
       0.023689697 0.03290573 -0.08248822 0.16973408
000110 97 d9 46 3d 67 5a 88 3d 77 dc 81 bd 9d 80 13 3e
       0.048547354 0.06657868 -0.063408785 0.14404531
000120 da 35 42 3d b1 c5 d9 bd 54 f1 18 3e 2e 82 db bd
       0.047414638 -0.1063341 0.1493581 -0.10718189
000130 b7 d9 9a 3b 46 99 31 be 64 d8 b1 3d 5a 1a 04 be
       0.0047256607 -0.17343625 0.08683851 -0.12900677
000140 8e 84 23 3e f1 75 c1 3d d8 a9 83 bc f7 e0 fe bd
       0.15968534 0.09446324 -0.016072199 -0.124452524
000150 39 31 af bd 52 d8 25 3c 72 f2 1a bd 55 83 a7 3d
       -0.0855431 0.010122376 -0.03782887 0.081793465
000160 c0 dd 48 3d 6a 05 18 3e 7f a2 5e 3b 65 1b 3e bd
       0.049039602 0.14845815 0.0033971367 -0.046412844
000170 fa b7 7b bd 04 43 a0 3d 94 9f f8 3c e4 59 00 3d
       -0.06145475 0.07825282 0.03034953 0.031335726
000180 a7 78 dc 3d 15 af 23 3d 15 6a a5 3d 73 8c b9 3d
       0.107652 0.039961893 0.08076874 0.09059992
000190 6e 0c c2 3d 06 42 43 3d ef d4 34 bd c3 da a1 3d
       0.09475027 0.047670387 -0.04414838 0.079030536
0001a0 ae 7a 22 bd 44 ed 24 be d5 97 0b 3e 26 27 12 3d
       -0.039667778 -0.16106135 0.13632138 0.035681866
0001b0 4f bd 23 3e 85 58 2a bc a4 25 b0 3d 7f f4 82 bd
       0.15990184 -0.010397081 0.086009294 -0.0639429
0001c0 33 00 26 3e 7c 6a 7c bd c8 ca c3 3d b2 80 13 3e
       0.16211013 -0.06162499 0.09560162 0.14404562
0001d0 32 38 1d 3e fe 64 b7 3c 69 9e 17 3e 65 65 e1 3d
       0.15353468 0.022387024 0.14806522 0.110056676
0001e0 c0 4f 96 3d 24 68 91 bd 03 55 c7 3d 2e 40 0d 3c
       0.0733943 -0.070999414 0.097330116 0.008621259
0001f0 38 1a f0 bd b9 68 1a bd 06 49 15 3e b8 5a aa 3d
       -0.11723751 -0.037697528 0.14578637 0.083180845
000200 3e ab e4 3c c1 93 ed 3d d7 0d a0 bd 53 f2 c8 3d
       0.027913686 0.116004474 -0.0781514 0.09811845
000210 6c e8 e5 3d 93 5e 39 3d 77 3f fe bd 35 e8 b4 bb
       0.112259716 0.04525621 -0.12414449 -0.0055208453
000220 45 4a b3 3d 78 aa b5 3d b0 6e ff bd ad 2b 5e 3d
       0.087544 0.08870405 -0.12472284 0.05424087
000230 88 07 86 3d 15 b8 4c bd 12 d9 2b 3e 0f 99 0c 3e
       0.06544405 -0.04998024 0.16782025 0.13730262
000240 f0 47 0e 3e 78 0f 26 3e 95 06 92 39 91 27 70 bc
       0.1389463 0.16216838 0.00027852194 -0.014657871
000250 4c 2b 17 3e 14 3c 4e bc 5c 35 2e be 93 a7 90 bd
       0.1476261 -0.012587566 -0.17012542 -0.07063212
000260 72 16 85 bb 0e 4f c0 bd a5 5c 2d bd 15 32 a5 bc
       -0.0040615136 -0.093900785 -0.04232468 -0.020165483
000270 d0 2c 2b be f7 d8 98 3d 2e 9c 37 3c 52 9e 55 bd
       -0.16716313 0.07463258 0.01120667 -0.05215294
000280 30 37 8b 3d d3 6e 38 be 98 ae 5b 3d db de 87 bc
       0.067976356 -0.18011026 0.053633302 -0.016585758
000290 45 0d 06 be 73 30 c9 bc eb d9 4e 3d 87 96 f6 ba
       -0.13091 -0.024559235 0.05050079 -0.0018813171
0002a0 64 e7 89 bd 85 bc 07 3e c6 b8 72 bd ff f9 a4 ba
       -0.067335874 0.13255508 -0.059258245 -0.0012586712
0002b0 a7 c2 d8 3d be 8d 0f be 58 1e af bd a3 e3 16 3e
       0.10584002 -0.14018914 -0.085507095 0.14735274
0002c0 6a 2b 31 bd 7d d8 28 be 51 1e dd bd 48 01 c7 bc
       -0.043254294 -0.16488834 -0.10796798 -0.024292603
0002d0 f2 9a bf 3d 1a 84 f9 bc 2c b7 ba 3d 93 68 fe 3c
       0.09355725 -0.030458499 0.091169685 0.031055724
0002e0 fa 29 ba bd 2f c3 30 be e5 6b fa 3d e4 a2 18 3c
       -0.09090038 -0.17261957 0.122276105 0.00931618
0002f0 9d 0b d4 3c 03 96 c3 3d a7 78 2e 3e 67 52 f9 3c
       0.025884444 0.09550097 0.17038213 0.0304348
000300 ff e2 3e bd 7f ea 9d bc 93 44 23 be 21 10 24 be
       -0.0466032 -0.019276856 -0.15944128 -0.16021778
000310 2f 50 2b bc 97 04 df bd a7 71 3c 3c 16 e6 7e bd
       -0.010456129 -0.10889547 0.011501706 -0.062231146
000320 99 81 fa bd cd 69 86 bd 93 97 a8 bd 0a c7 d4 bd
       -0.1223175 -0.06563149 -0.082320355 -0.10389526
000330 26 b4 b0 bd 5b 5a 83 bd 63 c6 20 be 8b 81 86 bb
       -0.086281106 -0.06413718 -0.15700679 -0.004104798
000340 a8 26 26 be be c4 d4 3d fd 58 62 bb 45 f5 1f be
       -0.16225684 0.10389088 -0.0034537904 -0.15620907
000350 4b 56 31 3e ea a4 4b bd 0d 1c f1 bd e6 55 26 be
       0.17318074 -0.04971782 -0.117729284 -0.16243705
000360 47 b7 9b bd 73 53 88 3c 8b 60 01 3e c5 f1 10 bd
       -0.07603317 0.016641354 0.12634484 -0.03538682
000370 7e ea 1e be d6 27 20 bd be b6 a6 bd a5 44 b6 bd
       -0.15519139 -0.03910049 -0.08140324 -0.08899812
000380 24 5d 33 be 9c 88 b4 bd ce 68 ba bd 0f 30 13 be
       -0.17515999 -0.08815119 -0.09102021 -0.14373802
000390 f5 6b 59 3d 8d 87 17 be e5 63 4a bd f0 db 7a bd
       0.05308147 -0.14797802 -0.049411673 -0.061244905
0003a0 61 7e f6 bc d2 df 83 3d 5c f2 19 3e c5 da a3 3d
       -0.030089559 0.06439175 0.15033859 0.08000711
0003b0 8d c6 be 3d 43 69 f6 3d 39 bf 89 bd 0f 54 c2 bd
       0.09315214 0.12031796 -0.06725926 -0.09488689
0003c0 e3 6e a3 3c 84 40 ee 3d da 04 12 be 10 d7 b9 bd
       0.019950336 0.11633399 -0.14259663 -0.09074223
0003d0 ed dd 69 bd c9 f6 e6 bd ac 0d 02 be 1e 8f 30 be
       -0.05709641 -0.11277539 -0.12700528 -0.17242095
0003e0 6f c9 96 3d 8b 33 f3 bb f6 ae ee 3d 78 67 1a 3d
       0.07362639 -0.007421916 0.11654465 0.03769633
0003f0 f5 df 95 bd f4 c0 47 3d 1f 6a 15 3e 7e 3a 8d bd
       -0.07318107 0.048768 0.14591263 -0.06895922

blocks.0.skip_conv.bias f4 [128]
000000 39 20 a3 3b 94 1e e3 3b f9 9d da 37 41 42 e9 3b
       0.0049782065 0.0069311354 2.6061187e-05 0.007118494
000010 3a 5d 17 bb c3 d6 14 ba 6d 25 80 3b 95 94 a8 3b
       -0.002309634 -0.0005677754 0.0039107115 0.0051446655
000020 46 6d 5b ba 45 38 22 3c b7 53 89 ba 7e 57 e8 ba
       -0.000837047 0.009901111 -0.001047722 -0.001772627
000030 ad 23 27 3c 35 d3 17 bc 37 a4 74 bb b2 d6 1d bb
       0.010201377 -0.009266664 -0.0037329325 -0.0024084267
000040 b6 f8 2b 3c 13 85 2d 3b ae 09 89 3b b9 32 9b ba
       0.010496309 0.0026477023 0.004182062 -0.0011840678
000050 dc c1 be 3b ad 21 5d ba 0a 28 4b ba fb 6f 69 bb
       0.0058214497 -0.0008435499 -0.0007749802 -0.0035619724
000060 a2 1d 3d 3b 85 36 ac 3b 21 24 00 3b 21 77 a5 3b
       0.0028856774 0.0052555227 0.0019552785 0.0050496017
000070 04 e2 96 bb ed d8 90 bb 0e 61 69 bb 01 62 19 3c
       -0.00460458 -0.004420391 -0.0035610828 0.009361745
000080 8e 7b 32 3b f1 fa aa bb 09 45 2d bb ff a2 62 b8
       0.002723429 -0.005217903 -0.0026438853 -5.40344e-05
000090 a4 6a 18 ba c7 c6 0d 3c 30 2c aa bb 5c f1 a3 3a
       -0.00058142305 0.008653349 -0.005193256 0.0012507844
0000a0 e2 71 6b ba 6a 71 81 bb ec b8 02 3c 54 54 a1 b9
       -0.00089815084 -0.0039502876 0.007978659 -0.00030771142
0000b0 f8 89 28 3c 7c 71 f7 3a 69 69 ce bb 3f ae 04 3c
       0.010286801 0.0018878425 -0.006299187 0.008098184
0000c0 63 e9 a9 bb 80 6a 5f 3c a9 5b f5 bb 96 a3 43 ba
       -0.0051852926 0.013636231 -0.0074877334 -0.0007463036
0000d0 94 78 8c 3a 3a 1c da 3b c3 28 15 3c 40 f1 05 3c
       0.0010717087 0.006656197 0.009103957 0.008175194
0000e0 f1 aa 50 3c 5f 26 25 3a 5b 62 32 bb 20 a1 b5 3b
       0.012736068 0.0006299968 -0.002721927 0.0055428892
0000f0 c5 2d 5d 3b b2 1e 3d 3b 1e cf 08 3c 60 ba 89 bb
       0.0033749205 0.0028857407 0.008350162 -0.004203126
000100 02 ea 96 3b 58 26 53 ba a0 95 30 3b 23 bd 23 3a
       0.0046055326 -0.0008054725 0.0026944652 0.000624614
000110 f3 c7 a4 38 41 00 27 3c 7c ca cf 3a eb a8 f1 ba
       7.857373e-05 0.010192932 0.0015853192 -0.0018437182
000120 1c e1 04 bb dc 8d 84 bb 6f 9d 0b ba 93 f9 95 3b
       -0.0020275777 -0.0040452313 -0.00053258886 0.0045768707
000130 aa 1e a4 3b cf e9 15 3b 16 92 a8 ba 3f 4e e1 3b
       0.0050085383 0.0022874956 -0.001286092 0.0068757827
000140 b9 f6 9b 3b dd 52 0b 3c 5d 03 32 3b 2c a3 8c 3b
       0.0047596362 0.008503643 0.002716265 0.0042919125
000150 f8 9b 20 3c 46 d8 bf ba 79 4f 2c 3c c3 99 36 bb
       0.009802811 -0.0014636598 0.010516995 -0.0027862645
000160 7f 05 85 ba df 05 57 3c 97 3c 1c ba 84 4d 64 b8
       -0.0010148733 0.013123958 -0.00059599563 -5.4431628e-05
000170 93 93 fc 3b f5 f1 07 3b 7a db 8a 3b b0 6a b5 ba
       0.007708022 0.0020743583 0.0042375894 -0.0013841
000180 70 9a 8b 3a 36 6d 8f ba 4e ea ec 39 d6 be 9a bb
       0.0010650884 -0.0010942582 0.00045187998 -0.0047224564
000190 27 e6 61 3b 39 05 3e 3b fb 44 0e b9 23 a0 a9 bb
       0.0034469457 0.0028994812 -0.00013567873 -0.0051765605
0001a0 4a cb 01 bb 71 23 bc ba 8a f0 0f 3c 4e ef 10 bb
       -0.0019805008 -0.0014353824 0.008785376 -0.0022115293
0001b0 9e e6 0d 3b 5f 65 ff 3a e3 ca 47 3b 5f d4 27 bb
       0.002165235 0.0019485167 0.003048592 -0.002560876
0001c0 16 1f c7 3a 1d 96 9c 3b cf ba 9d ba d7 b9 b1 3b
       0.001519176 0.004778637 -0.0012033823 0.005423765
0001d0 f9 15 1b bb 22 c5 1f 3c a3 da eb 3a 5b 53 c9 3b
       -0.002366422 0.00975159 0.0017994236 0.00614397
0001e0 60 fe 3a 3b ad 6f 5b 3b dc 2f b6 ba 85 00 04 3c
       0.0028532967 0.0033483312 -0.0013899761 0.0080567645
0001f0 df 99 96 3b fa ba 77 3b ee b9 aa bb c5 36 7d bb
       0.0045959796 0.0037800656 -0.005210153 -0.0038637382

blocks.0.bn.weight f4 [64]
000000 4e fd 80 3f 23 b3 80 3f f3 84 80 3f a8 db 7e 3f
       1.0077302 1.0054668 1.0040573 0.9955392
000010 71 63 7e 3f 65 87 7e 3f 01 01 80 3f 22 75 80 3f
       0.99370486 0.99425346 1.0000306 1.0035746
000020 ae a4 80 3f bc 22 80 3f 1c 13 81 3f bd 1a 80 3f
       1.0050256 1.00106 1.0083957 1.000816
000030 ab 0a 82 3f ef 61 7f 3f b0 37 80 3f b4 71 80 3f
       1.0159506 0.9975881 1.0016994 1.00347
000040 52 6e 80 3f ee 15 7e 3f a4 91 80 3f a5 06 80 3f
       1.0033667 0.9925221 1.0044446 1.0002028
000050 c1 fc 80 3f 00 f4 80 3f b9 6f 80 3f c9 f0 80 3f
       1.0077134 1.0074463 1.0034095 1.0073482
000060 f4 77 80 3f dd b2 7f 3f 18 bf 7e 3f 83 60 7e 3f
       1.0036607 0.998823 0.99510336 0.99366015
000070 ae df 7f 3f e3 5a 80 3f 28 ff 7e 3f bd 9d 7e 3f
       0.99950683 1.0027736 0.9960809 0.9945944
000080 82 5a 7d 3f f2 29 7f 3f 42 0a 81 3f 38 b3 7f 3f
       0.9896623 0.9967338 1.0081255 0.9988284
000090 37 62 7e 3f 1d b0 80 3f 94 e7 7d 3f 49 14 7f 3f
       0.99368614 1.0053746 0.99181485 0.9964033
0000a0 eb 34 81 3f ac c4 80 3f 72 a9 7e 3f 9e b7 80 3f
       1.0094274 1.006002 0.99477303 1.0056036
0000b0 d8 84 7e 3f d7 1c 80 3f 78 3a 80 3f da e5 80 3f
       0.99421453 1.0008801 1.0017843 1.0070145
0000c0 9f 2a 7e 3f 10 95 80 3f 8b 48 80 3f ac a4 7e 3f
       0.99283785 1.004549 1.0022138 0.9947002
0000d0 a7 41 7f 3f ee 94 80 3f fa 49 80 3f 5f fb 7f 3f
       0.9970955 1.004545 1.0022576 0.99992937
0000e0 d9 b0 80 3f 27 a0 80 3f 25 82 80 3f ea b2 7e 3f
       1.005397 1.0048875 1.0039717 0.9949175
0000f0 c0 6e 7d 3f b7 f9 7e 3f 91 b0 80 3f 42 47 7f 3f
       0.98997116 0.99599785 1.0053884 0.99718106
