TGNN2026/artifacts_MTGNN1m_heads&util/fold_02_weights.pt (torch, 802527 bytes, 83 tensors)

A_static f4 [3, 3]
00000000: abaa aa3e abaa aa3e abaa aa3e abaa aa3e
00000010: abaa aa3e abaa aa3e abaa aa3e abaa aa3e
00000020: abaa aa3e
0.33333334 0.33333334 0.33333334 0.33333334 0.33333334 0.33333334 0.33333334 0.33333334
0.33333334

in_proj.weight f4 [64, 15]
00000000: 419e aebd 394d 233e bade 843e 9641 4bbe
00000010: 9227 a9bd f988 6b3e c81b 3e3e 509f fc3d
00000020: da29 133c 032a f63d 769a e6bc ef39 31bc
00000030: 77f0 383e de70 39be 6e4e 26be 74f6 bcbd
00000040: 5cdc 7cbe 1763 963d 9fa9 333e 8448 40be
00000050: 0be7 77be efbd edbd b040 53be dd6b 20be
00000060: 9a1a f83d cbef 7abe 9e85 d63d fac6 5e39
00000070: 3342 4abe b428 d13d 502b 31bc 57bd 0d3e
00000080: f629 7e3d 9538 14bc b281 013e 90b2 01bd
00000090: 519c 35be 88e4 12be e02b 353c f439 dbbc
000000a0: 6fc0 87bd fcc9 d9bc 1c39 5b3e 05dc 353c
000000b0: 1b85 1fbe c440 833e fc2c 553d e862 903e
000000c0: 7a26 ea3d 63f2 7a3e 9314 b33c 3126 70be
000000d0: f0f2 8abd 1e9f cabd be75 763e e978 15be
000000e0: 21dd 233e 294c 813e fae8 fc3d f749 89be
000000f0: a5c4 863e 7627 c63d 2cc1 06be 40d5 12be
00000100: 5fc4 db3c c09d 373e 6fac 1fbe 97c1 bd3d
00000110: a6ab 453e 0e3e 3fbe a996 0f3e 81b2 4c3e
00000120: 03ba a8bd 059d 6ebe 8eca 1dbd 997b 54bd
00000130: a361 6bba bc0a 593e 324a ccbd 0731 69be
00000140: 809e ad3d e1cf e53c 9fd4 8c3e fccd 01bd
00000150: 075a c0bd 247d 6e3d 740e 763d 0204 6dbd
00000160: 68ea 2fbb 5709 803e b4c8 49bd 212d 54be
00000170: 2258 243e bc90 8c3e 3f65 26be fa38 bb3c
00000180: de32 00be 3c4a c23d f9a7 e13d f933 81bd
00000190: 0688 cabc 8620 3ebe cb0f 24be ff51 3b3e
000001a0: 2044 083d 8e12 8c3a 4af5 7cbd 5b7c 293e
000001b0: 4d1e 7c3e 7bb4 81bd e1a7 8abd 25c8 9d3b
000001c0: 7615 443e 15ae 343e c36b 1c3e 46be 66be
000001d0: ac6c 12be 63e5 3b3e e9cc 72be 5376 8bbd
000001e0: 00d2 39be 56af cabd 3bf6 d6bd 66b6 373b
000001f0: ad3b 3f3e fe07 3a3e fa8e a03d 130e e53d
00000200: 5a26 b93d fc0b fabd 4e11 84be db07 143e
00000210: 4779 883e 9061 483e 6c0b 723d bd67 663e
00000220: fd10 1ebe 9bfd 933d 9a47 93be fc7d 453c
00000230: 21db f23d 9c9c 523e 8adf 40be e487 fc3d
00000240: d05d e43d 1e1a 033d 04e4 963d c789 473d
00000250: 9d8a e63c 4a18 953d 703e cdbd 07ac 3b3e
00000260: 0c08 353b 8c8d 1d3d 03bb 873d e808 2e3e
00000270: 5ceb 593e ba4e 3cbe 929b cc3d 5a3c 963d
00000280: 6a25 0c3e c928 e8bd 06e3 853e 7e5e a23d
00000290: 0257 0a3e 8f84 44be 719a 65be afcf 7abd
000002a0: e7d2 253d 3bb4 56be b6ec 193e 811a 7a3e
000002b0: 62f9 05be 69d1 3e3e e793 2ebe 3efa 8cbe
000002c0: 738c 19bd 670b a33d 3d86 23be b2a8 043e
000002d0: e1ac 263e 6217 f83d 5f9b eabd ac88 73be
000002e0: 8b35 c3bc cae1 ab3d 2b36 6d3d 35c0 a3bd
000002f0: 2712 8bbe 2fb5 4f3c f39b 3dbe bf8c ab3d
00000300: 52db b03d 2cfe 853e 560e 653b 1e4f 343e
00000310: 23b9 253e 9629 aabd aa6b 453e 1fec 1b3d
00000320: 3ca4 313e dc75 883e deb3 423e 2c66 4b3e
00000330: 4064 81bc 2f21 3c3d ea41 e2bd 2988 953d
00000340: 42b8 80be 0e28 47bd 302e 843e 5478 293d
00000350: ff22 8fbd b541 f53c 86f5 ed3c 37ae 60be
00000360: 6c33 b13c cd4b 0cbd 7720 6cbe b0aa 923d
00000370: 7802 873e 9b08 12be 1434 7d3c f263 39be
00000380: bd79 c4bc 9fbb 363e 51a2 91bd bf3c 22be
00000390: e007 12bd 3f34 4c3d 0be5 eabc 6689 9a3d
000003a0: a221 8dbe 9924 bdbd d7ef 0d3e 343a 37be
000003b0: 0f90 ad3d 6a07 39be fcff 12bc 3a3d 293e
000003c0: db47 80be 7934 203e c1af d6bd 9194 1fbe
000003d0: e68a 56be 96c0 793d fcf4 78be 73fe a2bd
000003e0: b5af 183e c803 0c3e dfbd 84be 0f42 0fbe
000003f0: c037 29be d80f 0e3e 9977 023d f30b 6abd
-0.08526278 0.15947427 0.25951177 -0.19849238 -0.082595006 0.2300147 0.18565285 0.12335074
0.008982146 0.12019732 -0.028149825 -0.010817035 0.1806048 -0.18109462 -0.16240856 -0.09226695
-0.24693435 0.07343119 0.17545174 -0.18777663 -0.2420923 -0.116084926 -0.20630145 -0.15666147
0.12114449 -0.24505536 0.10474704 0.00021245694 -0.19751815 0.10212842 -0.010813549 0.13841759
0.062051736 -0.009046693 0.12647131 -0.03166443 -0.17735411 -0.1434499 0.011057824 -0.026761033
-0.06628501 -0.026585571 0.21408504 0.01109982 -0.1557812 0.2563535 0.052044854 0.2820046
0.1143312 0.24506526 0.021860396 -0.23452069 -0.06784618 -0.098936304 0.24068353 -0.14596905
0.16002323 0.25253418 0.12349124 -0.26814243 0.26321903 0.09675495 -0.13159627 -0.14339161
0.026827035 0.1793127 -0.15593122 0.0926544 0.1930376 -0.18676016 0.14022316 0.19989969
-0.08238604 -0.23302086 -0.03852325 -0.051875684 -0.00089790876 0.21195501 -0.09975089 -0.22772609
0.08477497 0.028053226 0.27505967 -0.031690583 -0.09392171 0.058224812 0.060072377 -0.05786515
-0.0026842598 0.25007126 -0.04926367 -0.2072034 0.16049245 0.27454174 -0.1624956 0.022854317
-0.12519404 0.09486815 0.11018366 -0.06308741 -0.024723064 -0.18567094 -0.1602165 0.18292998
0.033268094 0.0010686682 -0.061757363 0.16551344 0.24620934 -0.06333252 -0.067703016 0.004815119
0.19148812 0.17644532 0.15275483 -0.22533521 -0.14299268 0.18349223 -0.2371098 -0.06809678
-0.18146515 -0.09896724 -0.104961835 0.0028032302 0.18675108 0.18167111 0.078397706 0.11184325
0.09040518 -0.12209317 -0.25794452 0.14456122 0.26655027 0.19568467 0.059092924 0.2250051
-0.15436168 0.07226106 -0.28765565 0.012053963 0.11858202 0.20567554 -0.18835273 0.123306066
0.11150706 0.03200733 0.07367709 0.04871538 0.028142268 0.072800234 -0.10021675 0.18327342
0.0027623205 0.038465068 0.066274665 0.16995585 0.21281189 -0.18389407 0.0999061 0.0733573
0.13686147 -0.11335904 0.26149768 0.07928179 0.13509753 -0.19191192 -0.22422196 -0.06123322
0.040484335 -0.2096719 0.15031704 0.24424173 -0.13083413 0.18634571 -0.17048608 -0.2753467
-0.03748746 0.07961159 -0.15969177 0.12954977 0.16276886 0.12113835 -0.11455416 -0.23782605
-0.023829242 0.08392675 0.057912987 -0.07995645 -0.27162287 0.012677475 -0.18516521 0.083764546
0.08635582 0.2617048 0.0034951172 0.17608306 0.16183905 -0.08308713 0.19279352 0.03806698
0.17347807 0.2665242 0.19013926 0.19863194 -0.015794873 0.045930084 -0.11047728 0.07301361
-0.25140578 -0.048622184 0.25816488 0.04137452 -0.06989097 0.029938558 0.029047739 -0.21941458
0.021630965 -0.034251977 -0.2305926 0.07161462 0.2636907 -0.14261095 0.015454311 -0.18104532
-0.02398383 0.1784501 -0.071110375 -0.15843485 -0.03565204 0.049854513 -0.02867367 0.07545738
-0.27564722 -0.09235496 0.13861023 -0.17893296 0.084747426 -0.18069234 -0.008972164 0.16527262
-0.2505482 0.15645017 -0.10482741 -0.15584017 -0.20951423 0.06097468 -0.24312204 -0.079586886
0.14910777 0.13673317 -0.2592611 -0.13990043 -0.16525173 0.13873231 0.03185234 -0.057140302

in_proj.bias f4 [64]
00000000: b4ff f43b 22d4 97bb 7959 12bc 5b70 dfb8
00000010: fd49 2fb8 2f45 17bc 9fe0 5abb ea43 52ba
00000020: 1763 9bba 9def ee39 ab01 68bc f9f1 813b
00000030: 7888 0bbc c8d6 8cba fe51 dd3b 44b6 29bb
00000040: 0b53 9cbb 63aa a93b c0b8 a2bb 2996 593b
00000050: ed82 3b3b b11d 143b 9531 93b9 a538 683b
00000060: 6b3b 37bc 2b03 b93b 06a0 95bb 32b5 9dbb
00000070: c9ad 0b3c 4e1c a7b9 0899 2bb9 d4e3 f1bb
00000080: 671d 3e3b f53e 9838 9156 22bb 4d3c 31bb
00000090: 8205 a4bb 1ace 8bbb 7641 343c fb9b f6bb
000000a0: 6cbc 73bb b553 35bb ef5f f43a 3e85 ba3b
000000b0: e217 72ba ba7a 8cbb 6fbf 5d3a f5e8 583c
000000c0: 1863 d33b 0ea2 d13b 3fa3 903a c479 853a
000000d0: 6d21 8c3b 8022 eabb b451 023a 37da a4bb
000000e0: 2e24 8b3a 82ec edbb 06fe e2ba 63c9 243c
000000f0: 9f6b f2bb 945d 2d3b ca1c 503c a82f aabb
0.0074767713 -0.0046334425 -0.008932465 -0.000106543965 -4.179216e-05 -0.009232803 -0.0033398045 -0.0008020984
-0.0011855093 0.00045573423 -0.014160554 0.003965613 -0.008516423 -0.0010745162 0.006754159 -0.0025895992
-0.0047706417 0.0051777824 -0.0049658716 0.0033201075 0.0028611973 0.0022600705 -0.00028074966 0.0035434153
-0.0111836 0.0056461296 -0.0045661954 -0.00481286 0.00852532 -0.0003187381 -0.0001636484 -0.0073818956
0.0029009224 7.2596515e-05 -0.0024770836 -0.0027043999 -0.0050055394 -0.0042665126 0.011001935 -0.0075259185
-0.0037191166 -0.0027668301 0.0018644313 0.0056921532 -0.0009235126 -0.004287091 0.0008459007 0.013239135
0.006451022 0.0063974923 0.0011034979 0.0010183384 0.0042764456 -0.007145226 0.0004971281 -0.005030896
0.0010615641 -0.00726086 -0.0017318137 0.01005778 -0.0073980833 0.0026453482 0.012702176 -0.0051936693

adapt.E1 f4 [3, 8]
00000000: 60c9 46bc 2e6b 6cbb 961d 963b 9683 013b
00000010: 281b 9f3a bdc7 393b 933e 07bb 7fdc 52bb
00000020: 3fab 0fbc 09ec 67ba 3645 9abb aa1f a03a
00000030: 24ae 1c3b e5b9 b4bb 03a2 f5ba 1367 8abb
00000040: 8c3b 46bb cc7a 1d3c ed0c f1ba 177b b83b
00000050: 9013 3b3c 5dd0 c93a 3b75 09bc 34e2 82bc
-0.0121329725 -0.0036074626 0.0045811636 0.001976227 0.001213883 0.0028347813 -0.0020636662 -0.0032174883
-0.008768856 -0.00088471227 -0.0047079576 0.0012216468 0.0023907507 -0.0055153244 -0.00187403 -0.004223713
-0.0030247895 0.009611797 -0.0018390693 0.005629908 0.011418238 0.001539718 -0.008389766 -0.015977003

adapt.E2 f4 [3, 8]
00000000: 089d b13a 8f8e 37bb 7993 1dbb bfa1 a63b
00000010: b607 1bbc 3f3f 2f3b 610c 813b fba0 aa3b
00000020: 358b 8a3b 8bae 6b3c e8b5 463c 6365 143b
00000030: ebbc 9fbb 44de f1ba 5ffa 06bb 93c7 6d3c
00000040: 098f 473b f612 6d3b 0fee 5dba 3435 bebb
00000050: 90f3 54bc 8235 1aba 1fd6 c3b9 bf54 583c
0.0013550827 -0.0028008556 -0.00240442 0.0050851996 -0.009462288 0.0026740578 0.0039382433 0.0052071786
0.0042280206 0.014384876 0.012128331 0.002264344 -0.0048748157 -0.0018453081 -0.002059601 0.014512914
0.0030450246 0.0036174632 -0.00084659545 -0.005804682 -0.012997523 -0.0005882607 -0.0003735283 0.013203799

support_mix.w_logits f4 [3]
00000000: 322d 793c 4e2b 79bc e128 793c
0.015208529 -0.015208079 0.0152075

blocks.0.filter_conv.conv.weight f4 [64, 64, 1, 2]
00000000: f4be 193e 6e04 1f3e 3401 453d a87f a33c
00000010: 7d40 0fbe d3f7 1d3e d039 d23d 4a2b cc3d
00000020: 141f 63bd 5564 973d c197 e13c a62d 9e3b
00000030: 9cce 4e3d c84a 2f3d 5178 68bc d018 04be
00000040: f206 17be 4872 e4bd d3f1 d2bd 075b 88bc
00000050: c0ee cb3b 8592 173e 40d7 43bd ba74 cb3d
00000060: a8cc 133e 3d2e 053e 21ba 83bc cc55 bfbb
00000070: c351 cfbd da70 4d3d 0103 4cbd bc0e cdbb
00000080: dd00 babd 6d7a 26bb bba0 5abd cf3e 0c3e
00000090: b2fe 55bc bebf fcbd 64b4 9bbd 8571 cabd
000000a0: 8e7f e9bd 9c46 123e ed77 a03d 9322 473c
000000b0: 8fcc 213e edcb 0f3e e0bb bdbc e8b9 c43c
000000c0: 02b1 0d3c b2fc 9e3c 6f77 843d ccb4 febd
000000d0: 33f1 7c3d 6cb2 22bc 375b 7fbd 0e1e 013e
000000e0: e540 aabc f7eb 29bd 29f9 463d 578e 40bd
000000f0: fa50 83bd 895e b23d 074f 0dbe ea11 65bd
00000100: 17d6 8b3d 449e 393c 9936 b1bd 0470 be3d
00000110: a478 833d 99ba 863d 76b2 f03d 637d f63d
00000120: 5cd6 97bd 6ee0 cbbd 36d1 e8bd 2479 ffbd
00000130: 74e7 0ebe 8a2a 123e 7978 ccbc 958e 68bd
00000140: 9502 8dbd 601b 20bc d8d1 763d 7b41 143e
00000150: 366d 6d3d b07c d93d 8d56 c2bd 4e43 0d3e
00000160: 2eb0 0dbe 45f7 31bd 113c e53d 1454 da3d
00000170: 29b3 9f3d 655c 34bc f9ef c13b 1bd5 babc
00000180: 432d 13be 94b3 4cbd 36fe 65bd ba2f 103e
00000190: 8905 f63d 2fb0 1b3e 6e43 a4bc c141 0a3e
000001a0: 4a58 113e fbd9 e53c aa93 fcbd fd26 0c3e
000001b0: f902 003e 0fec 933d 9d9e 93bd 0bd9 dcbc
000001c0: 0623 f33d c5d7 893d 9a36 d4bd 2502 4a3d
000001d0: b13a 49bd 6af3 223e e66d fc3c cad2 9e3d
000001e0: 17d5 b9bd 02b4 913d 882f d73c 61e7 8c3d
000001f0: 0cf4 d0bd da2c 1c3c 4baf 4d3d 7c5f 193e
00000200: 679e ac3c 9cac 55bd 182c d13c 3129 d43d
00000210: e0ab 5c3d 6b74 0fbe 91db fd3c d584 91bd
00000220: eb48 f5bd 9faa 7a3d 2737 da3d 44bc 09bd
00000230: 07cf 3dbd e73a dcbd 1a62 143c cbdd 00be
00000240: 9e11 513c 9a23 173d 435b 0d3e 9dc6 013e
00000250: a50b bfbc 6926 e03d 97f3 e43d e3c5 5b3d
00000260: 5084 b53d 4a08 7e3d 100e d33b 4583 a33a
00000270: ed5b e3bc ad28 ba3d 5491 84bd 46ef b1bd
00000280: e2cb 0abe 8cb6 53bd 31a8 f4bd 83e8 d13d
00000290: ef3e c03b a0d8 cabd 70df 0fbe 4e98 a23d
000002a0: fefc 57bd fec9 69bc b3bc 093d 030c d1bd
000002b0: f52b 05bd 756e b03d 6bc7 f9bd 7317 e7bd
000002c0: 6edb 06be 5d0a f43d 9db8 023e ecd4 99bd
000002d0: f293 15be 2d33 fd3d 3e8f ab3d c881 de3d
000002e0: 5bdd e43d 6e0c 6ebd 047b 643c 5afa cfbc
000002f0: 5611 99bd 6801 673d ab57 c43d 8b01 73bd
00000300: a96d 993c 76d9 533d 9870 bd3c 7b10 473d
00000310: c251 623d 1e9d 14be 883b d4bd a66a 00bd
00000320: 527c 883c d96d 20be da62 0f3c 91f6 0c3c
00000330: c05a 9bbd b1bd a6bd 0435 40bd 5d25 cabd
00000340: e2e3 8abc 854e 60bd deaf b8bd eab2 703d
00000350: afa4 66bd cf8c 0b3d 1ed7 89bd b353 0a3e
00000360: ea08 463d 23fc 8fbd 8339 c3bc 8c14 f4bd
00000370: 5169 873c 158f f1bd 0fac 7d39 0285 ba3d
00000380: ef0a 903d dc51 bf3c 500c f63d 1c97 b2bd
00000390: abde 57ba d8dd 553d 0ef9 ed3d 76ce a0bd
000003a0: f463 cabd 2391 c73d dac6 b6bc 3914 793a
000003b0: 4bbb ebbc 4f3e f9bd 7cd7 de3d 20b9 da3c
000003c0: 7179 143e 210c a8bd b63f 6b3d 93eb 40bd
000003d0: 251f a9bd 5757 82bb b22f 80bd 19de 92bd
000003e0: 6bd8 09be 5164 ec3d 1ba5 9ebc d724 1b3e
000003f0: 84f8 413d f14f d23d 5e8d 093e 37b1 dfbc
0.15014249 0.15529034 0.04809685 0.019958332 -0.13989444 0.15426569 0.10264933 0.09969194
-0.05544956 0.07392184 0.027538182 0.004827219 0.050490007 0.042795926 -0.014188842 -0.1290009
-0.14748743 -0.1115461 -0.103000306 -0.016644968 0.0062235296 0.14801987 -0.0478127 0.09934373
0.14433539 0.1300592 -0.016079964 -0.005839085 -0.10123017 0.05015645 -0.049807552 -0.00625786
-0.09082196 -0.0025402561 -0.05337594 0.13695835 -0.013061212 -0.123412594 -0.07602766 -0.098849334
-0.11401282 0.14284748 0.07835374 0.012154239 0.15800689 0.14042635 -0.023160875 0.024014428
0.008648159 0.019407604 0.06468093 -0.12436828 0.061753463 -0.009930234 -0.06234285 0.12609121
-0.020782897 -0.0414848 0.04857746 -0.047010746 -0.064119294 0.087094374 -0.13799678 -0.055925287
0.06827944 0.011329237 -0.08652992 0.09298709 0.06419495 0.065785594 0.11752789 0.12035634
-0.07413933 -0.09954916 -0.11368029 -0.124742776 -0.1395548 0.1427404 -0.02495979 -0.0567766
-0.06885258 -0.009772152 0.060258716 0.14478104 0.05796548 0.106194854 -0.094891645 0.13795206
-0.13836738 -0.043448705 0.111930974 0.10660568 0.07797844 -0.011008357 0.0059184995 -0.022806695
-0.14372735 -0.049975947 -0.056150638 0.14080706 0.120127745 0.15203927 -0.020051684 0.13501646
0.14193836 0.028058043 -0.12332852 0.13686748 0.12501134 0.07222759 -0.072079875 -0.026958963
0.118719146 0.06730608 -0.10361977 0.04931845 -0.049128238 0.15913168 0.030814122 0.077550486
-0.09073847 0.07114412 0.026267782 0.068800695 -0.10202798 0.009532178 0.050216 0.1497783
0.021071626 -0.052166566 0.02553372 0.10359419 0.05387485 -0.14009254 0.030988486 -0.07105414
-0.119767986 0.061197873 0.10655051 -0.03362681 -0.046340015 -0.10753422 0.009056592 -0.12584607
0.012760548 0.036899187 0.13804345 0.12673421 -0.023320982 0.10944826 0.111792736 0.053655516
0.08863127 0.062019624 0.0064408854 0.0012475034 -0.027753795 0.090897895 -0.06473032 -0.08688216
-0.13554338 -0.051687762 -0.119461425 0.10249426 0.0058668773 -0.09904599 -0.14050078 0.07939206
-0.052731507 -0.01426935 0.033627223 -0.10207369 -0.032512624 0.08614818 -0.12196239 -0.112837695
-0.13169643 0.11916039 0.12765737 -0.07511315 -0.14607218 0.12363277 0.08376931 0.108645976
0.11175033 -0.058117323 0.013945345 -0.025387932 -0.0747401 0.056397825 0.09587034 -0.059327643
0.018729048 0.05172106 0.023124978 0.0485997 0.05525375 -0.1451306 -0.10362917 -0.031351708
0.016660843 -0.15666904 0.008751595 0.008603708 -0.075856686 -0.081416495 -0.04692556 -0.09870408
-0.016954366 -0.054762382 -0.09017919 0.058764376 -0.0563094 0.034069832 -0.067304835 0.13508491
0.048348345 -0.07030513 -0.023831135 -0.119179815 0.016529711 -0.11794869 0.00024192057 0.091074005
0.070333354 0.023354463 0.12014067 -0.08720228 -0.0008234779 0.05221352 0.11619769 -0.07851879
-0.09882346 0.097444795 -0.022311617 0.00095016096 -0.028775832 -0.121700875 0.10880944 0.026699603
0.14499451 -0.082054384 0.057433806 -0.04709966 -0.082578935 -0.003977697 -0.06259097 -0.07171268
-0.13461463 0.11542571 -0.019365838 0.15150772 0.047356144 0.10269154 0.13432834 -0.027306182

blocks.0.filter_conv.conv.bias f4 [64]
00000000: 189f 683b 7767 893b f7be 883b 9d05 a63b
00000010: e94f b53b dea4 10bb 1ddc b33b 21ee 943a
00000020: 1a86 883b 79c4 13bc dc83 08bb 4445 323b
00000030: 0c22 ccbb fbd9 f73b 3150 cdbb 6101 873b
00000040: d468 5f3b 257f 173b 3bb7 c0bb 9952 133c
00000050: e624 a83b 2246 d8bb 65f4 54bb d0bd 053c
00000060: f2c6 83ba fa37 0ebc 55aa 36bb 3736 483c
00000070: 8476 523b 0f30 4bbc f268 003c 49ec b0b9
00000080: 3d80 ce3a 5b41 88bb 1140 e53b 53fe d4bb
00000090: 481e a9ba f8d4 2d3c a998 17bb ba0f 8f3a
000000a0: aa70 123c 6169 133b fda9 1e3c 74b1 50bc
000000b0: 62a1 4dbc aae2 4abb 654e b33b d3d2 91bb
000000c0: 2689 a0bb e840 c3bb 4716 d9b9 829d 8cba
000000d0: b457 87bb e8b1 783b c1bb 1ebc d3e5 3bbb
000000e0: 86ff 27bc ec87 58bc 173d 7d3b 1f6a 9fbb
000000f0: a991 ce38 e563 fabb 5e69 69b9 43ae 1e3c
0.0035495218 0.004193242 0.0041731554 0.005066587 0.0055332077 -0.0022070925 0.005488886 0.0011362472
0.004166377 -0.009019011 -0.0020830547 0.002720193 -0.0062296446 0.007563827 -0.006265663 0.0041200374
0.0034089582 0.0023116556 -0.005881218 0.008991861 0.0051313518 -0.0066001574 -0.0032494303 0.008162931
-0.0010053797 -0.008680338 -0.0027872522 0.012219957 0.0032114098 -0.012401595 0.007837521 -0.00033745382
0.0015754771 -0.0041581816 0.0069961627 -0.0065000444 -0.0012902701 0.010609858 -0.0023131764 0.0010914721
0.008937994 0.002249323 0.009684083 -0.012737621 -0.012550684 -0.0030957856 0.005471992 -0.004450181
-0.004899162 -0.005958665 -0.00041406063 -0.0010728093 -0.004130328 0.0037947837 -0.009688319 -0.0028670921
-0.010253793 -0.013216 0.0038641149 -0.0048649455 9.849977e-05 -0.007641303 -0.00022259864 0.009685102

blocks.0.gate_conv.conv.weight f4 [64, 64, 1, 2]
00000000: 4c75 c53d d463 8a3d f0ab 9dbd 5b5f 31bc
00000010: ba31 763b d96c c6bd 28b5 633d f229 12bc
00000020: c390 153e 72ce b03d d092 df3c fc48 b23d
00000030: 9dad d3bd 6eb9 e6bd 3255 0f3e 5888 683d
00000040: 18c2 fd3d d31a adbd 8f5c 763d db2b 0bbd
00000050: efc0 e3bc 65ee 0d3e 7a80 34bd b3ae 39bd
00000060: 035c cb3c 924c bcbd 4cb6 14be b541 863c
00000070: 1757 433d 1a32 92bd cec8 243e 5ea1 a4bc
00000080: 82e3 d53d 5240 babd 1efd 703c 061e 7cbd
00000090: 7ffb df3d 768c 0bbe 3429 e83d 638e 41bc
000000a0: 8797 14be f532 a0bc 648f afbc 8b37 58bc
000000b0: 1261 ddbd 5889 e43d c7e6 dcbd a1bf 9abb
000000c0: 39b2 f9bd 9eaf fe3d aa73 9d3d 9de9 b13d
000000d0: 2d70 42bd 54b3 5f3d 8928 fb3d 48e0 c03c
000000e0: 14fa 8c3c b94d 423d 7d8d 0a3e 2ef9 05be
000000f0: fc36 60bc 6175 033e b532 e53d bb4d 023e
00000100: 3601 f43d 9c70 d33d d729 c23c 5970 043e
00000110: 7248 39bd 1bca b33d 9033 f63d 00ea c8bc
00000120: 5643 83bc 9666 193d 3235 02be bfd9 15be
00000130: 7b6e 18be 1945 87bc 7a1e d7bd ce73 b6bd
00000140: 89b8 213e 1fa7 e0bc 39c6 323d f67b f23d
00000150: e229 b83c ebdb 83bc a4f2 29bd 1ac3 0a3d
00000160: 9a09 8b3c cc67 d6bd 3c3c f73c 507b c6bd
00000170: 61a3 bc3d e69f 84bd 260f a5bd 37ef 10be
00000180: 6d6e a13c 92ac 203e cd9c 023d 909d ffbd
00000190: edf8 8f3d 0e8f 89bd b69c 03be b40e 0a3e
000001a0: e188 9bbd 5bd4 07be a3d5 823d 881f 35bd
000001b0: 59cc 78bd 5291 cfbb 57e8 ecbd 3a99 803d
000001c0: 352c abbd 5f20 e63c 692b 5c3d c561 04be
000001d0: 3002 2bbd c1ac 89bd fcfc 0abe 14b9 373d
000001e0: f4a5 8c3d fa6b cebd c065 d9bc a23a 293e
000001f0: 3dc9 32bd 1fc4 da3d 22c9 a33c 1f05 afbd
00000200: 4ec8 e7bd 8159 fa3d 2b09 8b3d a14d 91bd
00000210: e0b7 1b3e ee38 00be 0590 cd3d 6d75 e5bc
00000220: 1a8a a4bc 0650 e0bd acd4 e73c 3a8b 16be
00000230: 85b3 0b3e e8db 0a3e 2a82 a8bb 53ec 463d
00000240: 2c41 863d 4b76 1d3e 4332 13be a2ac 9ebd
00000250: b731 00bd 5a59 ebbd 85aa 4b3d edf6 f4bd
00000260: 76ce a33d 2ee4 f23b e324 00be 7bf8 f2bd
00000270: e5aa 13be b777 a8bc bf4f 493d 0699 a73d
00000280: 27e6 0e3e b219 9d3c c96b 0e3e 3f76 183d
00000290: f925 f23d f13a f13d a047 16be a1bb dcbd
000002a0: 1515 6dbd 824d db3d 0fca fc3d afe2 d0bc
000002b0: ede0 7dbd a5b3 44bd 27f7 d33d 75fe 363b
000002c0: d5b6 57bd 09f3 573d 964b 21be 2b2e fc3d
000002d0: c7ce 4e3d df66 0cbd 9950 3bbd 3c1b ae3c
000002e0: 23cb ed3d 592d 073e d9eb 143e 5036 6c3d
000002f0: 2245 6ebd a005 71bc 6966 cabd a05b 6dbd
00000300: 53c5 0ebe de67 02be 83f6 e83d ae07 91bd
00000310: 2b6d f2bd 88dd 733d 9666 9d3d 0209 d9bd
00000320: f10e ba3c b457 69bd 55f2 1c3e 4270 1c3d
00000330: 5a83 debd dcfe 033d d826 8f3d 5bde 0d3e
00000340: 41e4 cfbd 366d 71bc 65e1 123d 2b55 be3d
00000350: 93ed b63c 0196 9e3c 598f 953d 895b c43d
00000360: d636 77bd 73e0 023c 0f87 5c3d 8a4b 0b3e
00000370: 9abc efbd 4168 0f3e 965e c23c 76af 153e
00000380: e421 363d ad8f b0bd b7b4 723d 5226 8dbd
00000390: 8cc4 b4bc 133a 5cbd 8f12 6cbd 7714 b5bd
000003a0: 01b5 18be c0b1 663d 6b62 9e3d b623 0ebd
000003b0: 4bd8 3cbc 40a4 a63c d21c 0b3e 7bb4 fcbd
000003c0: 77ea 9abd d4f7 a5bd 4036 10be c6d0 91bd
000003d0: b9e7 803d 0421 43bd 80cd dabd b2b0 d6bd
000003e0: f909 fe3d c3a3 efbd 2435 893d 7a7d 89bd
000003f0: 85fd 10be d083 b03d 6c17 883d 3045 01be
0.09641513 0.06757322 -0.0769881 -0.010825957 0.003756626 -0.0968873 0.055592686 -0.008921133
0.14606003 0.08633126 0.027291685 0.08705327 -0.103358485 -0.11265837 0.13997343 0.056770653
0.12390536 -0.08452382 0.060146865 -0.03397737 -0.027801959 0.13860472 -0.044067837 -0.04533262
0.024824148 -0.09194292 -0.14522666 0.016388753 0.047690477 -0.07138462 0.16092226 -0.020096477
0.10443784 -0.090942994 0.014708785 -0.06155207 0.10936641 -0.136278 0.11335984 -0.011813733
-0.14510928 -0.019555548 -0.021430679 -0.013196836 -0.1080953 0.11159009 -0.10786205 -0.004722551
-0.121921964 0.1243584 0.07688077 0.08687136 -0.04747026 0.05461438 0.12263591 0.023544446
0.01720909 0.047437403 0.13530536 -0.13083336 -0.013684984 0.12837745 0.11191312 0.12724964
0.119142935 0.10324213 0.023701591 0.12933482 -0.045235105 0.08778783 0.120215535 -0.024525642
-0.01602332 0.03745135 -0.12715605 -0.14633845 -0.14885895 -0.01651244 -0.1050386 -0.08908807
0.15793051 -0.02742344 0.04364607 0.1184005 0.022480909 -0.016096076 -0.041491166 0.03387747
0.016972352 -0.104690164 0.03018009 -0.09691489 0.092108496 -0.06475811 -0.0805953 -0.14153753
0.019705975 0.1569083 0.031887818 -0.124812245 0.07029901 -0.06716739 -0.12852749 0.13482171
-0.07594467 -0.13264601 0.06388404 -0.044219524 -0.060741756 -0.006334462 -0.11567753 0.06279226
-0.08358041 0.028091608 0.053752337 -0.12927921 -0.041750133 -0.06722403 -0.13573068 0.04485424
0.068675905 -0.10079189 -0.026537776 0.16526273 -0.043648947 0.106819384 0.019993369 -0.08545899
-0.11317502 0.12224103 0.06788858 -0.07094885 0.15206861 -0.12521717 0.10037235 -0.028010095
-0.020085383 -0.10952763 0.028299652 -0.14701548 0.136427 0.1356045 -0.00514247 0.04856522
0.06555399 0.15377156 -0.14374642 -0.07747771 -0.03129741 -0.11491652 0.049723167 -0.1196116
0.07998364 0.007412455 -0.12514071 -0.118638 -0.1442066 -0.020564897 0.049148317 0.08183484
0.13954984 0.019177292 0.13908304 0.037222143 0.11823649 0.1177882 -0.1467576 -0.10777975
-0.057881434 0.10708143 0.12343227 -0.025498716 -0.061982084 -0.048022885 0.10349875 0.0027922664
-0.052664597 0.05272201 -0.1575149 0.12313493 0.050490167 -0.034277793 -0.04573116 0.02125322
0.11611011 0.13200893 0.14543094 0.057668984 -0.0581714 -0.014710814 -0.098828144 -0.05794871
-0.1394246 -0.12734935 0.113751434 -0.07081543 -0.118372284 0.05953744 0.07685582 -0.10597421
0.022712203 -0.056968406 0.15326817 0.038192995 -0.10864897 0.032225475 0.06989831 0.13854353
-0.10150958 -0.014735511 0.035859484 0.09293588 0.022330081 0.019358637 0.07302732 0.095877714
-0.06035503 0.007988083 0.05383974 0.13603035 -0.11705895 0.14004613 0.023726743 0.14617714
0.044465914 -0.08621154 0.059254374 -0.06892075 -0.022066377 -0.05376632 -0.057634886 -0.08841794
-0.14912798 0.05632186 0.077336155 -0.034702025 -0.011526178 0.020341992 0.13585213 -0.123391114
-0.07564252 -0.0810391 -0.14083195 -0.071198985 0.062941976 -0.047638908 -0.10683727 -0.10482921
0.12404246 -0.11701157 0.06699589 -0.06713386 -0.1415921 0.08618891 0.06645092 -0.12624049

blocks.0.gate_conv.conv.bias f4 [64]
00000000: b439 0d3c 79e4 533c 3c3b c9bb 3e1a f7bb
00000010: 8ef1 39bb 9da3 e43b 27ab b3bb 114f 6d3c
00000020: b964 c43b c01f ef3b 8d40 b03a 6bf5 b43b
00000030: c89f 6fba b47c 41bb f6ca 89bb 0e8b 233c
00000040: 67ad 6dbb f308 c8bb 871e 56bb 6082 573a
00000050: 8743 00bc 181a 243c 1b15 20bb 9acd 2e3c
00000060: 45c4 5e3c f6a7 fb3a 7898 10bb c012 14b9
00000070: 07df 6b3c be62 723b f361 06bb 9268 1fbc
00000080: bdcf a53b 3124 5fba d58e 203c ce94 03bc
00000090: 580e 38bb 490b d5ba 4119 da3b 1ee7 73bc
000000a0: 6cc5 f7ba 0542 1e3b cafa f3bb 31d4 d6bb
000000b0: ead5 d33b a060 0dba b8db bc3b 497c 853a
000000c0: 8e40 ba3b a84a d9ba 5906 ec39 f5d6 21bb
000000d0: 63f6 c23b 239c e43b 83d1 48bc 2cee 01bb
000000e0: 8d9f 8f3b 1553 9dbb 3959 c53b 5bef 493c
000000f0: 78cd 55bb bf5b 123b 1dda dcba 2ad4 fabb
0.0086197145 0.01293289 -0.0061410945 -0.00754097 -0.0028372738 0.006977512 -0.0054830494 0.014484183
0.0059934524 0.007297486 0.0013446972 0.00552242 -0.0009140936 -0.0029523792 -0.004205103 0.009981884
-0.0036266686 -0.0061045825 -0.0032672004 0.00082210265 -0.0078286 0.010015987 -0.0024426642 0.010669136
0.013596599 0.0019199837 -0.0022063535 -0.00014121365 0.014396436 0.0036985124 -0.002050516 -0.009729521
0.0050601647 -0.0008512168 0.009799679 -0.008031083 -0.0028084721 -0.0016253974 0.0066558425 -0.014886646
-0.0018903441 0.0024148237 -0.007445668 -0.006556057 0.0064647095 -0.00053931214 0.005763497 0.0010184135
0.005683965 -0.0016578035 0.00045018157 -0.0024694775 0.0059497817 0.0069766208 -0.012256983 -0.00198258
0.0043830336 -0.004801164 0.006022599 0.012325133 -0.003262369 0.0022332517 -0.0016849671 -0.0076546865

blocks.0.residual_conv.weight f4 [64, 64, 1, 1]
00000000: 6e6c b13d f246 93bd 3ea0 1f3d 4db6 1ebe
00000010: e125 09be 9757 fbbd 8b39 b5bd 3e22 0bbe
00000020: 0ab7 fb3d 1b6e 3bbd 8137 26be 2eb7 423e
00000030: 2960 9ebd edc1 c7bd 04c6 9cbd 3794 813d
00000040: 9850 45be 9865 b63a 563b 323e 2f15 ccbc
00000050: 82cb c1bc 83c1 60be 78b5 28be b0ec 133e
00000060: 2796 513e b04a f2bd be8c 113c a26e 13be
00000070: 1db5 3cbe dc7b ef3d 9746 313e f3fa acbd
00000080: 8ae3 5d3e 82f2 4abe 044f ed3b e7ed 8cbd
00000090: ed75 3ebd def1 d53d c9ed 53be 4af1 95bd
000000a0: eeea 523c 8b51 9f3d 4ff4 09be a97e 9c3d
000000b0: e8ff 153e 5490 a7bd bd5d 8bbd 547a 86bd
000000c0: 500e 0f3e a8e0 9e3d 63bb b53c 8ad2 01be
000000d0: deb8 b4bd bc36 aebd d9fa 433c f181 b03c
000000e0: 3dcf 8bbd 0052 5a3c 0346 0bbe ac47 3b3c
000000f0: 7c1e 083e 9ed6 b1bb d06a 313e 5340 483d
00000100: 2133 51be 4097 6fbd 82fc a3bd 2e14 c13c
00000110: 4055 cd3d 37b9 d43d e301 18be 8aa0 e0bb
00000120: af58 913c d18b 1dbd 0ba9 2d3e 9a39 57be
00000130: 0b6c 23be aa2e 2a3e cd2a 14bd 67a1 073e
00000140: 5ab8 0ebe 2838 44be ef36 0a3e 3266 10bd
00000150: ffc9 963d fc2f dc3c eed9 d13d a451 f8bd
00000160: e2d2 c6bd 2551 3fbe 996d fcbd a00f a23d
00000170: e86a 9d3d a5b5 a63c 8c5b 55be 717c 11be
00000180: 67c2 02bd eb52 d1bd c174 39be 2e48 13be
00000190: 9629 493e 05a8 903d 99a8 3dbe 6e8b f53d
000001a0: 4c6f 30be 0435 84bd 2ff0 ec3d 906d 633d
000001b0: 702d 3fbc f24e 403e fa2d 173e 8e50 38bd
000001c0: 7a1e 073e 6ef4 08bd e66a 483d 0ed1 efbd
000001d0: 618d 54be 95f6 853d 8a14 f1bd ef49 14be
000001e0: 636b dfbd 5217 653d a92c 283e d4d2 223d
000001f0: 8b44 283e 026e 31be e008 e33c 5f3a 1abe
00000200: 97c1 c93d 72e5 433e db83 5e3e f4cf cfbd
00000210: 403a 593e 848b 29bd a75d b63b 9768 4a3d
00000220: ef56 d33d f810 843b 41d4 cf3c 57f1 633e
00000230: aadd 52be 1873 03be 3d0e 93bd 42ab 62be
00000240: d0ff 2ebe d5f6 c03d 816f 823d c4fe 0dbe
00000250: 96b7 3e3e 4e07 423e 395e cebd 404f 4fbe
00000260: a5d6 ae3d a8f0 32bb 9b75 0dbc ced9 14be
00000270: 2aa1 143e 010c 623d 5ab9 643d 4055 3f3e
00000280: e228 343e c74f 1fbe ea35 473e a243 c6bd
00000290: 6bd3 f1bd 9da9 47bc f974 c73c eb49 fd3d
000002a0: 66d8 18be 9aac a53d 4e07 50bd 0d12 433d
000002b0: 9e82 9ebd 13cb 3b3e b032 ca3d 83f5 f6bd
000002c0: 5874 3cbe b79c 4abd df9c 8fbc 76e3 28be
000002d0: 38c3 863d 70fb 623e e256 0cbe 06e3 36be
000002e0: 380c 39be 9e9a 50be 17db 39bb 40f0 97bd
000002f0: fae0 51be dd2f 9abc 1858 053a d149 d63d
00000300: ca4e 133e 7f73 30be ad62 933d 1def f73c
00000310: 030e 203e 339b c8bd 6e53 1ebe 0095 9cbd
00000320: cbca ecbc 7f8d 453e 4920 313e 71e7 adbc
00000330: f71a d9bc 63cb 53bc a6c9 a0bd bf7a 1dbb
00000340: 09a3 11bd d10d be3d 5758 13be cc59 42bc
00000350: 75ac e9bd acc2 663e 8ca4 53bd 5945 2a3e
00000360: 97d8 013d de23 24be 2030 a53d a270 4dbe
00000370: 6c33 eb3d 3803 d63d e092 a3bd 579f 48be
00000380: 088a 833d 63a8 963d 3ad8 0bbe 40d0 b6bc
00000390: a11d ff3d b085 8c3d 60c6 42be ef50 e7bc
000003a0: db70 fb3d d9b2 39be 5335 173e e624 bbbd
000003b0: 8081 4ebd 8cd8 873d 9193 4e3d d0b7 293e
000003c0: 8e75 4a3e d6e7 2a3e a3c7 1b3e 667f 443e
000003d0: d571 983d e831 05be 9806 27bd c632 d93d
000003e0: e225 50be f449 1d3e dbac 153d b4c8 c8bd
000003f0: 8f67 933d ea80 4ebe cf7a 043e a075 4a3e
0.086632594 -0.07191266 0.03897118 -0.1549923 -0.13393356 -0.12272566 -0.08848866 -0.13587281
0.12290771 -0.0457593 -0.1623211 0.1901519 -0.07733185 -0.09753785 -0.07654956 0.06327098
-0.19269025 0.0013915775 0.17405447 -0.024912445 -0.02365661 -0.21948819 -0.16475475 0.14445758
0.20467435 -0.11830652 0.008883653 -0.14397672 -0.18428464 0.11693546 0.17312084 -0.08446302
0.2166883 -0.19819072 0.0072420854 -0.06881314 -0.04649918 0.10446523 -0.20696177 -0.07321413
0.012873394 0.07779225 -0.13472103 0.07641346 0.14648402 -0.08181825 -0.068049885 -0.06566301
0.13970304 0.077576935 0.02218408 -0.1267797 -0.08824323 -0.085065335 0.011961662 0.021546336
-0.06826637 0.013325214 -0.13600926 0.011430662 0.13292879 -0.0054271957 0.17325902 0.04888947
-0.2042966 -0.058493853 -0.080071464 0.023569193 0.10026026 0.103868894 -0.1484447 -0.0068550752
0.017742483 -0.038463417 0.16959016 -0.21018067 -0.15959184 0.16619363 -0.03617363 0.13245164
-0.13937512 -0.19162047 0.13497518 -0.03525371 0.073627464 0.02687835 0.10246645 -0.12124947
-0.097081915 -0.18683298 -0.123255916 0.079131365 0.076864064 0.020350287 -0.20835704 -0.14207627
-0.031923678 -0.102208935 -0.18110944 -0.14383003 0.1964477 0.07063297 -0.18521346 0.11989485
-0.17229956 -0.064554244 0.11569249 0.05552441 -0.011668548 0.18780115 0.14763632 -0.044998698
0.1319522 -0.03343623 0.04893007 -0.11709796 -0.20757057 0.065411724 -0.11771496 -0.14481328
-0.10909154 0.055930443 0.16423286 0.039751843 0.16432397 -0.17327121 0.027714193 -0.1506133
0.098513775 0.19130495 0.21729986 -0.10147086 0.21213627 -0.041392818 0.0055653634 0.04941615
0.10319316 0.004030343 0.025369765 0.22260033 -0.2059237 -0.12836874 -0.0718045 -0.22135642
-0.17089772 0.094220795 0.06368924 -0.13866717 0.1862472 0.18948099 -0.10076565 -0.20245075
0.08537034 -0.0027304087 -0.008633996 -0.14536211 0.14514604 0.05518723 0.055840828 0.18684864
0.1759372 -0.15557776 0.1945416 -0.09680869 -0.11807903 -0.012186435 0.02434777 0.12367614
-0.149263 0.08089562 -0.050788216 0.047624636 -0.07739757 0.18339185 0.09872949 -0.120585464
-0.18403757 -0.04946586 -0.017530857 -0.1649302 0.06580204 0.22166228 -0.13705018 -0.1786004
-0.18071067 -0.20371482 -0.0028359347 -0.07418871 -0.20495978 -0.018821651 0.00050866744 0.10463298
0.14385524 -0.17231558 0.07196555 0.030265385 0.15630345 -0.09795227 -0.15461513 -0.07645607
-0.028905293 0.19292258 0.17297472 -0.021228524 -0.026502116 -0.012926909 -0.078509614 -0.0024029461
-0.035555873 0.09279979 -0.14389168 -0.01186223 -0.11409847 0.22535199 -0.051670596 0.16628017
0.031700697 -0.16029307 0.0806582 -0.20062497 0.11484417 0.10449833 -0.079869986 -0.19592033
0.06422812 0.07356336 -0.13656703 -0.022316098 0.12456823 0.06861436 -0.19020987 -0.028236834
0.12277385 -0.18134631 0.14766435 -0.09137897 -0.05041647 0.066331 0.0504337 0.16574025
0.19771406 0.16690001 0.15212874 0.19189224 0.07443587 -0.13007319 -0.040777773 0.106053874
-0.20326951 0.15360242 0.0365418 -0.09803906 0.071974866 -0.20166364 0.12937473 0.19771433

blocks.0.residual_conv.bias f4 [64]
00000000: 8540 c73c d603 31bc b142 91ba 6a34 31bc
00000010: 3903 72bb 20a5 d5bb cb60 15bc 4a51 08bc
00000020: bffe a7bc 5472 83bc c5aa e2bb 3a84 b0bc
00000030: dfcc f63b fa5f 413c 96b7 37bc b7fb c83c
00000040: d8a2 13bb 433f ed3a 2d30 aa3c 0da3 493b
00000050: be5b 56b9 e8b4 88bc 3cb6 333c eaf3 89b9
00000060: ce86 123c c779 67bc f4ba d53a b10c 973c
00000070: 5a1b 29bc b280 b53b cf8e a73b b099 ebbb
00000080: 3bde 203c e3ae 9cbc c0cf 73bb 9372 f6bb
00000090: 51f7 e5bc 4334 96bc b0ff 29bc b1f4 3cbc
000000a0: 5ac0 e3bb 3ca9 79bc d6ab 81bc 6d5f a23c
000000b0: b64f a5bc ea36 2fbc f83e 28bc 57b0 93bc
000000c0: 9c4c c23b b43a 12bc 1297 57bb 8f49 9bbb
000000d0: 96de d9bc f21e 223c c104 c13c 9f42 463c
000000e0: 5835 1abc b984 1c3c 3582 b83b 5281 173c
000000f0: ab06 06bb a672 fd3b 6e58 b3bc 75fe d2bc
0.024322757 -0.010804137 -0.0011082498 -0.010815719 -0.003692819 -0.0065199286 -0.0091173155 -0.008320162
-0.020507215 -0.016045727 -0.00691733 -0.021547426 0.0075317468 0.011802668 -0.011213204 0.02453409
-0.0022527482 0.0018100519 0.020774925 0.0030767352 -0.00020442807 -0.016687825 0.010968741 -0.00026312406
0.008943273 -0.014128155 0.0016306327 0.018438669 -0.0103214625 0.0055390233 0.0051134597 -0.007189952
0.009818609 -0.019126361 -0.0037202686 -0.0075209825 -0.028072031 -0.018335467 -0.010375902 -0.011532948
-0.0069504203 -0.0152381025 -0.015829008 0.019820893 -0.02017961 -0.010694245 -0.010268919 -0.018028421
0.0059295427 -0.008925129 -0.0032896441 -0.0047389935 -0.026595395 0.009895073 0.023561837 0.012100845
-0.009412132 0.009553128 0.0056307563 0.009247141 -0.0020450752 0.0077346144 -0.021892752 -0.0257561

blocks.0.skip_conv.weight f4 [128, 64, 1, 1]
00000000: 6ba4 36be 9c85 e4bc 7bc4 8fbc 9203 28be
00000010: da08 d7bd cc68 ad3d 976c ec3c d167 013e
00000020: 7ca6 823c 909e 30be 1914 8fbd 664c d7bd
00000030: df3f b5bc e28f 2c3d 2399 d6bd f88a 2b3e
00000040: 2dca ed3c 5e2c 093e 11fb 703d 088b 35be
00000050: 387a 9ebd be3e 073e f5a2 7ebd 8e3e 113e
00000060: d79b 503c 4ca2 30be e0ef 02bd 278d f3bd
00000070: 3be3 0c3e de60 03be 48f1 503b 14c6 5cbd
00000080: 2203 2abe 1417 1d3d 1b42 d13d 27a5 44bc
00000090: df7f 2c3e 53fc e0bc 62a9 473d dd4f debd
000000a0: 22c4 983d e868 f4bb fdf9 cf3c 821d c8bb
000000b0: fc4b 65bd cc13 b9bd d15f a0ba 95df 28bd
000000c0: a289 013e 26a9 9d3c c3fb d5bd 3f51 b13c
000000d0: 1134 003e 7688 ee3d 8a40 f13d 5cbd 12be
000000e0: 7813 7dbd 9531 f7bd 5609 3c3c 2a2f 81bc
000000f0: 385f 08be 07af 69bc c7e0 90bd d80f 0cbc
00000100: e99a f03b 3bc9 693d 5919 373e 1a0b c7bd
00000110: 32eb ca3d ed93 bf3d d7bf 8a3d 2227 c2bc
00000120: 2613 e63b bfdd 263e 4419 203e 57b2 34bd
00000130: 1115 123d 3439 173e 76f4 e63d f45e 1cbe
00000140: 8cb6 f7bd 8123 903d 37af a3bd c2ec cebd
00000150: af00 243e b8a7 763d 0fef 17be e5f0 523d
00000160: dc22 00bd 7f85 07be 9511 86bd 4dc9 933d
00000170: 8b05 3d3d 5ca2 913c 099a 283e 247c 133e
00000180: e4ac e5bd 1aa5 e23d 86da 3d3e 91ed 9f3d
00000190: bb01 913d 8dc2 2ebd 6233 343d a061 dfbd
000001a0: f94c 893d cd0a c33d 6026 94bd a63f 1a3e
000001b0: cd88 31be 4a15 0abe aebd 27bc 0721 403d
000001c0: 9da8 5e3c 9303 9ebd 9462 2abe bcdf 223e
000001d0: 768d 00be 5baf 6bbc 58bc 2d3e ee99 e4bd
000001e0: 0f5a 75bd 5cc1 d2bd 7c1e 3a3e 5dea e8bd
000001f0: e15e 663d 59d0 96bd 331e ad3d 692c b53d
00000200: 0aec 313d 2746 1fbe 7c5d 9e3c aecb 863d
00000210: 0806 14be 81ac 033e 86c5 79bd 7685 fabb
00000220: 6a73 d8bd 47bf 4fbd 1a49 023e 7cbf f0bd
00000230: 7f81 9c3c 7664 60bb cd5c 8ebd 1403 df3d
00000240: 834c 973d a52c 7fbd f7d5 2fbd 2369 9abd
00000250: 379e 15be e3bf 36be 4c3d 35bd 3735 023e
00000260: fc4a d73d 51e7 ce3d fdcc c23c abd1 7c3d
00000270: d73c abbd 4cb6 22be 9da7 243e 46c1 f5bd
00000280: eec6 093e 4198 683c 8a48 7a3b 3f7f 23be
00000290: 6396 af3d 32b4 ba3d 95b5 c3bc 1544 9cbd
000002a0: c687 5dbd 0b09 1d3e 2415 f63c c357 6f3d
000002b0: db71 1f3e 9a16 073e cf73 28bc 6e58 023c
000002c0: 0c99 ffbd 76dd 233e 9e3d 1f3e be6b f33d
000002d0: ba56 aebd 7b50 8dbc 58d2 883d 0cb6 153e
000002e0: 4e3a d03d 5c26 f03c 45bd 213d 3bb3 44bd
000002f0: 0c6e 053e f455 3cbe e316 33bc f504 ddbd
00000300: c846 1dbe cb4b 8bbd 255d f13d ccb9 cdbd
00000310: 44c4 5abd ff20 323e 3b55 893d 621f 08bd
00000320: 9a88 22be 9cd1 11be 5383 22be d5a3 033e
00000330: 4f4a debd ce8f a13c eb19 88bd 7ee0 803c
00000340: e9dd babd e408 4a3c 7e3e 1dbe 92fd 863d
00000350: cd4e 6cbb c13b bb3d d985 1abe 9125 ed3d
00000360: e2b8 253e 56ff 01be 8d16 d4bd c4c2 153c
00000370: 0edb f8bd f529 223e a47a dbbd 6a77 e83d
00000380: 7b02 83bd edd1 b0bd cdd8 343e 2818 6f3d
00000390: e96d 1cbe 01f6 823d d4b4 213e 3ef1 183d
000003a0: 9096 1a3d a819 9abc d0df a73d a9ea cbbd
000003b0: cc0f 0fbe d8e9 b5bd ad61 7fbd 83d8 d13c
000003c0: 3533 9cbd 7914 f83c 4ca7 303e 4692 c53d
000003d0: 55e2 093c 679b 8bbc a2b2 0abe f4c4 a7bd
000003e0: 1b2c e93d e7b6 04be c21e 2d3e 5425 2fbd
000003f0: 134b 65bd da6d f2bd dc02 3cbd 8fc2 7bbc
-0.17836158 -0.027895741 -0.017549744 -0.16407612 -0.10499735 0.08467254 0.028860373 0.12637259
0.015948527 -0.17247987 -0.06986255 -0.10512619 -0.022125183 0.042129405 -0.10478427 0.16752231
0.029027069 0.13395831 0.058833186 -0.17728817 -0.07738155 0.13207528 -0.062167127 0.14184019
0.012732468 -0.17249411 -0.031967044 -0.11892157 0.13758557 -0.1282992 0.0031882096 -0.05389984
-0.16602758 0.038352087 0.10217687 -0.012002266 0.16845654 -0.027464068 0.04874552 -0.108550765
0.07459284 -0.007458795 0.025387758 -0.006107033 -0.055980667 -0.09036979 -0.0012235587 -0.04122885
0.12650159 0.019245695 -0.1044841 0.021645186 0.12519862 0.116471216 0.11779888 -0.14330047
-0.061786145 -0.12070004 0.011476835 -0.01576956 -0.13317573 -0.014262921 -0.07074123 -0.008548699
0.0073426855 0.057076674 0.17880763 -0.09718914 0.09908141 0.093543865 0.06774872 -0.0237003
0.0070213256 0.16295527 0.15634638 -0.04411539 0.03566462 0.14767915 0.11277096 -0.15270597
-0.12095365 0.07038022 -0.07992404 -0.10103752 0.16015886 0.060218543 -0.14837287 0.051499266
-0.031283244 -0.13234518 -0.06546322 0.072161295 0.046147864 0.017777614 0.1646501 0.14402825
-0.11214617 0.11066647 0.18540391 0.07808984 0.07080408 -0.042666007 0.043994315 -0.10907292
0.067041345 0.095235445 -0.07233882 0.15063342 -0.17337342 -0.13484684 -0.010238094 0.046906497
0.013590005 -0.077155255 -0.16639167 0.1590566 -0.12553963 -0.01438507 0.16966379 -0.11162172
-0.05990034 -0.102907866 0.18175691 -0.11372826 0.056242827 -0.07363958 0.08453026 0.08846361
0.043437995 -0.15554105 0.019331686 0.065818176 -0.14455426 0.12858774 -0.06097939 -0.0076453043
-0.105688885 -0.050719526 0.12723199 -0.11755273 0.019104717 -0.0034239567 -0.06951294 0.10889259
0.0738764 -0.062298436 -0.042928662 -0.075395845 -0.14611135 -0.17846636 -0.04424791 0.12715612
0.10512349 0.10102714 0.023779387 0.061723392 -0.08361214 -0.15889853 0.16079564 -0.119997546
0.13454792 0.014196456 0.003819021 -0.1596651 0.08573606 0.09116401 -0.023890296 -0.07630173
-0.05408456 0.15335481 0.030039378 0.058433305 0.15570776 0.13192216 -0.010281517 0.007955654
-0.12480363 0.1600245 0.15550849 0.118857846 -0.085126355 -0.01725029 0.06680745 0.14620227
0.10167371 0.029315166 0.039487142 -0.04802249 0.13030261 -0.18392164 -0.01093075 -0.10791961
-0.15359032 -0.06801566 0.11785344 -0.100452036 -0.05340983 0.173954 0.067057095 -0.033233054
-0.15872422 -0.14240116 -0.15870409 0.12855466 -0.10854017 0.019721892 -0.066455685 0.015732046
-0.09124357 0.012331221 -0.1535587 0.065913334 -0.003605771 0.091422565 -0.15090121 0.11579431
0.16183808 -0.12695059 -0.10355864 0.009140674 -0.12151156 0.15836318 -0.10716751 0.113509014
-0.063969575 -0.0863379 0.17660828 0.058372647 -0.15276302 0.06394578 0.15791637 0.03733944
0.037741244 -0.018811062 0.08196986 -0.09956867 -0.1397087 -0.08882493 -0.06234901 0.025615936
-0.076269545 0.0302832 0.17251319 0.0964704 0.008415778 -0.017041875 -0.13544706 -0.08191863
0.113853656 -0.12960397 0.16906264 -0.04276021 -0.0559798 -0.11837359 -0.045901164 -0.015366211

blocks.0.skip_conv.bias f4 [128]
00000000: 8c28 f938 bf95 2e3c 75c1 c539 017f 0a3c
00000010: 9711 f23b 6d1c 3a3a f3da 5c3b 7c41 6b3c
00000020: 2286 1abb 4279 bfbb 7e25 2d3a 9d6c 9cbb
00000030: a6f4 db3b 39d1 623b 4c28 88bb 89ed fa3b
00000040: 6868 3bbb 2027 9b3c 6cc9 fe3a 6dd5 7b3b
00000050: accc 133c afce 423c 5141 093c 0915 e73b
00000060: a1c0 df3b a90c 843b f98d b93b 314e 383c
00000070: fe98 aa3c fa12 7a3b 3c0a df3b b4bb a73c
00000080: b401 5fbb 8762 4cbb 06df 4dbb bc78 d63b
00000090: 2a43 233b 300c 2eba 63ae 12bc d63c ea3b
000000a0: b5d6 5a3c 21cd b33a 96bd dd3b fe82 de3b
000000b0: 1245 233b 623c 2bbc a69e ae39 e8e9 883c
000000c0: 5b1e f73b 0a50 043c a3fd 9b39 6c22 bc3b
000000d0: 4080 e6bb dc60 d83b 6ff9 d0ba 1f14 06bc
000000e0: ca75 aa3b d91f 683b 4010 ab3b 8b97 8a3c
000000f0: 86ad eb3b e93f 033c 990e 733c 050f 953a
00000100: ac33 0e3c 695a ae3b e60d 023b 4e3a 123b
00000110: e214 1d39 67ec 88bb c8da 36bb 2338 59bb
00000120: eb7f 44bb dc22 c93b 900e 743c 2ac8 ddb9
00000130: d481 adba 0c71 f83b 61f3 86bb b2d3 8dba
00000140: fe08 8a38 35d0 3abb c050 d53b 8f82 89bb
00000150: 7752 78bb 9fc4 683b b5f9 043c 5970 983b
00000160: 8f34 3c3c 48c0 a33b ec5c d43b a541 813c
00000170: f701 8c3a 62f0 2bbc bb1d 093c 0ec4 463c
00000180: a0be b83b 0943 9a3c 0c72 c13b 6522 3b3b
00000190: 1093 e0bb 7b3d f83b b4f1 b8bb 357e f7bb
000001a0: adf3 013c 7ae1 d8ba 3dcc 763b af6c b33a
000001b0: 0f43 8d3c 67ac ca3c 1a2d ac3b 65e6 ee3b
000001c0: 343b 6c3c 0e39 ef3b 37dc 043c de16 193c
000001d0: 4dc6 02bc 17d2 103b 64c6 553c 8a9c 463b
000001e0: d996 30bc b47d 6b3c 43f8 db3b 4a98 673b
000001f0: 05b8 543b d075 133b 4c63 b5ba 8530 03bc
0.00011880798 0.010655819 0.00037718905 0.008453132 0.007387351 0.00070995727 0.003369984 0.014358874
-0.0023578485 -0.0058433125 0.0006605013 -0.00477369 0.006712514 0.003460957 -0.0041551944 0.007657711
-0.0028596167 0.018939555 0.001943869 0.0038426772 0.009020966 0.0118900975 0.008377389 0.007052068
0.006828383 0.0040298295 0.0056626764 0.011249111 0.020824905 0.0038158284 0.00680664 0.020475246
-0.0034028115 -0.0031186657 -0.003141345 0.0065451544 0.002491186 -0.00066393893 -0.00895271 0.0071483655
0.013356854 0.0013717749 0.006766985 0.006790518 0.0024912995 -0.010451408 0.00033306069 0.016713098
0.0075414605 0.008075723 0.00029752878 0.005741408 -0.0070343316 0.0066033434 -0.0015943478 -0.008183508
0.00520203 0.0035419373 0.005220443 0.016917964 0.0071923165 0.008010843 0.014835023 0.0011372274
0.008679312 0.0053208363 0.001984471 0.0022312584 0.00014980466 -0.004178572 -0.00279014 -0.0033145032
-0.0029983472 0.0061381888 0.01489605 -0.0004230154 -0.0013237544 0.0075818356 -0.0041183685 -0.0010820536
6.582028e-05 -0.0028505449 0.0065098703 -0.004196472 -0.003789095 0.0035517586 0.008116175 0.0046520648
0.01148714 0.004997287 0.0064808037 0.015778372 0.0010681738 -0.010494323 0.008368905 0.012131704
0.0056379586 0.018830793 0.005903488 0.0028554436 -0.0068534687 0.0075756884 -0.0056440476 -0.007552887
0.007931632 -0.001654669 0.0037658357 0.0013689006 0.01724389 0.024740411 0.0052544 0.0072906488
0.014418412 0.0073005026 0.008109144 0.009343831 -0.007981849 0.002209788 0.013047788 0.0030305707
-0.010778152 0.014373232 0.0067129447 0.0035338574 0.0032458317 0.0022500642 -0.0013838797 -0.008007173

blocks.0.bn.weight f4 [64]
00000000: ab3c 803f 7302 803f cd4c 803f eef9 7f3f
00000010: 5334 803f 45a5 813f c477 813f f67b 813f
00000020: 0030 803f 0131 823f 5b91 7e3f 076e 7f3f
00000030: 70c1 7f3f 5b39 7e3f 401c 803f e009 7e3f
00000040: 42a4 813f c662 7f3f 3463 7f3f 4873 803f
00000050: 1e8a 7f3f 9768 803f 08d3 7e3f 6c3a 803f
00000060: cfe0 823f bf24 813f db9e 813f 0428 7f3f
00000070: 1b69 803f deb5 803f 26c6 7a3f e59a 803f
00000080: 5a72 7d3f 747e 813f 2c77 7f3f d11f 823f
00000090: 0915 7d3f 8db4 803f 76c7 803f 7092 7e3f
000000a0: 4807 813f 0599 803f 2422 803f 19a4 7f3f
000000b0: b9d0 7c3f 6fd6 803f 6e2a 7c3f efa6 813f
000000c0: f8ba 803f 5370 7c3f 29df 7c3f d148 7f3f
000000d0: f30e 7f3f 2f8d 7f3f 8e6a 7f3f a6a7 7e3f
000000e0: 801f 813f 61c0 813f 3244 7e3f e04d 813f
000000f0: acf2 803f e521 803f 877f 803f ab21 7e3f
1.0018514 1.0000747 1.0023438 0.9999074 1.0015968 1.0128561 1.0114675 1.0115955
1.0014648 1.0171205 0.99440545 0.99777263 0.9990454 0.9930627 1.0008621 0.9923382
1.0128253 0.9976009 0.99760747 1.0035181 0.99820125 1.0031918 0.9954076 1.0017829
1.0224856 1.0089339 1.0126604 0.99670434 1.0032076 1.0055501 0.979586 1.004727
0.9900261 1.0116715 0.99791217 1.016596 0.9886022 1.00551 1.0060871 0.99442196
1.0080347 1.0046698 1.0010419 0.9985977 0.98755985 1.006544 0.9850224 1.0129069
1.0057058 0.98608893 0.98778015 0.99720484 0.99632186 0.99824804 0.99771965 0.9947456
1.0087738 1.0136834 0.9932281 1.010189 1.0074058 1.0010344 1.0038918 0.99270123

blocks.0.bn.bias f4 [64]
00000000: c1af d43b 84ba 1b3c a69b 29bb f596 093c
00000010: 0cb7 4b3b 85f6 39bb 0827 95b9 25ae d33b
00000020: bb09 babb 12e1 54bc a8ad d73b 5625 e7b8
00000030: 9868 e6ba cee4 d3ba 9e62 da3b 3120 02bc
00000040: a78b 98bb df19 073c a08b 94bb 035e 74bb
00000050: fa6f 4abb 8128 503b dd71 94bb 4f8b 0c3c
00000060: 4930 14bc 004d bebb 99e6 4dbc b116 983b
00000070: 3561 1bbb c2ee c33b 21d6 103c e81e 333c
00000080: 6783 9f3c 9579 d3bb d2bb 043a 2c9b 82bb
00000090: 4d87 27bc a8b4 ac3b d4d4 e73b 04ad 85bb
000000a0: c380 0f3c 5a27 a7bb 54d7 c83b fe17 483a
000000b0: ba19 473b 9f0d a23b 04c2 a3bb 577f c5bb
000000c0: 0c47 edbb 1e1e f338 9a9c 48bc 192b 413a
000000d0: 1c4f 99bb a740 c93b 5d7a 373b f32b 7e3b
000000e0: e41c d43a 23e8 a9bb a268 4a3c 8cdc b0bb
000000f0: 86c8 9239 5335 ec3a 3216 573c 4cf3 063a
0.006490678 0.009504918 -0.0025880127 0.008397807 0.0031084446 -0.0028375697 -0.00028448575 0.0064599686
-0.0056774295 -0.012993114 0.0065819807 -0.00011021893 -0.0017578779 -0.0016166212 0.006664588 -0.007942245
-0.0046553197 0.008245914 -0.004533246 -0.003728748 -0.0030889497 0.0031762423 -0.004530175 0.008578136
-0.009044715 -0.005807519 -0.012567186 0.004641377 -0.0023709063 0.00597939 0.008840115 0.010932662
0.019471837 -0.0064537027 0.0005063388 -0.003985783 -0.010225129 0.0052705593 0.0070749316 -0.004079463
0.0087587265 -0.0051011266 0.0061291847 0.00076329696 0.0030380324 0.0049454714 -0.0049974937 -0.006027143
-0.0072411355 0.00011592753 -0.012244368 0.0007368788 -0.00467862 0.0061417404 0.0027996518 0.003878352
0.0016182926 -0.0051851436 0.012354048 -0.005397385 0.00027996692 0.0018021263 0.01312785 0.00051479484

blocks.0.bn.running_mean f4 [64]
00000000: 9aaf d53d b2e8 ffbd ad85 9d3d ad80 203d
00000010: 543d 383d 7309 81bd e2fb 05be 2e96 b8bc
00000020: b1f4 923b 04a1 cebb 0b81 733d 33d5 c2bd
00000030: 8dd4 f13d f000 913d 6da6 8cbd 6305 df3c
00000040: 0655 b63c 0986 aa3d 7242 fc3b e04e 6b3c
00000050: 45fc acbd 8875 0fbd 20a1 e9bc fcf1 9e3d
00000060: ddb8 063e 6218 cb3a d540 ccbb 46b5 26bc
00000070: 54a8 0abc 9252 09bd d20d 973d ac2e a7bd
00000080: fba9 b23d d358 32bc dab0 c7bd 3a11 e13c
00000090: a2e5 2a3d feb7 7fbd f0d3 883d 106c 15be
000000a0: 1f26 23bd 8787 d13b 412e 2cbe 1e80 1b3d
000000b0: e04d 05be 61d9 2ebb 4c58 8abd 2445 623c
000000c0: 9d21 023e 49ff e83d f540 213d 9202 b43d
000000d0: da12 0d3c bf8d 02bd aec5 b13d a166 fdbc
000000e0: 2ac6 843d 1d07 1e3d 9cda 863d 4fcb 01bd
000000f0: 7765 1d3d 4c3a d83d 2eed 703c 4bd5 2b3c
0.10433884 -0.12495555 0.07691512 0.039185215 0.044980362 -0.063006304 -0.13084367 -0.022532549
0.004484736 -0.0063058157 0.059449237 -0.09513321 0.11808119 0.07080257 -0.06867681 0.027224248
0.02225734 0.083263464 0.0076983506 0.014362067 -0.08446554 -0.035024196 -0.028519213 0.077609986
0.13156457 0.0015494938 -0.0062333145 -0.010175055 -0.008462984 -0.03352601 0.07375683 -0.08163199
0.087238275 -0.010885435 -0.09750529 0.027474035 0.0417229 -0.062431328 0.06681049 -0.14592004
-0.039831277 0.00639433 -0.1681452 0.03796398 -0.13017988 -0.002667986 -0.067551225 0.01381043
0.12708135 0.11376817 0.03936859 0.08789553 0.008610452 -0.03187346 0.086802825 -0.030932726
0.06483109 0.038581003 0.06584665 -0.03168803 0.038426843 0.10557994 0.014704986 0.010487865

blocks.0.bn.running_var f4 [64]
00000000: edbf c13d 0ee1 5e3e 8ea2 cd3d c266 003e
00000010: 9bbd 763d ddab 453d 4a3c 0f3e f5e6 873d
00000020: 5a95 dc3d 7975 df3d 511b 283e 53de 473e
00000030: 1afc 993d d7b4 ba3d 5ea9 5c3d 0d84 6e3d
00000040: dbce 053e e61e b23d fd05 8e3d e96a 303e
00000050: 0b6f 243e 6d41 863d 7214 083e 8365 093e
00000060: 97cb 643e 07c3 7a3d 8b8f 5f3d 58fe ad3d
00000070: 502b 213d e50c 073e 4cb8 8e3d 6ec6 e23d
00000080: 460c 4a3e 8f98 bd3d fab7 453e b3fb 973d
00000090: 4e14 ca3d ec3d 1f3e 36f0 913d b862 493e
000000a0: 75ca 413e a644 963d e4cd 513e c601 933d
000000b0: c2e2 233e 7eff 913e 450f b43d 1b46 db3d
000000c0: 2a96 c03d 84e7 0f3e 04c3 7f3d e1fd 953d
000000d0: e785 b43d 2ea0 a83d a2ce 783d 5add 0f3e
000000e0: f73d cf3d 1ad0 8e3d 7052 843d dc32 833d
000000f0: b29c 3e3e 4c6e 0b3e 4272 9f3d f7cb 133d
0.09460435 0.21765539 0.100407705 0.12539199 0.060239416 0.048259605 0.13987842 0.066358484
0.10770674 0.10911078 0.1641667 0.19518404 0.07518788 0.09116524 0.05387246 0.058231402
0.1306719 0.086973 0.06934736 0.17228283 0.16057985 0.06555448 0.1328905 0.1341763
0.22343288 0.06122115 0.054580253 0.08495778 0.039347947 0.13188513 0.069687456 0.11073004
0.19731244 0.09257614 0.19308463 0.07421055 0.09867154 0.15550965 0.07125895 0.19666564
0.18924887 0.073373124 0.20488697 0.07178073 0.1600447 0.28515238 0.08791975 0.10706731
0.094036415 0.1405316 0.06244184 0.07323814 0.08814602 0.08233677 0.060743935 0.14049283
0.10119241 0.06973286 0.06461036 0.06406185 0.18614462 0.13616294 0.07785465 0.036083188
