TGNN2026/artifacts_MTGNN1m_heads&util/overall_best_weights.pt (torch, 803017 bytes, 83 tensors)

A_static f4 [3, 3]
000000 ab aa aa 3e ab aa aa 3e ab aa aa 3e ab aa aa 3e
       0.33333334 0.33333334 0.33333334 0.33333334
000010 ab aa aa 3e ab aa aa 3e ab aa aa 3e ab aa aa 3e
       0.33333334 0.33333334 0.33333334 0.33333334
000020 ab aa aa 3e
       0.33333334

in_proj.weight f4 [64, 15]
000000 64 73 ea 3c 5b a2 ba 39 54 a1 69 3e 4c db ad bd
       0.028619476 0.0003559765 0.22815448 -0.08489093
000010 00 44 6e 3c 3b be 0d 3b ad 82 8a be 66 cd 84 3d
       0.01454258 0.0021628279 -0.27052823 0.06484489
000020 23 fe df bd 2b 84 97 bd 72 cd 23 be 61 99 64 3b
       -0.109371446 -0.07398256 -0.1599634 0.003488146
000030 87 0f 87 3e 6c 00 02 be 54 f0 79 3e 85 d0 99 bd
       0.26379034 -0.12695473 0.24408084 -0.07510475
000040 9c ef 6e bd f5 44 ef 3d 00 f8 32 be 9a 51 17 be
       -0.058333978 0.116830744 -0.17477417 -0.14777222
000050 3c d9 d3 3d 18 08 6d be c1 1a fa bb c8 30 7a be
       0.103441685 -0.23147619 -0.007632584 -0.24432671
000060 72 13 30 3d cc 2b 60 3e 80 59 a4 3d b9 38 06 3e
       0.042987294 0.21891707 0.08024883 0.13107575
000070 f5 a2 01 3e 98 87 a2 3d 9c ce 81 be 1d 21 2f be
       0.1265982 0.07936019 -0.25352943 -0.17102475
000080 bb 06 7e bc 5c 28 26 be c8 79 64 3e 66 1b a9 3d
       -0.015504534 -0.16226333 0.22312081 0.08257179
000090 52 a2 6f be 20 f8 30 3e 87 5f 40 3c 41 3a 1f be
       -0.23401764 0.17282152 0.0117415255 -0.15549566
0000a0 0d 15 86 be 12 45 78 3a 3b a2 0d be ef 1a 9d 3c
       -0.26187935 0.00094707415 -0.13831417 0.019177882
0000b0 6f 5d 0a bd a4 23 19 3e 95 c1 81 be 78 be 44 3e
       -0.03378051 0.14955002 -0.25343004 0.19213283
0000c0 47 58 9a bd 72 fa 3a be 73 da 4b 3e aa 22 fd bd
       -0.07536369 -0.182596 0.1990755 -0.12360127
0000d0 78 16 8d be 54 4c 89 be f5 f3 d6 bd e6 43 8c 3e
       -0.27556205 -0.26816046 -0.1049575 0.27395552
0000e0 86 d8 4b be 12 9a 75 3e 80 6f 04 be 6d 1a 54 be
       -0.19906816 0.23984554 -0.12933159 -0.20713206
0000f0 f4 26 37 be 49 95 92 bd 13 44 aa 3d fb cf bf 3d
       -0.17885953 -0.0715738 0.083137654 0.09365841
000100 eb 40 6e 3e e2 cb 65 3e ce f2 eb bd 7b 53 5c 3d
       0.23266952 0.22441056 -0.11520921 0.05379055
000110 db b0 7e be 9b 25 33 be 62 51 96 3d 62 31 62 3e
       -0.24872153 -0.17494814 0.07339741 0.2208915
000120 b1 ca 62 3e cc a0 90 3d f6 0c ee 3d 84 4b cc 3d
       0.22147633 0.070619196 0.11623566 0.09975341
000130 67 65 89 3e 7e da 9b 3d ad 7f 38 be 4c 29 bc 3d
       0.26835176 0.076100335 -0.18017454 0.09187564
000140 15 f9 b7 3d b1 5d 48 3d a3 38 43 bc 64 ae 5c be
       0.089830555 0.048917476 -0.011915359 -0.215509
000150 f5 85 24 be b6 9d 15 3d a1 44 bd 3d c0 2f 53 be
       -0.16066726 0.036527358 0.092416056 -0.20623684
000160 9c b8 3a bd e0 82 a4 bb 78 c9 83 be 52 66 5c be
       -0.045586213 -0.0050204843 -0.25739646 -0.21523407
000170 d8 b4 e2 3d 7c df 77 3e 77 f0 72 be cb 5f 68 bd
       0.110696495 0.24206346 -0.23724543 -0.05673198
000180 6e c6 66 3d 44 c2 5f be eb 9d 8b be 3f 6c 1e be
       0.05634158 -0.2185145 -0.2726892 -0.1547098
000190 9e d8 d5 3d f0 c0 85 3e 03 48 19 be 4f fb 6d 3e
       0.10441707 0.26123762 -0.14968877 0.23240398
0001a0 55 aa 06 be 32 1c 62 be 78 68 4f 3d 5e 5b 00 be
       -0.13150914 -0.22081068 0.05063674 -0.12534854
0001b0 5f 39 4d 3e b7 8d 92 bc b1 4d 50 3e 5c 94 79 3c
       0.20041417 -0.01788984 0.20342137 0.015233126
0001c0 0a 5e 3b be 0c 99 bb bd d2 62 ab bd ca e1 1e 3e
       -0.18297592 -0.09160051 -0.08368458 0.15515819
0001d0 80 c0 a5 3d 1d d1 0d bd 25 ea bb bd d0 6b a8 bc
       0.08093357 -0.034623254 -0.09175519 -0.020559222
0001e0 8f 71 a0 3d b6 35 14 3e 8c 58 3a 3e 15 7e b5 bb
       0.078341596 0.14473614 0.1819784 -0.005538712
0001f0 d2 6a 83 be da 04 e0 3c ac 75 a0 bb 50 22 b3 3d
       -0.25667435 0.027346063 -0.00489684 0.08746779
000200 bd 88 10 3e 04 e2 2c bd ff cc 07 bd f4 25 73 be
       0.14114662 -0.042207733 -0.033154484 -0.23744947
000210 62 a2 0b 3e 3e 2d 8b be 20 05 7b bd ec b8 67 be
       0.13636163 -0.27182955 -0.061284184 -0.22629136
000220 cc 54 84 be 35 04 83 3d e8 18 68 3e de be 84 3e
       -0.25845945 0.06397287 0.22665751 0.2592687
000230 42 6a 81 bb 02 17 88 bc 99 74 94 3d ab 23 76 3e
       -0.0039494345 -0.016612533 0.07248802 0.24037044
000240 0d 7f 61 be 81 d0 e6 bd d8 cd 46 be 43 46 40 3e
       -0.22021122 -0.11270238 -0.1941446 0.18776803
000250 97 92 a3 bb 7c 5e 81 be 61 32 80 3e 48 56 2c be
       -0.00499184 -0.25267398 0.25038436 -0.16829789
000260 bc b0 1c 3e 02 f0 0e 3e 6d 5e 3a bd 0f c5 91 bd
       0.15301794 0.13958743 -0.045500208 -0.07117664
000270 b9 a1 e6 bd 75 4d a8 3d be 42 79 3e d0 2d de bb
       -0.11261315 0.08217899 0.24341866 -0.0067803636
000280 3f 04 80 3c bd f8 0b be d2 b8 8c bd 5e 1c 2b 3e
       0.015627025 -0.13669105 -0.06871189 0.1671004
000290 b5 ce 60 be 93 33 07 3c cd a3 65 be f4 e4 a0 bc
       -0.21953852 0.008252042 -0.22425766 -0.019640423
0002a0 0b 5f 8e be 8e f2 45 3e 05 4f 9e bd 26 90 5f be
       -0.27806887 0.19330809 -0.077299155 -0.21832332
0002b0 1c b0 1a be 9d c2 86 be c2 52 af 3d b8 07 da 3d
       -0.15106243 -0.26320353 0.08560707 0.106460035
0002c0 a0 fe 4e be 22 3b f3 3d c9 fc fd 3c 9b bc 5a be
       -0.20214319 0.11876513 0.031004326 -0.2136101
0002d0 8a 80 0a be 8e 0a a9 bb 9b ff 75 3e cc bf 1c ba
       -0.13525596 -0.005158729 0.24023287 -0.00059795077
0002e0 f7 bd 7c 3e cb da 65 3e 3e 32 e9 3d 53 3f 01 3e
       0.24681841 0.22446744 0.11386536 0.12621813
0002f0 64 c3 28 3e 8d 82 28 be e5 88 68 be 46 72 ea 3d
       0.16480786 -0.16456051 -0.22708471 0.11447577
000300 5b c3 a5 bd d2 de fb 3d 4f df 75 3d fa 30 2d be
       -0.08093902 0.12298359 0.060027417 -0.16913214
000310 ac 14 2b be 6d bf b8 3d c2 da 90 3e 4a ea 49 3e
       -0.16707104 0.090208866 0.282919 0.1971828
000320 ad 7d a5 3d 29 6e 4a 3e 0a e9 2c bd b1 92 0a 3e
       0.080806114 0.19768585 -0.04221443 0.13532521
000330 ac 60 4c 3e cd 76 ff bd 12 22 ea 3d 7e 15 37 3d
       0.19958752 -0.12473831 0.1143228 0.04469823
000340 c7 19 96 3c 73 d3 6c be dd cb 61 3e 44 71 87 3d
       0.018322838 -0.23127536 0.22050424 0.066134006
000350 0a 8e 3f be e0 f0 63 3e 31 f9 88 3e c4 9d b7 3d
       -0.18706527 0.22259855 0.26752618 0.08965638
000360 e3 9c f2 3d 6b 90 7d be 0a e7 d8 3c bc 80 6e 3e
       0.1184633 -0.24762122 0.026477356 0.23291296
000370 69 da 0c 3e f3 c6 6c 3e 01 21 ce bd e3 2a 3a be
       0.13755192 0.23122768 -0.10064889 -0.18180422
000380 67 b5 82 be 6a a6 21 3d 43 35 ec bc 5a 14 8c be
       -0.25529024 0.039465345 -0.02883399 -0.27359277
000390 7c 52 36 be 54 8f ec bc b0 e2 cc 3c a6 4a 0c be
       -0.17804903 -0.028876938 0.025010437 -0.13700351
0003a0 87 55 0d be 78 32 bb bc 6e ac 47 bd 02 71 97 3d
       -0.13802157 -0.022851214 -0.048748426 0.073946014
0003b0 03 e1 ab 3d dc 8a 81 3d 45 6d 89 be 58 79 31 3e
       0.08392527 0.063253134 -0.2684118 0.17331445
0003c0 87 6c 10 be 23 18 26 bc 4b 08 84 3e fe b3 2b be
       -0.141039 -0.010137591 0.25787577 -0.1676788
0003d0 83 45 05 3b e9 2c 5b bd b0 4d d8 bd 8a 3f 18 3e
       0.0020335622 -0.053509627 -0.10561693 0.14867988
0003e0 fd 00 bd bd ee 1c 4c be 4a 4c 59 bd a9 f5 87 3d
       -0.09228704 -0.19932911 -0.05305127 0.06638653
0003f0 6a 79 2e bd b4 4b 53 3e 14 12 55 3e fa 56 e1 bd
       -0.04259626 0.20634347 0.20807678 -0.110029176

in_proj.bias f4 [64]
000000 e2 85 19 ba eb e6 71 3a 00 c6 d8 3b 62 73 49 ba
       -0.0005856437 0.000922783 0.0066154003 -0.0007684735
000010 3a c8 41 3b 0e 30 46 39 69 6e 46 bc 98 cb d2 b9
       0.0029568807 0.00018900653 -0.012111285 -0.0004020601
000020 ad 96 85 3b 8c 06 80 3c 1f 87 a7 3b bc 7d 4d bb
       0.0040768 0.015628122 0.0051125432 -0.003135546
000030 41 17 e0 3b 1a 12 89 bc 89 20 ac ba 67 0f 8e 3b
       0.0068387096 -0.016732264 -0.0013132255 0.004335332
000040 82 a5 16 bc c0 da 72 bb 87 74 38 bb 08 15 cf 3b
       -0.009194734 -0.0037056655 -0.0028145628 0.006319646
000050 f1 3d b8 ba c7 85 4a 3b f7 89 bb ba e8 d4 49 bb
       -0.0014056546 0.0030902491 -0.0014308085 -0.0030797068
000060 1f c4 df ba 69 a1 9a 38 42 60 82 3b 0e e1 9c 3a
       -0.0017071998 7.373357e-05 0.00397876 0.0011968927
000070 a3 1a 71 3b cb 95 ca bb bb a5 07 3c 7a 6f 90 3b
       0.0036789558 -0.0061824075 0.008279259 0.0044078203
000080 49 b4 94 3b 5b af 67 3b 9b 52 99 3a 18 35 79 3b
       0.004538093 0.0035352323 0.0011697592 0.003802603
000090 80 5c 0d 3b 23 23 bc 3b 2e 71 84 3b 6a 43 db ba
       0.0021570027 0.0057414933 0.0040418124 -0.0016728465
0000a0 1b c7 84 bb 76 98 01 3a 22 c6 e8 3b 34 74 7b bc
       -0.0040520555 0.0004943678 0.0071036974 -0.015347529
0000b0 f7 be 04 3a 49 b6 48 3c f1 7e 45 3c e7 e6 46 3b
       0.00050638564 0.012250491 0.012054191 0.003035003
0000c0 69 21 04 3c d7 3f 91 3b 7f 65 45 bb 51 2e c5 39
       0.008064606 0.004432659 -0.003012031 0.00037609276
0000d0 f4 0b d9 bb f0 2e a9 3a 4e 0d 7b bb f5 b0 84 3b
       -0.0066237394 0.0012907665 -0.003830749 0.0040494152
0000e0 8f 2b 98 bb 96 e9 81 bc 49 15 19 3c 8a d1 29 bc
       -0.0046438645 -0.015858453 0.009343454 -0.010364899
0000f0 98 71 08 3c e6 a6 0a 3c 6e 82 be 3b f1 2a 34 3c
       0.008327864 0.008462643 0.0058138883 0.010996566

adapt.E1 f4 [3, 8]
000000 9f bc 40 3c 5a d8 03 3c d0 e4 87 bc a0 22 34 3c
       0.011763721 0.008047188 -0.016588598 0.010994583
000010 cc a8 05 b9 22 97 39 3c c3 2e 56 bb 5b ad 28 3a
       -0.0001274675 0.011327537 -0.003268168 0.00064345234
000020 92 0a 92 bd 03 a3 91 bd 3e 27 95 3d 63 eb 90 3d
       -0.071309224 -0.0711117 0.072828755 0.070761465
000030 7a a7 83 3d c3 1e 92 bd 96 b7 68 3d a5 84 70 3d
       0.06428428 -0.071347736 0.056815706 0.05872025
000040 f9 37 be bd 4e 2e 9d bd 76 86 aa 3d 42 ef bb 3d
       -0.0928802 -0.076748475 0.08326428 0.09176494
000050 1e 85 ef 3d 02 c4 a8 bd 9b df e7 3d 85 05 f8 3d
       0.11695312 -0.082405105 0.11321946 0.12110428

adapt.E2 f4 [3, 8]
000000 ef 37 68 bb 60 f9 4b bc 5d ca ad bb 43 0d 13 bc
       -0.003543373 -0.012449592 -0.0053036646 -0.00897533
000010 10 a5 df 3b 8c 23 69 3b 43 49 89 bc fc 60 77 3a
       0.006825097 0.0035574166 -0.016758567 0.0009436754
000020 6d 9b f9 bb 01 8e 82 3c 4d 1c d5 bb cf e3 aa bc
       -0.007617405 0.015936853 -0.006503618 -0.02086058
000030 b5 45 11 ba c7 1e c9 ba 2c 26 94 3b ed 2e 0e bb
       -0.0005541698 -0.0015344255 0.004521152 -0.002169545
000040 d8 f5 9f bd 74 fa 85 bd 45 ab 98 3d a9 67 c7 3d
       -0.07810563 -0.06541911 0.07454542 0.097365685
000050 d4 fc c9 3d c6 2c b0 bd 31 45 cb 3d 30 b0 c1 3d
       0.09862676 -0.0860229 0.099253066 0.09457433

support_mix.w_logits f4 [3]
000000 f9 c7 cf bb dc 66 13 3b ca 6d e2 3a
       -0.0063409773 0.002249173 0.0017275151

blocks.0.filter_conv.conv.weight f4 [64, 64, 1, 2]
000000 2b 74 80 3b 0c 53 ad 3d 30 96 cf bb 49 4b 7f 3d
       0.0039200983 0.084631056 -0.0063350424 0.062327657
000010 4b 89 26 3b ed 67 b7 3d ef bd 92 bd 57 c9 a4 bd
       0.0025411423 0.08955369 -0.07165133 -0.08046215
000020 d1 4a 21 bd 33 d4 1e 3c e7 2d 8d bd 11 2a af 3d
       -0.03937799 0.009694147 -0.06893521 0.085529454
000030 01 3b 0d 3e 9d eb d3 3d 97 db 6e bd 83 76 10 3e
       0.1379204 0.10347674 -0.058314886 0.14107709
000040 a7 a0 0c 3e d4 87 ad bb 67 60 fb bb 49 8e ce 3b
       0.13733159 -0.005295733 -0.007671404 0.006303583
000050 93 30 e6 bd b7 f7 18 3e e8 38 f1 3d 14 fd c8 bd
       -0.112397335 0.14938246 0.11778432 -0.09813896
000060 5c 0b 4a 3d bc 1a f2 bd 7e fc f5 3d bb 8b 5d 3c
       0.04932724 -0.118215054 0.1201105 0.013522084
000070 7a 36 12 3d b7 46 00 3e 24 b5 95 b9 e6 5e e3 bd
       0.035696484 0.12526976 -0.00028554455 -0.11102085
000080 52 e3 8b bd 64 05 e6 3d 53 8b e0 3d 20 ef 8f 3d
       -0.06830467 0.11231497 0.10964074 0.07028031
000090 bf 57 ce 3d 87 c1 6e bb 4c 1d 1f 3d 91 62 0c be
       0.1007533 -0.003643127 0.0388463 -0.13709475
0000a0 0b d8 8b bd 07 13 e7 3d f9 4f bb ba 8e b9 15 be
       -0.06828316 0.11282926 -0.0014290801 -0.14621565
0000b0 2b e4 a3 bd 91 01 05 be 58 bf 8b bd ec 95 2e 3d
       -0.08002504 -0.12988879 -0.06823605 0.042623445
0000c0 3e f4 be bc b9 99 d3 3d 96 00 97 bc 86 bb e4 bd
       -0.023309823 0.10332055 -0.018432897 -0.1116858
0000d0 8f 36 19 3e 84 35 0f bb 39 2b dc 3d df 3c 74 3c
       0.14962219 -0.0021851966 0.107504316 0.014907091
0000e0 c7 c4 5b 3d 13 2e 00 3e 8b 2f 00 be 70 a8 61 bd
       0.05365446 0.12517576 -0.12518136 -0.055092275
0000f0 00 9e d7 3d 5c 1a d1 bb 65 3b 89 3d d5 94 c5 3d
       0.10528183 -0.006381316 0.06700782 0.09647528
000100 73 b1 99 3d 4e e9 31 bd 8e aa 02 3e f6 af cc bd
       0.07504549 -0.043435387 0.12760374 -0.099944994
000110 40 38 68 3b d4 da 89 bc d9 b4 05 be ae 33 a7 bc
       0.0035433918 -0.016827978 -0.13057269 -0.020410385
000120 a2 33 fe 3d a9 8f aa 3d 15 2d 49 bd a3 58 d5 3c
       0.12412192 0.08328182 -0.04911526 0.026043242
000130 01 49 8b 3d 64 40 19 bb 2c 9d d2 bd 66 a1 04 be
       0.06801034 -0.0023384327 -0.102838844 -0.12952194
000140 5d 88 0d bd 98 21 14 be db ec 6d 3b 64 84 75 bd
       -0.034553874 -0.1446594 0.0036304507 -0.05994071
000150 61 dc d0 3d ee 8e 8c 3d 3b 85 0b 3d 0b 6f 82 3c
       0.10198284 0.06863199 0.034062605 0.01592209
000160 9e 77 19 be eb 23 3f 3d cc 4a 06 be a3 42 11 bd
       -0.14987037 0.046665113 -0.1311447 -0.03546394
000170 05 d3 e8 3d 7b f6 9d bd d6 72 11 be c1 a1 85 bd
       0.11368374 -0.07713028 -0.14203963 -0.06524993
000180 05 09 c8 3c bc 5b e8 bc 2e 44 04 3d 38 55 e1 bd
       0.024418363 -0.028364055 0.032291584 -0.11002582
000190 33 6f 13 be 2b c3 c0 3d cf a3 c2 bd f7 85 5d bd
       -0.14397888 0.09412225 -0.095039 -0.054082837
0001a0 dc a1 f4 3c 99 18 ea 3d 24 8f e0 bd a6 24 fc 3d
       0.029862337 0.11430473 -0.10964802 0.12311678
0001b0 65 f6 b9 3d bb 4c bf bd c3 5d 89 bb 2a f9 9d bd
       0.09080199 -0.09340807 -0.0041920855 -0.0771354
0001c0 cc 20 b9 3d 05 cd 18 3d 2f 7b bd 3d 39 3e bc bd
       0.09039459 0.037304897 0.09252011 -0.091915555
0001d0 a5 e0 f6 bc d8 8e 39 bd cb a3 11 3e fd 25 e3 3c
       -0.030136416 -0.045302242 0.14222638 0.027728075
0001e0 fd b2 d5 bd b1 2e 00 3e 60 5e b1 bd 30 1a 73 bc
       -0.1043453 0.12517811 -0.08660579 -0.014837787
0001f0 23 4a 0e be 29 cc 01 3e 44 bb 1a be 6a b9 2e bc
       -0.13895468 0.12675537 -0.15110499 -0.010664323
000200 c5 b9 da 3d a8 a0 05 be 5c 1b b7 bd 5d 97 9b 3d
       0.10679964 -0.13049567 -0.08940765 0.0759723
000210 5d c6 ac 3d c2 9f b3 3c 13 a0 9a 3d 51 85 d6 3d
       0.08436272 0.021926764 0.07550063 0.10474647
000220 be 2c 0a bc 5b 29 de bd 02 08 19 bb 82 e1 c4 bd
       -0.008433519 -0.10847732 -0.002335072 -0.09613325
000230 b8 ae b1 3d 34 d5 ab bd f8 50 07 3e a4 9a 80 3c
       0.08675903 -0.08390275 0.13214481 0.015698738
000240 c5 b3 18 bd c6 e6 97 bc 7b cc 0a 3e 31 d0 c0 3d
       -0.037280817 -0.018542659 0.13554566 0.09414709
000250 8c a9 eb bd f3 75 75 3d f5 b1 e2 bd 50 c0 0e be
       -0.11506948 0.05992694 -0.11069099 -0.13940549
000260 68 6b a6 3b 47 76 a8 bd a0 dc 18 3e f5 a5 bf 3d
       0.005078722 -0.082256846 0.14927912 0.09357826
000270 b1 f5 f0 3d 00 16 03 3e 9f 69 88 3d 98 be 12 be
       0.11765612 0.12801361 0.066607706 -0.14330518
000280 bf 81 08 bd 94 31 ff bb 18 36 e2 3d 15 2f d2 3d
       -0.03332686 -0.0077878926 0.11045474 0.102628864
000290 ff ae f2 bd b1 42 a2 bd c4 94 52 3a db 2e 0e 3c
       -0.11849784 -0.079228766 0.0008033032 0.008678163
0002a0 48 78 5e bc e3 c2 e4 bd 62 b6 03 be 3a e4 4b bd
       -0.013578482 -0.11169984 -0.12862542 -0.0497782
0002b0 ae 77 8f bc a0 85 0e 3e 32 74 a4 3d 07 86 8e bc
       -0.017513122 0.13918161 0.08029975 -0.017397894
0002c0 e0 01 45 bc be 50 9f 3c 4a 87 00 3e 23 e8 ef bc
       -0.012024373 0.01944768 0.12551609 -0.029285496
0002d0 d1 a4 08 be 84 3d 82 3d ed cd d0 bd 1b 01 f5 bd
       -0.13344122 0.063593894 -0.10195527 -0.119631015
0002e0 41 d4 ea 3c 30 1b cc 3d 6e 3e 1a bd eb ad 49 bd
       0.028665664 0.09966123 -0.037657194 -0.049238127
0002f0 ab bc 44 3d 60 e0 9d 3d 58 80 3d bb 23 7d a5 3d
       0.04803149 0.07708812 -0.002891561 0.080805086
000300 a9 a2 b3 bd e0 9d f3 bc 04 31 03 3e b4 25 61 3d
       -0.08771259 -0.029738367 0.12811667 0.054967597
000310 36 94 1b be 67 cd f5 bd 71 75 9f bd a5 dd 2a 3d
       -0.15193257 -0.12002068 -0.07786072 0.041715283
000320 d5 e5 17 bd ad be 17 bc 3e 4a 99 bd c2 cc 8c 3d
       -0.03708442 -0.009261769 -0.07484864 0.06874992
000330 3a 90 02 be e6 21 05 be 84 58 0e be 32 09 fa 3d
       -0.1275033 -0.13001212 -0.13900954 0.12208785
000340 f7 30 0c be b1 4e 04 be a5 c7 c2 3d 34 49 03 3e
       -0.13690554 -0.12920643 0.095107354 0.12820894
000350 60 14 cc 3d d1 9c e2 3d a3 f5 1f be 84 d4 04 be
       0.09964824 0.110650666 -0.15621047 -0.12971693
000360 ee cf 5a 3d ea d8 e8 3d ca ea 07 3e 18 c2 dc bd
       0.053420953 0.11369498 0.13273159 -0.10779208
000370 3d d6 12 be a6 84 3f 3d ee 56 9f bb f7 ac 8b bd
       -0.14339538 0.046757363 -0.0048626577 -0.068201
000380 b3 a1 0b 3e 9b 47 cf bd 27 09 65 bd 7e 45 b9 3a
       0.13635902 -0.101210795 -0.05591693 0.001413509
000390 8c bc 85 bc 0d f4 dd 3d ba a1 8c bd d5 53 09 be
       -0.016325258 0.108375646 -0.068667844 -0.13410886
0003a0 30 64 f8 3d 41 d4 8d bd bc 0a df bd 28 6c bc 3d
       0.12128484 -0.0692525 -0.10890719 0.09200317
0003b0 67 ef ff 3d 7b d3 9a bc 1f 1e 84 3c 26 0f 7c 3d
       0.12496834 -0.01889967 0.016127644 0.061537884
0003c0 32 32 de bc 8e 39 9b bd 9b db 14 be 55 9e ed bd
       -0.027123544 -0.07579337 -0.14536898 -0.11602465
0003d0 91 ff 35 bd d9 bb 17 bd f3 44 18 3e 2a 3a a0 bc
       -0.04443318 -0.03704438 0.14870052 -0.019558985
0003e0 06 57 0d 3e 0e 1b f3 3d f2 77 17 bd f0 9e b5 3c
       0.13802728 0.11870395 -0.036979623 0.022170514
0003f0 36 6f ad bd 0d 1a c7 3d 1e 28 0d 3e f1 cf 08 be
       -0.084684774 0.09721766 0.13784835 -0.13360573

blocks.0.filter_conv.conv.bias f4 [64]
000000 ec 45 45 ba 01 0e b3 b9 90 dc 71 bb 3b bd b2 bb
       -0.0007525373 -0.00034151974 -0.0036905147 -0.005454687
000010 f8 5b 8a bb 77 ef 3f bc dc 7c a1 ba 33 19 dc bb
       -0.0042223893 -0.011714808 -0.0012320536 -0.006716871
000020 be e2 cb 3b d4 25 ae b9 6c 4c 73 bb 2f 31 f1 bb
       0.006222098 -0.0003321605 -0.0037124408 -0.0073605995
000030 4d 4c 6f bb d9 5f 05 3b c8 df d3 3a 22 d4 6a 3a
       -0.0036513985 0.002035132 0.0016164714 0.0008958002
000040 49 9b de 3b 7b a7 12 bc 35 1a 84 bb bb 40 d3 bb
       0.006793414 -0.008951063 -0.0040314444 -0.0064469255
000050 fb ec 55 3c 50 8e 3f bc f2 90 19 3c 0a e4 8a 3a
       0.013056989 -0.011691645 0.009372937 0.0010596525
000060 cf 53 07 3b 27 31 98 bb 24 59 3a b7 e1 06 65 bb
       0.002064932 -0.0046445313 -1.1107219e-05 -0.0034946727
000070 9d 4c d0 3a fd ab 22 bc 10 75 c4 bb c8 eb e8 bb
       0.0015891973 -0.0099287005 -0.0059954002 -0.0071081854
000080 94 90 f9 3b b2 56 0e 3c d0 3e b5 bb b1 c7 34 3b
       0.007616112 0.008687662 -0.0055311695 0.0027584846
000090 b4 ce aa 3b 57 93 88 3c cd 39 9a 3b 83 af b9 ba
       0.005212629 0.01667182 0.0047065974 -0.0014166686
0000a0 22 b0 49 3b eb 69 9b 3c 45 35 17 bb 15 ca 0c 3c
       0.003077515 0.018971404 -0.0023072523 0.008593102
0000b0 7a 04 0c b9 86 2e 21 3b 7b 3c 51 3b 26 b5 99 3b
       -0.00013353108 0.002459438 0.0031926918 0.004690784
0000c0 7d 07 c4 3a 71 04 1e bc 39 3b 41 3c f7 00 58 ba
       0.0014955845 -0.009644614 0.011793905 -0.000823989
0000d0 29 2e 20 3c 42 fe 94 3c da b5 80 bb 2d 48 4c ba
       0.00977663 0.018187646 -0.0039279284 -0.00077927375
0000e0 50 ec 54 36 20 10 2c 3c 73 f5 54 bb 08 53 8d bb
       3.1728014e-06 0.010501891 -0.0032494932 -0.0043128766
0000f0 27 61 c8 bb 3a 2a 92 bb d0 a6 0e 3b 11 ba 08 bc
       -0.006115097 -0.0044606 0.0021766908 -0.008345143

blocks.0.gate_conv.conv.weight f4 [64, 64, 1, 2]
000000 66 5b 9f bd 5f c7 58 3d b1 15 bc 39 13 59 93 bd
       -0.07781105 0.05292451 0.00035874316 -0.07194724
000010 66 cb f7 3d 2c 16 b8 3b 60 bd 0d be 3e a5 97 3d
       0.12099342 0.0056178775 -0.13841772 0.07404564
000020 db 2c 9b 3d b2 15 d8 bd bb ae 8b bd 8c 42 23 3d
       0.07576915 -0.10551013 -0.068204366 0.039858386
000030 ea 5b de 3c db 1d 12 3e df c5 cc bd 37 6a 52 bd
       0.027143437 0.14269201 -0.099986784 -0.051370826
000040 d5 7c ea bc 43 bb 13 3e 51 fb 61 bd 79 ee 63 3c
       -0.028623978 0.14426903 -0.055171315 0.013911837
000050 0c 30 d2 3d af 99 c6 3b 38 7d 70 3d e9 80 a5 3d
       0.102630705 0.006060801 0.058713168 0.08081228
000060 c7 e8 bd 3d 88 a4 cf bd 73 94 f0 3d 42 f1 26 3c
       0.092729144 -0.10138804 0.117470644 0.010189356
000070 72 28 00 3e 94 a5 0d 3e e6 c4 1c bd 9a 22 95 3d
       0.12515429 0.13832694 -0.038273714 0.0728199
000080 d3 9d 09 3e ce 7f 9f 3d 36 87 a5 bc 41 d0 1b 3e
       0.13439111 0.07788049 -0.020206075 0.15216161
000090 c7 02 b4 3d 47 cd e7 bd 07 7c 3b 3c e2 d5 23 bc
       0.08789592 -0.113184504 0.011443145 -0.009999724
0000a0 cd f5 04 be 09 55 1c 3c c5 88 f2 3c 4b ad 92 bd
       -0.1298439 0.009541758 0.029606232 -0.07161959
0000b0 57 1f 93 3c 80 f0 9c bc 3d b7 b2 bd 86 c4 60 3a
       0.01795928 -0.019157648 -0.08726356 0.0008574206
0000c0 fe 9a 8b bd 88 87 a1 bd 2e 4e f9 bc 5e 38 81 3c
       -0.06816672 -0.07887179 -0.030432787 0.015773948
0000d0 c1 db 14 be 92 9e b9 bd 91 91 24 be 7b 26 43 3c
       -0.14536954 -0.09063448 -0.16071154 0.01191103
0000e0 0f 18 fe bc 38 60 70 3c d1 95 10 be 74 37 bb 3c
       -0.031017331 0.014671378 -0.1411965 0.02285359
0000f0 51 73 e1 3c b5 01 1d bd d2 da c1 bd 15 87 10 3e
       0.027520807 -0.038331706 -0.09465565 0.1411403
000100 26 5f 65 bd 9f 4b 6a 3d 1e c0 03 bb ee dc 0e be
       -0.055998944 0.057201024 -0.0020103524 -0.13951465
000110 0c db 3d 3d 04 43 3e 3c f0 b0 09 3e ed e2 2f 3d
       0.046351478 0.011612657 0.13446403 0.042941023
000120 ba b5 99 3b d0 c9 0f 3e 52 a0 09 be b4 8a c7 3d
       0.004690853 0.14041829 -0.13440064 0.097432524
000130 fd b8 f1 3d ee 7f a1 3d 8a a6 fc bd 40 b9 83 bd
       0.11802862 0.07885729 -0.12336452 -0.06431818
000140 d2 88 cb 3c 8a 3c e7 bd cf 29 46 3d d3 42 d4 bd
       0.024845514 -0.11290844 0.048379716 -0.10364308
000150 0a 68 78 bc b8 7e 54 3d b7 07 06 be 61 82 ee bd
       -0.015161524 0.05187866 -0.1308888 -0.116459616
000160 10 e4 83 3d 28 c9 c8 3d a5 b1 75 bd 18 42 ff bd
       0.06439984 0.098039925 -0.05998387 -0.12463778
000170 8f 01 16 3e 8a 7a 0c 3e 2e f9 68 3d 35 35 10 be
       0.14649032 0.1371862 0.05687826 -0.14082797
000180 b1 56 00 be 90 54 f8 bd e0 71 24 be 83 d4 8e bd
       -0.1253307 -0.12125504 -0.16059065 -0.06974127
000190 ba df e7 3d dc a6 ee 3d 02 b2 6f bd 49 3d fd 3c
       0.11321969 0.1165292 -0.05851937 0.030913012
0001a0 ba 88 c5 3d 3a 9b d2 bd 3a ea e0 3d 7e de 06 be
       0.09645219 -0.10283513 0.10982175 -0.13170812
0001b0 a5 54 f9 bc 55 43 99 bd 09 b3 02 be 5f 83 f5 bd
       -0.03043587 -0.07483546 -0.12763609 -0.11987948
0001c0 05 be 83 ba 03 25 07 3e 6b 19 ad bd 84 f6 41 3d
       -0.0010051137 0.13197713 -0.08452114 0.047354236
0001d0 1b 6a e7 3d 02 d0 ba bd 21 6c eb 3d 8e c6 96 bd
       0.11299535 -0.091217056 0.11495233 -0.0736209
0001e0 01 d4 99 3d bd da cd 3d e6 03 a6 bd 6f 56 77 3d
       0.0751114 0.10051487 -0.08106212 0.060385164
0001f0 29 19 f8 ba 24 00 7d bd bc 26 04 be be 9c 54 bd
       -0.0018928397 -0.061767712 -0.12905401 -0.051907293
000200 84 6e 3c bc ce fa c3 3c 1b 83 ce 3d e4 54 9d bd
       -0.011500958 0.023923304 0.100836 -0.07682207
000210 3a 12 bd bd 0a 5d 07 be d7 8d b1 bd 9b d4 90 bd
       -0.09231992 -0.13219085 -0.08669632 -0.07071801
000220 67 4d b1 3c 20 ee b2 bd 61 f0 6b 3d 76 6d 94 bd
       0.021643354 -0.08736825 0.05760229 -0.072474405
000230 ce fd c9 3d 09 07 9e 3d 0b 2c f9 bd 52 aa a6 3d
       0.098628625 0.077161856 -0.12166604 0.08137955
000240 57 5f ae bc 65 cf e5 3c e8 9c 3d 3d 1a d3 9a 3d
       -0.021285696 0.028052995 0.046292216 0.07559796
000250 4c d9 e1 bc a6 09 78 3d 46 20 0e 3e e6 4e ad 3c
       -0.027569436 0.060556076 0.13879499 0.021155786
000260 82 83 22 3d 96 9a 05 3e 71 0a 49 3d 15 e3 f9 bd
       0.039676197 0.13047251 0.049082223 -0.122015156
000270 4f 4f 95 bd 1a 15 bf 3d 44 4a 17 bc 32 e5 e2 3d
       -0.072905175 0.09330197 -0.009234015 0.11078872
000280 43 5f fb bd fa 36 0b 3e b9 7f e7 3d 4c a8 ce bd
       -0.12274029 0.1359519 0.11303658 -0.10090694
000290 00 c4 24 be c7 ad 9b 3d 9e ff e2 3c 6f ca 3e 3d
       -0.16090393 0.07601505 0.027709778 0.046579774
0002a0 5a 50 5a bd 67 d8 fb 3d cf 8b 49 3d 37 34 0a bd
       -0.053299285 0.12297135 0.049205597 -0.033741202
0002b0 b2 ec db 3d 73 b3 2b 3e 58 70 0a bd bc a5 eb bd
       0.107385054 0.16767673 -0.033798546 -0.11506221
0002c0 ad 35 88 3c 89 fd d6 3c ca 4a c9 bc af 67 15 bd
       0.016627157 0.026243942 -0.024571795 -0.036475834
0002d0 6f 4c e9 3c c4 25 b2 bd 1f ea 94 bd ab 87 a8 bd
       0.02847883 -0.086986095 -0.072712176 -0.082290016
0002e0 44 a1 4c 3d 29 e6 b6 3d 94 43 15 3e 82 99 a5 3d
       0.049958482 0.08930618 0.1457656 0.0808592
0002f0 8a 39 e0 3d 5f e6 fb 3d ec 2f f5 3d ce be 14 3e
       0.10948475 0.12299799 0.11972031 0.14525911
000300 bf e0 0c be 5b 1b ec 3c be d9 12 3e 38 c9 9e bc
       -0.13757609 0.028821638 0.14340875 -0.019383058
000310 b9 70 eb 3d a8 6d 8a 3d ed 73 a0 bd 5f a2 e0 3d
       0.114961095 0.067591965 -0.07834611 0.1096847
000320 b1 b3 cf bd ba 07 9f 3d 39 7f 79 3d 37 59 9e bd
       -0.10141695 0.077651456 0.060912345 -0.0773186
000330 f5 48 06 3e dd 97 dd 3c 04 9d a5 3c de 0f 07 3e
       0.13113768 0.027049953 0.020216472 0.13189647
000340 b1 cd a9 bd 5a ec e0 bd f1 25 0d bd a2 3f 23 bd
       -0.08291186 -0.109825805 -0.034460012 -0.039855607
000350 ed df c9 bd 84 38 08 be 07 25 6e 3d e9 c7 8d 3c
       -0.098571636 -0.13302809 0.05814078 0.017307239
000360 0b c2 bf bd 9d ca 5e bd a9 1d 43 bc 6b 2b 4a bd
       -0.09363183 -0.054392446 -0.011908927 -0.049357813
000370 f3 b6 90 bc 76 00 e7 bb 8c 60 ef 3d 55 a1 e7 3d
       -0.017665362 -0.0070496155 0.11688337 0.113100685
000380 79 eb da 3d b0 ec 1e 3e 29 ca 1e 3b 09 21 d2 bd
       0.10689444 0.15519977 0.0024229384 -0.10260207
000390 0d 64 c9 3d 0c 86 a9 3d de 4a 86 bd 08 f7 09 3e
       0.09833536 0.082775205 -0.065572485 0.13473141
0003a0 ea f4 e4 3d 18 0d 61 3d 8b de 93 bd 28 54 6a bd
       0.11179526 0.054944128 -0.07220181 -0.057209164
0003b0 7a 86 da 3c af 9e cc bd d3 07 15 3d 97 1c 61 3d
       0.026675452 -0.09991204 0.036384415 0.054958906
0003c0 4d ef 4e 3d 77 85 93 3b bd 23 68 3d 81 b5 03 be
       0.050521184 0.0045019942 0.056674708 -0.12862207
0003d0 8b 78 a1 3c 71 aa c8 3d b2 3c 8a bd 2e 70 5d bd
       0.0197108 0.09798134 -0.06749858 -0.05406206
0003e0 04 ff e9 3d a7 d7 97 39 3c 54 e2 bd fe e7 c9 bd
       0.114255935 0.00028961638 -0.11051223 -0.09858702
0003f0 f7 69 c0 3c 68 cb d7 3d cc ae 0c be 8f ce d7 3d
       0.023488028 0.105368435 -0.13738555 0.10537445

blocks.0.gate_conv.conv.bias f4 [64]
000000 ae db 94 3b e6 62 19 bb 34 d4 4c bc 01 4a 14 3c
       0.0045427894 -0.0023404895 -0.012501765 0.009050847
000010 34 ba ea b9 4f 85 b3 ba c3 df 81 3c ed a7 71 bc
       -0.0004477069 -0.0013696345 0.015853768 -0.014749509
000020 46 24 90 3b ef 32 09 3b d4 4e 9d bb dc 71 19 3a
       0.0043988554 0.00209349 -0.004800657 0.0005853453
000030 19 a0 c3 3b 91 f3 3b 3a b8 53 26 3c 33 37 0e 3c
       0.005970013 0.0007169778 0.010151796 0.008680153
000040 b5 1d 9a bb c9 c0 10 3a 5f 47 b1 ba c2 fa 2a 3b
       -0.0047032484 0.0005521891 -0.0013525299 0.0026089405
000050 80 1c 01 3b 6a 51 80 bb fb 26 a5 3b d7 1d 10 3c
       0.0019700825 -0.0039159553 0.005040047 0.008796177
000060 10 75 7c 3c 90 91 0e bc 82 18 11 bb 28 8e d9 ba
       0.015408769 -0.008701697 -0.0022139852 -0.0016598152
000070 15 fa b7 3b 5e 5d 06 bc 0f 02 fc 3a 20 21 37 3c
       0.005614529 -0.008200971 0.0019226688 0.011177331
000080 7c 6e d2 3c f2 85 08 bc 7c b8 81 bb f9 f0 f7 bb
       0.025687449 -0.008332716 -0.00395876 -0.007566568
000090 0c 53 c1 3b 9f 90 60 ba 6e a0 a7 bb 82 36 c0 bb
       0.0058997925 -0.0008566472 -0.0051155603 -0.005865873
0000a0 2b ca 25 bc 17 02 0a bc 54 43 a3 3b 90 72 db ba
       -0.010119001 -0.00842335 0.0049823914 -0.0016742516
0000b0 62 be 80 3c 9c 38 82 3c 3f f3 97 bb eb c3 40 bc
       0.015715782 0.015896134 -0.0046371515 -0.0117654605
0000c0 f3 91 28 3c 08 96 85 3c cd 21 74 3c e0 ba 26 3c
       0.010288703 0.016306892 0.014900637 0.01017639
0000d0 11 48 44 bc bb 83 17 ba 4e a2 4b 3c ab eb 81 bc
       -0.011980073 -0.0005779822 0.012428833 -0.015859446
0000e0 e7 c8 50 3c 3c 8a 19 ba bd 0b b6 ba 8e b2 18 3b
       0.012743211 -0.00058570853 -0.0013888996 0.0023299786
0000f0 4f 19 92 3a 82 ff 7c 3c 6a 84 46 bb cd cc c5 3b
       0.0011146459 0.015441777 -0.0030291327 0.006036377

blocks.0.residual_conv.weight f4 [64, 64, 1, 1]
000000 c5 ae 68 bc 15 b3 e0 bd f4 4f 1b 3e 37 b7 cb 3c
       -0.014201825 -0.10971657 0.15167218 0.024867637
000010 d4 c4 ec 3d 41 3b 3d 3e 8f 45 16 be a3 6d 16 be
       0.115609795 0.18479635 -0.14674972 -0.1469026
000020 41 58 db bc e2 c5 c3 3d 8a c5 c8 3b 23 a6 9c 3d
       -0.026775481 0.095592275 0.006127064 0.076488756
000030 dd 0b a7 bd 2a 6c f5 3c 36 5a b9 3d 99 67 91 bd
       -0.081565596 0.029958803 0.090504095 -0.07099838
000040 c6 fd 14 be 05 56 fd bd 0a e5 04 be be 1d d8 3d
       -0.14549932 -0.123699225 -0.12977996 0.10552548
000050 70 88 1f be ca 86 47 be b2 dd 1f 3e 70 76 24 be
       -0.1557939 -0.19485012 0.15611914 -0.16060805
000060 bf d6 54 3e c2 bc 4f be c6 d0 11 3e 9c 58 29 be
       0.20785044 -0.20286849 0.14239797 -0.16537708
000070 c7 ce 54 3e 46 08 28 3e 27 9d 41 3e 4e 90 10 bd
       0.20782004 0.16409406 0.18907605 -0.03529387
000080 8e 17 01 3e 5a c4 fa bd af 31 09 bd 93 4f 12 be
       0.12606642 -0.12244482 -0.033494648 -0.14288168
000090 ae b4 f0 bd e6 a2 19 3e f6 74 4d 3e 46 a7 f2 3d
       -0.11753212 0.15003547 0.20064148 0.11848311
0000a0 c6 f6 3f ba 65 a1 b5 3d ce 37 94 3b 35 3b 7e bd
       -0.0007322844 0.08868674 0.004523254 -0.062068183
0000b0 e0 a9 3f be 53 ae 46 3e 47 67 f8 bd 14 45 1a 3e
       -0.18717146 0.19402437 -0.121290736 0.15065414
0000c0 a9 01 54 3c f3 ed 55 bd 71 af 8e 3d e8 fa 85 3d
       0.012939849 -0.05222888 0.069670565 0.06541997
0000d0 e7 63 a0 bc fe 3e 14 3c 1a f7 08 3e fc ff 87 bd
       -0.019578887 0.009048222 0.13375512 -0.06640622
0000e0 a9 67 98 3c a9 bf cf bc aa 42 3e 3e a0 9a 08 3c
       0.018604117 -0.025359945 0.18580118 0.008337647
0000f0 62 e8 08 be a8 cb 3d 3d a3 a3 3b 3d 08 91 3f be
       -0.13369897 0.0463368 0.045810353 -0.18707669
000100 69 8a 52 bb fc cb 98 bd a6 16 36 3e e9 a7 4c bd
       -0.0032125956 -0.07460782 0.17782077 -0.04996482
000110 13 a1 83 bd 43 52 74 bd 7e 92 ce 3a b0 bb 2d be
       -0.06427207 -0.059648763 0.0015760211 -0.16966128
000120 c4 1c 09 3e 0b 55 15 be f0 c6 21 be 0f b3 4b be
       0.1338988 -0.14583223 -0.15798545 -0.19892524
000130 af 52 aa bd 8a 99 97 bc 4b 25 cd 3c 03 0c dd bc
       -0.08316552 -0.01850583 0.025042197 -0.026983267
000140 0d 6d b6 3d 7d 1e 04 3e 4e 72 20 be 81 1a 7c bd
       0.089075185 0.12902255 -0.15668604 -0.061548714
000150 6f df 45 3e 89 66 98 bc 42 5b 08 3e a3 de f4 bd
       0.19323514 -0.01860358 0.13316062 -0.11956527
000160 94 89 a3 bc a0 8c 58 3d c8 ed e5 bd 5f ef 41 be
       -0.019963063 0.052868485 -0.11226994 -0.18938969
000170 65 89 18 3e b0 3e 56 3e 54 24 47 be 13 e2 52 3e
       0.14896162 0.20922351 -0.19447452 0.20594053
000180 cc b1 59 3e 12 5c 4e be dc e2 ad 3d d9 f6 82 3d
       0.2125923 -0.2015231 0.084905356 0.06394739
000190 99 f1 de 3d 52 d7 bd bc a5 97 46 be a2 6c 5f 3d
       0.10885925 -0.023173962 -0.19393785 0.05454696
0001a0 75 f5 d8 bd fc 66 52 3e f1 17 60 be 6e 54 5e 3d
       -0.10593692 0.20547098 -0.21884133 0.054279737
0001b0 69 0d 22 3e 21 9b ec bd 87 6d 4d 3e 39 89 84 3d
       0.15825428 -0.11553026 0.20061313 0.06471486
0001c0 3f ee 07 3d b3 cf 44 be c2 26 f7 3c e7 bc 10 3e
       0.033186194 -0.19219856 0.030169848 0.1413456
0001d0 7f 85 1e be 71 74 a6 ba d6 8e bb bd e5 88 11 3e
       -0.15480612 -0.0012699497 -0.09158103 0.14212377
0001e0 0d cd 66 3c 08 d9 b7 bd 31 72 60 be 21 d1 2a 3d
       0.014086974 -0.08976942 -0.2191856 0.041703347
0001f0 97 e4 12 bc ea 43 f1 3d 58 67 2b be ff 41 0e 3e
       -0.008965633 0.11780532 -0.16738641 0.13892363
000200 e8 ed bc bd 47 6e 2c be d3 cb 32 be 98 93 a7 3c
       -0.092250645 -0.16838942 -0.17460565 0.02045612
000210 8b b7 10 3e 0b 3d 2c 3e 89 7a 88 bd c7 36 86 3d
       0.14132516 0.16820161 -0.06663997 0.06553417
000220 37 05 35 3d c5 bb ec bd 39 e7 22 3d 50 7d 31 be
       0.044194426 -0.11559252 0.039771292 -0.17332959
000230 81 22 22 bd 33 8b 42 bd 2c 9e 01 be 8b b8 1a be
       -0.039583687 -0.047496032 -0.12657994 -0.1510946
000240 bb 5e c4 3d 08 df 39 3e 64 5d 0a be b3 07 de 3c
       0.09588381 0.18151486 -0.13512188 0.02710328
000250 88 c7 ff 3d 53 67 81 bd ea 93 55 3e c3 7d 65 bd
       0.124892294 -0.06318536 0.20857206 -0.05602814
000260 af e9 bd bd aa 5b 42 3d 38 05 d7 3d f6 56 fb 3d
       -0.09273087 0.0474507 0.10499042 0.12272446
000270 ba c5 b7 3d 07 bc 08 3e 4d 14 96 bd 9b c5 01 bd
       0.0897326 0.13352977 -0.07328091 -0.031682592
000280 61 11 3f bd 26 95 1a 3e 47 7f a6 bd 93 46 7c bd
       -0.046647433 0.15095958 -0.08129745 -0.061590742
000290 17 91 e2 3c 3b 7b 10 be 30 36 a5 bc 69 f7 22 be
       0.027657075 -0.14109509 -0.02016744 -0.15914692
0002a0 34 db 35 be 41 52 4e be 9b 8a 87 bd 73 ac 4c bd
       -0.177594 -0.20148565 -0.06618234 -0.049969148
0002b0 9b de ab bd f8 38 36 be d9 c4 03 3e 21 fa c7 bd
       -0.08392068 -0.1779517 0.1286806 -0.09764505
0002c0 6a 1f 50 bc d1 7d 10 3e 8f 3f 78 3c b5 ac 93 3c
       -0.012702802 0.14110495 0.015151872 0.018026689
0002d0 d0 c7 19 3e 13 28 28 be 8e 02 51 be 4a 63 cf 3d
       0.15017629 -0.16421537 -0.20411131 0.1012636
0002e0 99 f0 26 3e a4 7a 4e bd 60 e8 2a 3d 63 df 55 be
       0.16302718 -0.050409928 0.041725516 -0.20885997
0002f0 ef 56 18 3b c9 bd d6 3c 9e 5f 36 3e 75 44 05 be
       0.0023245176 0.026213543 0.17809913 -0.13014396
000300 58 d6 9b 3d 24 38 4f bc 7c 01 53 be 20 a4 56 be
       0.07609242 -0.012647662 -0.20606035 -0.20961046
000310 66 16 2b 3e 7b 7b cb 3c ec 49 13 3e 0a 56 4b 3e
       0.16707763 0.024839154 0.14383668 0.1985704
000320 d7 bd 42 3d c1 4b 39 bd 62 06 55 3e 46 9d 05 be
       0.047544327 -0.04523826 0.20803216 -0.13048276
000330 fd 84 43 bc 5a 3f 49 3b 5f 60 60 be 55 4c 45 be
       -0.011933562 0.0030707926 -0.21911763 -0.192674
000340 1b 03 6d 3d ce 9a ab 3c b7 71 45 3d 33 cd ce 3c
       0.05786429 0.02094784 0.04820415 0.025244331
000350 d2 df f5 bd d6 20 5a be b5 4d af 3c 61 f1 8c bc
       -0.12005581 -0.21301588 0.021399358 -0.017204942
000360 a0 4b 52 3d 82 59 9e bd 81 56 c6 3c 57 14 31 3e
       0.051341653 -0.07731916 0.02421117 0.17292915
000370 bf ce 4d be c7 69 d6 bd b3 da be bd a4 19 82 3d
       -0.20098399 -0.10469394 -0.09319057 0.06352547
000380 1f 35 32 3d 30 8f 5e 3d 61 3c b5 3d a0 ed 13 be
       0.04350769 0.054335773 0.08849407 -0.14446115
000390 5a 57 02 3e 73 cc b9 3d 57 81 21 3d e0 3e 90 bd
       0.12728634 0.09072199 0.03942999 -0.070432425
0003a0 4e e3 3d 3d f7 d1 11 3e 8d 7f c8 3d d4 85 1d 3e
       0.046359353 0.14240251 0.097899534 0.15383083
0003b0 31 93 40 3e 93 46 c7 3d ee b5 16 3e 7d 2d 0b 3e
       0.18806149 0.09730258 0.14717838 0.13591571
0003c0 8e fd 58 be 7e 9f 97 bd a7 a3 a1 3d 42 30 1b 3e
       -0.21190473 -0.074034676 0.07892542 0.15155128
0003d0 40 98 5a be b3 84 20 be 64 3e 3a be c4 4d 0b 3e
       -0.21347141 -0.1567562 -0.18187863 0.13603884
0003e0 58 d6 1b bd b1 42 44 3e 41 9b 95 3d 20 8f 3f be
       -0.03804621 0.19166066 0.07305003 -0.18706942
0003f0 5a 45 44 be cb 10 2c 3e c7 92 2a 3e 35 f2 be bd
       -0.1916708 0.16803281 0.16657554 -0.09323541

blocks.0.residual_conv.bias f4 [64]
000000 86 04 f2 3c fe 29 86 bc 74 bc ef bc 9e ff 0a 39
       0.029543173 -0.016377445 -0.029264666 0.0001325593
000010 af 5e d8 bc a8 fe 38 3c e4 01 98 bc f5 48 91 3c
       -0.026412336 0.0112911835 -0.018555589 0.017734984
000020 5d c9 b3 bc de 9c 60 3c 3f 39 d0 3c 36 99 e3 3c
       -0.021946603 0.013709275 0.025417922 0.027783018
000030 14 ec e5 3a af b8 86 bc 91 ea 2d bc e6 5d bd 3c
       0.001754167 -0.016445486 -0.010615007 0.023116063
000040 f6 81 3a bc 85 0b 07 3d 3a 92 6a 3c 27 c9 a4 bb
       -0.011383524 0.03296997 0.01431709 -0.005028862
000050 33 6c 61 bc 78 16 d0 3b be a1 8c bc 6c 5c e2 bb
       -0.013758707 0.0063503347 -0.017166968 -0.00690799
000060 7b 10 9d 3c c6 1e eb 3c 3b 2f c2 bc d7 a2 5e bb
       0.019172898 0.028701197 -0.023704162 -0.0033971572
000070 dd 52 c8 bc 8a 74 b5 bc 33 e9 83 ba da 89 09 bc
       -0.024453575 -0.022150297 -0.0010064006 -0.008394683
000080 45 15 1c bc 1e ec 02 bc 80 d5 de bc 89 84 88 bc
       -0.009526555 -0.007990865 -0.027201414 -0.01666476
000090 99 62 96 3c f1 26 15 3c bc bd 67 3c 6d 9c e2 bc
       0.018357562 0.009103523 0.014144357 -0.02766248
0000a0 f5 64 18 bc 94 08 e6 3c ec 10 32 ba f8 3c 63 bc
       -0.009301414 0.028080262 -0.00067926827 -0.013869517
0000b0 96 2e 27 bc c7 18 78 3c f9 a2 12 bb b3 ec b5 bc
       -0.010203978 0.015142626 -0.0022374971 -0.022207594
0000c0 21 28 d7 ba 9c 8f d5 bc 4b 7b 84 bb 89 0d 11 bb
       -0.0016415158 -0.026069455 -0.004043018 -0.0022133312
0000d0 da a0 b2 3c 1f 14 9f bb ba 25 ad 3c 18 b6 f4 3c
       0.021805216 -0.0048546935 0.021136153 0.029871985
0000e0 b6 5f a9 bc e9 1d d9 bc 68 94 bf bc 14 2e e4 3c
       -0.020675521 -0.02650352 -0.023386195 0.027854003
0000f0 4a 59 b6 3c 19 c4 d5 bb bd c1 3d 3b 3e 6f f1 3c
       0.022259373 -0.006523621 0.0028954588 0.02947199

blocks.0.skip_conv.weight f4 [128, 64, 1, 1]
000000 5f ae fe bd 22 dc 20 3e 0a 58 46 3d d4 8d 07 3c
       -0.124356024 0.15708974 0.048423804 0.008273561
000010 ae f2 45 bb 78 6b 2b 3e 35 10 6d bd 14 b0 03 bd
       -0.0030204463 0.16740215 -0.057876784 -0.032150343
000020 2f e3 13 be dc 81 66 bd 5e 44 8a bd bf ce 0b be
       -0.14442132 -0.056276187 -0.06751321 -0.13653086
000030 0d e9 18 bd c7 b7 2f 3b 44 a5 06 3e 7f b8 e9 3d
       -0.03733163 0.002681242 0.13148981 0.11412143
000040 a8 1b c1 3c 8f d1 12 be 8d 4b eb 3d ad 62 f6 bc
       0.023572758 -0.14337753 0.114890195 -0.03007635
000050 90 2c 64 3d d0 c6 54 3d c0 5a 3d 3d 12 b4 dc bd
       0.05570656 0.051947415 0.046229124 -0.10776533
000060 c5 28 1c 3e 35 19 2e be f6 f9 21 be 94 91 d5 3c
       0.15249927 -0.17001803 -0.15818009 0.026070394
000070 5a e8 3f 3e 5b 25 11 bd 8e 4f 6b bd 45 f1 f7 bd
       0.18740979 -0.035436016 -0.057448916 -0.121065654
000080 08 f7 1f be 2d 72 8c 3d 20 51 18 3e 03 ba 3b bd
       -0.15621579 0.06857715 0.14874697 -0.04583169
000090 b4 78 0e 3d 14 f4 d0 3c e5 04 c7 3b 5f 02 93 bd
       0.03478308 0.02550701 0.0060735815 -0.071781866
0000a0 1f df c0 bd 57 eb 9b bd 4b 00 11 3e 65 18 da 3d
       -0.09417557 -0.07613247 0.14160268 0.10649184
0000b0 91 3d 25 3c af 09 2b be b3 db 99 3d 71 55 2c bd
       0.010085479 -0.16702913 0.075126074 -0.04207367
0000c0 a0 b2 07 bc ff 42 ed bd d4 e6 50 bd b3 75 24 be
       -0.008282334 -0.11585044 -0.051001385 -0.16060524
0000d0 19 5e 03 be 5b 35 93 3d 79 9e 33 3e 88 a3 9c 3d
       -0.12828864 0.07187911 0.17540921 0.076483786
0000e0 63 81 c7 3d df 55 07 be a9 51 a4 3c f6 3a c2 3d
       0.097414754 -0.13216351 0.02005847 0.09483902
0000f0 a4 b2 a3 bd 08 43 fc 3d aa e3 ba bd 41 25 05 3e
       -0.07993057 0.12317473 -0.09125455 0.13002492
000100 9b 75 ef bc 99 e2 e9 3d b0 aa 25 3d 5a 3f bc 3d
       -0.029230883 0.11420173 0.040445983 0.09191771
000110 4e 3f 1d 3e d9 ca 25 be 82 3e 0f 3e d0 ed bd 3d
       0.1535618 -0.16190661 0.13988689 0.09273875
000120 53 41 e5 bd c7 22 36 3d bf 3c c6 bd 54 b9 62 3d
       -0.111941 0.04446676 -0.09679555 0.055352524
000130 45 37 e5 bc d3 c2 b0 3c f5 b1 dd 3d b4 88 07 3e
       -0.027980456 0.021577274 0.10824958 0.13235742
000140 e2 b0 9b 3c 53 37 2e 3e 1d 10 92 3d 0a d8 81 bd
       0.019005243 0.17013292 0.071319796 -0.06340034
000150 9f ea 91 bd 18 ad b7 3d ec 0b b2 3d 08 2e ab 3b
       -0.071248285 0.08968562 0.0869368 0.005223993
000160 6e 90 23 3e f2 d3 8d 3d 47 e8 93 3d 7a ad f5 3b
       0.15973064 0.06925191 0.07222038 0.0074974867
000170 50 2c 3d 3d b5 22 b6 bd ac 92 83 bd 09 b3 3b 3d
       0.046184838 -0.088933386 -0.0642446 0.045825038
000180 df a8 aa 3c bd 1e e0 bc 08 59 17 3e 70 df ba 3c
       0.020832477 -0.027358407 0.14780056 0.022811621
000190 74 a7 7d 3c c7 85 2c 3e 06 59 01 be 79 2b f9 bc
       0.0154818185 0.16847907 -0.12631616 -0.030416237
0001a0 3a ac 81 3d 18 05 fe bc 39 8c bc 3c 7e 78 12 be
       0.06331678 -0.031008288 0.023016082 -0.14303777
0001b0 82 46 03 3e 59 ef 10 be 76 47 38 bd c4 7f a8 3c
       0.12819865 -0.14153804 -0.044990025 0.020568736
0001c0 6e 53 f0 bd c8 f0 d7 3d 30 b2 36 be c0 c3 55 bd
       -0.11734663 0.10543972 -0.1784141 -0.052188635
0001d0 29 25 8d bd ea b5 2b be 5e a0 10 be e9 e6 77 3b
       -0.06891853 -0.16768613 -0.14123675 0.0037826842
0001e0 58 b0 29 be c1 cc 03 3e 5b 5d 20 3c 05 35 06 bd
       -0.16571176 0.12871076 0.009787883 -0.032765407
0001f0 1e e2 a6 3d 73 7d 95 bd bd eb 3f 3d 3e e7 cd bc
       0.08148597 -0.07299318 0.046855677 -0.025134679
000200 3e e1 1c be ae 68 e2 3c 62 6a c0 b9 ab 84 bb 3d
       -0.15320298 0.027637806 -0.00036700355 0.09156164
000210 08 d2 22 be 0f 57 c4 3d 64 e3 dd bb 59 85 23 be
       -0.15900433 0.095869176 -0.006771492 -0.15968837
000220 bb c7 0c 3e 64 9b e3 bb 5c 6f d4 3b 4b 92 9b bd
       0.13748066 -0.0069460142 0.0064830016 -0.075962625
000230 c9 eb 12 be 45 07 5d 3d fb 55 ed 3d f6 e9 65 bd
       -0.14347757 0.05396201 0.11588665 -0.056131326
000240 0e e8 50 3c ec e5 ca bb 3c 60 da bc cf 1c 83 bc
       0.012750639 -0.0061919596 -0.026657216 -0.016004948
000250 dd 93 13 3e bb 02 df 3d 20 47 23 be 12 a5 14 bd
       0.14411874 0.10889193 -0.15945101 -0.036290236
000260 fc 4e 93 bd 21 fe a1 3d ca c8 30 bd b6 3f 6e bc
       -0.071927994 0.07909799 -0.043160237 -0.014541557
000270 0e 88 7c 3d bb e8 e8 bc ce 74 fd bd 9e f3 fd bd
       0.06165319 -0.028431287 -0.12375794 -0.12399982
000280 62 6e 22 3d 57 74 18 be 0d 4a 2c be e0 12 9c 3c
       0.03965605 -0.1488813 -0.16825123 0.019051969
000290 e4 f4 29 be 3e 2c 26 3e d8 76 17 3e d6 86 27 be
       -0.16597325 0.16227815 0.14791429 -0.1636003
0002a0 b4 94 ae 3d f0 96 ec 3d f2 96 a5 3d 83 7b 25 be
       0.085244566 0.115522265 0.08085431 -0.16160397
0002b0 73 05 30 be 3a 1d ef bb 3a 94 a5 3d de fe 26 bd
       -0.17189579 -0.0072971852 0.080849126 -0.040770404
0002c0 34 ae 7e bd 81 f3 0f bc be 6e 5e 3d d4 d1 1b be
       -0.06217785 -0.008786083 0.05430483 -0.15216762
0002d0 8f 1e dc 3d 10 26 7f 3c 34 82 c0 bd 9c 2b 77 3d
       0.10748016 0.01557304 -0.09399834 0.060344324
0002e0 7c 79 9a 3d 2d 46 c0 3d 9d 60 08 3e 06 e4 8b bd
       0.075427026 0.09388385 0.13318105 -0.068306014
0002f0 84 d1 43 bd a0 bd 6c 3d b4 c5 20 be d5 9b af 3d
       -0.04780723 0.057798028 -0.15700418 0.085746445
000300 84 91 99 ba 58 4b 00 3e b7 f7 fb 3d 87 b4 36 be
       -0.0011716341 0.12528741 0.12303107 -0.17842303
000310 68 83 cb 3d 46 4f 42 3d a7 9c 00 be e5 aa 66 bb
       0.09937173 0.047438882 -0.12559758 -0.0035197076
000320 a6 9f 8e bd 56 69 07 3e 3e 55 dd 3d 65 6a b1 3d
       -0.06964044 0.13223776 0.10807274 0.08662871
000330 63 ca 1b 3e 1b 2e 16 3e bd 10 02 be 5f a3 9d 3d
       0.15213923 0.14666025 -0.12701698 0.07697176
000340 90 be 16 be eb 14 27 bd a8 d4 b4 3d 24 63 b4 3d
       -0.14721131 -0.040791433 0.088296235 0.08807972
000350 be 7a 08 3c f0 4d 5b 3d 8d fc 01 be 7d 88 1a bd
       0.008330045 0.053541124 -0.12693997 -0.03772782
000360 46 0a 15 3e c0 e9 08 3e 66 e8 fd 3c d0 1a 14 be
       0.145547 0.13370419 0.030994605 -0.14463353
000370 b3 15 00 be 81 d3 c7 bd 7c 2a bc 39 73 21 ce bd
       -0.12508278 -0.09757138 0.00035889808 -0.10064974
000380 8f d7 c9 3d d5 74 d9 3d 34 e1 b1 3d f3 61 cb 3d
       0.09855568 0.10617987 0.08685532 0.09930792
000390 2b 99 90 bd 41 a7 fa bc 0f bf 12 be 4f b5 21 3d
       -0.070604645 -0.030597331 -0.14330696 0.03947955
0003a0 fb 05 d4 bd 24 b4 dc bc bc 86 a3 3d f2 05 2b bc
       -0.10352703 -0.026941366 0.07984683 -0.010438429
0003b0 66 ba 6d bc 87 16 a3 bd f4 a1 60 3d 05 27 9d bd
       -0.014509773 -0.07963281 0.05484195 -0.07673458
0003c0 d5 f9 bd bd d3 ce a7 bc 09 c9 3f 3d d5 f4 0e 3e
       -0.09276167 -0.020484364 0.04682258 0.13960584
0003d0 9b 57 1c be 55 2d 0d 3e ff 6e fb 3c 75 ab 2d 3e
       -0.15267794 0.13786824 0.030692575 0.16959937
0003e0 48 39 c0 bd f1 5a d9 3d c9 6c 25 3d de 60 9a bd
       -0.093859255 0.10613049 0.04038695 -0.07538007
0003f0 48 36 7a bd 50 64 0c 3e 2f 8f 30 3e ed 0c ff 3a
       -0.061086923 0.13710141 0.1724212 0.0019458808

blocks.0.skip_conv.bias f4 [128]
000000 6c 86 33 3c 60 95 9c bb b7 b3 9a 3c 93 5e 9e b8
       0.010957342 -0.004778549 0.018884523 -7.551643e-05
000010 10 fb 60 3c 84 74 bc bb 58 95 b5 3c 4f 6b d8 b9
       0.013731733 -0.0057511944 0.02216594 -0.00041278682
000020 b7 62 52 3c f1 bf d1 3c a3 a7 1a 3c 49 35 9a 3c
       0.012840918 0.02560422 0.009439382 0.018824236
000030 7e 5d d0 3b 15 d9 bb bb 30 08 b7 3a 0d 33 fe 3b
       0.0063588014 -0.0057326653 0.0013964232 0.0077575506
000040 60 65 5a 3a 00 e2 26 3c 38 c9 3f 3c 3d 9f d1 3b
       0.0008331146 0.010185719 0.011705689 0.0063971565
000050 d3 2a 13 3b 36 43 1d 3c 22 7b 4e 3c 79 35 a2 bb
       0.0022455945 0.009598544 0.012602599 -0.004950222
000060 6a 6c 71 bb 97 eb 29 3c dd f8 1d bb e8 7d b3 38
       -0.0036838301 0.01037111 -0.0024104633 8.558837e-05
000070 03 5c 96 3c c5 2c ae 3b af 11 84 ba e7 94 e9 bb
       0.018354421 0.0053153955 -0.0010076071 -0.0071283462
000080 24 00 5e 3b 59 29 1f 3c 10 0b 89 bb 98 5e 08 3b
       0.0033874596 0.009714448 -0.004182227 0.0020808335
000090 96 d7 14 3b cc f3 6d 3c 06 fb 36 3b 9b 8c ec 3b
       0.0022711507 0.014523458 0.0027920618 0.00721891
0000a0 9f 4d 1a 3b 74 04 6b 3b c0 f3 06 3c 28 89 2e 3b
       0.00235448 0.0035860809 0.0082368255 0.0026632044
0000b0 cc 96 d4 3b d8 1f f4 ba 2a c7 e2 bb e4 93 d6 ba
       0.006487703 -0.0018625213 -0.006920715 -0.0016370979
0000c0 67 0d ee 3a 8f e5 2c 3c fc a1 b6 bb 0a ec 39 3c
       0.0018161953 0.010552778 -0.0055735093 0.01134778
0000d0 3a fa 69 bb 0c e3 40 bc 92 ab 6c bb bc 81 4a 3c
       -0.0035702125 -0.011772882 -0.0036113006 0.012360033
0000e0 9e b7 f3 bb 79 06 2d ba fd 3a c7 3b 77 35 eb 39
       -0.0074376604 -0.0006600391 0.00608003 0.00044862527
0000f0 79 78 99 3b e8 6f 01 bc 20 2f 0c bc 10 28 a4 3c
       0.004683551 -0.007900216 -0.008556157 0.020038635
000100 14 ed 8f 3b 94 18 db 3a 71 8a b6 3b cf 32 e1 3b
       0.0043922756 0.0016715699 0.0055707027 0.006872512
000110 36 c5 3e 3b 2e 53 2d 3c ef d4 23 ba 81 64 72 bb
       0.0029109246 0.010578914 -0.0006249686 -0.0036986175
000120 52 f6 e0 ba e7 d1 c7 3a e2 af 7b 3c 5f e5 8f 3c
       -0.0017163253 0.0015245051 0.015361758 0.017565427
000130 55 43 b1 3b bd fd 7c 3b df 01 46 bb 8e 87 11 ba
       0.005409638 0.0038603388 -0.0030213518 -0.000555151
000140 63 99 d6 3b 4f 89 ee 3b c2 67 15 3c b5 07 f9 3a
       0.006549047 0.007279552 0.009118976 0.0018999489
000150 e6 0b e2 39 c0 16 46 3c 43 93 56 bb 9a c6 1a 3c
       0.00043114944 0.012090385 -0.0032741583 0.009446764
000160 9a a1 72 3c b1 d6 05 bc 58 29 e3 3b b6 bf 1f 3c
       0.014809037 -0.008168862 0.006932419 0.009750297
000170 a0 d8 11 3c 66 f4 14 3a 83 14 b5 3c f8 24 b8 3b
       0.008901745 0.000568217 0.022104507 0.0056196414
000180 16 cc 24 3c f8 12 43 bc 49 8e 48 3c 79 0c af 3b
       0.0100584235 -0.011906378 0.012240955 0.005342063
000190 54 73 c4 ba 0e b3 63 3c d7 7e 12 3c 19 35 c5 3b
       -0.0014987984 0.01389767 0.008941374 0.0060182926
0001a0 33 da 66 bc 42 51 fd 3b ea 79 3a 3b ce e7 98 3c
       -0.014090109 0.007730634 0.0028454014 0.01866522
0001b0 ec 7a a6 ba 3e 59 bf bb 60 4d 5e 3b 4f 66 86 3c
       -0.0012701428 -0.005839496 0.003392063 0.016406206
0001c0 a1 bd 35 3c 03 23 43 3c 5f aa 42 3c 9e f9 4b b9
       0.011092574 0.011910203 0.01188144 -0.00019452578
0001d0 17 6f 30 3c 67 99 1b 3c d8 9e f6 3b c6 e1 53 3c
       0.010768673 0.009497023 0.00752626 0.012932247
0001e0 16 7a 98 3b 13 a5 90 bb 05 cb 64 ba 40 9f 39 bb
       0.0046532257 -0.0044142096 -0.0008727762 -0.002832368
0001f0 63 22 29 3b 5e 0f 49 3a ed 26 ac 3c 18 17 0e 3c
       0.002580785 0.00076698314 0.021014655 0.008672498

blocks.0.bn.weight f4 [64]
000000 bd fd 7e 3f 95 53 7d 3f a2 34 7d 3f a6 58 80 3f
       0.99605924 0.9895566 0.98908436 1.0027053
000010 bf 56 7f 3f 1a b8 81 3f 71 1a 81 3f 36 a8 80 3f
       0.9974174 1.0134308 1.0086194 1.0051334
000020 03 3f 7f 3f fe 21 80 3f 50 b4 80 3f fe 26 7f 3f
       0.99705523 1.0010374 1.0055027 0.9966887
000030 3e 78 83 3f b9 3e 7c 3f a8 42 81 3f 49 36 7d 3f
       1.027107 0.9853321 1.0098467 0.9891096
000040 e3 9a 83 3f e8 f4 80 3f 93 77 7c 3f 82 87 7e 3f
       1.0281643 1.007474 0.98619956 0.9942552
000050 bc d9 80 3f 24 3c 84 3f b7 9e 78 3f bf 9d 7e 3f
       1.0066447 1.0330853 0.9711718 0.9945945
000060 67 b8 7e 3f 00 c6 7d 3f b1 ca 7f 3f 9a 12 82 3f
       0.99500126 0.9913025 0.9991866 1.0161927
000070 80 d8 80 3f b8 01 81 3f 69 74 80 3f bc a1 81 3f
       1.006607 1.007865 1.0035526 1.0127482
000080 d9 b4 7d 3f 30 13 7f 3f 08 9c 80 3f 09 37 80 3f
       0.99104077 0.9963865 1.0047617 1.0016795
000090 e2 cd 81 3f 8e ee 82 3f 60 e5 7e 3f ed 70 7f 3f
       1.0140955 1.0229051 0.9956875 0.99781686
0000a0 c4 a2 81 3f eb 97 7a 3f b3 e0 7e 3f a4 ee 7f 3f
       1.0127797 0.9788806 0.99561614 0.9997351
0000b0 1e 19 81 3f 05 63 81 3f 39 98 80 3f 72 ed 80 3f
       1.008579 1.0108343 1.0046455 1.0072463
0000c0 67 fb 81 3f 0f 4b 80 3f 07 84 7f 3f 6a 3c 81 3f
       1.0154847 1.0022906 0.9981083 1.0096562
0000d0 df 40 7b 3f ba a5 84 3f 04 e4 81 3f c8 6b 80 3f
       0.9814586 1.0363076 1.014771 1.0032892
0000e0 17 3b 80 3f 08 e2 80 3f f7 fb 7f 3f ba c2 7f 3f
       1.0018033 1.0068979 0.9999384 0.99906504
0000f0 a6 c9 81 3f 69 19 81 3f 81 b1 81 3f 69 3e 7b 3f
       1.0139663 1.008588 1.0132295 0.98142105
