TGNN2026/artifacts_MTGNN1m_heads&util/production_best_weights.pt (torch, 803375 bytes, 83 tensors)

A_static f4 [3, 3]
00000000: abaa aa3e abaa aa3e abaa aa3e abaa aa3e
00000010: abaa aa3e abaa aa3e abaa aa3e abaa aa3e
00000020: abaa aa3e
0.33333334 0.33333334 0.33333334 0.33333334 0.33333334 0.33333334 0.33333334 0.33333334
0.33333334

in_proj.weight f4 [64, 15]
00000000: 8d1b 33be 40c2 d6bc 9cfb e83c 6d91 893e
00000010: a1e1 883e 95c1 7dbd 46ea 6dbe 5a96 52be
00000020: 85ed 833e 4760 f0bd ffc2 8cbe 13fc 4a3e
00000030: 82d2 c13c e3f7 82be b65a 5c3e fab9 88be
00000040: 75ac 6d3e 3684 aabd b6a1 11be 3c28 ecbd
00000050: 9cf9 d6bd 61cc 21be c5d8 723e da8c 1abb
00000060: a6b1 553d 27bc b93d ee41 e63c 37b3 fc3c
00000070: e184 603e efe3 88be d0a9 29be 16cd 7a3d
00000080: 7791 54bc bb2a d0bb 65d2 2abd ac21 a73d
00000090: ee5b 353e 6456 6dbe cee3 513e 1ba9 e0bc
000000a0: 43e5 4bbd 601a c6bd d895 883c 47c8 243e
000000b0: f2cc 893e ee4f 823d ccef 793d 1518 1dbd
000000c0: 1761 0e3e d674 493e 1e0b e63c e482 873e
000000d0: 791c 02be 3790 7abe dad8 57be 98f1 1e3e
000000e0: 7186 013e 8fee 6f3e 638e 103e e3cf 413e
000000f0: 6ebe da3d e25b 19be bcd8 083e 5fce 863e
00000100: 7e42 1a3e 0fe5 09be 5cb3 2dbe 2bbf 78bc
00000110: 78f2 5bbd c422 163e f9fa 68be 353c 333e
00000120: 5555 40be d45a eabd fb77 2cbe 6f75 05be
00000130: 6bdb be3d 3cc9 8abe 9ae1 883e 7dd5 83be
00000140: f5bd 4b3e 4a0a 193e 1350 103e 4d78 73be
00000150: 57a8 49bd 3857 60be 027e da3d 21ab 313e
00000160: 98aa 0fbd 69c5 edbd 578d 4a3e 3f48 eebd
00000170: a1be 053e 045c 73be 25cc 5cbd 6751 42be
00000180: d093 403e fca0 5bbe fb17 e3bd 3d57 473e
00000190: 56cf 86be 82d6 6cbe c944 4f3e a492 be3d
000001a0: f2a2 41be 36f8 1bbe b8a9 48be 274f 74bd
000001b0: b9e0 72be cd07 f73d 4bbc 6abe d74d 6ebe
000001c0: 021c 87be 2f66 75be 1ef0 ee3d 8ce7 79be
000001d0: 639a 3ebe 4076 983c cd20 573e 42d5 bdbd
000001e0: 2c5c 02be 324f 243e cdbd 7e3e 6f7e 0ebd
000001f0: 8b3f fe3d 8590 aabc bd00 9dbb ae72 763e
00000200: 19c1 c3bd f703 543e e3e3 13be 6f1c bb3d
00000210: dab0 02be a00a 033e db7b 0a3e 7b02 e3bd
00000220: 36ad 113e be41 e03d 1fc7 8a3c 6247 6abd
00000230: e5fc 41be 29ab 9cbb f4ec debc 778a 16be
00000240: af6a 06bd 6436 e13d c7e0 813a d140 0cbe
00000250: 4579 1cbe 04b0 bebd 3b90 663d b816 c03d
00000260: a814 1b3c bac4 73bc 125b 3d3e d1a6 4ebd
00000270: b3c8 9bbd f9f0 08be ea93 3ebe c80a 01bd
00000280: 81d8 99bc 2adc 1b3e f636 30be 92e0 a03d
00000290: 909f 183d 37e5 64be 13c3 0b3d f16f 6d3e
000002a0: d90f 6d3e 2ea4 443d ba4e 8a3e 24fd 623d
000002b0: 97e4 983d 3a38 193e 9fd4 28be 4f2f 5d3e
000002c0: 0a29 af3d fe69 373e e16a 5e3e d02a 633e
000002d0: c8f9 593e 96b7 11bd 181f 0abd 6339 803e
000002e0: 6484 233e 8ddb d23d 14d9 a63d 5d56 3dbe
000002f0: 8bce 28be 863e 853e afea 863e c7d8 42be
00000300: 0969 ef3d 3800 34bd 0f7f 95bd d4fb 0bbe
00000310: 351c 8b3e 5c9e e93c b09d 5cbb 1969 f53d
00000320: 4a91 4ebe 369f 583e 206a 00be 75ea 92bd
00000330: 3caa 113e 2c07 61be c286 c63d fb11 75bd
00000340: d995 66bd 60b0 ff3c 60f4 b73d 516d 47be
00000350: 6f2d 68be 6408 60bd 571c 133e c804 3b3c
00000360: d776 16be 6674 00be 5d82 24be 52c3 743d
00000370: 39e6 633e cf69 84be e0fa 27be 4f5d 83be
00000380: 335a 1dbe 053e 52bd 6b51 8d3e bfca 453e
00000390: 8429 963d 85aa b5bd 50e9 3dbe 9c1b f93d
000003a0: b8d9 50bd e3e9 c73d eee8 6bbe 270b 223d
000003b0: 8284 04be 3f15 29ba 3446 cd3d 95b5 ff3d
000003c0: 6b47 2cbd a661 783d 2397 633e b05c 33be
000003d0: 4aab 353e e472 20be 17a6 58be 17a0 f43d
000003e0: 65fa 073e 3a7e 50be 7f8d 873e e3c2 0a3d
000003f0: 8d70 68be 9780 8abe 9b32 6b3e 96f4 83be
-0.17490979 -0.026215672 0.02844029 0.26868764 0.2673464 -0.061952192 -0.232339 -0.20565167
0.2576715 -0.117371134 -0.2749252 0.19822721 0.023659948 -0.25579748 0.21518978 -0.2670439
0.23210318 -0.083259985 -0.14221844 -0.115311116 -0.10496828 -0.1580062 0.23715504 -0.002358249
0.052171372 0.0906909 0.02810761 0.030847175 0.2192569 -0.267364 -0.16568685 0.06123074
-0.012974135 -0.00635275 -0.041704554 0.08160719 0.1771085 -0.23177487 0.20497057 -0.027424386
-0.049779188 -0.096729994 0.016673014 0.16092025 0.26914173 0.06362902 0.061019704 -0.038353045
0.13904224 0.19673476 0.028081473 0.2646705 -0.12706174 -0.24469076 -0.21078816 0.15521848
0.12648942 0.23430847 0.14116816 0.18926959 0.10680853 -0.14976457 0.13363928 0.26329324
0.15064427 -0.13466285 -0.16962951 -0.015182297 -0.053698033 0.146617 -0.22751988 0.17503436
-0.18782552 -0.11443105 -0.16842644 -0.13033079 0.093191944 -0.27106655 0.2673462 -0.25748816
0.19896682 0.14945331 0.14093046 -0.2377636 -0.049232807 -0.21908271 0.10668565 0.17350437
-0.0350748 -0.116099186 0.1978048 -0.116348736 0.13061 -0.2376557 -0.053905625 -0.18976365
0.18806386 -0.2144813 -0.11088558 0.19466873 -0.2633006 -0.23128703 0.20241083 0.09305313
-0.18909815 -0.15231404 -0.19595993 -0.059645798 -0.23718537 0.12062035 -0.2292339 -0.23271881
-0.26388556 -0.23964761 0.116668925 -0.24404734 -0.18613581 0.018611073 0.21008606 -0.09269191
-0.12730473 0.16045836 0.24877091 -0.034788545 0.124144636 -0.020820865 -0.004791348 0.24067184
-0.09558315 0.20704637 -0.144424 0.09136283 -0.12762776 0.12797022 0.1352381 -0.110844575
0.14226231 0.10950039 0.016940651 -0.057196982 -0.18944128 -0.004781146 -0.027212597 -0.14701258
-0.032816585 0.10996702 0.0009908908 -0.136966 -0.15280636 -0.09310916 0.056289893 0.09379333
0.009465374 -0.014878446 0.18491772 -0.050452057 -0.0760664 -0.13373174 -0.18611112 -0.031504422
-0.018779995 0.15220705 -0.17208466 0.078553334 0.037261546 -0.22353064 0.034121584 0.23187234
0.23150577 0.048008136 0.2701319 0.055417195 0.07465475 0.14962855 -0.16487359 0.21600078
0.085527495 0.17911527 0.21720459 0.221843 0.2128669 -0.03557547 -0.03372106 0.25043783
0.15968472 0.10295782 0.08146873 -0.18489976 -0.1648504 0.26024264 0.26350924 -0.19028006
0.11689956 -0.04394552 -0.07299625 -0.13670284 0.27169958 0.028517894 -0.0033663325 0.119829364
-0.20172611 0.21154484 -0.12540483 -0.071736254 0.14225096 -0.21975392 0.09693672 -0.0598316
-0.05629525 0.031212032 0.08982158 -0.19475295 -0.22673582 -0.054695502 0.1436628 0.011414714
-0.14693771 -0.12544402 -0.16065355 0.059756584 0.22255792 -0.25861976 -0.16404295 -0.25657126
-0.1536644 -0.051328678 0.2760118 0.19315623 0.07332137 -0.08870415 -0.18546033 0.12163469
-0.050988883 0.09761407 -0.23038074 0.039561417 -0.12941173 -0.00064500043 0.10023156 0.12485806
-0.042060297 0.06064 0.22225623 -0.17515826 0.17741123 -0.15668827 -0.21157108 0.11944597
0.13279112 -0.20360652 0.2647514 0.033877265 -0.22699185 -0.2705123 0.22968523 -0.25772542

in_proj.bias f4 [64]
00000000: 1e64 83bb a894 413b e46c d7b8 1bc3 9a3b
00000010: fb4c 1bba 749d a3b9 8e4e 843b 4031 06bb
00000020: b813 3fbb ce21 7539 34bb ae3a 4971 17bb
00000030: ae5a 49bb bb03 c1ba 929d 9b39 8633 123a
00000040: 2e39 46ba 7cb4 7a3a 7d2c 0e3b 6a5c 4ab9
00000050: 5092 85ba 0158 303b 86ba 653a caaf 843b
00000060: 9879 abbb f54c 81ba 9ce8 32bb 55e9 9cba
00000070: ecd2 a03a 7806 303b bd61 1fbb e16f bcbb
00000080: 6a00 533b 6881 54bb 4750 0bbb 35f8 d439
00000090: e8d8 3cbb a255 8f39 788e 53bb 0458 9a3b
000000a0: 163e c33a b38c 5b3b 2c54 32bb 3c13 b738
000000b0: 7aeb 81ba 23f1 ecb9 e2f0 06bb 381c 3abb
000000c0: 6ba5 07bb bc15 113b 603d 63b9 567d fa3a
000000d0: 70b8 1fba 15f6 b03b 74ce 99bb 62d0 9f3b
000000e0: 542a a4bb ad5b bdbb 25e2 47bb b7b5 023a
000000f0: 5290 39ba 43bc 88ba 0280 72ba 498a 063a
-0.0040097376 0.002953807 -0.00010272281 0.0047229654 -0.0005924252 -0.00031207094 0.0040376848 -0.0020476133
-0.002915604 0.00023377614 0.0013330937 -0.0023108295 -0.0030724215 -0.0014725843 0.00029681303 0.00055771356
-0.0007561621 0.00095636374 0.0021693998 -0.00019298648 -0.0010190699 0.0026907923 0.0008763451 0.004049276
-0.005233001 -0.0009864854 -0.002729929 -0.0011971394 0.0012269891 0.0026859324 -0.0024319731 -0.0057506417
0.0032196292 -0.0032425765 -0.0021257566 0.0004062072 -0.002881581 0.00027338887 -0.0032280963 0.0047101993
0.0014895822 0.0033500611 -0.0027210815 8.729703e-05 -0.0009912096 -0.0004519309 -0.0020590355 -0.0028398167
-0.0020697962 0.00221382 -0.00021671271 0.0019110839 -0.0006092852 0.005400429 -0.0046938006 0.004877136
-0.0050099287 -0.005778751 -0.0030499783 0.0004986184 -0.00070786953 -0.0010432083 -0.0009250642 0.00051323004

adapt.E1 f4 [3, 8]
00000000: 61c3 6ebc a3fe 11bc a75a 593a 07f8 fcbb
00000010: b825 1e3c f060 3d3c 40aa 94ba 3b90 e73b
00000020: e713 d8bc 15ba 303c 5ffb 013b 9548 243c
00000030: f7d1 103b 698b 323a ae1f 063c 049d 2f3c
00000040: dcf3 143c ed1e 8fbb 18dc 163c cd48 70bc
00000050: cad7 98ba 54e0 a93b 1577 443a e3e4 a3bb
-0.014572949 -0.008910808 0.00082914013 -0.007719997 0.009652548 0.011558756 -0.0011342242 0.007066754
-0.026376678 0.010786553 0.0019833667 0.0100270705 0.0022097805 0.0006810935 0.008186264 0.010718588
0.009091344 -0.0043677003 0.009207748 -0.014665795 -0.001166099 0.0051842127 0.0007494551 -0.0050016507

adapt.E2 f4 [3, 8]
00000000: e25c 963c b383 24bc 6b94 a4bc 1341 37bc
00000010: b1d5 973c 4e38 f2ba 3b09 553c 1e56 8f3c
00000020: 5671 63bc 2b87 10bc 4f9f 063c 9eaa 0e3b
00000030: c5f5 a2bc 1d01 7abc 23f7 c6ba 8078 913b
00000040: e102 2a3b 3142 b6ba c40e 6c3c 0b6b 29bc
00000050: 94ea 303c e350 1abc 8193 993b c87b 4cbc
0.018354837 -0.010041165 -0.020090302 -0.0111849485 0.018534513 -0.0018479915 0.013002689 0.017497119
-0.013882002 -0.008821289 0.008216693 0.0021769176 -0.019892583 -0.0152590545 -0.0015179854 0.0044394135
0.0025941657 -0.0013905225 0.014407817 -0.010340462 0.010798115 -0.009418699 0.0046867733 -0.012480684

support_mix.w_logits f4 [3]
00000000: c7ed 0bbb 7eff 0b3b c910 0cbb
-0.0021351443 0.0021362002 -0.002137231

blocks.0.filter_conv.conv.weight f4 [64, 64, 1, 2]
00000000: f59c bcbc 9543 1e3e 1031 14bd 4b0d 1abe
00000010: 08b5 d9bd b4a9 e23c e8d6 50bc f7df 5d3c
00000020: 6409 bcbc dd91 dfbd 1616 be3d f42d e13d
00000030: ecef 113e 1288 09bd 311c 0fbd 51ef a23d
00000040: 9297 f53d 28fc fcbd 3a54 21bd 62fd 0dbe
00000050: 3ba1 0abd a1ae 2bbd 6c49 0ebe 31d3 7fbc
00000060: 7f83 9bbc e927 a63c 9aaf 2cbd 501a 6ebd
00000070: b0b8 db3c 4846 aa3c d958 fdbc 5cb3 01be
00000080: 070f c93d 0d3f a4bd fa13 8b3c fc13 8a3c
00000090: 7622 e33c c11a d4bc c458 15be 5c7b 00be
000000a0: 0c0d 0ebd 7e71 783c 7967 0abe cc6f 483d
000000b0: 8077 a3bc bdf7 7b3d 074c c53d cc15 a7bd
000000c0: 6970 013e 326b f2bc 5f3b 0dbd 2697 debd
000000d0: a9b8 183e f95b c43d d7de 053e bc1f 0abe
000000e0: 6f44 54bd 7188 743d 3764 cc3d 4f7b 1b3d
000000f0: 9cc7 ef3d d2c4 32bd d9dd bf3d cc9c c3bd
00000100: 4301 db3d 954d 99bd bd37 053c fbbb debd
00000110: 87b1 f23d 2a92 c6bd 1d71 1ebd 4dd9 183e
00000120: e6b3 f0bc 7c05 0a3e 227a 123e 7f4c 3bbd
00000130: 269b 623d 7c99 09be 7f3d 0bbe ba9a 06be
00000140: 8434 023e c447 b4bd 02f6 55ba 6e3b 08be
00000150: a923 d1bd 7d35 043e b85e 023e 7cdd 74bd
00000160: 490f 07be 4801 ce3d 2f36 4bbd 433e 0abe
00000170: ef2d 8a3d 8740 f53d 7b7a dd3c 7dbf 023b
00000180: 2a8d 8cbd 45eb 8c3d 7fd7 81bd 2dfb 213d
00000190: d2e3 eabd d884 aabd 85b3 c83d 649f c53c
000001a0: f9d2 563d c0a4 15be a00d 24bd c0ac afbc
000001b0: e0e1 c63d 7052 f3bc b843 963d 09db 9a3d
000001c0: 0724 11be eb53 033e cd5c f63d 52c4 f53d
000001d0: 0eac 9bbd 1de1 1b3d 1587 7ebb ad25 403d
000001e0: 4409 e53d f046 143e 2ce2 fe3d a2a0 f03d
000001f0: cccb 91bb 8bf5 983d 9593 4e3d 5d28 bcbc
00000200: 5129 0cbe bfaa c0bd 25b5 0e3d 9ad2 f6bd
00000210: 1206 ba3d 04b7 633d 7ac0 b3bd 42b1 833d
00000220: 6d70 133d 7105 e33c a548 cb3c a247 a2bd
00000230: 64a2 ab3d b13c 123e e760 23bc 6663 1bbe
00000240: 0436 46bd c8ce 173e ad77 193e e370 5dbd
00000250: 308d 0e3e b3c1 f83d e03f ffbd 2306 183d
00000260: 6af4 9d3d e472 10be 48cc b03a 5da0 893d
00000270: ff36 a33d 17b8 18bd 8558 dc3d a6f9 7c3d
00000280: d6d4 093e 04ef 56bd cea1 0cbe e9b3 11be
00000290: 7505 b1bd cafe 0d3e a6bb 34bd 9951 173c
000002a0: 1de7 813d e8e1 e13d a6bc 0a3e d95e 81bd
000002b0: 7693 eebd 9f13 0f3e d1cd ae3d 659e 033d
000002c0: 2577 193e 5efa f73d 72b3 013d 1996 3cbd
000002d0: ca36 25bd d61a 053e 080d 7a3c bacd e13d
000002e0: 367a ed3d 7fc1 fbbc 369c 703d 10a6 083e
000002f0: c1ef 13be 48fb 12be 130c da3c 53eb 53bd
00000300: dedb 8e3c b4a0 dc3d 24aa e53d d86c 82bd
00000310: 74a8 d63d 40a9 fdbc d351 eebd 6233 01bd
00000320: 45f9 d4bd 8982 743c e25f 133e 4d70 a6bd
00000330: 8bd4 c73d 01ca 963c 1dab 493d ff50 9d3d
00000340: 71af 5c3d 8597 08be 5181 8a3d 96bd 04be
00000350: e21a 75bb 44c1 ec3d f9cc 683d 4a0b 8a3d
00000360: 5468 02be 21d7 933d 9164 b6bc 866f cb3d
00000370: aeb6 d23d 92e1 d7bd edb8 81bd d49a 14be
00000380: 9d06 55bd b87f 9c3d 3b3c c63d ad19 8dbd
00000390: 92b0 083d 5cd2 853d 0570 1e3e 631e 0cbe
000003a0: c7ee 103e 7a23 d33c c3e1 353d 2d14 cabd
000003b0: c701 773d 99a7 f13d 2e36 763d df3c a03d
000003c0: eb37 a0bd c5dc 723d 7c28 13be e95b 0c3e
000003d0: 3b92 d63b b87c b3bd 6a89 01be 54c9 c9bd
000003e0: 546f 0a3c aa3c 97bd 85a6 4a3d 2b52 143e
000003f0: c18d 8f3b 0832 303c d267 e43d 8ec5 fdbd
-0.023024062 0.15455468 -0.036179602 -0.15044133 -0.10630232 0.027668811 -0.01274655 0.013542167
-0.022953697 -0.10916493 0.09281556 0.10995093 0.14251679 -0.033577032 -0.034938995 0.07955802
0.119918 -0.123527825 -0.039386965 -0.13866189 -0.033845168 -0.041914586 -0.13895196 -0.015614317
-0.0189836 0.020282703 -0.042159654 -0.058130562 0.026821464 0.020785466 -0.030926155 -0.12666076
0.09817319 -0.080198385 0.016977299 0.016855232 0.027726393 -0.025891664 -0.14584643 -0.12547058
-0.03468041 0.015163777 -0.13516034 0.048934743 -0.019954443 0.06151556 0.09633642 -0.08158454
0.12640537 -0.02959213 -0.03448045 -0.10868673 0.14914192 0.09587855 0.13073288 -0.13488668
-0.051823076 0.059700433 0.09980052 0.037959393 0.11707994 -0.043644734 0.09368486 -0.09551391
0.106936 -0.07485501 0.008130965 -0.10875698 0.11850267 -0.09695847 -0.038682092 0.14926644
-0.029382657 0.13478655 0.14304402 -0.04572725 0.055323742 -0.13437456 -0.13597678 -0.13144961
0.12715346 -0.08802751 -0.0008161963 -0.1330392 -0.1021188 0.12911029 0.12731445 -0.059781536
-0.13189425 0.10058838 -0.04961222 -0.13500313 0.067470424 0.11975198 0.027035942 0.0019950562
-0.068628624 0.068808116 -0.06339931 0.03954618 -0.114692345 -0.08326119 0.09799866 0.024123855
0.052447293 -0.14613628 -0.040052056 -0.021444678 0.09711051 -0.029702395 0.07337135 0.07561309
-0.141739 0.12824981 0.12029419 0.12000336 -0.07601176 0.03805648 -0.003883784 0.04691093
0.11183408 0.14480186 0.124454826 0.11749388 -0.0044493433 0.074687086 0.050433714 -0.022968465
-0.13687636 -0.09407567 0.03484072 -0.12051888 0.09083189 0.05559446 -0.08776946 0.064302936
0.03599589 0.027712556 0.024814913 -0.07923819 0.08380583 0.14280964 -0.009971834 -0.15174636
-0.048391357 0.14824975 0.14987059 -0.054062735 0.13921046 0.1214632 -0.12463355 0.037115227
0.07712634 -0.14106327 0.0013488615 0.0672004 0.07969474 -0.037284937 0.10759071 0.06176152
0.13460097 -0.052474037 -0.13733599 -0.14228787 -0.08643619 0.13866726 -0.044124268 0.009235763
0.063429095 0.11029416 0.13548526 -0.06316919 -0.1164922 0.13972329 0.0853535 0.03213348
0.14986856 0.121083006 0.031665273 -0.04604158 -0.040335454 0.12998518 0.015261896 0.11025567
0.115955755 -0.030731915 0.058742724 0.13344598 -0.14446928 -0.14353669 0.026617086 -0.051738095
0.017438825 0.10772839 0.112140924 -0.063684165 0.10481349 -0.030964494 -0.116367005 -0.031543143
-0.10399107 0.0149237 0.14392045 -0.081268884 0.09757336 0.01840687 0.049235452 0.076814644
0.05387825 -0.1333905 0.067629464 -0.12962946 -0.0037400057 0.115603 0.056836102 0.067404345
-0.1273511 0.07218767 -0.02226475 0.09933381 0.1028875 -0.10541071 -0.063341 -0.14512187
-0.05200826 0.07641548 0.09679457 -0.06889663 0.033371516 0.065342635 0.1547242 -0.13683467
0.14153586 0.025773752 0.044404756 -0.098671295 0.06030443 0.11799545 0.060110264 0.0782411
-0.078231655 0.059292573 -0.14370912 0.13706936 0.0065481937 -0.087640226 -0.12650076 -0.098528534
0.008449394 -0.073846176 0.04947521 0.1448447 0.004380912 0.010754116 0.11152615 -0.12391196

blocks.0.filter_conv.conv.bias f4 [64]
00000000: 2160 dcba 909b 693b fb6c 5f3a 477f 04ba
00000010: 8f00 95bb e098 a33b f4c5 ae3a a34e aa39
00000020: d6eb d63a 1546 7c3b 2e9e 60ba 2257 c2b9
00000030: b477 41b9 7fb9 6b3a e2d6 9cba e408 5abb
00000040: ae6b abbb c99c e23a f1f5 2dbb 39f8 92b8
00000050: 3ec6 2a3b ce93 9abb 8ec2 f63a a142 563b
00000060: 60da d4bb 46ac 0d3b 8bd1 b43b 2402 7cba
00000070: 90fa 8f3a 5dbc 523b 77e0 57bb 538d 8cbb
00000080: 9506 5dba 9dac 053b d677 023b c70a b83a
00000090: a2de cab9 144e 69b8 69ba 09bb 36ca 72bb
000000a0: ca72 97bb 96af 67bb fd19 613b 190e 8b3a
000000b0: 1682 98ba 585f d13a cc2d 21bb 5dd3 29b8
000000c0: ab8f 903a f3b8 fdba 60d6 933a cc2c ed3a
000000d0: a17b adbb 1fa8 d2b8 513b feba 8687 d6b7
000000e0: 3c61 103b 3045 823a b108 8e3b 6ce5 6eba
000000f0: 7fd6 a3b9 f0f8 41bb 326c 4aba 32ba 2c3a
-0.0016813317 0.00356457 0.0008523014 -0.0005054366 -0.0045471857 0.0049925894 0.0013334141 0.00032483516
0.0016397189 0.003849392 -0.00085684925 -0.00037067482 -0.00018450507 0.00089921796 -0.0011965896 -0.003326946
-0.0052313423 0.0017289157 -0.0026544298 -7.0080576e-05 0.0026058103 -0.0047173267 0.0018826292 0.0032693523
-0.006495759 0.0021617576 0.0055181435 -0.0009613356 0.0010984708 0.003215573 -0.0032940188 -0.004289308
-0.0008431462 0.0020397075 0.0019907854 0.0014041298 -0.00038694317 -5.5624245e-05 -0.002101565 -0.0037046797
-0.004621838 -0.003535246 0.0034347766 0.001060906 -0.0011635448 0.0015973849 -0.0024593947 -4.0489587e-05
0.0011029145 -0.0019357487 0.0011279099 0.0018095016 -0.0052942787 -0.00010044895 -0.001939634 -2.5573896e-05
0.0022030612 0.0009938832 0.004334532 -0.0009113166 -0.00031249595 -0.0029597841 -0.0007721811 0.00065890246

blocks.0.gate_conv.conv.weight f4 [64, 64, 1, 2]
00000000: 62f5 e63d 82d0 e9bd 78fa 11bd 46b1 9a3d
00000010: 2b19 2bbd 4890 28bd c287 e33d ed2d 813b
00000020: 4d75 25bd f980 c5bd 453e 093e 3ded df3d
00000030: e2a3 4c3d d73f b0ba ca01 48bd da3d 2e3d
00000040: 5624 cebd b2ca 933d 7683 93bc db6f 063e
00000050: ce49 0dbe 871b 0d3e 1942 f73d 0d2a 023e
00000060: 5892 66bd af05 e03d 50c7 383b 69a7 18bd
00000070: 5720 02be 1854 eebd 8451 643d 11ac cbbd
00000080: 01a2 4dbc 6f46 3cbd ded6 e6bd a3e1 193e
00000090: 5c16 a63d 30cf 9fbd f83e e83d 5d6f 43bc
000000a0: 139b f3bd 2ba5 cfbd edda f63b 545d babd
000000b0: 1f00 3e3d c326 34bd 3147 0fbe 6fdd bfbd
000000c0: 123b 04be 6743 0b3e 3ce0 dd3d 48b6 cfbd
000000d0: f09d 123e 2186 8cbd 9102 1bbd 10a5 9cbc
000000e0: 9335 f33d f84a 0f3e bc93 94bc c313 743c
000000f0: 9f9e 093e 6c70 15be a1d0 e53c 037f abbd
00000100: c81d fabd 388f a83d 3e17 c4bd 0923 c8bd
00000110: e635 5fbd 910f 743d 50c9 8e3d d410 43bd
00000120: 6c0d 853c 0ed7 05be f95d 033e 3b2c 70ba
00000130: 1477 0b3e beec 303d 1cb7 373d 50cc dbbd
00000140: 1a81 9bbd 0617 89bb 7ff4 abbd 0a04 2dbc
00000150: adb4 02be 254a 233b ef34 0dbe 8f4a e73b
00000160: feed 8bbd 6824 293d b516 933d 5874 22bc
00000170: a15f 033d ed44 69bc 5c57 d1bd f9e3 e8bd
00000180: 42be 073e f9fd e73d 6805 a8bd 43e9 2e3d
00000190: c87a 143d 487f c0bd a70e 31bd 1718 1b3e
000001a0: 86d2 f03c b45e 0b3e 6e06 043e 800d f03d
000001b0: e1da ddbd 19b3 bc3d 925f 3d3d 7ac4 4c3d
000001c0: af2c b9bc 1a13 36bd 23de 89bd 208a c4bd
000001d0: eb56 a13d e2e7 0abe 4b67 c43c 88ef 94bd
000001e0: f331 2c3d 2784 7b3d 961b 2cbc e501 0cbd
000001f0: 8f25 a3bc c694 f43d 5bd8 b3bd 5cf3 d0bd
00000200: 394a 093d fd44 b63d 27c9 eb3d 8924 bd3d
00000210: 29de c23d 8a95 003e 842a eb3d 310c debd
00000220: dd55 7c3c ce61 9c3d 38bf 94bd 5054 38bd
00000230: 8462 da3d 6741 9d3d 8538 16bc c559 de3d
00000240: b10e a9bd bb2a e53d ecbc 4c3d 9443 8a3d
00000250: 5af6 7a3c deb9 a5bd 64da 09be 6347 03be
00000260: 4e1a 893d 0ee0 563d c233 eb3d cfda 4d3b
00000270: c4c6 133e 48ce 193e d617 38bd a168 acbd
00000280: acb4 853c 67ed a33d 6cd5 c1bd 476c 58bd
00000290: 72c0 eebd 8a2e 993c 1128 06be fd17 96bd
000002a0: d8b4 11be 35fe c4bd 8924 f13c 4d1d ffbd
000002b0: c436 cfbd 32e4 8f3d acd9 0cbe 4db5 303d
000002c0: 73d9 a7bd 4dad 053e 80c7 f83d 316f 66bd
000002d0: 9bed 91bc 0a27 0a3e e726 9e3d fc3d 183e
000002e0: 6a49 afbd d831 bc3d 7486 c3bd 10c7 debc
000002f0: c006 153e bd04 f6bd d9ce 2f3d 3f3c 13be
00000300: 693a 7fbd 8163 9bbc feb6 523d b16c 39bd
00000310: ec0d 163e 48c7 1c3d 7020 1bbe ca4b 75bc
00000320: d3f7 1f3d bb4f fd3d 120d e6bd 2ebe 233d
00000330: 5419 a63c de21 8a3d 1b7a 0fbe 60bf b8bd
00000340: 6d71 07be bbee 263b 5d7e d43d 24b3 4dbb
00000350: aa3e 883c a5ae 83bd 664b b33d c2a3 22bd
00000360: 88de 58bd 0ad0 96bd c070 8f3c aa4a d8bd
00000370: 1a70 06be 0ea9 a33d 6288 84bd d11f c0bd
00000380: a692 01be 963e f0bd 1abe 893d 5c9f f8bd
00000390: 476e 9fbd 044c 033e 8a36 86bd 5386 05be
000003a0: 5990 c93d d6b7 fb3d 4bb5 02be 79e1 4abc
000003b0: 9c14 e23d 7633 153e fb86 edbd dd78 d33d
000003c0: 2206 81bd ff93 693d d41b 6ebd 5b88 2a3d
000003d0: e04d 6ebd 565b 1abe 9012 f5bc 7da1 01be
000003e0: 3494 9bbd 1bee cbbd 6bf9 35bd 1706 3abd
000003f0: a06c e73d 9f64 f23d f25e b83d ddda de3d
0.11277272 -0.11416723 -0.035639256 0.075533435 -0.04177205 -0.041153222 0.11109878 0.0039422424
-0.04039507 -0.0964374 0.1340266 0.109339215 0.04996098 -0.001344676 -0.04882983 0.042539455
-0.10065524 0.072163954 -0.018007021 0.13128607 -0.13797686 0.13780032 0.12073154 0.12711354
-0.056291908 0.10938584 0.0028194971 -0.03726903 -0.12707649 -0.11637133 0.0557418 -0.099449284
-0.012550832 -0.04596561 -0.112714514 0.1502748 0.081097335 -0.0780319 0.11340135 -0.011928407
-0.118948124 -0.10138925 0.007533422 -0.09099832 0.046386834 -0.04398228 -0.13992001 -0.09368407
-0.12913159 0.1359993 0.10833785 -0.10142189 0.14318061 -0.068615206 -0.037844244 -0.019121677
0.11875453 0.13993442 -0.018136851 0.01489729 0.13439415 -0.14593667 0.028053584 -0.08373835
-0.122127116 0.08230442 -0.095747456 -0.097723074 -0.05449476 0.059585158 0.06971991 -0.04762347
0.016241752 -0.13070318 0.12828816 -0.0009161864 0.13619643 0.043194525 0.04485236 -0.10732329
-0.075929835 -0.004183653 -0.08396243 -0.010560045 -0.12764235 0.002491602 -0.13789724 0.0070584486
-0.06832503 0.041294485 0.071820654 -0.009915434 0.03207362 -0.014237625 -0.102217406 -0.11371607
0.13256171 0.11327738 -0.08204156 0.042702924 0.036249906 -0.09399277 -0.043226864 0.15145908
0.02939726 0.13610345 0.12893078 0.11721325 -0.108327635 0.09213848 0.04623372 0.049992062
-0.022604315 -0.04445181 -0.06731822 -0.09596658 0.078779064 -0.13565019 0.023975035 -0.072722495
0.042039823 0.061405327 -0.010504624 -0.034181494 -0.01991537 0.11942439 -0.08781501 -0.10202667
0.03351805 0.08899877 0.11512976 0.09235484 0.0951503 0.12557045 0.114827186 -0.10842169
0.015401331 0.07635842 -0.072630346 -0.04500228 0.106633216 0.0767849 -0.009168749 0.10856966
-0.08254755 0.11189791 0.049984857 0.06751171 0.015317524 -0.08092092 -0.13462216 -0.128202
0.0669447 0.05245977 0.114844814 0.0031410938 0.14431292 0.15020096 -0.044944607 -0.08418394
0.016321503 0.08004265 -0.09464535 -0.052837636 -0.116578 0.01869895 -0.13101222 -0.07328794
-0.14229143 -0.09618799 0.029436367 -0.124567606 -0.101178676 0.07025947 -0.1375491 0.043141652
-0.08195772 0.1305439 0.121474266 -0.056258384 -0.017813494 0.13491455 0.07722264 0.14867395
-0.085589245 0.091891944 -0.09547129 -0.02719453 0.14553356 -0.120126225 0.042921875 -0.14378451
-0.062311564 -0.018968346 0.051444046 -0.04526967 0.14653748 0.038275987 -0.15149093 -0.014971683
0.039054703 0.12368723 -0.11232962 0.03997629 0.02027575 0.06744741 -0.14011423 -0.09020877
-0.13226862 0.0025471884 0.103756644 -0.0031387294 0.016631443 -0.06429795 0.087546155 -0.039706953
-0.052946597 -0.07363899 0.017509818 -0.10561116 -0.13128701 0.07991229 -0.064713255 -0.093810685
-0.12653598 -0.11730687 0.06725712 -0.121397704 -0.077847056 0.12821966 -0.06553371 -0.13039522
0.09841985 0.12290923 -0.1276447 -0.012382858 0.11039087 0.14570412 -0.11598011 0.10325787
-0.06299998 0.057025906 -0.058132008 0.041633945 -0.058179736 -0.15073904 -0.029916078 -0.12659259
-0.07596627 -0.099575244 -0.044427317 -0.045415964 0.113000154 0.11835598 0.090024844 0.108815886

blocks.0.gate_conv.conv.bias f4 [64]
00000000: d27a b4bb 2cfe 2cb9 3073 4d3b fa63 00bb
00000010: 38c5 613b 7352 ddba 115c 443b 639a a0ba
00000020: e712 9bb9 3390 c13a 8684 98b9 5f0d 80bb
00000030: e761 423b 8162 5cbb 5437 dd3a a5a1 113b
00000040: 9ae2 b23b 1e2a acba 721b f4b8 7b26 a6ba
00000050: aa41 80b9 2444 483a e479 30ba 83dc 3c3a
00000060: c322 59b9 e20b 6ebb 6e74 6cba 9fe0 0eba
00000070: 43b7 353a ae57 ceba 7436 2aba b714 8639
00000080: 6f03 2939 125b d7b9 83ea 8c38 fe65 7a3a
00000090: c862 e3ba fd42 c63b 3877 973a aaaa 003b
000000a0: f794 473a db87 2ebb b61b 473b 88b3 d03a
000000b0: 837e 96ba e286 e93b 6e9c 84bb 01d8 193b
000000c0: e4bb 0eba c84e ac39 5838 463b d70f e1ba
000000d0: 22d7 2bbb 3f3a 2ebb 423c 83ba 93aa 083b
000000e0: 9175 db3a 4815 89ba 429e 4fba 70cc d1b9
000000f0: dc31 223b d7f8 a6ba ecd3 37bb 60d5 53ba
-0.0055078054 -0.00016497885 0.0031349175 -0.001959084 0.0034449827 -0.0016885534 0.0029962102 -0.0012253042
-0.00029577987 0.0014767706 -0.00029090437 -0.003907844 0.0029660405 -0.003362805 0.0016877451 0.0022221592
0.005459142 -0.001313511 -0.00011639939 -0.0012676263 -0.00024462986 0.0007639548 -0.00067320303 0.00072044897
-0.00020707682 -0.0036323 -0.0009020035 -0.0005450341 0.000693191 -0.0015742683 -0.00064930995 0.00025573905
0.00016118375 -0.00041075848 6.7194014e-05 0.0009551941 -0.0017348165 0.006050466 0.0011555916 0.0019632974
0.0007613445 -0.002663127 0.0030381507 0.0015922645 -0.0011481795 0.007126675 -0.004046968 0.0023474696
-0.0005444868 0.00032865093 0.0030245986 -0.0017170858 -0.0026220758 -0.002658501 -0.0010012465 0.0020853623
0.0016743412 -0.0010458613 -0.00079200056 -0.00040015904 0.0024748957 -0.0012738955 -0.00280499 -0.00080808066

blocks.0.residual_conv.weight f4 [64, 64, 1, 1]
00000000: a66f 0fbc c53f df3c f085 443e b473 33bd
00000010: f0bc 133c ce44 ffbd 60b8 12ba f380 acbc
00000020: 5583 0a3e 3073 f1bd 2dcd 2b3e 4979 523e
00000030: ec8f 71bc 468c 443e 37ec 0bbe 908d dfbd
00000040: 9d26 61bb f82e 23be 32aa 15bd a24a 5b3e
00000050: 8733 99bc b666 5a3e b51a 1dbd 4ed8 3a3c
00000060: 96e9 d13d 4d20 133e 6fad 3ebe aa5e 86bd
00000070: 37b4 74bd 0f89 2d3e 5058 b93d 08f3 fabb
00000080: 6980 acbd 36bf e83d 7acd 8cbb 4e80 84bd
00000090: c1b1 0f3e 1e23 203e 25f6 a83d ccf7 22be
000000a0: e288 47bd 7180 29be 4d24 1c3e b636 44bd
000000b0: 095a ef3d 81d7 33be a022 e83d fa9f a0bc
000000c0: 9c43 963b 016e 88bc 0191 01be 2fa5 1c3e
000000d0: 7a7c 34be 82b9 253e 62da f43d a6fa c53d
000000e0: 1e6e 2ebe d25c 05be 6ea6 233e 6524 2dbd
000000f0: cd4c 3c3e d21d 2fbe 071b 5a3d 08c8 bd3d
00000100: 36ec 473e 3909 49be 027a 503e e03f 253e
00000110: fcd5 f13d af1c 893d 2584 583e 94fa 8d3d
00000120: e4bb d13c 41c8 aebc 54c2 193e eb05 37be
00000130: aa73 943c 3e8f d4bd b68a 7c3d 2337 103d
00000140: e49c fe3a a478 1bbe a7ce abbd 8793 443e
00000150: ddda bb3c 4616 e93b 5952 bd3d 8783 00be
00000160: 508b 253e 7f7e e53d 1deb 18be bbc4 b6bd
00000170: 54f8 40be 08db 3abd 9f8e ea3d 186b e3bd
00000180: aa43 be3c 8484 983d 51e4 b53b e60a 403e
00000190: 5dd0 e13d 31d5 4b3e 8a3c 43be ecd8 ac3d
000001a0: ec5b 33be 4e2f 813d 8873 56be f45a c93d
000001b0: 2163 0abd f05b a63d b50f f53d 9d4f a03d
000001c0: 6ca3 773c c750 fb3b 2a87 a93d 4a96 4d3e
000001d0: 4d24 1dbe a3e8 f7bc cc1e 54be 2775 613d
000001e0: c340 283d 0c35 8e3b 01bb 1bbe c69b 87bd
000001f0: 9233 2fbd 4904 d4bd 0ae8 433d 4c7a 893b
00000200: a438 963d 2536 b1bb 742b 24be dcf6 7f3d
00000210: af65 73bd b975 7d3d 642f 51bd 2b81 3abe
00000220: 0b1f 27be 3221 24be 2395 123e 77e6 e8bd
00000230: 2170 acbd 9ed4 0e3e 1a0e 4e3e d4b1 e73d
00000240: 4095 4dbd a368 07be 1cf5 15be 9b81 7ebd
00000250: 010c 01bb 7608 373e 486a d33d 00ba c93d
00000260: b0de 243e a9a7 4e3e 0aad 01bd 456b 923d
00000270: eb90 053e 3330 fd3d 8458 4d3e c187 2a3e
00000280: 8d11 353e 2ba9 54be eed1 1a3d d9bf 53be
00000290: bf78 a33d 38a5 6d3d 571e 4dbe 9b81 213e
000002a0: 95fb 09be 6844 07be 2f77 ae3d 2a60 eebd
000002b0: 6517 f83d 24ec c23d 9639 8e3d 5eb4 d3bd
000002c0: d98b 4b3e 61c1 123e 6320 d0bb 89b7 f0bd
000002d0: 6682 ef3d 6ce7 a1bd 0a87 03be 1394 7cbd
000002e0: 85d2 b03d 7ec2 173e ea67 82bd 606a 92bc
000002f0: 83a3 dc3c 9990 eebc c7c5 06bd 9d4a 1b3e
00000300: 9876 903d b192 193e 6658 183e c190 e53a
00000310: 0c17 563e 1688 27bd bea8 873d 425f 15be
00000320: f409 e3bd 18ea 82bb 1e6e 2b3e 92f5 0e3d
00000330: 65db 03bd f9dd 8a3c 0755 21be 42f3 b23b
00000340: 68fb 0a3e 9b70 c53d 5fdb 3b3e 27bc ab3d
00000350: b59c 54be 49cf 53be 5294 743c 4a7c b93d
00000360: fc1c 00be e864 14be ed08 513e 27ba 813c
00000370: 756d 4dbd 72d2 a43d dbac 093e 0fd9 503e
00000380: 70d0 22bc f2a2 38bd 3bdb 043e baf8 683d
00000390: 2743 2d3e 3ab0 8e3c 9266 803d 941b db3d
000003a0: 81f3 1a3d 1e2e e83d 91ac 5a3e 237e 4d3d
000003b0: 9c2a b4bd 6a3d cebd 1e76 d8bd cbcc 3dbe
000003c0: 890a 0abe fa94 133d 70ee 2a3d e996 c23c
000003d0: 395b 8f3d 540f 26be a269 d8bd edac 2bbe
000003e0: f608 09be fd76 03be 8773 533d 5ff8 c7bd
000003f0: d724 3dbe b682 473e c6d2 c13d 1f01 fbbc
-0.008754646 0.027252087 0.19191718 -0.043811515 0.009017214 -0.12464295 -0.0005596932 -0.021057582
0.13526662 -0.117895484 0.16777487 0.20554079 -0.014743786 0.19194135 -0.13664328 -0.10915673
-0.003435529 -0.15935886 -0.036539264 0.21415189 -0.018701328 0.21328244 -0.038355548 0.01140411
0.10249631 0.1436779 -0.18620847 -0.065610245 -0.05974218 0.16946815 0.090500474 -0.007658366
-0.0842293 0.113645956 -0.0042969557 -0.06469785 0.14032651 0.15638396 0.08250073 -0.1591484
-0.048714526 -0.16552903 0.15248223 -0.04790374 0.11687095 -0.17562677 0.11334729 -0.019607533
0.0045856964 -0.016654016 -0.12652971 0.15297388 -0.17625609 0.16184047 0.11955716 0.09666948
-0.17034194 -0.1302369 0.15981457 -0.042271037 0.18388672 -0.1710122 0.05324843 0.092666686
0.19523701 -0.19632424 0.20359042 0.16137648 0.118083924 0.06694924 0.21144159 0.069325596
0.025602289 -0.021335723 0.15015537 -0.17873351 0.01812156 -0.10378884 0.061655723 0.035208832
0.0019425419 -0.1518274 -0.08389025 0.19196902 0.02293151 0.007113251 0.09244222 -0.12550174
0.16166425 0.11205768 -0.14933439 -0.08924242 -0.1884473 -0.04561904 0.11452984 -0.11104411
0.023225624 0.0744715 0.005550899 0.18754157 0.1102607 0.19905545 -0.19066063 0.08439812
-0.17515534 0.06307851 -0.20942509 0.09831801 -0.033785943 0.081230044 0.119658865 0.07827685
0.015114646 0.0076695415 0.082777336 0.20076862 -0.15345879 -0.030262297 -0.20714873 0.055043366
0.041077387 0.00433982 -0.15208055 -0.06621508 -0.04277379 -0.1035238 0.04782871 0.004195487
0.07335022 -0.005408066 -0.16032201 0.062491283 -0.059423145 0.061879847 -0.051070586 -0.18213336
-0.16320436 -0.16028288 0.14314704 -0.11372083 -0.084198244 0.13948295 0.20122567 0.11313215
-0.050191164 -0.1322351 -0.14644283 -0.06213532 -0.0019690993 0.17874321 0.10323006 0.0984993
0.16100574 0.20181145 -0.031659164 0.07149366 0.13043563 0.12362709 0.20053297 0.16653349
0.17682476 -0.20767657 0.03779786 -0.20678653 0.07982015 0.058018893 -0.20031105 0.15772097
-0.13474877 -0.13209689 0.08518826 -0.116394356 0.12113837 0.095176965 0.069445774 -0.10337137
0.19877566 0.1433158 -0.006351517 -0.117537566 0.116947934 -0.07905468 -0.12844482 -0.061664652
0.086339034 0.14820287 -0.06367476 -0.01787299 0.026933437 -0.029121684 -0.03290346 0.15165181
0.0705387 0.14997365 0.14877471 0.0017514454 0.20907229 -0.040901266 0.06623982 -0.14587119
-0.11085883 -0.0039951913 0.16741225 0.034902163 -0.032191653 0.016951548 -0.15755092 0.0054611275
0.13572466 0.096406184 0.18345402 0.083854966 -0.20762904 -0.20684542 0.01492794 0.090569094
-0.12511057 -0.14491618 0.20413561 0.015835835 -0.050153214 0.08047952 0.13444845 0.20395301
-0.009937391 -0.04507727 0.12974255 0.05687783 0.16920148 0.017418016 0.06269564 0.106986195
0.03782988 0.11336921 0.21354891 0.05016912 -0.087971896 -0.100703076 -0.10569404 -0.18535154
-0.13480581 0.036030747 0.041731298 0.0237536 0.06999821 -0.16216785 -0.10567023 -0.16765185
-0.13382325 -0.12838359 0.051623847 -0.0976417 -0.18471085 0.19483456 0.0946403 -0.030640183

blocks.0.residual_conv.bias f4 [64]
00000000: 0561 7f3b faff 4cbb 2419 96bb ec7d 31bb
00000010: 2570 4fbb 1cfd 0eba 5a09 193c 84be cfba
00000020: 25af bc3b 6525 2f3a 2229 e13b 3556 f4bb
00000030: 3659 53bb edf8 eb3b e237 0a3c ca6c afba
00000040: 3404 023a 6809 21bb 75f3 4e39 8301 8fbb
00000050: 98c1 033c 8fea d8bb 16f1 883b d10c c13b
00000060: f55a ec3b b8d5 72bb 1469 f93a 250a 313b
00000070: 7de1 7abb 5fe3 de3b beb9 093b d0b0 3b3a
00000080: af80 f0bb 153c f9ba 59b5 07bc 634a bcbb
00000090: a9c6 1f3b 75aa 893b f4f3 69bb 6912 ec3b
000000a0: b631 4fb8 b7da c63b de3f 11bc c202 1ab9
000000b0: df3b 80ba 31dd 0f3c 5e5d a73a a70f 9c3a
000000c0: 8d10 bd39 df90 3f3b d6ae cdbb 0442 a9bb
000000d0: be40 3a3b 389a 943b 7af9 f13b e390 abbb
000000e0: cd41 b8bb 4d7c 973a a4b7 5e3b d8b0 423b
000000f0: 2e88 0f3b 42d3 b9ba fd02 993b 2c66 49bb
0.003896774 -0.0031280504 -0.0045806337 -0.0027083112 -0.0031652537 -0.00054545864 0.0093406085 -0.0015849625
0.0057581835 0.00066812924 0.0068713585 -0.0074565657 -0.0032249219 0.007201305 0.008436175 -0.0013383862
0.0004959733 -0.0024572257 0.00019736386 -0.004364194 0.008041762 -0.0066197584 0.0041791303 0.0058914204
0.0072129914 -0.0037053656 0.0019028508 0.0027014103 -0.0038281374 0.006802007 0.0021015252 0.0007159831
-0.007339559 -0.0019015098 -0.008282983 -0.0057461723 0.0024379885 0.0042012283 -0.0035698386 0.007204343
-4.9398943e-05 0.0060685533 -0.008865325 -0.00014687612 -0.0009783468 0.0087807635 0.0012768914 0.001190652
0.0003606122 0.0029230637 -0.0062769456 -0.0051653404 0.0028419937 0.004534986 0.0073844763 -0.0052357777
-0.0056230784 0.001155743 0.003398397 0.0029707458 0.0021901238 -0.001417734 0.0046695457 -0.0030731065

blocks.0.skip_conv.weight f4 [128, 64, 1, 1]
00000000: b992 d0bd ee2f 47bb e2ab b63d 68e0 c4ba
00000010: f84c e53d 6080 27be de9c 2ebd 67ce 79bc
00000020: 3df4 b9bd 6d39 df3d faa0 d53d e9ce 183d
00000030: a657 e5bd bc87 a13d 4c37 edbd d6d2 e53c
00000040: 0dbf 9f3d 75ef 4d3d d489 14be 781c 2ebc
00000050: c8c9 153c 5d31 a6bb b31d dcbd 745f fe3d
00000060: 5949 28be 21f5 213e 5de5 353e 8747 0c3e
00000070: 090d 0c3e 37bc 283e 0537 fe3d b35a f1bd
00000080: 8f11 043e 93d6 9f3d a125 5a3d 590d 263e
00000090: 4a5f d23d bf8c b03d 1edf 3bbd f0b7 15be
000000a0: 9834 ddbd 7604 38bd 5a82 dabd 5b31 76b9
000000b0: 2f78 6d3d a775 933d 89a7 183e 3cf7 bbbd
000000c0: cd9e a4bd 7e03 cc3d 7fca 31bd b475 1d3e
000000d0: 84d4 b03d 8abb 163d 75a7 a9bd ea81 563d
000000e0: 70ee 323e 9379 2cbd f7d0 183e 5d38 b3bd
000000f0: c71b e13d 3610 023e 38de d4bd 3d20 17be
00000100: 1a3d 85bd 63a6 bb3c ca28 67bd b2de 44bd
00000110: c60b 403d 999d 023d e3ab 68bc 1fd9 87bc
00000120: 0787 093e abc0 97bd b352 fabd f723 a6bd
00000130: 9331 e7bd 603a 6c3d 0c56 0fbe 779b b03d
00000140: 7b67 41bd 1be8 003d 4edc fb3d a1eb 5cbd
00000150: eaa3 2a3e 6629 573d 729c 0abe 78cf abbd
00000160: 9cf8 2b3e 1fa4 a2bd 894b 2e3e a81b 19bd
00000170: 6d4b 203e 4916 e7bc 951e a33d 1783 08bd
00000180: f3dd a4bd cc67 563d 6b90 28be 4e20 0cbe
00000190: c1f1 76bd 9915 253e 5819 03be be6e eb3c
000001a0: 83ba ccbc 7775 0cbe b58b 053e 8e96 483d
000001b0: d7da 0fbd 8614 2c3e 41fd 9ebd 5331 1b3e
000001c0: 5885 113e 958f 303b f65d 5f39 e0cc 723d
000001d0: 7710 07bd 4453 b63c 9ac1 843d 5276 5c3d
000001e0: a9de 123e c6c2 413c 533d 7cbc 929b a93d
000001f0: b2d4 bd3d c04b aa3d a02e 9ebc 1b28 913d
00000200: d83f 05be b7af 4abd 21ca 993d eee3 c5bd
00000210: 3b05 84bd ffc3 cf3d c9c8 0bbe 247d 923d
00000220: af0a b03c d01d 76bd 8f42 6dbd 8240 143e
00000230: b1f4 2c3e 09c8 a3bd 5d47 28be 3e28 403c
00000240: cfc7 dfbd e7c7 e0bc 26d9 96bc 52c1 e73d
00000250: 9ce3 2f3e 1de8 9bbd 8d75 2d3e fd7e 1dbe
00000260: 6964 e23c 3c33 5bbb 5c87 98bd b70b 3c3d
00000270: c9ab e63d 66cf 0cbe d381 bc3b 92fd 52bc
00000280: d947 093e 893f 143e 7d60 16bd e932 d8bd
00000290: 5139 153e dffa 7f3d e137 9abc a977 37bd
000002a0: acf5 4d3d 9537 abbd eed3 c03a aa8d 1b3c
000002b0: ad12 50bd 9d77 34be d46d 743d 7f0d 9d3d
000002c0: a6dd 0ebe 9da8 d8bd cb5b fdbd 8cf9 0dbe
000002d0: 40a5 d4bc 2cbd 47bd e498 acbd 0280 323e
000002e0: 8deb c0bd f190 123e 4455 893d f05e 09be
000002f0: 61b2 2d3e 3b02 1c3e f5af 24be 33c7 c93d
00000300: c4d2 28be bd6a 3cbd 2273 6abc 3ea4 0a3e
00000310: 0405 a13d 3baf f8bd e9b5 d4bd adb3 7ebd
00000320: 8c78 d4bd 4265 d7bd b6ab 173e c1ee b7bd
00000330: 3b58 15be ee01 4fbd 6c29 30be 10e8 5bbd
00000340: 939d 2dbe 1221 fdbd 0355 c4bd a31f 1ebe
00000350: 8370 333c ab3c c0bc 5518 2ebe c054 c13d
00000360: 78db d53d 8802 2dbd 130a 63bd 5630 f03d
00000370: 2506 223d 9341 0fbe f87f bfbd c85b c03d
00000380: d5a6 d2bc 31c6 13be 6d8a 5abd 4eff cc3d
00000390: c9a1 a0bc dde1 dc3d e9c5 0bbe 51f8 d7bd
000003a0: 9dd0 90bc c40f ad3d da8d 303e 76c7 3a3c
000003b0: 8b1c 313c f94c 013e b6af abbd 1aaa 2ebe
000003c0: 7797 c43d 5127 823c 4a9a 10be dc98 04bc
000003d0: 8247 3e3d fbd1 6abd 06c1 24be e028 123e
000003e0: d3fb 0c3d 73f0 2fbe 5612 cb3d afe9 143e
000003f0: acd5 10be 9b8b ad3c f42a 713d e99c 523d
-0.10184235 -0.0030393559 0.08919503 -0.0015020492 0.11196321 -0.16357565 -0.04263007 -0.015246964
-0.09079788 0.10899625 0.104310945 0.0373067 -0.11198358 0.078872174 -0.11582813 0.028054636
0.07800112 0.050277192 -0.14505702 -0.010626905 0.009142347 -0.0050718025 -0.10747852 0.1242055
-0.1643423 0.15816166 0.17763276 0.1369916 0.13676848 0.16478048 0.12412838 -0.11784878
0.12897323 0.07804599 0.053258542 0.16216029 0.10272081 0.08620595 -0.045867078 -0.14620948
-0.10801047 -0.04492613 -0.10669394 -0.00023478775 0.057975944 0.07200175 0.1490766 -0.091780156
-0.08038101 0.099616036 -0.043406006 0.15376931 0.08634284 0.036799945 -0.08283893 0.05236999
0.17473769 -0.04210813 0.14923464 -0.08750985 0.10991626 0.12701496 -0.10393947 -0.14758392
-0.06505795 0.022906488 -0.056435384 -0.04806394 0.046886228 0.031888578 -0.014201137 -0.016583024
0.13430415 -0.074097954 -0.12222805 -0.081123285 -0.112887524 0.05767286 -0.13997668 0.086234026
-0.047217827 0.031471353 0.12297879 -0.05393565 0.16664091 0.052529715 -0.13536242 -0.08389181
0.16794056 -0.0794146 0.17021002 -0.03737989 0.15653773 -0.028208869 0.079648174 -0.033328142
-0.08050146 0.052345082 -0.16461341 -0.13684198 -0.06028915 0.1612152 -0.12802637 0.02873933
-0.02499128 -0.13716684 0.13041575 0.048971705 -0.03512081 0.16804704 -0.07763148 0.15155534
0.14211023 0.002694105 0.0002130194 0.059277415 -0.032974686 0.022256501 0.06482239 0.053823777
0.1434275 0.011826223 -0.01539548 0.08281626 0.09269084 0.083152294 -0.019309342 0.07087728
-0.13012636 -0.04948398 0.07509256 -0.09662615 -0.0644631 0.10144805 -0.13650812 0.07152775
0.02148947 -0.060087025 -0.057924803 0.14477733 0.16890217 -0.07997138 -0.16433473 0.0117283445
-0.10926782 -0.02743907 -0.018414091 0.1131617 0.1717667 -0.076126315 0.16939373 -0.15380473
0.02763577 -0.0033447286 -0.07447693 0.04590961 0.11263234 -0.13750991 0.005752781 -0.012877839
0.13406314 0.14477362 -0.036713112 -0.10556585 0.14572646 0.06249511 -0.018825473 -0.04479185
0.05028312 -0.08360211 0.0014711597 0.009494225 -0.05079906 -0.17623754 0.059675053 0.0766859
-0.1395174 -0.105790354 -0.12371024 -0.13864726 -0.025957704 -0.048764393 -0.08427599 0.17431644
-0.09419928 0.14313103 0.06705716 -0.13415122 0.16962577 0.15235226 -0.16082747 0.09852447
-0.1648665 -0.04600023 -0.014309676 0.13539216 0.07862285 -0.121427976 -0.10386259 -0.06218307
-0.10374555 -0.1051736 0.14811596 -0.089810856 -0.14584439 -0.05053895 -0.17203301 -0.05368811
-0.16954641 -0.12359823 -0.09586527 -0.15441756 0.010952118 -0.023466429 -0.1700147 0.09439993
0.10442251 -0.042238742 -0.05542953 0.11727969 0.03955664 -0.13989858 -0.0935058 0.09392506
-0.025714317 -0.14431073 -0.05335467 0.10009633 -0.019608395 0.107852675 -0.13649715 -0.105454095
-0.0176776 0.08450273 0.17241612 0.011400094 0.010810028 0.12627019 -0.083831236 -0.17057076
0.09599202 0.015887888 -0.14121357 -0.008093085 0.046454914 -0.05732916 -0.16089258 0.14273405
0.034419846 -0.17181568 0.09915607 0.14542268 -0.1414401 0.021184733 0.058878854 0.051419172

blocks.0.skip_conv.bias f4 [128]
00000000: 5480 af3b c309 653b 65d6 ad3a e3c4 7ebb
00000010: 8f6d 34ba b333 44b9 75ff f33b e808 953a
00000020: 6c3b ebbb bf87 c7bb 9168 a7b9 f972 82ba
00000030: 1c64 a3ba f004 043b 824c da3b 9347 83ba
00000040: 8f60 023b e316 16bb 678c 403b 0028 08bb
00000050: 49e1 583a a3e4 423b 7d88 8cba 8aee 51bb
00000060: f36c 9ebb 5d14 65bb 6823 fbbb 4fba 023b
00000070: 45d1 c13a 7c3e 78bb 51fa 59ba 2208 dc3b
00000080: 382a fe3a 894a 2f3b 50ca 16bb a82e 523b
00000090: c014 5cbb 3911 f43a 794c d939 011f 823b
000000a0: 5433 ce3b 078e 0fbc 0072 fa3a 86a5 d43b
000000b0: f736 75bb 0cd6 ab3b 1133 f3b8 41ab 463b
000000c0: 5131 363a 9e6e 85bb 0b17 af3b 4225 a4ba
000000d0: 4210 833a dd37 0ebb b29b 6d3b 3c7b 18bb
000000e0: eb72 063c 1cbc 08ba fa63 e73b 94a2 e73a
000000f0: 2d86 36ba d8a9 fcb9 10d9 42bb 0e85 bdba
00000100: 71e3 233b 073a 00b9 8e1b e2ba 1525 e33a
00000110: f583 74bb 93d7 3a3b 8343 6e39 83f0 db3a
00000120: c74b 423b 34af b1bb 7425 af3b f16e e63a
00000130: 27d7 bebb 184a deba fe29 b2bb 9dc0 793b
00000140: e081 7abb 489c 79ba 2b21 f63b 5926 bb3b
00000150: f872 ba3b e4e8 23bb 2444 a8bb 4b41 b53a
00000160: 572e 01bc dea4 9d39 7844 00bb 802b 323b
00000170: dba7 9eba 7d92 a63b cc45 a0bb 6be1 10bb
00000180: 3cd1 da39 7acd 97b9 13f8 ab3b b7fd 973b
00000190: 56a5 9bbb 970c b2ba 2de9 9d3b 5001 ae3b
000001a0: 078d 80ba 331e 11bb 5e2c a8bb 4c93 a5bb
000001b0: 3847 8b3a 5dac 153c 44e7 f53b 75d0 48ba
000001c0: cabc 00bb ff76 deb9 2db2 9c3a c2e6 543b
000001d0: e9ab c2ba 4f9e 9238 f133 8abb 209a 883b
000001e0: 9dd3 8ebb 0a1b b8bb 649c bf3b 485a a7ba
000001f0: adf2 543b 1a56 31bb 8e62 aa3b 49c5 c8bb
0.005355874 0.0034948445 0.0013262747 -0.0038874678 -0.00068827806 -0.00018711276 0.0074462243 0.0011370452
-0.0071787145 -0.0060891802 -0.0003193063 -0.0009952477 -0.0012465748 0.0020144545 0.0066619525 -0.0010015838
0.001989398 -0.0022901825 0.0029380561 -0.0020775795 0.0008273316 0.002973833 -0.0010721829 -0.003203305
-0.004834765 -0.0034954764 -0.007664133 0.0019947474 0.0014787099 -0.003787904 -0.0008315193 0.0067148367
0.0019391244 0.0026747307 -0.0023008771 0.0032071266 -0.0033581704 0.0018620855 0.00041446442 0.003970981
0.00629274 -0.008761889 0.0019107461 0.0064894585 -0.0037416795 0.0052440222 -0.00011596655 0.0030314478
0.0006950098 -0.0040720245 0.005343323 -0.0012523311 0.0009999352 -0.0021700778 0.0036256132 -0.0023266813
0.0082061095 -0.0005216019 0.0070614787 0.0017672353 -0.0006962743 -0.0004819173 -0.002973143 -0.0014459209
0.0025007392 -0.00012228648 -0.0017250644 0.0017329777 -0.0037310098 0.002850984 0.00022722599 0.0016780052
0.0029647218 -0.005422497 0.005345041 0.001758067 -0.005823988 -0.0016959338 -0.0054371348 0.0038109191
-0.0038224384 -0.0009521884 0.007511278 0.0057113585 0.005689975 -0.002501064 -0.005135076 0.0013828663
-0.007884583 0.0003006821 -0.001957206 0.0027186573 -0.0012104468 0.0050833807 -0.004891133 -0.0022107016
0.00041736092 -0.00028954056 0.0052480786 0.0046383995 -0.004749934 -0.0013584074 0.0048190565 0.005310215
-0.0009807654 -0.0022143244 -0.005132242 -0.0050529595 0.0010626083 0.009135333 0.0075043757 -0.0007660457
-0.0019643777 -0.000424318 0.0011954956 0.0032486175 -0.0014852259 6.99131e-05 -0.0042176177 0.0041687638
-0.0043587224 -0.0056184577 0.0058475006 -0.0012767995 0.003249328 -0.0027059377 0.005199737 -0.006127034

blocks.0.bn.weight f4 [64]
00000000: 3630 803f ef05 803f 7231 803f 9719 803f
00000010: cbbc 7f3f cc03 803f 6011 813f c1cf 7f3f
00000020: c121 803f 6f0f 803f b6b1 7f3f 24fb 7e3f
00000030: 53d3 7f3f d02d 803f cf18 803f 7b0e 803f
00000040: 0d3e 803f 723d 803f b9d5 7f3f f421 803f
00000050: 2c0c 803f 2518 803f 9a7d 7f3f acc7 7f3f
00000060: 941d 803f ed0c 803f 8bda 7f3f ad10 803f
00000070: 6f09 803f 1377 803f d7da 7f3f adea 7f3f
00000080: 2a9d 803f 910e 803f 06cf 7f3f 3ef8 7f3f
00000090: 5776 7f3f 23ef 7f3f 58fd 7f3f adf9 7e3f
000000a0: 8127 803f 97ad 7f3f 1284 803f fae9 7e3f
000000b0: 0347 803f d358 803f 10c4 7f3f 446f 7f3f
000000c0: 4a23 803f 51a4 803f bf93 7f3f a358 7f3f
000000d0: 111a 7f3f 57d8 7f3f edc4 7f3f d81e 803f
000000e0: 3c3a 803f 9a1b 803f 58d6 7f3f d545 803f
000000f0: 0514 803f e21f 803f 80c3 7f3f f237 803f
1.0014713 1.0001811 1.001509 1.0007809 0.9989745 1.0001159 1.0083427 0.9992638
1.0010301 1.000471 0.9988054 0.9960196 0.9993183 1.0013981 1.0007571 1.0004419
1.0018936 1.0018752 0.9993549 1.0010362 1.0003715 1.0007368 0.9980103 0.9991405
1.0009027 1.0003945 0.99942845 1.0005089 1.0002879 1.0036339 0.999433 0.9996746
1.0047963 1.0004445 0.9992527 0.9998816 0.9978995 0.9997427 0.99995947 0.99599725
1.0012056 0.9987425 1.0040305 0.9957577 1.0021671 1.0027107 0.9990854 0.9977915
1.0010769 1.0050145 0.9983482 0.99744624 0.9964915 0.99939483 0.9990986 1.0009413
1.0017772 1.0008423 0.9993644 1.0021311 1.000611 1.000973 0.99907684 1.0017073

blocks.0.bn.bias f4 [64]
00000000: 07d0 4cbb ffa2 713b 12e1 5eba a23b caba
00000010: d2e8 fc3a 6e2b 98ba 9200 e1bb 3d3b 43bb
00000020: c2ce b83a 30dd 85bb 5bc7 a5bb 1ced 4fbb
00000030: 5883 7b3b 30bd 35ba 21cc 1f3b cd54 cbba
00000040: a32a 813b bffa 553b 5233 57ba a182 f2ba
00000050: 8667 8b39 7e1d beb9 065c 953b ae11 5539
00000060: b979 b93b 717a ee3a fdcf 7f3a c959 0fbb
00000070: ac8a a73b 2fc2 6fbb 85db f339 e8b3 43b8
00000080: afaa 2b3b 7830 313b 8e03 34bb 4a3a 6dba
00000090: 024f 773b 41aa 1b3a 0e81 523a 6960 7b3b
000000a0: 30b9 6b3b b964 923a e40c 713b bd86 65bb
000000b0: 8957 50ba 8b6a 18bb fcfa 21bb dc5b 1ebb
000000c0: 446a 5c3b 4782 b5bb 83fb 92ba b20b ceb8
000000d0: 16ec bfba 8181 f33b f2f1 0f3a 26fb f0ba
000000e0: 18de 9ebb d87a d2ba c841 db3b a6ed 6a3b
000000f0: 0791 bc3a d7c3 15bb 1ae8 7bbb f9b4 49bb
-0.0031251924 0.0036870835 -0.0008502166 -0.0015429149 0.001929546 -0.0011609623 -0.006866523 -0.0029789947
0.0014099705 -0.0040852055 -0.0050591654 -0.0031727022 0.0038377848 -0.0006932793 0.0024383145 -0.0015512944
0.0039418503 0.0032650677 -0.00082092464 -0.0018502065 0.00026589277 -0.00036261597 0.004558089 0.00020319849
0.0056602624 0.0018194449 0.00097584707 -0.0021873584 0.0051129665 -0.0036584248 0.00046512127 -4.6659174e-05
0.0026194265 0.0027036946 -0.002746794 -0.0009049518 0.0037736301 0.00059381506 0.0008030095 0.0038357025
0.0035968535 0.0011168934 0.0036781365 -0.0035022937 -0.0007947614 -0.0023256864 -0.0024716249 -0.002416364
0.0033632675 -0.005539212 -0.0011213872 -9.825024e-05 -0.0014642503 0.0074312096 0.000549107 -0.0018385395
-0.004848253 -0.0016058339 0.0066911913 0.0035847216 0.0014386483 -0.0022852325 -0.0038437904 -0.0030778034

blocks.0.bn.running_mean f4 [64]
00000000: 5da0 713d 20e2 903d cf87 0a3c 56f4 953d
00000010: 03fc a3bd 486a 793d b0ab 16bd 8a06 e4bd
00000020: 7977 cf3c 623e 153d 550e 413d 1668 673d
00000030: ba0c 3abd dfac 693d 18f8 c7bd e9c4 663d
00000040: 7621 c63c ec04 a73d 901d b9bd f599 af3d
00000050: 34dc 82bd 95d8 bf3d 76f9 693b 0193 dabd
00000060: a602 833d f215 45bc 482f b73d ba52 c2bd
00000070: 09ab fcbc 2012 073d ff71 493d 7206 193d
00000080: 99a1 c8bd 18be bcbc cb36 263a f391 0abd
00000090: a6c9 72bd 24d4 91bd 5cd6 fcbc 25f9 5e3d
000000a0: a0cf 953d db46 84bc 3bb6 dcbc 7626 0bbd
000000b0: 7313 ee3b ccf4 2ebd ed9a e33c e312 063d
000000c0: 64be b13d f6fb e23d 29c1 9dbd fe66 e53b
000000d0: dca8 6d3d f9f9 06bd 8f85 923d 3203 713d
000000e0: 2b07 e63d b44a bbbc 9728 273d adf0 c3bb
000000f0: 4aac 8e3d e395 44bd b18c 3abd 407a aebd
0.058990825 0.0707438 0.008455231 0.07321994 -0.08007052 0.060892373 -0.036784828 -0.1113406
0.025325524 0.036436446 0.04713281 0.05649575 -0.045422293 0.05704963 -0.09764117 0.056340132
0.024185877 0.08155236 -0.09038842 0.08574287 -0.06389657 0.093674816 0.0035701669 -0.1067257
0.063969895 -0.012029158 0.08944565 -0.09488435 -0.030843275 0.03297627 0.04918098 0.037359662
-0.09796447 -0.023039863 0.0006340562 -0.033830594 -0.05927434 -0.07120541 -0.030863933 0.05443682
0.07314992 -0.016147068 -0.026942363 -0.033972226 0.007265502 -0.042713925 0.027783835 0.032732856
0.08678892 0.11083214 -0.07702858 0.007000803 0.058022365 -0.032953236 0.071543805 0.058840938
0.11231836 -0.02286277 0.040810194 -0.0059796185 0.06966455 -0.047994506 -0.04554433 -0.08519411

blocks.0.bn.running_var f4 [64]
00000000: 733c 953d 91fc f93d a79f 723d 5f80 c03d
00000010: 59f4 f63d 1a9f bb3d 0696 c83d 34d8 3e3e
00000020: 7d78 c63d 93e0 9a3d c363 3a3d 5471 0e3e
00000030: 6e44 613d 37c0 113e 2b60 223e 7b7c 363e
00000040: 8d29 583d 3ef2 a03d c5c4 153e d014 573d
00000050: cda0 953d 37fc e03d 1e48 603d e8e1 bf3d
00000060: 65b8 a03d 6693 ac3d 9589 6b3e 6a1f 043e
00000070: b859 303e 1bbd 633e 99d1 6c3d 8bca ac3d
00000080: bf19 f03d 4200 9b3d 2e51 a03d 56df 7d3d
00000090: 3642 123e dee5 823d acaa ba3d 4b3e 893d
000000a0: 82d5 d93d 8291 493d 5d8a 813d f1d1 8e3d
000000b0: 7398 5f3e 64a2 ce3d 8dba 133d 7d83 903d
000000c0: 093c d03d a780 193e cfd7 8e3d bd52 163e
000000d0: 9970 cf3d 75cf 683d 1528 5a3e 2ff1 863d
000000e0: a696 163e a701 003e 7bb5 513d 5a45 a33d
000000f0: 56e9 993d 3e73 733d df68 763d 4dc8 523e
0.072869204 0.12206376 0.059234288 0.09399485 0.12058324 0.091612056 0.0979424 0.18637162
0.0969095 0.075623654 0.045505296 0.13910419 0.0549969 0.1423348 0.15856998 0.17820923
0.052774 0.07858704 0.14625843 0.052510083 0.07306061 0.10985606 0.054756276 0.0936926
0.078476705 0.084265515 0.23001702 0.12902609 0.17221725 0.22240107 0.057817075 0.084370695
0.11723661 0.075684085 0.07827984 0.061980568 0.1428307 0.063915 0.09114584 0.067013346
0.106364265 0.049211033 0.06325219 0.06973637 0.21835499 0.10089567 0.03606658 0.070563294
0.10167701 0.14990483 0.06974756 0.1468 0.10128898 0.05683847 0.21304353 0.06588971
0.14705905 0.1250063 0.051198464 0.07972212 0.075152084 0.059436075 0.060158607 0.20584221
