TGNN2026/artifacts_MTGNN1m_2SoftUtility/fold_01_weights.pt (torch, 802453 bytes, 83 tensors)

A_static f4 [3, 3]
0	0x3eaaaaab	0.33333334
1	0x3eaaaaab	0.33333334
2	0x3eaaaaab	0.33333334
3	0x3eaaaaab	0.33333334
4	0x3eaaaaab	0.33333334
5	0x3eaaaaab	0.33333334
6	0x3eaaaaab	0.33333334
7	0x3eaaaaab	0.33333334
8	0x3eaaaaab	0.33333334

in_proj.weight f4 [64, 15]
0	0x3e305627	0.17220365
1	0xbd3a8df3	-0.04554553
2	0x3c9c9233	0.019112682
3	0xbda859e1	-0.08220268
4	0x3d5935e8	0.053029925
5	0xbe46b277	-0.19404016
6	0xbe7fccdc	-0.24980491
7	0x3d172bb5	0.036906917
8	0xbbb23be4	-0.0054392684
9	0x3e494414	0.19654876
10	0x3db4a12e	0.08819805
11	0x3dffd7d6	0.12492339
12	0x3e762ed9	0.24041308
13	0xbd9d570e	-0.0768262
14	0x3d15ec33	0.03660221
15	0xbe302233	-0.17200546
16	0xbd8c5c96	-0.06853597
17	0xbe0fd382	-0.14045528
18	0x3e1b9d80	0.151968
19	0xbccb7839	-0.0248376
20	0x3e31fa24	0.17380577
21	0x3dabda41	0.08391238
22	0xbe124cf6	-0.14287171
23	0xbdc137c4	-0.094344646
24	0xbe88589c	-0.26630104
25	0x3e598632	0.21242598
26	0x3e6b591c	0.22983211
27	0xbe08a490	-0.13344026
28	0xbc2a7fda	-0.010406459
29	0xbe8a233e	-0.26980013
30	0x3cbb5458	0.022867367
31	0x3e45d35e	0.19318911
32	0x3d983094	0.074311405
33	0x3c85de98	0.016341493
34	0xbdcd732c	-0.10031733
35	0xbe1db350	-0.15400434
36	0xbe096047	-0.13415633
37	0x3db7dc5d	0.08977578
38	0x3cf32855	0.029682318
39	0x3e2ad357	0.16682182
40	0xbe85b4bc	-0.26114452
41	0x3e1e1275	0.15436728
42	0xbdd3dfc2	-0.10345413
43	0xbe045b1b	-0.12925379
44	0x3e5aa09a	0.21350327
45	0xbdcc8b62	-0.09987523
46	0x3e525402	0.20539859
47	0xbe581efe	-0.21105573
48	0xbdb50018	-0.088379085
49	0xbe4cb2ad	-0.19990034
50	0xbe79a557	-0.24379478
51	0xbd85beeb	-0.06530555
52	0xbdce4046	-0.10070853
53	0xbe164448	-0.14674485
54	0x3e8069fc	0.2508086
55	0x3d8aa4d1	0.067697175
56	0xbd8e07d3	-0.06935086
57	0x3db200e3	0.086915754
58	0xbe0c46eb	-0.13698928
59	0xbe887738	-0.26653457
60	0x3e3203db	0.17384283
61	0xbd62aa6e	-0.055338316
62	0x3e5b4fde	0.21417186
63	0xbd5a7c5c	-0.053341255
64	0x3e26a6f7	0.1627463
65	0x3de8b8da	0.11363383
66	0x3e593eb1	0.21215321
67	0x3e65f3de	0.22456309
68	0xbdb81081	-0.08987523
69	0xbd83e3a9	-0.06439907
70	0xbe6df6f2	-0.23238733
71	0x3e7c88b3	0.24661522
72	0xbe25d713	-0.16195326
73	0xbd3a060b	-0.04541592
74	0xbe7d9e74	-0.24767476
75	0x3e8035f1	0.25041154
76	0xbe5bf89c	-0.21481556
77	0x3e2b2bcd	0.16715927
78	0x3cdd0cdf	0.026983676
79	0xbd89bd9b	-0.067256175
80	0x3ddce06d	0.10784993
81	0xbdbc9eb8	-0.09209961
82	0x3dd22671	0.10261238
83	0xbe5c7836	-0.21530232
84	0xbe014f5b	-0.12627928
85	0xbd713def	-0.058896955
86	0x3bc2f72a	0.0059498744
87	0x3c4efbca	0.012633273
88	0x3db8496b	0.08998378
89	0x3df2a855	0.11848513
90	0xbe828991	-0.2549558
91	0xbe092fd4	-0.13397151
92	0xbe8d9f32	-0.2766052
93	0xbe85fe7d	-0.26170722
94	0xbd701cb8	-0.05862114
95	0xbe09e5e5	-0.13466604
96	0x3e6b7a5b	0.22995894
97	0xbd88edc7	-0.066859774
98	0xbc6cadcb	-0.014445732
99	0x3e22ed89	0.15910925
100	0xbd3ce21a	-0.046114065
101	0xbd16d798	-0.0368267
102	0x3e694150	0.22778821
103	0x3e8f22f9	0.2795637
104	0x3dcd5c55	0.100273766
105	0xbe370887	-0.17874347
106	0x3e5bb372	0.21455172
107	0xbd6cb675	-0.057791192
108	0xbe8defed	-0.2772211
109	0x3df38388	0.11890322
110	0x3dde1188	0.108431876
111	0xbe28c662	-0.16481927
112	0xbe3a2016	-0.18176302
113	0x3e1262c1	0.14295484
114	0x3db4d4c8	0.08829647
115	0x3da971f8	0.08273691
116	0x3e311a52	0.17295197
117	0x3df9e85d	0.12202523
118	0x3e109400	0.14118958
119	0xbe31868f	-0.17336486
120	0x3dc7f76d	0.097639896
121	0xbdeaa6f8	-0.11457628
122	0x3e675ba0	0.22593546
123	0xbe4b98ff	-0.19882582
124	0x3cb9d34e	0.022683766
125	0xbe83ab5c	-0.25716674
126	0x3d6185d7	0.05505928
127	0xbe86dc59	-0.26339987
128	0x3d923b92	0.071402684
129	0x3e6b283e	0.2296457
130	0x3e0e89b6	0.1391972
131	0x3e34f319	0.1767086
132	0x3c0089f5	0.0078453915
133	0x3e639ffe	0.22229001
134	0xbe8c042d	-0.27346936
135	0xbe7a1efc	-0.24425882
136	0x3e4ef870	0.20211959
137	0xbe70f8f0	-0.23532462
138	0x3d8a45d7	0.06751602
139	0x3e5998e7	0.21249734
140	0x3e38f95e	0.18063876
141	0xbbb2331f	-0.005438223
142	0x3e6263ef	0.22108434
143	0xbdf1de4b	-0.11809977
144	0x3e8bdf23	0.27318677
145	0x3cde1dce	0.027113821
146	0xbe50ea17	-0.20401798
147	0xbe387632	-0.18013838
148	0x3e40ee1e	0.18840834
149	0x3e3825bc	0.17983145
150	0x3e86daae	0.26338714
151	0x3b3a9a81	0.002847344
152	0xbcfa276d	-0.030536378
153	0xbe668052	-0.22509888
154	0x3e881fdb	0.26586804
155	0x3debaf07	0.11507993
156	0x3db9ac9d	0.090661265
157	0xbe885b16	-0.26631993
158	0x3d668720	0.05628121
159	0xbcd22350	-0.025651604
160	0x3db50333	0.08838501
161	0x3d27260d	0.040807772
162	0x3df8454c	0.12122592
163	0xbe139404	-0.14411932
164	0x3e8404cc	0.2578491
165	0xbd68a232	-0.056795307
166	0x3da4ac3c	0.080406636
167	0x3e8027e3	0.2503043
168	0xbe821bd5	-0.2541186
169	0x3e8e8e87	0.27843115
170	0x3e2c92b4	0.16852838
171	0x3e3f4788	0.18679631
172	0xbe41436e	-0.18873379
173	0xbda19530	-0.078897834
174	0x3e867fe7	0.26269457
175	0x3e81594d	0.25263444
176	0xbe724bee	-0.23661777
177	0xbe67ca51	-0.22635771
178	0xbe77f679	-0.24215116
179	0x3e4f77d4	0.20260555
180	0x3d851e50	0.06499922
181	0xbd0775cc	-0.033071324
182	0xbdbb98bc	-0.09159991
183	0xbd7304e1	-0.059330825
184	0x3d74fdfc	0.05981253
185	0xbe24497e	-0.1604366
186	0xbdc7095f	-0.09718584
187	0x3e2f7fe0	0.17138624
188	0x3d9681f7	0.073490076
189	0xbde967c9	-0.113967486
190	0x3e8304c2	0.25589567
191	0x3e8e88b2	0.27838665
192	0x3e826a5e	0.25471777
193	0x3d71ae9d	0.059004415
194	0xbe82e6ef	-0.25566813
195	0x3e4dfcb8	0.20115936
196	0xbe16dbd9	-0.14732303
197	0x3e69308a	0.22772422
198	0xbe1678a5	-0.1469446
199	0xbe496ac8	-0.1966964
200	0x3d587b94	0.05285223
201	0xbe084bc5	-0.13310154
202	0x3e099869	0.13437046
203	0xbdfc053d	-0.123056866
204	0xbd86e7cf	-0.06587183
205	0x3e824dd1	0.25449994
206	0x3db2b9a6	0.08726816
207	0x3d3987e5	0.045295615
208	0x3e829d45	0.25510612
209	0xbd4d8b00	-0.05018139
210	0x3e3928d7	0.18081985
211	0xbe345a8c	-0.17612666
212	0xbe4b1cd7	-0.1983522
213	0x3e826a0e	0.25471538
214	0x3e767e0a	0.24071518
215	0xbdb18f50	-0.08669913
216	0x3e659329	0.22419418
217	0x3dd74bed	0.105125286
218	0xbe422d16	-0.18962511
219	0x3cc27613	0.023737943
220	0x3c240ee4	0.010013316
221	0x3e4ba5a1	0.19887401
222	0x3e84a3b4	0.25906146
223	0x3def960e	0.116985425
224	0x3e69ecc7	0.2284423
225	0xbca17074	-0.019706942
226	0xbe598280	-0.21241188
227	0xbc1f68f2	-0.009729611
228	0xbe06d1a8	-0.13165915
229	0xbd2eb233	-0.042650413
230	0xbda6658b	-0.081248365
231	0x3e2b0b2b	0.16703479
232	0x3d9adaab	0.07561239
233	0x3d361b82	0.044459827
234	0x3e124adc	0.14286369
235	0xbe5fee47	-0.2186824
236	0xbe4dcadd	-0.20096917
237	0xbe14229a	-0.14466324
238	0xbe30dea9	-0.17272438
239	0xbd369dd9	-0.04458413
240	0x3e8822c7	0.26589033
241	0xbe8a9b1e	-0.2707147
242	0xbe191dbb	-0.14952748
243	0xbdfad94c	-0.12248477
244	0xbc589216	-0.013218423
245	0x3dad09cf	0.084491365
246	0x3d642b17	0.055705156
247	0xbdd88da5	-0.105738916
248	0x3db3966e	0.087689266
249	0x3dcda9fe	0.10042189
250	0xbe8c7eef	-0.27440593
251	0xbe6c41a8	-0.23071921
252	0xbd915e2d	-0.07098041
253	0xbe89b893	-0.2689863
254	0x3dc9bbbb	0.0985026
255	0x3e14241e	0.14466903

in_proj.bias f4 [64]
0	0xbc4fc585	-0.01268137
1	0x3bfdde8e	0.007747478
2	0xbaba900b	-0.0014233602
3	0xbbdf9cad	-0.006824097
4	0xbbcf42bd	-0.0063250945
5	0xba78d9cb	-0.0009492903
6	0x39d420c8	0.00040460215
7	0xba816065	-0.0009870647
8	0xba58260d	-0.0008245416
9	0x3b5555eb	0.0032552432
10	0x3acac2ac	0.0015469394
11	0xba1f521a	-0.0006077603
12	0x3b089f22	0.0020846804
13	0xbab3031e	-0.0013657545
14	0xbb280cd2	-0.0025642407
15	0xbbcae425	-0.0061917477
16	0xbb47c216	-0.0030480674
17	0x3ae868fc	0.0017731483
18	0x3bb42c1c	0.0054984223
19	0x3b1fba4a	0.0024372512
20	0x3b1ca960	0.0023904666
21	0xbb8fe83b	-0.0043916977
22	0xba841e78	-0.0010079881
23	0x3a094efd	0.00052379054
24	0x3aa8c446	0.0012875877
25	0xbb51742d	-0.0031960115
26	0xbaf252f7	-0.001848786
27	0xbb06ba66	-0.002055788
28	0x3b6abf40	0.003581956
29	0xba472d14	-0.0007597965
30	0x3b246648	0.0025085378
31	0x39e8bb6c	0.00044390128
32	0x3b1c08c7	0.0023808943
33	0xb92b335e	-0.00016326967
34	0xba87d0fa	-0.0010361962
35	0x3a788acd	0.0009481132
36	0xbba8cbed	-0.005151263
37	0xbb6bdaf9	-0.0035988672
38	0xbbb736de	-0.0055912575
39	0x3b8b4217	0.004249822
40	0x3aec4f5e	0.0018029024
41	0xbb86fa98	-0.0041192286
42	0xbaa6264f	-0.0012676212
43	0xbab909a1	-0.001411725
44	0x39ef6efc	0.00045668322
45	0x3b3e8226	0.0029069274
46	0x3b36499a	0.0027814866
47	0xbb84dd1a	-0.0040546777
48	0x3b37fa9f	0.0028072966
49	0x3b5968ea	0.0033174106
50	0x3a38e6be	0.0007053426
51	0xbbeb63bb	-0.0071835197
52	0x3b5907fd	0.0033116334
53	0xb8f5babe	-0.00011717294
54	0x3974d85c	0.00023350253
55	0x3aa8482c	0.0012838892
56	0xbb4aee22	-0.0030964692
57	0xb850ae9b	-4.975368e-05
58	0x3b0ae149	0.002119141
59	0xbbcf891e	-0.0063334843
60	0xbadb4cdc	-0.001673128
61	0xbb71ac44	-0.003687636
62	0xb9c8d3f8	-0.00038304902
63	0x3bad10a3	0.0052815243

adapt.E1 f4 [3, 8]
0	0x3c0443d8	0.008072816
1	0x3b9f3ed3	0.004859784
2	0xbb943e8d	-0.004524058
3	0xbc0c6d8f	-0.008571043
4	0xbbb92136	-0.005649711
5	0x3a8a3981	0.0010545702
6	0x3c8df732	0.017329786
7	0xbc84b037	-0.016197307
8	0xbc231ce7	-0.009955621
9	0xbcefd9f2	-0.02927873
10	0x3ca527fc	0.020160668
11	0xba2d6562	-0.00066145335
12	0x3ccfa8a8	0.025348976
13	0x3c91898d	0.017765785
14	0x3cc058ac	0.023479782
15	0x3c45f693	0.012082714
16	0x3aabdd0f	0.0013112145
17	0xbc217f1c	-0.009856965
18	0x3bfe0548	0.0077520944
19	0xbb5bc942	-0.0033536707
20	0x3c85f9ea	0.01635452
21	0x3bded671	0.0068004658
22	0x3cc3ea17	0.023915334
23	0x3c9afd50	0.018919617

adapt.E2 f4 [3, 8]
0	0x3bc7c05f	0.0060959305
1	0x399db5f6	0.00030080945
2	0xbc31ee25	-0.010860001
3	0x3c22c60b	0.009934912
4	0xbc2bb6aa	-0.010480562
5	0xbc2d99ee	-0.010595782
6	0xbbb1c546	-0.005425128
7	0x3c9c7319	0.019097852
8	0x3b36c9a3	0.002789118
9	0xbb674d1c	-0.0035293764
10	0x3b9b8e38	0.0047471784
11	0x3b8dc272	0.004326158
12	0xbc414f4e	-0.011798693
13	0xbbac8f59	-0.005266112
14	0x3a0ada8f	0.000529685
15	0x3bf17ff4	0.0073699895
16	0xbaaa289c	-0.0012982073
17	0xbc9b2ec1	-0.018943192
18	0x3ca41442	0.02002919
19	0xbc1bb871	-0.0095044235
20	0x3cfe41f2	0.031037305
21	0x3d00f603	0.031484615
22	0x3c232d1e	0.009959487
23	0x3c6aba2f	0.014326616

support_mix.w_logits f4 [3]
0	0x3c16c366	0.00920186
1	0xbc173ae5	-0.00923035
2	0x3c17b1a6	0.009258663

blocks.0.filter_conv.conv.weight f4 [64, 64, 1, 2]
0	0x3c05948a	0.00815309
1	0xbd9a1963	-0.075243734
2	0xbca54ec2	-0.020179156
3	0x3ce0cd2c	0.027441584
4	0xbd11e331	-0.035617057
5	0xbcd7112a	-0.026253302
6	0x3df19023	0.1179507
7	0x3c8cdef3	0.017196154
8	0x3d7a5b50	0.06112224
9	0x3bbd0331	0.0057682027
10	0x3dd1ec61	0.10250164
11	0x3d89aa77	0.06721967
12	0xbd8d0d0f	-0.06887256
13	0x3d868c94	0.06569782
14	0x3cb48413	0.022035634
15	0xbda38790	-0.07984841
16	0xbc3b6e2e	-0.011439843
17	0xbd7b58dc	-0.06136404
18	0xbddb9895	-0.10722462
19	0xbcf26b72	-0.02959225
20	0xbd8e2261	-0.06940151
21	0x3df6e568	0.120554745
22	0x3e03fa5f	0.12888478
23	0x3e0a3e45	0.13500316
24	0xbb9d9ddd	-0.0048100785
25	0x3dbaaf6f	0.091154926
26	0x3be8b516	0.0071016653
27	0x3e175b2d	0.14780875
28	0xbcb32ce9	-0.021872
29	0xbc128e63	-0.00894508
30	0xbe193567	-0.14961778
31	0x3e0ac6b8	0.13552368
32	0xbdafa4ee	-0.0857638
33	0x3ccf2f63	0.02529115
34	0x3cf22ea1	0.02956325
35	0xbded6ff1	-0.11593617
36	0xbc24f6a3	-0.010068568
37	0xbcca7443	-0.024713641
38	0xbdce5512	-0.100748196
39	0x3d4397b9	0.047752116
40	0xbd81955f	-0.063273184
41	0xbe0d9647	-0.13826858
42	0x3de4a9d7	0.11165207
43	0xbda3a68e	-0.07990752
44	0x3d2113cc	0.03932552
45	0x3d3a671f	0.0455085
46	0xbd36f409	-0.044666324
47	0xbde2e596	-0.11078946
48	0x3b97105e	0.0046101054
49	0x3dab86e4	0.08375338
50	0x3c8565ec	0.016283952
51	0xbe0b4339	-0.13599862
52	0x3e04e2e1	0.12977172
53	0xbdb5d958	-0.08879346
54	0x3d038f22	0.032118924
55	0xbdb5ec30	-0.0888294
56	0x3daffa53	0.085926674
57	0xbdd2b0f6	-0.10287659
58	0xbd37d5d5	-0.04488166
59	0xbd1ee9fd	-0.038797367
60	0xbdb95533	-0.090494536
61	0xbd731e40	-0.05935502
62	0x3cc7dcbb	0.024397245
63	0x3cdf70b7	0.027275426
64	0x3d6d70cc	0.0579689
65	0x3d1f6c36	0.038921557
66	0x3d90ff0a	0.07079895
67	0xbe0e1175	-0.13873847
68	0xbdf82ca9	-0.12117893
69	0xbcb6fe04	-0.022337921
70	0xbe03298c	-0.12808818
71	0x3d8afefe	0.06786917
72	0xbdb58494	-0.08863178
73	0xbdfdced0	-0.12392962
74	0x3ddfbdef	0.10924899
75	0xbd819f07	-0.0632916
76	0x3abdfb75	0.0014494496
77	0xbe0ffe87	-0.14061938
78	0xbd9b8fcd	-0.07595787
79	0xbdcecb3f	-0.1009736
80	0x3de264c5	0.110543765
81	0x3dbe97ec	0.093063205
82	0xbca07272	-0.019585822
83	0x3e169296	0.14704356
84	0xbd4c1061	-0.049820308
85	0x3cffe368	0.031236365
86	0x3db9200e	0.09039317
87	0xbd225a76	-0.03963705
88	0xbd89a21c	-0.06720373
89	0x3d9cb01a	0.07650776
90	0x3d263ea3	0.04058708
91	0xbd7ddba8	-0.06197706
92	0xbd862293	-0.06549563
93	0xbd86af6d	-0.065764286
94	0xbd87c7f7	-0.06629937
95	0x3cbb86bb	0.022891393
96	0x3d03878b	0.032111686
97	0x3d7fc65a	0.062445022
98	0xbd3e9358	-0.046527237
99	0x3e0e47ba	0.13894549
100	0x3ca9754e	0.020685818
101	0x3dcfa3c4	0.10138658
102	0x3cba319a	0.02272873
103	0x3e05b36f	0.1305673
104	0xbe16996d	-0.14706965
105	0x3d251858	0.04030642
106	0xbcb57004	-0.02214814
107	0xbdaaaf13	-0.08334174
108	0x3db57a72	0.08861245
109	0xbe076685	-0.13222702
110	0xbca8ec20	-0.020620406
111	0xbd9b9a2c	-0.07597765
112	0x3e1385b8	0.14406478
113	0x3df3611b	0.11883756
114	0x3d4259ca	0.04744891
115	0xbcfa78a8	-0.030575112
116	0x3dc9f6d3	0.09861531
117	0xbde31cd6	-0.110894844
118	0xbd81779d	-0.063216425
119	0xbe0f3c37	-0.13987814
120	0xbd3c0247	-0.04590061
121	0xbd581ba9	-0.052760754
122	0xbd32cf42	-0.043654688
123	0x3cc68e21	0.024237694
124	0x3dbb4989	0.09144885
125	0x3dbbc91b	0.09169217
126	0xbdeb1084	-0.114777595
127	0x3d9a35cf	0.075297944
128	0xbd5c8a38	-0.053842753
129	0x3e14a94a	0.14517704
130	0xbdfa0d9c	-0.12209627
131	0x3d00c775	0.031440217
132	0x3d83dc68	0.064385235
133	0xbdd6597b	-0.10466286
134	0x3dbdb05c	0.092621535
135	0x3d4ea3b5	0.050449092
136	0xbcbe6f8b	-0.023246547
137	0x3e02020f	0.12696098
138	0xbde85d56	-0.113459274
139	0xbdf46a26	-0.11934309
140	0x3d379d11	0.044827525
141	0xbd8e232d	-0.06940303
142	0x3d0bf072	0.034164853
143	0x3da339f4	0.07970038
144	0x3da752bb	0.081700765
145	0x3d93af01	0.07211114
146	0x3ca37f66	0.01995821
147	0xbe096cd1	-0.13420416
148	0xbd887a98	-0.06664008
149	0x3dced96a	0.10100062
150	0x3dacdef6	0.08440964
151	0xbd278974	-0.04090257
152	0xbcd03532	-0.02541599
153	0x3d325443	0.04353739
154	0x3e1499b6	0.14511761
155	0xbd755a4c	-0.059900567
156	0xbe05ecc8	-0.13078606
157	0x3da042c9	0.07825238
158	0xbc87ac34	-0.016561605
159	0x3de4b10b	0.11166581
160	0xbcbb5c9e	-0.022871312
161	0xbddd1b36	-0.10796206
162	0xbe16b847	-0.14718734
163	0xbda8716d	-0.08224759
164	0x3e0a6d9d	0.13518377
165	0xbdc1383f	-0.09434556
166	0xbd0922f8	-0.033480614
167	0x3dcf7424	0.10129574
168	0x3d9883d2	0.07447018
169	0x3d81d932	0.06340255
170	0x3d9ae554	0.07563272
171	0xbccda82c	-0.025104605
172	0xbca67d02	-0.02032328
173	0x3d028499	0.031864736
174	0x3e00bc94	0.12571937
175	0x3d503287	0.050829437
176	0x3e065ff4	0.1312254
177	0xbd20c009	-0.03924564
178	0xbe05c115	-0.13061936
179	0xbe1749ed	-0.14774294
180	0xbdca60fb	-0.09881779
181	0xbd19166b	-0.037374895
182	0xbc9b0c1c	-0.018926673
183	0x3c5c68a5	0.013452684
184	0x3e175e9c	0.14782184
185	0xbd7e92f3	-0.06215186
186	0xbd5d929c	-0.054094896
187	0xbdcda1f0	-0.10040653
188	0xbc734d5b	-0.014849986
189	0xbd0116b1	-0.03151578
190	0xbe1b9051	-0.15191771
191	0xbdec95d7	-0.11552017
192	0xbddf5af8	-0.10906023
193	0x3da86ed3	0.08224263
194	0xbd9e20cf	-0.077211015
195	0xbd9e189a	-0.07719536
196	0xbd30515a	-0.043046333
197	0xbd0e2c63	-0.0347103
198	0xbd624954	-0.055245712
199	0xbd03f9cf	-0.032220658
200	0xbe1e0e3a	-0.15435115
201	0xbe0a5b8a	-0.13511482
202	0x3dfd84f7	0.12378877
203	0xbdc1f7a1	-0.094710596
204	0x3dd679b1	0.104724295
205	0x3d79b4ed	0.06096356
206	0xbc9b06e2	-0.01892418
207	0x3d480d73	0.04884095
208	0x3da9ec1e	0.08296989
209	0xbd84d2e9	-0.064855404
210	0xbda36d28	-0.07979804
211	0x3deda3b3	0.11603489
212	0x3e0ba48d	0.1363699
213	0xbc931592	-0.017954621
214	0x3d6796ee	0.056540422
215	0x3d8ce373	0.0687932
216	0xbd855c7f	-0.06511783
217	0xbdd89f60	-0.10577273
218	0x3dbbe8ba	0.091752484
219	0x3e0c4598	0.13698423
220	0x3e044b29	0.12919296
221	0x3e08c897	0.13357769
222	0x3e0ebfaa	0.13940302
223	0xbdb17472	-0.08664788
224	0x3c6dd337	0.01451569
225	0x3d4b5e9b	0.04965077
226	0xbc9f6a5c	-0.019459896
227	0x3da9cab0	0.08290613
228	0x3dc9f1e1	0.09860588
229	0x3e1726ac	0.14760846
230	0x3e186426	0.14881954
231	0xbd8662e7	-0.06561833
232	0xbae6126b	-0.0017553096
233	0x3dd2114a	0.10257204
234	0x3d532a35	0.051553924
235	0xbd03c82f	-0.03217333
236	0xbe1d684c	-0.15371817
237	0x3da9b2e0	0.08286071
238	0x3de019e8	0.10942441
239	0x3d93f780	0.07224941
240	0xbd230bb9	-0.0398061
241	0x3d377001	0.04478455
242	0x3dcea033	0.10089149
243	0x3c7204c2	0.014771642
244	0xbda6a357	-0.08136623
245	0x3d806681	0.06269551
246	0xbc9b88e2	-0.01898617
247	0x3cb1610a	0.021652717
248	0x3d061f79	0.03274486
249	0xbe1405fc	-0.14455408
250	0x3dbb8dfd	0.091579415
251	0xbe0553e8	-0.13020289
252	0xbd1d39a1	-0.038385037
253	0x3cee2cd2	0.029074106
254	0xbd9ab09a	-0.07553215
255	0xbd84c6e6	-0.06483249

blocks.0.filter_conv.conv.bias f4 [64]
0	0x3a83fdad	0.0010070108
1	0x3b4e4c88	0.0031478722
2	0xba5182eb	-0.00079922256
3	0xbab16511	-0.0013534148
4	0xbc33fc63	-0.010985467
5	0xbb4d7c0d	-0.0031354458
6	0xbb1fc3be	-0.0024378146
7	0x3b6abada	0.0035816939
8	0xbbac0546	-0.005249652
9	0xbb4864cb	-0.0030577655
10	0xbaa55bce	-0.0012615861
11	0xbb29bc20	-0.0025899485
12	0x3a8ccffa	0.0010743134
13	0xba08b6ae	-0.00052152097
14	0xbb286745	-0.002569632
15	0xba2e8a6b	-0.0006658199
16	0xbaeded9c	-0.0018152478
17	0xbb704079	-0.0036659522
18	0xbb4df7a5	-0.0031428125
19	0x3b5d3f00	0.0033759475
20	0xba9bd547	-0.0011889123
21	0x3a6ffc16	0.000915469
22	0xbb36706f	-0.0027838012
23	0x3b1960dd	0.0023403682
24	0x3b4c8529	0.00312073
25	0x3b0bc57c	0.0021327427
26	0x3b02e180	0.0019970834
27	0xbb0739c1	-0.002063379
28	0x3ba9c3a7	0.0051807943
29	0x3a369ba3	0.00069659407
30	0xbb35c69e	-0.0027736793
31	0x3aa601fa	0.0012665384
32	0xbb65283e	-0.0034966613
33	0xbc0f4980	-0.008745551
34	0x3b181da4	0.0023211027
35	0x3bfdae3a	0.0077417167
36	0x3a21213e	0.0006146616
37	0x3a5d6e39	0.00084469054
38	0x3ae75199	0.0017648219
39	0x3ba5411f	0.0050431634
40	0x3b2bbecf	0.002620626
41	0xbb3d7566	-0.0028909086
42	0x399a29b0	0.0002940423
43	0xbaef1244	-0.0018239697
44	0xbaa6c7a9	-0.0012724298
45	0x3b7406af	0.003723543
46	0x39d00905	0.00039679572
47	0x3b4fa399	0.0031683205
48	0xbae29f16	-0.0017289843
49	0x3a828e79	0.0009960673
50	0xba35e1b8	-0.0006938237
51	0x3b84d8da	0.004054171
52	0xbbb2eba9	-0.005460222
53	0x3be05b5c	0.0068468284
54	0x3b3e146b	0.002900387
55	0xbb825385	-0.0039772415
56	0x3b05d817	0.002042299
57	0xbb9347bc	-0.0044946354
58	0x3a377e45	0.00069997116
59	0xbb1763f4	-0.0023100348
60	0x3b57bc47	0.0032918619
61	0xbb473452	-0.0030396176
62	0x3b109c49	0.002206581
63	0x3b3e3575	0.0029023562

blocks.0.gate_conv.conv.weight f4 [64, 64, 1, 2]
0	0x3e11c5e8	0.14235651
1	0x3dc29fee	0.095031604
2	0xbd1758f4	-0.036950067
3	0x3e138ef7	0.14410006
4	0xbe003817	-0.12521397
5	0x3dbbfdc8	0.09179264
6	0x3d3f69af	0.046731647
7	0x3c91a482	0.017778639
8	0x3dda4b9f	0.10658955
9	0xbe06c4a1	-0.13160945
10	0xbe00ff44	-0.12597376
11	0x3d943c6a	0.072380856
12	0xbdbce4cc	-0.09223327
13	0xbe062718	-0.1310085
14	0x3e0211eb	0.12702148
15	0xbd802c58	-0.06258458
16	0xbdd18a45	-0.10231451
17	0x3de0eafa	0.10982318
18	0xbdcbe78c	-0.099562734
19	0xbb821aa8	-0.003970463
20	0xbbf42464	-0.007450627
21	0xbd74f017	-0.05979928
22	0x3e0be1cb	0.13660352
23	0xbe15333f	-0.1457033
24	0x3d88d84b	0.066818796
25	0xbcd32882	-0.025776152
26	0x3e0ee3d3	0.13954096
27	0xbd091f3f	-0.033477064
28	0xbd92cbbd	-0.07167766
29	0xbde24d06	-0.11049847
30	0x3cde890e	0.027164962
31	0xbdb4902c	-0.08816561
32	0x3d70fbee	0.05883401
33	0xbdf97481	-0.121804245
34	0xbda63ec8	-0.08117443
35	0xbd736118	-0.059418768
36	0x3dc83082	0.09774877
37	0xbe1873ea	-0.14887968
38	0xbd3a1df4	-0.04543872
39	0xbd8f2cef	-0.06990992
40	0xbd82cf25	-0.06387166
41	0x3d663489	0.056202445
42	0x3ddcf309	0.10788543
43	0xbe0dff43	-0.13866906
44	0x3d4db0b4	0.050217345
45	0x3d34777b	0.044059258
46	0x3d8ee832	0.069778815
47	0x3e0ea9e7	0.13932
48	0x3d882758	0.06648129
49	0x3abdcd43	0.0014480728
50	0xbe0bad7b	-0.13640396
51	0x3deaf7e7	0.11473065
52	0x3da3adc2	0.07992126
53	0xbd9a80d8	-0.07544106
54	0x3d5cdb57	0.053920116
55	0x3df692ea	0.120397404
56	0x3dcb44a9	0.09925205
57	0xbdc48b83	-0.09596922
58	0xbd1e552c	-0.038655445
59	0x3e0ae98e	0.13565657
60	0x3dc6ff3a	0.09716649
61	0x3d0b5ece	0.03402596
62	0x3df8ed9a	0.12154694
63	0xbd65988c	-0.056053683
64	0xbd2549ed	-0.040353704
65	0x3df76894	0.120804936
66	0xbd5861f7	-0.0528278
67	0xbd5405f4	-0.05176349
68	0xbdeda960	-0.11604571
69	0xbe111a50	-0.14170194
70	0x3dad433b	0.08460089
71	0xbda400df	-0.08007979
72	0xbc5cc89b	-0.013475562
73	0xbe0c4577	-0.13698374
74	0xbda0f3ee	-0.07859026
75	0xbdaf08da	-0.0854661
76	0x3e16e90f	0.14737342
77	0xbd61d816	-0.055137716
78	0x3cd52330	0.026017755
79	0xbe08139c	-0.1328873
80	0x3d55c44b	0.052189153
81	0x3cea8550	0.028628021
82	0x3e03d2c4	0.1287337
83	0x3dec33dd	0.1153333
84	0xbdb8fe3e	-0.09032868
85	0xbd63b42f	-0.05559176
86	0x3e004d4f	0.12529491
87	0x3d96fbf7	0.07372277
88	0xbb0a5c79	-0.0021112247
89	0x3d7d084c	0.06177549
90	0xbde1785b	-0.11009284
91	0xbdaf916a	-0.085726574
92	0xbd3dd100	-0.046341896
93	0xbd3df14c	-0.046372697
94	0x3d18cc92	0.03730447
95	0xbd9e57e9	-0.07731611
96	0xbc647504	-0.013943914
97	0x3d38e142	0.045136698
98	0xbdf248de	-0.118303046
99	0x3cab176d	0.020885194
100	0xbe114326	-0.14185771
101	0xbdfcaf39	-0.123381086
102	0xbdf7c972	-0.120989695
103	0x3d2eaeb7	0.04264709
104	0x3d23d356	0.039996468
105	0xbd80ee78	-0.06295484
106	0x3da3c8e7	0.079973035
107	0x3e0fb629	0.14034332
108	0xbd4aa9b6	-0.049478255
109	0x3e158254	0.14600497
110	0xbd121189	-0.035661254
111	0xbdbaa05b	-0.09112617
112	0x3d7ce4f8	0.0617418
113	0x3ce18419	0.02752881
114	0xbcde83be	-0.027162429
115	0x3dec24eb	0.11530479
116	0x3db014b2	0.08597697
117	0xbc94ff91	-0.01818827
118	0xbdf8776f	-0.12132155
119	0x3d2ba37d	0.04190396
120	0x3d89ff2b	0.067381226
121	0xbde8376d	-0.11338697
122	0x3d9d82f5	0.07690994
123	0x3df298b9	0.11845536
124	0x3d7802cf	0.060549553
125	0x3e0b7669	0.13619389
126	0xbe1264d1	-0.14296271
127	0x3d81d737	0.06339877
128	0xbdbccf8a	-0.092192724
129	0x3d41d706	0.047324203
130	0xbbc4e4fb	-0.006008742
131	0x3c89ecca	0.016836543
132	0x3e07f3db	0.13276617
133	0x3d4a334b	0.049365323
134	0xbe0982e1	-0.13428833
135	0x3dd77e32	0.10522117
136	0xbd945f0f	-0.072446935
137	0x3ca86814	0.02055744
138	0x3d649517	0.055806246
139	0xbd36659d	-0.0445305
140	0x3e19eb11	0.15031077
141	0x3d34c470	0.04413265
142	0x3d7f4867	0.062324908
143	0x3dabe8a2	0.083939806
144	0x3db5438f	0.088507764
145	0x3d700752	0.05860073
146	0xbd99e90b	-0.075151525
147	0xbd1e3807	-0.03862765
148	0xbe253774	-0.16134435
149	0xbd9dad44	-0.076990634
150	0x3c838507	0.016054643
151	0xbd5998da	-0.053124286
152	0xbe11596e	-0.14194271
153	0xbceec3fd	-0.029146189
154	0xbd67ca91	-0.056589667
155	0xbdecb829	-0.11558563
156	0xbd5719dd	-0.0525149
157	0xbcdd820a	-0.027039547
158	0xbc25b632	-0.0101142395
159	0xbb5bd16a	-0.0033541569
160	0xbe128b82	-0.1431103
161	0xbcbdfb10	-0.023191005
162	0xbdda6022	-0.10662867
163	0xbc9f36e8	-0.019435361
164	0xbd7cbab7	-0.061701503
165	0xbda669bf	-0.08125638
166	0x3ddd1220	0.10794473
167	0x3d164109	0.036683116
168	0x3dd27817	0.102768116
169	0x3e0d2911	0.13785197
170	0xbd4eee85	-0.05052044
171	0x3d7340e8	0.05938807
172	0xbca1c865	-0.019748876
173	0x3dd00e9c	0.101590365
174	0xbd74fd30	-0.05981177
175	0xbbce9d71	-0.0063053896
176	0x3df98e3b	0.121853314
177	0x3d10c962	0.035348304
178	0xbae8c248	-0.0017758096
179	0x3d894945	0.06703428
180	0xbc5c062b	-0.013429205
181	0x3e12dcec	0.14342088
182	0x3dbff3d6	0.0937268
183	0x3dde4c24	0.108543664
184	0xbdeddfd7	-0.1161496
185	0xbcea13d5	-0.02857391
186	0x3d9753d1	0.073890336
187	0xbd7f68d2	-0.062355824
188	0xbddfe441	-0.10932208
189	0xbd19f18a	-0.037583865
190	0xbe1040b3	-0.14087181
191	0xbd4fccf1	-0.050732557
192	0xbe03f142	-0.12885001
193	0xbc8a322f	-0.016869633
194	0x3e0db3b1	0.13838078
195	0xbe140e3f	-0.1445856
196	0xbb9d2d35	-0.004796649
197	0xbe1336a8	-0.14376318
198	0x3daa6ca6	0.08321504
199	0x3ad4fc40	0.0016249493
200	0x3d8a7f04	0.067625076
201	0xbd168e10	-0.036756575
202	0x3d848b07	0.0647183
203	0x3d5d7533	0.054066848
204	0xbcf48dc1	-0.02985275
205	0xbe00ff13	-0.12597303
206	0xbe0a4d8b	-0.13506143
207	0x3e1089a5	0.14115007
208	0x3da1b9a0	0.07896733
209	0xbd2f0db2	-0.04273767
210	0x3d2eb8a5	0.04265656
211	0xbc6a700b	-0.01430894
212	0xbe163274	-0.14667684
213	0xbe0259e3	-0.12729602
214	0x3d7a15db	0.061056
215	0xbdce0fa2	-0.100615755
216	0x3d0fdfb2	0.03512544
217	0xbd77d009	-0.060501132
218	0x3b127755	0.002234896
219	0x3cfbab70	0.030721396
220	0x3e028588	0.1274625
221	0x3cfbdda1	0.03074533
222	0xbc0eada2	-0.0087083895
223	0x3de92fb5	0.113860525
224	0xbe033f59	-0.12817134
225	0x3d88f476	0.06687252
226	0x3d8b44eb	0.068002544
227	0xbd8d95c0	-0.06913328
228	0xbe15c611	-0.14626338
229	0x3e1d2bff	0.15348814
230	0x3dc6a5b6	0.096995756
231	0x3d24d8fc	0.040245995
232	0x3d85319e	0.06503604
233	0xbdc32a77	-0.09529584
234	0x3db424ce	0.087960824
235	0xbdcbd156	-0.09952037
236	0xbc9deb4c	-0.019277237
237	0xbe108cb6	-0.14116177
238	0xbddaf86c	-0.10691914
239	0x3db747c6	0.089492366
240	0xbba668d2	-0.0050784135
241	0xbd10a33b	-0.03531192
242	0xbd8c5f70	-0.06854141
243	0xbcd18e24	-0.025580473
244	0xbe041598	-0.12898862
245	0xbe16a2c1	-0.14710523
246	0x3e0644d3	0.13112192
247	0xbda8504b	-0.0821844
248	0x3d5bf97b	0.05370472
249	0x3d3f8847	0.046760824
250	0xbdde98a2	-0.10868956
251	0x3d6328de	0.055458896
252	0x3d0f8881	0.03504229
253	0xbe0a8a0e	-0.13529226
254	0x3dd891d7	0.10574692
255	0xbdf4158f	-0.119181745

blocks.0.gate_conv.conv.bias f4 [64]
0	0x3b6d990a	0.0036254548
1	0x3a164528	0.0005732351
2	0xbbd8c911	-0.006615766
3	0x3b4c8a81	0.0031210484
4	0x3b964864	0.0045862664
5	0x3bdc8d98	0.0067307465
6	0xbb24b9e0	-0.0025135204
7	0x3bdd6be5	0.006757247
8	0x3bd50ac4	0.0065015275
9	0x3b1068c2	0.0022035097
10	0x3b4cb320	0.0031234697
11	0xba47e7d7	-0.00076257944
12	0xba4803f7	-0.00076299853
13	0xba8eca88	-0.0010894099
14	0xb987199b	-0.00025768284
15	0xbb661723	-0.0035109005
16	0xbc2c7bc9	-0.01052756
17	0xbacb479c	-0.0015509012
18	0xba4d8c88	-0.000784107
19	0xb970f45b	-0.00022979213
20	0x3b3b45dc	0.0028575575
21	0x3bc74f51	0.0060824533
22	0xbbb1899b	-0.005418015
23	0xba20ce72	-0.00061342784
24	0x3b689075	0.0035486494
25	0xba2bc946	-0.00065531244
26	0xb9a5f780	-0.00031655654
27	0x3c214786	0.009843713
28	0xbac10911	-0.0014727433
29	0x3bafe257	0.005367558
30	0x3add6ade	0.0016892811
31	0xbb383a00	-0.0028110743
32	0xbac64794	-0.0015127533
33	0x3bae0118	0.005310189
34	0xba8570c7	-0.0010180705
35	0xbb02cfbd	-0.0019960247
36	0xbbbf1310	-0.00583113
37	0xbad2aa76	-0.001607253
38	0x3be4240d	0.0069623054
39	0xbb8946be	-0.0041893413
40	0xbb55db1c	-0.003263182
41	0xbbf2d1db	-0.0074102706
42	0x3b82b2b3	0.0039885878
43	0x3b8b9b2b	0.004260441
44	0xbc2b2202	-0.01044512
45	0x3b5848ea	0.0033002445
46	0xba0e295d	-0.0005423034
47	0x3b8d1a01	0.0043060784
48	0x3aa997ba	0.0012938895
49	0xba4c11f5	-0.0007784658
50	0xbb6e3845	-0.0036349457
51	0x3b9622c4	0.004581781
52	0xbaa9fe11	-0.0012969394
53	0xbaf6a44e	-0.0018817277
54	0x3ba3c3eb	0.0049977205
55	0x3c216a4f	0.009852006
56	0xb9ec8894	-0.00045115186
57	0x3b9731fc	0.004614113
58	0x3a126bbb	0.0005585511
59	0x3a5c49d7	0.0008403337
60	0x3bd32ec7	0.0064447853
61	0xbb56d412	-0.0032780212
62	0x3bc37d16	0.005965839
63	0xbaa518ca	-0.0012595889

blocks.0.residual_conv.weight f4 [64, 64, 1, 1]
0	0xbb7c776d	-0.0038523332
1	0xbc19767f	-0.009366631
2	0xbd96e34b	-0.073675714
3	0xbde09ea9	-0.10967762
4	0xbdc016d5	-0.09379355
5	0x3e3da40a	0.18519607
6	0xbdf65a67	-0.12028962
7	0xbdc37f77	-0.09545796
8	0xbdcb4d78	-0.09926885
9	0xbe4d2118	-0.20032156
10	0x3c2c0397	0.010498903
11	0x3da356f2	0.07975568
12	0xbdb60c82	-0.088891044
13	0x3e0257bf	0.12728785
14	0x3df1126d	0.117710926
15	0x3e4c2214	0.19934875
16	0xbc7df301	-0.015499831
17	0xbb948a91	-0.00453312
18	0x3e3ec782	0.18630794
19	0x3df6d857	0.12052982
20	0xbe34a7c1	-0.17642118
21	0xbd5a0c48	-0.05323437
22	0x3e5e07e3	0.21682696
23	0x3e2ad47f	0.16682623
24	0xbe0cc943	-0.1374865
25	0xbdc86921	-0.09785677
26	0x3d863374	0.06552783
27	0xbc2d453e	-0.010575591
28	0x3d633c57	0.055477466
29	0x3cd36bec	0.025808297
30	0xbd33f19f	-0.0439316
31	0x3e449d8a	0.19200721
32	0x3e33a676	0.17543969
33	0xbe2ee98a	-0.17081276
34	0x3e2bcb4f	0.16776775
35	0x3e56585d	0.20932145
36	0xbdecff46	-0.11572127
37	0xb9b1bae7	-0.00033899324
38	0x3c365a9c	0.011130001
39	0xbda90b62	-0.08254124
40	0xbdbfad83	-0.093592666
41	0xbdc943f4	-0.09827414
42	0x3e0ff5cb	0.14058606
43	0xbe5abf7f	-0.21362112
44	0xbce0fe49	-0.027465003
45	0xbd96e5ba	-0.073680356
46	0x3e48f381	0.1962414
47	0xbd5d110c	-0.053971335
48	0xbe3e20c9	-0.18567194
49	0xbda8f10b	-0.082491
50	0x3e14cadf	0.14530514
51	0xbe1cb960	-0.1530509
52	0xbe2915f7	-0.16512285
53	0xbdb711f6	-0.08938973
54	0x3e0a321f	0.13495682
55	0xbdfff51b	-0.12497922
56	0xbd467e48	-0.048460275
57	0x3d2c6ebe	0.0420978
58	0x3e2bbb10	0.16770577
59	0x3d6b7044	0.05748011
60	0x3e5805e1	0.21095993
61	0x3e20af7c	0.15691942
62	0xbd6791a3	-0.056535374
63	0x3e037069	0.1283585
64	0x3d7c4d15	0.06159695
65	0xbe3f44cd	-0.18678589
66	0x3c8bc24e	0.017060425
67	0xbe31f120	-0.17377138
68	0x3d2fe080	0.04293871
69	0xbd9b036c	-0.07569012
70	0xbe164d01	-0.14677812
71	0x3b15ec05	0.0022876274
72	0xbd8b6b0e	-0.068075284
73	0xbe1db955	-0.1540273
74	0xbdd0614c	-0.10174808
75	0xbe3f7370	-0.1869638
76	0x3e211182	0.15729335
77	0xbd360924	-0.04444231
78	0xbe43548e	-0.19075224
79	0xbe1f2b78	-0.15543926
80	0x3dcfd4b3	0.10147991
81	0xbdf9c79d	-0.12196276
82	0xbdb7399d	-0.08946536
83	0xbe43bfcf	-0.19116138
84	0x3d023de0	0.03179729
85	0x3e1731dc	0.14765114
86	0x3e5200de	0.20508143
87	0x3ade0501	0.0016938747
88	0x3e293f5d	0.16528077
89	0x3dcb76cc	0.09934768
90	0xbe02aa51	-0.12760283
91	0x3e1d703c	0.15374845
92	0x3d06f92c	0.032952473
93	0xbda15839	-0.07878155
94	0xbce831da	-0.028344084
95	0x3e1571ca	0.14594188
96	0x3e34c289	0.17652334
97	0x3d0b834d	0.034060765
98	0x3da95f0a	0.082700804
99	0xbd576eab	-0.052595776
100	0x3e08465c	0.1330809
101	0x3e1246fd	0.14284892
102	0xbd7afaa8	-0.0612742
103	0xbd90945c	-0.07059547
104	0x3e3f8946	0.1870471
105	0x3cb3d852	0.021953736
106	0xbe2a4920	-0.16629457
107	0xbc12bde2	-0.008956404
108	0x3db37583	0.08762648
109	0x3d99a4cd	0.075021364
110	0x3dfac277	0.122441225
111	0x3d4b74e0	0.049672008
112	0xbd491f62	-0.049102195
113	0xbd832f0c	-0.06405458
114	0xbcc7b9b9	-0.024380552
115	0x3c356ac8	0.011072822
116	0xbaa0657d	-0.0012237277
117	0xbd2974b5	-0.041371066
118	0xbda45f7e	-0.08026026
119	0x3e04ba88	0.12961781
120	0x3dbf0052	0.09326233
121	0xbd64ff7e	-0.05590772
122	0xbe10ad97	-0.1412872
123	0xbcb2ccf8	-0.021826252
124	0x3dc99d00	0.098443985
125	0x3da48c46	0.080345675
126	0x3d9507ba	0.07276864
127	0xbc5a9b78	-0.013342731
128	0x3e0336a4	0.12813812
129	0x3d906fd1	0.07052577
130	0x3e45f55b	0.19331877
131	0x3e239a6b	0.15976875
132	0x3e21b6b0	0.15792346
133	0xbde7633b	-0.112982236
134	0x3cb26111	0.0217748
135	0x3e3fbd9d	0.18724675
136	0x3dc02193	0.09381404
137	0x3e5db66f	0.21651624
138	0xbd5a14fa	-0.05324266
139	0xbd3861df	-0.045015212
140	0xbd984529	-0.07435066
141	0xbd92dffe	-0.07171629
142	0x3cb8ec3b	0.022573581
143	0x3e02bb41	0.12766744
144	0xbd18e6a2	-0.037329324
145	0xbdeec588	-0.1165877
146	0x3d0c9d6a	0.03432981
147	0x3dc0bc6c	0.094109386
148	0x3e3df43b	0.18550198
149	0x3e3a0340	0.18165302
150	0xbba32870	-0.0049791858
151	0xbe533dd3	-0.20629053
152	0x3d56f7a5	0.052482266
153	0x3e0d7398	0.13813627
154	0x3e424b3f	0.18974017
155	0xbe617fd1	-0.22021414
156	0xbd166d9d	-0.03672563
157	0x3e1e9306	0.15485772
158	0xbd58bfe6	-0.052917384
159	0xbccc0864	-0.024906345
160	0x3e0fe3c4	0.1405173
161	0xbd318f27	-0.04334941
162	0xbd916f45	-0.07101301
163	0xbdc62c0e	-0.096763715
164	0xbdde4754	-0.108534485
165	0xbe0bad1a	-0.13640252
166	0x3e29404f	0.16528438
167	0x3c2b5a7f	0.010458588
168	0x3e0e8808	0.1391908
169	0x3d38d72d	0.045127083
170	0xbe505ee5	-0.203487
171	0xbc789097	-0.015171192
172	0xbe14c2a1	-0.1452737
173	0xbde08a55	-0.10963885
174	0x3dc9f67b	0.098614655
175	0xbbf5b320	-0.00749816
176	0xbde85c83	-0.1134577
177	0x3e1219ce	0.14267656
178	0x3e3d1849	0.18466295
179	0xbe1ab373	-0.15107517
180	0x3d285cd9	0.04110417
181	0xbbd08888	-0.006363932
182	0xbe130e83	-0.14361005
183	0xbd05a086	-0.03262379
184	0xbdf6028c	-0.120122045
185	0xbc8088fd	-0.015690321
186	0xbc35892e	-0.0110800695
187	0x3dbba36e	0.09162031
188	0xbbf44c72	-0.007455402
189	0xbde28cd0	-0.11062014
190	0xbd6a3632	-0.05718059
191	0x3e5035fa	0.2033309
192	0x3e26de78	0.16295803
193	0x3e477c18	0.19480932
194	0x3dfd937b	0.12381645
195	0x3df1f3c4	0.11814073
196	0x3d9c5dd0	0.07635081
197	0xbdef7f24	-0.11694172
198	0x3da2bf16	0.07946603
199	0x3ddff386	0.1093512
200	0x3cd1c469	0.025606351
201	0x3d709316	0.058734022
202	0x3e2b6ca1	0.16740657
203	0xbe438664	-0.19094235
204	0x3e4998d8	0.19687212
205	0x3e00f48f	0.12593292
206	0xbdaf274d	-0.08552418
207	0xbd016c09	-0.03159717
208	0x3e0f40d4	0.13989574
209	0x3e2564d6	0.16151747
210	0x3deee326	0.11664419
211	0xbd9de1b0	-0.07709062
212	0xbd28f688	-0.041250736
213	0xbd1a3df0	-0.037656724
214	0xbe0c3b21	-0.13694431
215	0x3e2400fe	0.16016003
216	0xbdab68f7	-0.0836963
217	0x3bcea982	0.006306828
218	0xbd6938c5	-0.056938905
219	0x3e4f4b86	0.20243654
220	0xbd910585	-0.07081131
221	0xbdc866a5	-0.09785203
222	0x3dd521ee	0.10406862
223	0x3d26ef90	0.04075581
224	0xbd90f3cb	-0.0707775
225	0xbdaba0a0	-0.08380246
226	0xbe4fa3d0	-0.20277333
227	0xbe42c74a	-0.19021335
228	0xbe0d0f5c	-0.1377539
229	0x3e161d6c	0.14659661
230	0x3e34d070	0.17657638
231	0xbdb9da42	-0.090748325
232	0xbc82bcde	-0.0159592
233	0x3df4919b	0.119418345
234	0xbe142e44	-0.14470774
235	0xbde96bcc	-0.11397514
236	0xbda3e269	-0.08002169
237	0xbe37457a	-0.17897597
238	0xbe36862f	-0.17824624
239	0xbdc5ac8a	-0.0965205
240	0x3da6d976	0.08146946
241	0x3d696e00	0.05698967
242	0xbe16a59d	-0.14711614
243	0x3da0ebda	0.07857485
244	0x3d29ca2a	0.041452564
245	0x3e482a85	0.1954747
246	0x3e3334f6	0.17500672
247	0x3e469909	0.19394316
248	0x3e44850d	0.1919138
249	0x3d6033dd	0.05473696
250	0xbd86fb42	-0.065908924
251	0x3e4e7c01	0.20164491
252	0xbe43dfa8	-0.19128287
253	0xbe4a87c4	-0.19778353
254	0x3da7e7f2	0.08198537
255	0x3df807e0	0.12110877

blocks.0.residual_conv.bias f4 [64]
0	0x3bec56da	0.007212502
1	0xbbd3b357	-0.006460588
2	0xbbd343d3	-0.0064472943
3	0x3c4cac0a	0.012492189
4	0xbbb4edfa	-0.005521533
5	0xbbf788f9	-0.00755417
6	0x3bc94747	0.00614253
7	0x3b122598	0.002230024
8	0xbc3e473b	-0.011613662
9	0x3c1fc417	0.009751341
10	0x3b7b224d	0.0038320005
11	0xbbd6721d	-0.006544365
12	0xbcab861f	-0.020937977
13	0x3b229346	0.002480702
14	0x3acdb9aa	0.0015695591
15	0x3b4787ea	0.0030446001
16	0xbb818e17	-0.003953706
17	0xbc278a75	-0.010225882
18	0xba3c3bf9	-0.00071805675
19	0xbc90c922	-0.017674033
20	0x3c3a1928	0.011358537
21	0x3c104da3	0.008807573
22	0xb8b7fb1c	-8.772893e-05
23	0x3bf1afc0	0.0073756874
24	0x3ba20066	0.004943895
25	0xba247c9a	-0.00062746706
26	0xbc26abe8	-0.010172822
27	0x3b3ea221	0.0029088336
28	0xbae581f4	-0.0017510043
29	0xbaf741bd	-0.0018864196
30	0x3bd3c025	0.0064621144
31	0x3c0fcb47	0.008776492
32	0xba8abacf	-0.0010584238
33	0xbc35db98	-0.0110997185
34	0x3b0bad2b	0.0021312933
35	0x3ac89746	0.0015303872
36	0xbb46ae11	-0.0030316154
37	0x3b99f6a3	0.004698591
38	0xbc265efb	-0.010154481
39	0x3c6da8da	0.014505589
40	0xbc33111b	-0.010929371
41	0xb8e399a2	-0.0001085282
42	0x3b34d264	0.0027591223
43	0x3bccdda2	0.0062520066
44	0x3c284425	0.010270153
45	0x3b4dbd94	0.0031393515
46	0x3c67b594	0.014142413
47	0x3bbe9fe9	0.0058174026
48	0xba828871	-0.0009958876
49	0x3c125898	0.008932255
50	0xbb5fdf3f	-0.0034160165
51	0x3bb3af50	0.0054835454
52	0xbc692687	-0.014230377
53	0xbc2690f9	-0.0101664
54	0x3c15b258	0.009136759
55	0xbbbfdc46	-0.005855116
56	0x3c512443	0.012764993
57	0xbbc49e01	-0.006000281
58	0x3be4c84d	0.0069818855
59	0xbc5fb7ef	-0.013654693
60	0x3c3aa591	0.011392013
61	0x3af1d38a	0.0018449884
62	0xbbe70d5d	-0.0070511536
63	0x3bafc1ad	0.005363664

blocks.0.skip_conv.weight f4 [128, 64, 1, 1]
0	0x3d8bed14	0.068323284
1	0x3d5bbdc3	0.053647768
2	0xbddba93a	-0.10725637
3	0xbc82a2e5	-0.015946815
4	0xbcd5145e	-0.026010688
5	0xbde9bbbf	-0.11412763
6	0xbcfcf9fc	-0.03088092
7	0x3c77d033	0.015125322
8	0xbd482019	-0.048858736
9	0x3e096649	0.13417925
10	0x3defd66e	0.11710821
11	0xbde216d9	-0.11039514
12	0x3df0a82d	0.11750827
13	0x3d20f29c	0.03929387
14	0xbda4016a	-0.08008082
15	0xbd61dc39	-0.05514166
16	0x3d2818b5	0.041039187
17	0xbe20433a	-0.15650645
18	0xbe33e503	-0.1756783
19	0x3d9ac471	0.075569995
20	0x3dc91a14	0.09819427
21	0xbdcabdd3	-0.09899487
22	0xbdcc3614	-0.09971252
23	0xbd1f8c8c	-0.038952395
24	0x3e1473a0	0.14497232
25	0x3e078052	0.13232544
26	0x3e3adadc	0.1824755
27	0xbde88d0e	-0.11355029
28	0xbdabbad5	-0.08385245
29	0xbd786d3d	-0.060651053
30	0xbdd095a2	-0.1018479
31	0x3d1460a5	0.03622498
32	0xbcad325d	-0.02114218
33	0xbd983b07	-0.074331336
34	0x3d94c1d6	0.07263534
35	0xbe111027	-0.14166318
36	0x3e2ddd1b	0.16978876
37	0x3e1bbaa7	0.15207921
38	0xbbf6a053	-0.0075264364
39	0xbda45cf5	-0.08025543
40	0x3cc5b2ae	0.024133053
41	0x3e1de2a2	0.15418485
42	0x3d0f3578	0.0349631
43	0x3e098973	0.13431339
44	0xbe28a2f4	-0.16468412
45	0x3cc4b097	0.024009986
46	0x3d880338	0.06641239
47	0x3e12ac3a	0.14323512
48	0x3e05eb0e	0.13077947
49	0x3e26dbb2	0.16294745
50	0x3df03825	0.11729459
51	0xbe169e4a	-0.1470882
52	0x3da71cd8	0.081597984
53	0xbdf096bc	-0.117475
54	0x3d742816	0.05960854
55	0x3d7b6b1c	0.061381444
56	0x3e2ccc28	0.16874754
57	0xbdea8b61	-0.11452366
58	0x3cd1bad6	0.025601786
59	0x3e07c7aa	0.1325976
60	0xbcf7c644	-0.030245908
61	0x3e281c2c	0.16416997
62	0xbd85dd36	-0.06536333
63	0x3dd066b2	0.101758376
64	0xbd248a8e	-0.0401712
65	0x3d86416d	0.06555448
66	0xbcfb47e5	-0.03067393
67	0xbd9dfd16	-0.07714288
68	0x3e36ec66	0.17863616
69	0x3e33e722	0.17568639
70	0xbdadd61d	-0.084881045
71	0x3d13ff27	0.036132004
72	0x3db7a41a	0.08966847
73	0xbdfca5f8	-0.123363435
74	0xbd93ef55	-0.07223383
75	0xbd7555bf	-0.059896227
76	0xbe155f67	-0.14587174
77	0x3d245117	0.040116396
78	0xbe11f184	-0.14252287
79	0xbdba8d7c	-0.09109017
80	0x3e25102d	0.16119452
81	0xbdf44484	-0.11927131
82	0xbd0befd8	-0.03416428
83	0xbe3819ff	-0.17978667
84	0xbd9832f8	-0.074315965
85	0xbda7f40f	-0.08200847
86	0x3db5504a	0.088532045
87	0xbdf0f417	-0.117653064
88	0x3cedd7a8	0.029033497
89	0xbe12fc54	-0.14354068
90	0x3d4b7ac3	0.04967762
91	0xbd0ef78d	-0.03490405
92	0x3d71c470	0.059025228
93	0xbdca4cf6	-0.098779604
94	0x3dc77e11	0.09740842
95	0xbc9290f1	-0.01789138
96	0xbd0ea7cc	-0.034827992
97	0xbe316251	-0.17322661
98	0x3c8e4d8d	0.017370963
99	0x3cd40bf2	0.025884602
100	0xbda831be	-0.082126126
101	0x3dc08011	0.09399427
102	0xbcb9f772	-0.022700999
103	0xbe17494e	-0.14774057
104	0xbd2777b4	-0.040885642
105	0xbc516fa1	-0.012782962
106	0x3d9d27be	0.07673596
107	0x3d4db905	0.050225276
108	0xbe40cf01	-0.18828966
109	0x3db1ac89	0.086754866
110	0x3dc37961	0.095446356
111	0x3db028c4	0.086015254
112	0xbcf1c70a	-0.029513855
113	0xbe236ff2	-0.15960672
114	0x3d7cccec	0.061718866
115	0xbb0ace8c	-0.002118024
116	0x3cd02ffe	0.02541351
117	0xbd3a93cc	-0.045551106
118	0x3e095a25	0.13413294
119	0x3c84e4c7	0.01622237
120	0xbd875b13	-0.06609168
121	0x3e157cf2	0.14598444
122	0x3d948c5f	0.07253336
123	0xbe1c9e60	-0.1529479
124	0xbd7288d7	-0.059212532
125	0xbcb116e6	-0.021617364
126	0xbe1bead0	-0.15226293
127	0x3da9318b	0.08261403
128	0x3e15310d	0.14569493
129	0xbde1f8c8	-0.110337794
130	0xbdff390f	-0.12462055
131	0x3e060770	0.13088775
132	0x3e1cb2a2	0.15302518
133	0x3dbf360f	0.09336483
134	0x3e062562	0.13100198
135	0xbe3193fb	-0.17341606
136	0x3da9d3ae	0.08292328
137	0x3de9d630	0.11417806
138	0x3e26dc7d	0.16295047
139	0x3d204e6e	0.039137296
140	0xbd0c83d6	-0.034305416
141	0x3e332e43	0.17498116
142	0xbcdffbbc	-0.027341716
143	0x3e0bce6b	0.13652961
144	0x3d87e829	0.06636078
145	0xbdb92187	-0.09039598
146	0xbde363a2	-0.11102988
147	0x3e21f13a	0.15814677
148	0x3cd2f9bd	0.02575385
149	0x3e1e5da6	0.15465412
150	0x3dba7bc0	0.09105635
151	0xbd40dad5	-0.047083694
152	0xbd2a4888	-0.041573077
153	0x3dde68c2	0.10859825
154	0xbd2d7a87	-0.04235318
155	0x3e1a33d4	0.15058833
156	0xbdb55248	-0.088535845
157	0xbe028d1b	-0.1274914
158	0xbe10aae6	-0.14127693
159	0xbe3240b4	-0.17407495
160	0x3d8d6385	0.069037475
161	0x3db60f70	0.08889663
162	0x3c951e42	0.018202905
163	0xbd1e189f	-0.0385977
164	0x3d9f8f8d	0.07791052
165	0xbe2aa8e7	-0.16665994
166	0x3e18117c	0.1485042
167	0xbd7d2363	-0.061801326
168	0xbd75d553	-0.060017895
169	0x3d856ccd	0.06514893
170	0x3dce531c	0.100744456
171	0x3d1fdd25	0.03902926
172	0x3e136ee5	0.14397772
173	0xbe10894a	-0.14114872
174	0xbdd89bae	-0.105765685
175	0xbe03b898	-0.12863386
176	0xbdfdbeb4	-0.12389889
177	0x3dba2aab	0.090901695
178	0x3d8221ca	0.06354101
179	0x3dc246ac	0.09486136
180	0xba397a1d	-0.0007075386
181	0xbd0ce988	-0.0344024
182	0xbdf9b9a6	-0.12193613
183	0xbe1ccb5a	-0.15311947
184	0xbd13279b	-0.035926443
185	0x3cc4586c	0.023967944
186	0x3e318398	0.17335355
187	0x3dfbe654	0.12299791
188	0x3e0c89a6	0.13724384
189	0xbd9c7b44	-0.076406986
190	0x3d3cc05a	0.04608188
191	0xbd1adefb	-0.037810307
192	0x3dbc4fd1	0.09194911
193	0xbceef153	-0.029167807
194	0xbe072164	-0.13196331
195	0xbe0cdf04	-0.13756949
196	0xbde2eb77	-0.110800676
197	0xbc2b883e	-0.010469494
198	0x3cd613ed	0.026132548
199	0x3e28e5d3	0.16493921
200	0xbd0e9678	-0.034811467
201	0x3d252ac5	0.04032399
202	0x3d44e688	0.048071414
203	0xbe1bcdbf	-0.15215205
204	0x3db81f18	0.08990306
205	0xbc1afb60	-0.0094593465
206	0x3c7b3403	0.015332225
207	0xbe21df00	-0.15807724
208	0xbe0bbd1b	-0.13646357
209	0x3d3c2788	0.045936137
210	0xbe3359c5	-0.17514713
211	0x39d32e78	0.00040279678
212	0xbdb3439b	-0.08753129
213	0x3e20fd9b	0.15721743
214	0x3e1b236e	0.15150234
215	0x3e046400	0.12928772
216	0x3dcb8245	0.09936956
217	0x3d822396	0.06354444
218	0xbd9a9ff2	-0.075500384
219	0x3d9398ff	0.07206916
220	0x3dc21442	0.0947652
221	0xbd2a6017	-0.041595545
222	0x3e1cd7a6	0.15316638
223	0xbe16d4d5	-0.14729626
224	0xbe20abf6	-0.15690598
225	0xbdb4fd84	-0.08837417
226	0x3d8c324a	0.068455294
227	0x3ddea536	0.10871355
228	0xbdbce25a	-0.09222861
229	0xbdd86478	-0.10566038
230	0x3dc6d40d	0.09708414
231	0xbe3cbf6f	-0.18432401
232	0xbd7f0753	-0.062262844
233	0xbd25285b	-0.04032169
234	0xbe071ca7	-0.13194524
235	0x3dec8e64	0.11550596
236	0x3dc490ed	0.09597955
237	0x3d7c9f2c	0.061675236
238	0xbdb7ddfb	-0.08977886
239	0xbe16f33b	-0.14741223
240	0xbdc63254	-0.09677568
241	0xbdf34ecb	-0.11880263
242	0x3db35d08	0.08757979
243	0x3e159046	0.14605817
244	0x3d922e37	0.07137721
245	0xbd9cbc9f	-0.07653164
246	0xbc4a7b07	-0.012358434
247	0x3d143620	0.03618443
248	0x3ce2b34b	0.027673384
249	0x3e111b41	0.14170553
250	0xbb85f0b4	-0.004087532
251	0x3d27086b	0.040779512
252	0x3e08012a	0.13281694
253	0x3e22ff48	0.15917695
254	0xbcc81953	-0.024426138
255	0x3c8eb209	0.017418878

blocks.0.skip_conv.bias f4 [128]
0	0xbb136963	-0.0022493235
1	0x39c3d862	0.00037354516
2	0xbb93a801	-0.0045061116
3	0x3befcc51	0.0073180576
4	0xba08d5f1	-0.0005219868
5	0xbb168630	-0.0022968166
6	0x3bbb5b5b	0.0057176775
7	0x3ba39fa4	0.004993396
8	0x3b41211e	0.0029469202
9	0x3c1020d6	0.008796891
10	0x39a6fe1c	0.00031851314
11	0x3b4bf06b	0.0031118642
12	0xb9460516	-0.00018884646
13	0xbbbf7a15	-0.0058434107
14	0xbb2e3035	-0.0026579027
15	0x3b9c1bce	0.0047640568
16	0x3b8f66ff	0.0043762918
17	0xbb3b8cb2	-0.0028617796
18	0xbb5359ac	-0.0032249494
19	0xbb321780	-0.0027174652
20	0x3961f50d	0.0002154896
21	0xb8ebc7b9	-0.000112428745
22	0x3b79ab92	0.0038096649
23	0xbba1f981	-0.0049430733
24	0x3b0f266a	0.0021842965
25	0xbb3d41f9	-0.0028878434
26	0x3aef3123	0.0018248897
27	0x3b54a008	0.003244402
28	0xba8dcf41	-0.0010819213
29	0xbb06cb17	-0.0020567828
30	0xbba67d3e	-0.005080848
31	0xbb509aaa	-0.0031830468
32	0xbb563c82	-0.0032689874
33	0xbb6cf362	-0.003615581
34	0x3b1dc348	0.0024072696
35	0x3a949ea8	0.0011338787
36	0x3a21906d	0.0006163184
37	0x3a98836f	0.001163585
38	0x3bc60540	0.0060431063
39	0xbbeb4ed8	-0.0071810298
40	0xbb8ed503	-0.004358889
41	0x3ab62587	0.0013896682
42	0xba8c6f0c	-0.0010714247
43	0x3b1b961c	0.0023740595
44	0x3bbdd784	0.0057935137
45	0xb9ee729c	-0.00045480288
46	0x3b8cd4bd	0.0042978213
47	0xbaea0ea1	-0.0017857143
48	0x3b8bf588	0.004271213
49	0x3b71240e	0.0036795172
50	0x3a604236	0.0008554788
51	0xba6a08f7	-0.00089277275
52	0x3b94f7b9	0.0045461324
53	0xbb7c4db1	-0.0038498456
54	0xbae77afc	-0.0017660554
55	0xba91c4ce	-0.0011121274
56	0x3b108357	0.002205094
57	0x3a3bc578	0.0007162909
58	0x384b93f6	4.853677e-05
59	0xbb420606	-0.002960564
60	0x3b8b646d	0.004253915
61	0x3b756b63	0.003744804
62	0xb9829fd2	-0.00024914608
63	0x3bbed69c	0.0058239233
64	0x3bf77ac2	0.0075524757
65	0x3ad5df4a	0.0016317156
66	0xbab8cc80	-0.0014099032
67	0x3b345273	0.0027514964
68	0x39aa24cc	0.00032452343
69	0x3b3802e3	0.0028077892
70	0xba8825e2	-0.0010387267
71	0xbbd9c51b	-0.0066458113
72	0xba98e4ce	-0.0011664869
73	0x3b6de9cf	0.003630269
74	0x3904c72b	0.00012662697
75	0x3b142679	0.002260594
76	0xbafd8648	-0.0019342387
77	0xbbbd7315	-0.005781541
78	0xbb6beb90	-0.003599856
79	0x3b079a08	0.0020691175
80	0xbb7c308d	-0.0038481087
81	0x3b257cc9	0.002525138
82	0xbaa7be22	-0.0012797753
83	0x391b3c2e	0.0001480437
84	0x3bc23207	0.005926374
85	0xba30799d	-0.0006731989
86	0x399f972a	0.0003043947
87	0xb80b728a	-3.3246855e-05
88	0xbab67b00	-0.0013922155
89	0xbbd3632d	-0.0064510317
90	0x3b0ffd6a	0.0021971115
91	0x3ae8d9fb	0.0017765159
92	0x3b2515a6	0.0025189905
93	0x3ae4c3c5	0.0017453363
94	0xbbce3442	-0.0062928507
95	0x3ba03beb	0.0048899553
96	0xbb2beb76	-0.0026232875
97	0xbb87d870	-0.0041456744
98	0x3b93ff95	0.0045165517
99	0xbb65b6c2	-0.003505156
100	0xb80f5606	-3.4173972e-05
101	0x3956a79d	0.00020471071
102	0x3aa2e3d0	0.0012427513
103	0xbbbcc604	-0.00576091
104	0x3b8991d1	0.004198291
105	0x3c04c6f1	0.008104072
106	0x3b3a0543	0.0028384484
107	0xb8c7a4fe	-9.519792e-05
108	0xba2f610e	-0.00066901825
109	0xbb916c7e	-0.004437982
110	0x3b7b9c17	0.0038392597
111	0x3b82c8c2	0.0039912174
112	0x3af1bb36	0.0018442634
113	0xba0cff91	-0.00053786585
114	0xbac2e758	-0.0014869971
115	0x3aa11ecc	0.0012292503
116	0x3b4cf61b	0.003127462
117	0xbaab747a	-0.0013080977
118	0xbb0037e5	-0.0019564566
119	0x3bbf1339	0.005831149
120	0x3b28551d	0.0025685497
121	0xbae6cb9e	-0.001760829
122	0x39d0781c	0.0003976234
123	0x39423dae	0.00018524259
124	0xbb077a2c	-0.0020672185
125	0x3b913c52	0.0044322396
126	0xbb0d534a	-0.0021564537
127	0x3ad5e58e	0.0016319023

blocks.0.bn.weight f4 [64]
0	0x3f806157	1.0029706
1	0x3f7f0251	0.9961291
2	0x3f8050d5	1.0024668
3	0x3f7eaf9c	0.9948671
4	0x3f808d12	1.0043051
5	0x3f7f5ccd	0.9975098
6	0x3f804a68	1.0022707
7	0x3f80acc1	1.005272
8	0x3f7edab6	0.99552476
9	0x3f803644	1.001656
10	0x3f811a26	1.0086105
11	0x3f80278b	1.0012068
12	0x3f804b15	1.0022913
13	0x3f7f637f	0.99761194
14	0x3f7f2e42	0.9967996
15	0x3f7debd0	0.99187946
16	0x3f818a19	1.0120269
17	0x3f7f9335	0.99833995
18	0x3f7fbd9b	0.9989869
19	0x3f80f929	1.0076038
20	0x3f7ef225	0.99588233
21	0x3f7fdaf5	0.99943477
22	0x3f7eae86	0.9948505
23	0x3f7ed819	0.9954849
24	0x3f80dee7	1.0068024
25	0x3f80a101	1.0049134
26	0x3f8031fe	1.0015256
27	0x3f80d213	1.006411
28	0x3f813176	1.0093219
29	0x3f7f1fad	0.9965771
30	0x3f815a14	1.0105615
31	0x3f80ea90	1.0071583
32	0x3f80aa2c	1.0051932
33	0x3f7fbb23	0.9989492
34	0x3f80ad3d	1.0052868
35	0x3f7f2f5b	0.99681634
36	0x3f7eb576	0.9949564
37	0x3f7fc7ae	0.9991406
38	0x3f802a17	1.0012845
39	0x3f7e4dad	0.99337274
40	0x3f8049c1	1.0022508
41	0x3f80b4f5	1.0055224
42	0x3f809700	1.0046082
43	0x3f809faa	1.0048726
44	0x3f7edc7d	0.9955519
45	0x3f7fa98d	0.9986809
46	0x3f7f036b	0.9961459
47	0x3f7f8016	0.9980482
48	0x3f80ba62	1.005688
49	0x3f80476b	1.0021795
50	0x3f804018	1.001956
51	0x3f8011ad	1.0005394
52	0x3f7d3f80	0.9892502
53	0x3f7fa437	0.99859947
54	0x3f7eb889	0.9950033
55	0x3f801800	1.0007324
56	0x3f800129	1.0000354
57	0x3f7e2714	0.9927838
58	0x3f809acf	1.0047244
59	0x3f80cd5a	1.0062668
60	0x3f7f3f35	0.9970582
61	0x3f803d2b	1.0018667
62	0x3f80269a	1.001178
63	0x3f8025fd	1.0011593

blocks.0.bn.bias f4 [64]
0	0x3992712a	0.00027931604
1	0xbb4c34f4	-0.0031159492
2	0xba2825f4	-0.0006414347
3	0x3b68c868	0.0035519842
4	0x3b0327dd	0.0020012774
5	0xbbc1c87c	-0.005913792
6	0x3b5bf343	0.0033561743
7	0xbbba5e5c	-0.005687518
8	0xbb9cc54c	-0.004784262
9	0x3b2132f0	0.0024597012
10	0x3be465e7	0.0069701555
11	0x3a1e96a6	0.000604967
12	0x39c95a8d	0.00038405173
13	0x3af96cbc	0.0019029598
14	0x3a182ae8	0.00058047334
15	0x3b107062	0.0022039642
16	0x3bc5cb9d	0.0060362355
17	0x3bd2f9f0	0.0064384863
18	0x3b3f6ead	0.0029210255
19	0xba21163b	-0.0006144975
20	0x3b30c037	0.0026970038
21	0x39f5195a	0.0004674893
22	0x3ba1cf18	0.0049380176
23	0x3ba886da	0.0051430287
24	0xba7828a7	-0.0009466507
25	0x3ad26151	0.0016050731
26	0x3b770456	0.0037691793
27	0xbb9efd86	-0.0048519997
28	0x3b50514e	0.0031786743
29	0xbbf5ff70	-0.007507257
30	0xb8dbe76b	-0.00010485839
31	0xbb86cd35	-0.004113818
32	0xbb1c5456	-0.002385398
33	0x3ac361dd	0.0014906485
34	0x3ba95583	0.0051676645
35	0xbb26e0ff	-0.0025463698
36	0xbb45d7d7	-0.0030188465
37	0xbacf7d7d	-0.0015830245
38	0x3ac4b064	0.0015006182
39	0x3c25305d	0.0100823315
40	0x3beb76a5	0.0071857744
41	0x3aa1b246	0.0012336455
42	0xb9a1c86e	-0.00030857645
43	0x3afaee9a	0.0019144595
44	0x3bebc540	0.007195145
45	0x3b72a698	0.0037025567
46	0x3b39e6dd	0.0028366365
47	0x3b48ba51	0.0030628631
48	0x3b00dbb2	0.0019662199
49	0x3b899d7d	0.0041996823
50	0x3a47dd47	0.00076242205
51	0x3ac28d0d	0.0014843062
52	0xbabde4f5	-0.001448779
53	0xb983f1c7	-0.00025166405
54	0xb78e5104	-1.6965445e-05
55	0xbab081f5	-0.0013466465
56	0xb9d490f1	-0.0004054378
57	0xbb815276	-0.0039465977
58	0x3b2ecb19	0.0026671349
59	0x3b07c7af	0.0020718386
60	0xbba31c03	-0.0049777045
61	0xbab89fb8	-0.0014085686
62	0xbb3ecae5	-0.0029112634
63	0xba9278b0	-0.0011174884
