TGNN2026/artifacts_MTGNN1m_2SoftUtility/fold_04_weights.pt (torch, 802453 bytes, 83 tensors)

A_static f4 [3, 3]
0.33333334 0.33333334 0.33333334 0.33333334 0.33333334 0.33333334 0.33333334 0.33333334
0.33333334
00000000: abaa aa3e abaa aa3e abaa aa3e abaa aa3e
00000010: abaa aa3e abaa aa3e abaa aa3e abaa aa3e
00000020: abaa aa3e

in_proj.weight f4 [64, 15]
0.10446048 -0.042589117 0.26492614 -0.1061884 0.17916052 0.040684626 0.20306772 -0.12571432
0.08683669 0.2576886 0.070441194 0.014968662 0.081834555 -0.2496867 0.06577675 -0.05546919
-0.22605795 0.10312996 0.13130634 -0.13586876 0.15768197 0.07417532 0.062458064 -0.09668957
-0.007579863 -0.14825483 -0.109824926 0.17291841 0.025344415 -0.12268015 0.20706332 0.06634406
0.092723526 -0.11196626 -0.026236797 0.23488529 -0.16825959 0.1454785 -0.27027255 0.10018089
0.021194777 0.2456671 0.06818451 0.028811688 0.26374874 0.10839495 0.08823845 0.14385255
-0.12060623 -0.16865161 0.08207944 0.19852485 -0.26005852 0.036346927 0.2566297 -0.10218144
-0.21910724 0.036547128 -0.04456647 0.07442971 0.11511238 0.2067139 0.27023554 -0.029877277
-0.087306224 -0.19010615 -0.08863708 -0.09544701 0.012210489 0.06831245 0.013350909 -0.24313259
0.24382757 0.2211918 -0.09921668 0.22752106 0.25326917 -0.0115309 0.17884037 0.20378032
0.26100528 0.17063895 0.068365835 0.09091599 0.062411956 -0.15680192 0.2691757 0.05495185
-0.16382048 -0.14092273 0.03123307 -0.1748133 0.20326257 -0.02821103 -0.04450203 0.23383482
-0.06318826 -0.09408486 -0.11718643 0.058587883 -0.020443168 0.1075595 0.16967075 -0.010758509
-0.021573868 0.035284743 0.17079875 0.17017224 0.14389496 -0.21184589 0.18931487 0.16816418
0.18429808 0.10842183 -0.26409099 -0.014318135 -0.21236655 0.083238155 0.037346356 -0.1742892
0.14811292 -0.16281702 -0.2500797 0.2677546 0.20698568 0.24328196 -0.22607608 0.019302916
0.2646572 -0.07957203 0.07519589 -0.11004589 0.15381713 0.041482262 0.08408379 -0.038683422
0.23622265 0.04537607 -0.19117142 -0.13933426 0.21387908 0.15579888 -0.18647607 0.0069321273
-0.23482029 0.027318664 0.2696621 -0.10832556 -0.16260448 0.22727849 -0.21602154 -0.019166017
0.017389277 -0.16455106 -0.0903517 -0.23838091 -0.075725436 0.12405604 0.21250899 -0.18297902
0.0660044 -0.1368226 -0.19963731 0.09128008 -0.13764292 0.011264045 -0.23127714 -0.15543585
-0.18937753 -0.25542372 -0.08366882 -0.20071055 -0.099592395 -0.15080412 0.0897114 0.09923538
0.0019337214 0.2709581 -0.15681188 -0.00965205 -0.18202803 -0.26225433 0.17960587 -0.2032896
-0.20366603 -0.090004146 0.093226485 -0.15960637 -0.16124664 -0.1359366 -0.112784006 -0.18466409
0.14951773 -0.16249497 0.2624962 -0.21574815 0.014869394 0.093727216 0.18387535 0.07710382
0.24123137 0.108640976 0.13289954 0.21462989 -0.0483381 0.08627045 0.011558147 -0.25393552
0.2454367 0.12417283 -0.22116345 0.19767614 0.18519664 -0.24420063 -0.25534332 -0.016984055
-0.019369395 -0.20367509 0.047683194 -0.03222864 -0.21073015 -0.09319708 0.02364323 0.14494622
-0.1200255 -0.019839741 0.14783488 0.20720507 -0.19700433 -0.19263348 0.03561768 -0.04778373
-0.055870306 0.067746826 -0.24286202 0.22723332 0.23895116 0.093500204 -0.12498489 -0.11902892
0.15084024 -0.15720415 -0.21844624 0.14908351 -0.035625804 -0.12760137 0.008880079 -0.0651595
-0.11483276 0.058373157 -0.031474814 0.2598551 0.019305479 -0.15898822 -0.103361346 0.23234193
00000000: 60ef d53d ed71 2ebd 66a4 873e 4e79 d9bd
00000010: db75 373e eca4 263d fcf0 4f3e 41bb 00be
00000020: 6fd7 b13d c3ef 833e 7943 903d 1e3f 753c
00000030: e098 a73d dfad 7fbe f6b5 863d a933 63bd
00000040: bc7b 67be cd35 d33d 2b75 063e 2e21 0bbe
00000050: 6277 213e 3be9 973d 07d4 7f3d 2e05 c6bd
00000060: 8060 f8bb 1dd0 17be e4eb e0bd 8611 313e
00000070: 179f cf3c bb3f fbbd 6808 543e 65df 873d
00000080: d5e5 bd3d 914e e5bd 8dee d6bc c585 703e
00000090: 3e4c 2cbe 51f8 143e 2a61 8abe a32b cd3d
000000a0: aba0 ad3c 2890 7b3e 52a4 8b3d 7d06 ec3c
000000b0: 130a 873e 2cfe dd3d 5cb6 b43d 154e 133e
000000c0: 6600 f7bd 02b3 2cbe 4419 a83d 194a 4b3e
000000d0: 6426 85be 84e0 143d f864 833e 8144 d1bd
000000e0: a65d 60be 71b2 153d 558b 36bd 9b6e 983d
000000f0: 0ac0 eb3d cfac 533e 505c 8a3e 31c1 f4bc
00000100: 9bcd b2bd 30ab 42be 5b87 b5bd b979 c3bd
00000110: 810e 483c 66e7 8b3d c5bd 5a3c c0f7 78be
00000120: efad 793e 1a80 623e 1d32 cbbd 48fb 683e
00000130: 7fac 813e 1aec 3cbc ee21 373e caab 503e
00000140: 7ca2 853e fabb 2e3e 6303 8c3d 2a32 ba3d
00000150: aea3 7f3d af90 20be 66d1 893e 3115 613d
00000160: 8ec0 27be 0c4e 10be 7fdc ff3c 4202 33be
00000170: 1024 503e d11a e7bc c347 36bd 6572 6f3e
00000180: d968 81bd 90af c0bd 70ff efbd d9f9 6f3d
00000190: 6e78 a7bc 2848 dc3d 2bbe 2d3e 7544 30bc
000001a0: aebb b0bc bc86 103d dee5 2e3e a241 2e3e
000001b0: 3359 133e 21ee 58be c2db 413e 3b33 2c3e
000001c0: a3b8 3c3e 440c de3d ef36 87be 9c96 6abc
000001d0: 9e76 59be c478 aa3d 7ef8 183d de78 32be
000001e0: eaaa 173e 81b9 26be 720a 80be 2217 893e
000001f0: 0ef4 533e e81e 793e 7d80 67be 2621 9e3c
00000200: 2681 873e a9f6 a2bd 4e00 9a3d bd5f e1bd
00000210: 3d82 1d3e 4ee9 293d 1f34 ac3d 8272 1ebd
00000220: 5ae4 713e 42dc 393d 71c2 43be a4ad 0ebe
00000230: 1e03 5b3e be89 1f3e 95f3 3ebe e626 e33b
00000240: bb74 70be 64cb df3c 2711 8a3e cbd9 ddbd
00000250: ca81 26be b1bb 683e c034 5dbe 0d02 9dbc
00000260: f573 8e3c 1380 28be 500a b9bd 201a 74be
00000270: f015 9bbd 1811 fe3d f59b 593e da5e 3bbe
00000280: 512d 873d 391b 0cbe b96d 4cbe 0df1 ba3d
00000290: 44f2 0cbe d48c 383c ead3 6cbe 932a 1fbe
000002a0: 2fec 41be e6c6 82be 8f5a abbd 1187 4dbe
000002b0: 19f7 cbbd 656c 1abe 9cba b73d eb3b cb3d
000002c0: ec74 fd3a 05bb 8a3e 4b93 20be a223 1ebc
000002d0: 8e65 3abe 3346 86be 9aea 373e 262b 50be
000002e0: d48d 50be 1854 b8bd 87ed be3d da6f 23be
000002f0: d71d 25be f732 0bbe 4dfb e6bd 9518 3dbe
00000300: 2d1b 193e 1565 26be e765 863e 15ed 5cbe
00000310: c29e 733c 0ef4 bf3d d249 3c3e 9ce8 9d3d
00000320: 5b05 773e 297f de3d d116 083e f0c7 5b3e
00000330: 2cfe 45bd 90ae b03d 625e 3d3c d603 82be
00000340: c253 7b3e 534e fe3d ac78 62be 9d6b 4a3e
00000350: 30a4 3d3e bb0f 7abe 5cbc 82be 2522 8bbc
00000360: 91ac 9ebc 3490 50be 744f 433d 2e02 04bd
00000370: a5c9 57be 1cde bebd 72af c13c c86c 143e
00000380: eecf f5bd f486 a2bc 0762 173e 912d 543e
00000390: 81bb 49be b641 45be d8e3 113d dfb8 43bd
000003a0: 43d8 64bd d9be 8a3d d2b0 78be daaf 683e
000003b0: 9daf 743e 097d bf3d 14f8 ffbd 6fc5 f3bd
000003c0: dd75 1a3e 20fa 20be 5fb0 5fbe 59a9 183e
000003d0: 5dec 11bd efa9 02be c07d 113c 5872 85bd
000003e0: 702d ebbd b118 6f3d bceb 00bd ba0b 853e
000003f0: 8626 9e3c cfcd 22be 1daf d3bd 0beb 6d3e

in_proj.bias f4 [64]
-3.716087e-05 0.0026982392 0.00298972 -0.0027594774 -0.00073577976 0.002927686 -0.0043086046 -0.00035889528
0.0009862034 -0.001183517 0.0030231497 -0.0035026618 -0.0010579363 0.0009727306 0.003975653 0.0016676597
0.0061439374 0.0007055289 0.0020109476 0.004633805 -0.003288844 -0.0014878174 -0.0052249334 -0.0043109604
6.1585546e-05 0.004336209 0.003330748 0.00013027826 -0.0053625638 -0.0010817446 0.0020892185 -0.00067728147
0.004220667 -0.0013105152 0.0011364387 -0.0029770872 -0.0015374903 -0.0033121395 0.003043672 0.00078556925
0.0023616168 -0.00533866 0.0014472895 -0.002695945 -0.00032270476 0.00094383815 -0.0041745524 0.0012158848
0.0034422772 0.0020133106 0.0029707358 -0.0019790432 0.0027581446 0.0048811794 -0.0033907625 -0.0074370946
-0.00029747898 -0.00071393605 -0.000524126 0.0021375369 0.0016780201 0.0022917527 -0.0007721282 -0.0027455157
00000000: 2edd 1bb8 f1d4 303b 2eef 433b 59d8 34bb
00000010: 58e1 40ba 6cde 3f3b 322f 8dbb 1c2a bcb9
00000020: 7f43 813a 3e20 9bba 0920 463b ea8c 65bb
00000030: 74aa 8aba d8fe 7e3a 3246 823b 6095 da3a
00000040: 1553 c93b 3ef3 383a 1aca 033b 2cd7 973b
00000050: a589 57bb de02 c3ba eb35 abbb f542 8dbb
00000060: 7d27 8138 c216 8e3b ae48 5a3b 4e9b 0839
00000070: 72b8 afbb 53c9 8dba 45eb 083b 978b 31ba
00000080: 854d 8a3b 98c5 abba 8ef4 943a 3c1b 43bb
00000090: 9d85 c9ba 7b10 59bb 5878 473b a9ee 4d3a
000000a0: 5bc5 1a3b edef aebb fab2 bd3a 74ae 30bb
000000b0: b330 a9b9 e86b 773a afca 88bb 535e 9f3a
000000c0: d497 613b bff1 033b adb0 423b d6b2 01bb
000000d0: fdc1 343b 4df2 9f3b 8e37 5ebb dfb2 f3bb
000000e0: f4f6 9bb9 7027 3bba 8065 09ba eb15 0c3b
000000f0: 03f1 db3a 3b31 163b a568 4aba 1cee 33bb

adapt.E1 f4 [3, 8]
-0.009766985 -0.0011217179 0.0062735365 -0.00361523 0.003821781 0.007926388 0.008941208 0.008748467
-0.01068522 -0.0063676354 -0.00023762188 -0.003308747 0.035584573 0.0011983765 -0.0064292797 -0.002327648
-0.013779583 0.01325539 0.008641073 0.0072351974 0.0032580732 0.00092022173 0.0012619913 -0.0023781557
00000000: b405 20bc 9b06 93ba 3d92 cd3b 7fed 6cbb
00000010: d876 7a3b aedd 013c 257e 123c bb55 0f3c
00000020: 1011 2fbc 99a7 d0bb 232a 79b9 90d7 58bb
00000030: 21c1 113d d812 9d3a b5ac d2bb 748b 18bb
00000040: c3c3 61bc 232d 593c 4993 0d3c 3c15 ed3b
00000050: 6685 553b 093b 713a 6769 a53a d5da 1bbb

adapt.E2 f4 [3, 8]
0.015304486 0.0050909836 0.0011129077 -0.0054032365 0.004453716 -0.0029963031 0.008034178 -0.004390091
0.005726744 -0.008935685 0.01782038 0.007912496 -0.008028312 -3.8444567e-05 0.00046432685 0.0074468907
-0.0020337787 0.00526187 -0.0059346277 -0.018979505 0.0137277795 -0.0003365588 -0.005470155 -0.009975909
00000000: abbf 7a3c 44d2 a63b fcde 913a a20d b1bb
00000010: 7af0 913b a05d 44bb c9a1 033c c1da 8fbb
00000020: 69a7 bb3b fb66 12bc 0cfc 913c 6aa3 013c
00000030: 2e89 03bc 8a3f 21b8 e570 f339 0c05 f43b
00000040: 2549 05bb c46b ac3b 4477 c2bb e87a 9bbc
00000050: 7bea 603c 2874 b0b9 fc3e b3bb ff71 23bc

support_mix.w_logits f4 [3]
0.00059923274 -0.00060151075 0.0006037771
00000000: d415 1d3a b4ae 1dba cc46 1e3a

blocks.0.filter_conv.conv.weight f4 [64, 64, 1, 2]
0.075306885 0.10847489 0.10986446 0.024182657 0.047554597 0.03666937 0.017415365 0.14691742
0.032284275 0.003685499 0.018045537 -0.04300834 0.045808487 0.035801217 -0.032349955 0.1361687
0.102961995 -0.1496502 0.071789704 -0.056341525 -0.052734584 -0.016433833 -0.11490386 -0.06812593
0.063444644 -0.12424017 0.045271758 -0.1429783 -0.062440574 -0.00047788344 -0.081884086 0.15268515
-0.1445838 -0.015056575 0.055570893 0.013506253 0.09270753 -0.05021341 0.1369357 0.036556374
-0.05180295 0.10509408 -0.09696402 0.042251464 -0.088729896 -0.09260874 -0.12787929 -0.10593089
0.0067063174 -0.051356737 -0.029859928 -0.09654987 0.12994643 -0.038070243 -0.14921297 0.053763893
0.132973 -0.11887577 -0.054954447 0.031146796 -0.14753334 -0.13574722 0.14829274 -0.13572115
0.052686878 -0.06712659 -0.055199534 -0.09106999 -0.12496562 0.09532413 0.03376962 0.06566092
-0.054998614 -0.15518051 0.04888322 0.13343133 -0.13647556 0.14164348 0.116061285 0.012774371
-0.10515516 0.117762044 0.056401413 -0.11526806 0.062322874 0.011050261 -0.0052610673 0.07959545
0.008992434 0.10586789 -0.1421335 0.003165866 -0.14907998 0.027919479 -0.14231068 -0.06327064
-0.14487104 0.024922881 -0.003686894 0.12893392 0.119736984 -0.15292646 0.15852536 -0.12132551
-0.03271603 0.0765742 0.020876214 -0.06175922 0.05891838 0.10990961 -0.05759796 -0.046746235
-0.008856985 0.053018644 0.073045276 -0.051340736 0.008982237 -0.12758628 0.0015085533 0.13110766
-0.016995978 -0.028012723 -0.15075898 0.11540686 0.007075222 -0.13388334 -0.021702884 0.0040391376
0.1580292 0.10413792 0.14725916 0.07095256 0.14232421 0.0727306 0.032952245 0.14115441
-0.014003179 -0.09118476 -0.10399488 -0.08777413 -0.13524404 -0.08819503 -0.082177565 0.12997098
0.016170554 0.007198732 0.14712134 -0.06545939 0.0117809875 -0.14883932 0.02769868 -0.107017994
-0.00037429307 -0.15547323 0.1518619 0.009747072 0.09444273 0.08840555 -0.12085321 0.085933685
0.13963084 -0.1433666 -0.031227054 0.06391413 0.04549678 0.14480466 -0.031210419 0.12011064
-0.017976679 0.03934214 0.03506861 0.12951984 -0.033298478 -0.010686586 0.03427768 -0.1128138
0.091629714 -0.11677861 -0.12788184 0.03379063 0.014046676 -0.07947364 -0.122405775 0.06886199
-0.050861433 -0.093380496 -0.117423415 -0.023886057 -0.048210513 0.14750786 0.049632717 0.033627175
0.1206628 -0.08170092 0.06054153 -0.10147717 -0.084591895 -0.14513738 -0.1424979 -0.09029216
0.077830434 0.0653426 0.04512468 -0.04212241 0.060574606 0.008454088 0.14588925 0.08338977
0.042220443 0.04609169 0.11620316 0.0018375777 -0.106890544 -0.13578196 0.031957354 0.11278223
-0.110535555 -0.12762018 -0.14180301 0.11435629 -0.07911284 -0.059410412 -0.13021241 0.060564544
-0.1374269 0.08345242 -0.05678273 0.12615089 0.08830102 0.13078016 -0.07676539 0.07022051
0.13241252 0.01559656 -0.104003124 0.14597985 0.045738265 0.09332033 0.091277264 0.022413023
0.0010246737 -0.14925611 0.07667062 -0.06943811 -0.12163113 0.13567291 0.05805612 0.14682733
-0.13061114 -0.089413166 -0.009850715 -0.037035443 0.15322979 0.029483773 0.07651778 0.061725445
00000000: 7f3a 9a3d 1528 de3d 9e00 e13d b51a c63c
00000010: 9cc8 423d 9f32 163d abaa 8e3c 8571 163e
00000020: 843c 043d 6a88 713b 3cd4 933c 8329 30bd
00000030: aea1 3b3d 4ca4 123d 6381 04bd cf6f 0b3e
00000040: bddd d23d e73d 19be 7b06 933d 5fc6 66bd
00000050: 3800 58bd 3fa0 86bc b752 ebbd 9c85 8bbd
00000060: 44ef 813d a171 febd e16e 393d e768 12be
00000070: b0c1 7fbd 6e8c fab9 d8b2 a7bd 7f59 1c3e
00000080: c70d 14be daaf 76bc 4e9e 633d 5549 5d3c
00000090: 72dd bd3d 94ac 4dbd df38 0c3e 23bc 153d
000000a0: 552f 54bd 913b d73d 1295 c6bd df0f 2d3d
000000b0: 05b8 b5bd a7a9 bdbd caf2 02be 4bf2 d8bd
000000c0: abc0 db3b 715b 52bd cf9c f4bc f0bb c5bd
000000d0: ad10 053e 8bef 1bbd 49cb 18be 8737 5c3d
000000e0: 132a 083e 2475 f3bd ea17 61bd 9127 ff3c
000000f0: fb12 17be 5201 0bbe 0dda 173e 7cfa 0abe
00000100: 32ce 573d aa79 89bd e818 62bd e782 babd
00000110: faed ffbd 4c39 c33d 0352 0a3d 3c79 863d
00000120: 3a46 61bd a4e7 1ebe c539 483d 39a2 083e
00000130: 40c0 0bbe fd0a 113e 8ab1 ed3d 984b 513c
00000140: 975b d7bd 3a2d f13d 2b05 673d a911 ecbd
00000150: 4546 7f3d 270c 353c 0865 acbb f002 a33d
00000160: 0055 133c 44d1 d83d 728b 11be 6b7a 4f3b
00000170: 6ca8 18be 64b7 e43c e4b9 11be 0a94 81bd
00000180: 1359 14be 122b cc3c d19f 71bb 4107 043e
00000190: aa38 f53d c198 1cbe 7954 223e 8279 f8bd
000001a0: 3e01 06bd efd2 9c3d 9804 ab3c 3cf7 7cbd
000001b0: 6654 713d 4a18 e13d d7eb 6bbd fb78 3fbd
000001c0: e31c 11bc 142a 593d c398 953d aa4a 52bd
000001d0: 3c2a 133c faa5 02be a6ba c53a 1641 063e
000001e0: 263b 8bbc f07a e5bc 9060 1abe 6f5a ec3d
000001f0: 44d7 e73b b718 09be 3fca b1bc be5a 843b
00000200: 68d2 213e 4346 d53d 1bcb 163e 934f 913d
00000210: 70bd 113e c8f3 943d eff8 063d c88a 103e
00000220: 976d 65bc 13bf babd 45fb d4bd ecc2 b3bd
00000230: 6a7d 0abe 999f b4bd b64c a8bd 1d17 053e
00000240: 1c78 843c 57e3 eb3b faa6 163e 930f 86bd
00000250: 0b05 413c 5669 18be 58e8 e23c 402c dbbd
00000260: c43c c4b9 6034 1fbe b081 1b3e 2fb2 1f3c
00000270: 316b c13d f80d b53d e381 f7bd 00fe af3d
00000280: 63fb 0e3e b2ce 12be e1cf ffbc 69e5 823d
00000290: d55a 3a3d ac47 143e feac ffbc 91fc f53d
000002a0: d443 93bc 3925 213d 1aa4 0f3d d9a0 043e
000002b0: fc63 08bd ca16 2fbc c166 0c3d ec0a e7bd
000002c0: 5ca8 bb3d a029 efbd 75f3 02be 0b68 0a3d
000002d0: 0824 663c 13c3 a2bd e1af fabd 8407 8d3d
000002e0: 1454 50bd 463e bfbd b07b f0bd b1ac c3bc
000002f0: 6378 45bd 4d0c 173e ad4b 4b3d a6bc 093d
00000300: 0f1e f73d d052 a7bd 65fa 773d 43d3 cfbd
00000310: 843e adbd e59e 14be f8ea 11be 19eb b8bd
00000320: 9065 9f3d 57d2 853d a8d4 383d 8c88 2cbd
00000330: 141d 783d 0483 0a3c fe63 153e 41c8 aa3d
00000340: 58ef 2c3d a4ca 3c3d ecfb ed3d e0da f03a
00000350: 6ee9 dabd 6d0a 0bbe b7e5 023d 5ffa e63d
00000360: 7760 e2bd ddae 02be cf34 11be a133 ea3d
00000370: ea05 a2bd 5558 73bd 6756 05be 8712 783d
00000380: a3b9 0cbe 1ae9 aa3d 0295 68bd b32d 013e
00000390: 2ad7 b43d 3ceb 053e 2c37 9dbd c5cf 8f3d
000003a0: 2697 073e b788 7f3c 97ff d4bd be7b 153e
000003b0: 0c58 3b3d bb1e bf3d 93ef ba3d 849b b73c
000003c0: 584e 863a 98d6 18be 7c05 9d3d 9135 8ebd
000003d0: be19 f9bd d7ed 0a3e 41cc 6d3d e759 163e
000003e0: edbe 05be 401e b7bd e564 21bc 7ab2 17bd
000003f0: 45e8 1c3e f487 f13c 5bb5 9c3d d2d3 7c3d

blocks.0.filter_conv.conv.bias f4 [64]
0.0050116195 0.0026543254 -0.00408029 0.00093159813 0.006208737 -0.005051051 -0.0049932534 -0.0033103272
0.0029154797 0.0014081931 0.00018496571 0.0019018087 0.0025257664 -0.0049588555 0.003925402 0.00011343386
-0.0018113732 -0.0007477373 -0.004298466 -0.0009781921 -0.0010094491 -0.00327036 -0.003696327 0.00146439
0.003274923 -0.00056348473 -0.001640958 0.0019467975 0.0032685222 -0.0040502716 0.0005475183 -0.0022066394
3.7629878e-05 0.002987651 0.0006848136 0.004103859 -0.0020850431 -0.0006668365 0.0015228861 0.00010460208
0.00033441783 0.003273991 0.004228918 -0.0024304513 -0.002497972 -0.0011614171 0.0027938536 -0.0026578954
-0.0021111714 -0.0013151502 0.0049638143 0.0008124232 -0.0008603858 -0.00074375054 -0.0017028836 0.0047656773
-0.0017535416 0.00086248096 -0.00070357276 0.003435624 -0.0011078058 -0.0010629965 -0.0040863585 0.0025260614
00000000: 8338 a43b 31f4 2d3b f4b3 85bb 7e36 743a
00000010: a972 cb3b 4983 a5bb 729e a3bb 13f2 58bb
00000020: a211 3f3b 1f93 b83a 5bf3 4139 1c46 f93a
00000030: 5487 253b e57d a2bb a9a0 803b 57e3 ed38
00000040: 996b edba cd03 44ba 25da 8cbb ae36 80ba
00000050: 7e4f 84ba 8953 56bb 143e 72bb c6f0 bf3a
00000060: 17a0 563b d2b6 13ba 6a15 d7ba af2b ff3a
00000070: b434 563b 24b8 84bb 5587 0f3a 449d 10bb
00000080: c6d4 1d38 77cc 433b 1085 333a aa79 863b
00000090: 38a5 08bb a4ce 2eba 949b c73a d05d db38
000000a0: cd54 af39 7490 563b bc92 8a3b 3548 1fbb
000000b0: 04b5 23bb b13a 98ba 1619 373b 1630 2ebb
000000c0: 945b 0abb 1e61 acba 7ea7 a23b ccf8 543a
000000d0: 838b 61ba 41f8 42ba 4b33 dfba 6629 9c3b
000000e0: 18d7 e5ba 1e18 623a f86f 38ba 3528 613b
000000f0: cb33 91ba 3e54 8bba dce6 85bb 478c 253b

blocks.0.gate_conv.conv.weight f4 [64, 64, 1, 2]
0.062257506 0.017454823 -0.059121225 -0.083081186 0.11054349 0.11814761 -0.1285776 0.005552823
0.03315732 -0.011610534 -0.13641798 -0.13022247 0.089671195 -0.12401034 0.11184263 -0.0123415515
0.04035946 0.025293777 -0.09872158 -0.13482444 -0.01978629 0.105862014 -0.048749894 -0.13728344
-0.05706049 -0.040682238 0.14768016 0.116827406 0.12696287 -0.057165153 0.08368741 0.14928591
0.046006963 -0.042879216 0.049612116 -0.08584602 0.13110581 -0.09394095 0.090030335 -0.023629755
-0.06415574 -0.044628322 -0.033527713 -0.054332163 0.12461779 0.13075398 0.14497188 0.032759417
-0.056895327 -0.008424141 -0.008585354 0.10748252 0.043553848 0.11670599 0.13021082 -0.0029169712
0.005258756 0.018848067 -0.08866844 0.13759346 0.14459193 -0.11080024 -0.0034061463 0.061855465
0.09966671 0.0021856965 0.077255376 -0.08494717 0.06668872 0.12943605 -0.02387445 0.08168125
0.09024771 -0.045027405 0.04136462 0.03138614 -0.1076134 -0.053652197 -0.0049906895 0.11972053
-0.054864362 -0.03429146 0.098245814 -0.091438405 -0.117753364 -0.14329 0.021057678 0.030742288
-0.055859156 0.08991888 -0.07435054 0.122327276 0.025249768 0.0972416 0.11528348 0.04921785
0.008789675 0.10722147 0.03822607 0.093102545 -0.0061269007 0.13256127 -0.032616578 0.06269375
-0.04405319 0.07802581 -0.060592376 0.078010194 -0.11223736 -0.015558977 0.08531686 -0.046148576
0.04821794 0.012124025 0.08805024 0.06512342 0.11479176 -0.093686365 -0.05148337 0.056568325
-0.13335043 -0.121224865 -0.059937835 -0.12360502 -0.1277632 0.05684032 0.09428104 0.0799132
-0.14372393 -0.13976659 -0.00779773 0.042915072 -0.0052297963 0.034470405 -0.11376991 -0.0124017885
-0.010528474 0.04919206 -0.020493738 -0.069747925 -0.106775 -0.11323738 -0.016534641 -0.14271529
-0.14171374 -0.003946515 -0.1353065 0.060850788 0.0580558 -0.020566104 0.050308406 -0.14882891
-0.1377634 0.111321844 -0.009827577 0.103832915 -0.116842866 0.059977 -0.120726034 0.13053694
0.05167442 -0.050432492 0.14365903 -0.09346569 -0.039905824 -0.023042154 -0.007468683 -0.066975996
-0.1523275 -0.0741331 0.0338665 0.14815348 -0.03848965 0.08866078 -0.09446423 0.11433443
0.07735216 0.07175853 -0.10296554 0.06412539 -0.14096685 -0.08925587 -0.10471926 -0.06481363
-0.12297539 0.018097296 0.012224698 -0.0952941 0.0405336 0.07914521 0.14338586 -0.022264065
-0.1492782 0.02968574 -0.05224757 0.13044235 -0.110961094 -0.04545695 0.039070506 0.04761126
0.106651634 -0.03970462 -0.012996327 0.07399126 0.04253024 -0.12467327 0.13261664 0.04833997
0.088481635 -0.015858667 0.12233629 -0.032576635 -0.06449918 0.028267529 0.07638834 -0.030775782
-0.040538277 -0.07078 -0.117846 -0.11179174 -0.11846688 -0.086561546 0.123129435 0.12689371
0.0690579 -0.076257914 -0.07985536 0.03614814 -0.11581541 -0.11482313 -0.05948964 0.11714556
-0.0536383 -0.03928187 -0.020279922 -0.07683315 -0.113177 0.034289256 -0.059538417 -0.0355816
-0.07525086 0.09059048 -0.012865735 -0.01272946 -0.0115756495 -0.075053126 -0.0942035 -0.023204165
0.13276277 -0.12938847 -0.11679109 0.016281554 -0.0334115 -0.06364113 0.04193155 -0.018559009
00000000: ba01 7f3d 6bfd 8e3c 1929 72bd 7826 aabd
00000010: a064 e23d 60f7 f13d d9a9 03be 75f4 b53b
00000020: f8cf 073d 1c3a 3ebc 28b1 0bbe 0a59 05be
00000030: 88a5 b73d 22f9 fdbd c00d e53d 3834 4abc
00000040: f64f 253d e534 cf3c 8a2e cabd 6b0f 0abe
00000050: dc16 a2bc 2fce d83d f8ad 47bd 0894 0cbe
00000060: 43b8 69bd 6ba2 26bd 7839 173e 3543 ef3d
00000070: 8e02 023e 0226 6abd 4e64 ab3d 68de 183e
00000080: cc71 3c3d 1ea2 2fbd 1336 4b3d 0ad0 afbd
00000090: 9a40 063e 1d64 c0bd d361 b83d 3093 c1bc
000000a0: 1664 83bd 30cc 36bd 5b54 09bd 678b 5ebd
000000b0: 9d37 ff3d 5fe4 053e 8273 143e bd2e 063d
000000c0: 130b 69bd 6905 0abc 96a9 0cbc cc1f dc3d
000000d0: 8565 323d 8d03 ef3d fc55 053e a82a 3fbb
000000e0: a551 ac3b 4367 9a3c cd97 b5bd 4de5 0c3e
000000f0: e80f 143e 3ceb e2bd a739 5fbb 285c 7d3d
00000100: 0f1e cc3d e73d 0f3b 1138 9e3d c8f8 adbd
00000110: 1894 883d e28a 043e 5a94 c3bc 8048 a73d
00000120: cbd3 b83d a86e 38bd f36d 293d c18e 003d
00000130: 6a64 dcbd 68c2 5bbd f088 a3bb 0a30 f53d
00000140: 74b9 60bd 3475 0cbd 1a35 c93d 0f44 bbbd
00000150: ad28 f1bd 9dba 12be 2781 ac3c 40d7 fb3c
00000160: 92cc 64bd 6427 b83d 1945 98bd b986 fa3d
00000170: 9ad8 ce3c 9b26 c73d bf19 ec3d a898 493d
00000180: 9202 103c ee96 db3d f192 1c3d 8cac be3d
00000190: 2bc4 c8bb 24be 073e f698 05bd 9565 803d
000001a0: 1e71 34bd ffcb 9f3d b62f 78bd cfc3 9f3d
000001b0: b3dc e5bd 14eb 7ebc 9bba ae3d 4a06 3dbd
000001c0: 2d80 453d d9a3 463c af53 b43d 6d5f 853d
000001d0: f117 eb3d a3de bfbd 3ae0 52bd 30b4 673d
000001e0: 048d 08be be44 f8bd 6081 75bd a124 fdbd
000001f0: 5bd4 02be 65d1 683d 6b16 c13d 88a9 a33d
00000200: 5e2c 13be f91e 0fbe 1a84 ffbb b7c7 2f3d
00000210: b65e abbb d730 0d3d 3300 e9bd df30 4bbc
00000220: 9f7f 2cbc 9d7d 493d 7ce2 a7bc 00d8 8ebd
00000230: daac dabd 00e9 e7bd a873 87bc f523 12be
00000240: 681d 11be c451 81bb ca8d 0abe ad3e 793d
00000250: ebcb 6d3d 3f7a a8bc 3010 4e3d 9b66 18be
00000260: d911 0dbe b5fc e33d d803 21bc 5aa6 d43d
00000270: 504b efbd 71aa 753d 363f f7bd 7aab 053e
00000280: 8ea8 533d 4d92 4ebd 5a1b 133e f16a bfbd
00000290: 4a74 23bd e6c2 bcbc dbbb f4bb b62a 89bd
000002a0: bdfb 1bbe 18d3 97bd 99b7 0a3d 8cb5 173e
000002b0: 53a7 1dbd c893 b53d 7676 c1bd 2b28 ea3d
000002c0: cf6a 9e3d 23f6 923d 99df d2bd 2c54 833d
000002d0: 9d59 10be c8cb b6bd 0d77 d6bd 02bd 84bd
000002e0: 85da fbbd c840 943c 1a4a 483c 8e29 c3bd
000002f0: 8f06 263d e216 a23d bed3 123e 2163 b6bc
00000300: 62dc 18be 822f f33c 8c01 56bd ae92 053e
00000310: 923f e3bd 1131 3abd 6508 203d 0604 433d
00000320: 2c6c da3d 50a1 22bd 8cee 54bc bb88 973d
00000330: 3034 2e3d b354 ffbd a8cc 073e 2200 463d
00000340: dc35 b53d 09ea 81bc 738b fa3d 146f 05bd
00000350: 2518 84bd 4e91 e73c 7d71 9c3d 7e1d fcbc
00000360: 770b 26bd 1bf5 90bd 3e59 f1bd 11f3 e4bd
00000370: c39e f2bd 2e47 b1bd 492b fc3d 6df0 013e
00000380: 3a6e 8d3d 1c2d 9cbd 358b a3bd 1210 143d
00000390: a130 edbd 6428 ebbd 69ab 73bd 03ea ef3d
000003a0: d6b3 5bbd 07e6 20bd 1422 a6bc b35a 9dbd
000003b0: 58c9 e7bd e472 0c3d 8ede 73bd 03be 11bd
000003c0: 1f1d 9abd 8087 b93d ceca 52bc 3a8f 50bc
000003d0: cba7 3dbc 74b5 99bd c4ed c0bd a916 bebc
000003e0: f7f2 073e 697e 04be 2b30 efbd e560 853c
000003f0: 7fda 08bd 4856 82bd 6bc0 2b3d 1009 98bc

blocks.0.gate_conv.conv.bias f4 [64]
0.0050967853 -0.003949611 -0.0007639681 -0.0056466805 -0.00071913115 0.0012714138 -0.0058708196 0.005956895
0.0033752238 0.0010909762 0.0013736387 -0.0022417272 0.0032427064 0.00078322756 -0.0018945304 -0.0016841796
-0.0029083586 -0.003126642 0.001991483 -0.00076882704 0.002670487 0.0021156527 -0.0007524947 -0.0031180563
0.0046224403 0.0066191037 0.0034614736 -0.00057141925 -0.005733209 0.001015154 -0.0042928937 0.002609768
-0.008398021 -0.0006216158 -0.00243668 0.0019261345 0.0007615987 0.0016495374 -0.0010944664 -0.0005986221
-0.0012617663 -0.0014722826 0.00052999356 0.0074189506 -0.004262059 0.0037289648 -0.004342723 -0.0038388434
0.0007999187 -0.008143 0.0024163283 0.005130567 -0.005636139 -0.0036002055 0.0002476619 0.0030277253
-0.0030888568 -0.008086205 -0.004102023 -0.006110819 -0.0030386911 0.0012903829 -0.0036263156 0.0002690156
00000000: ef02 a73b bd6b 81bb 0845 48ba ca07 b9bb
00000010: 1384 3cba 91a5 a63a 0160 c0bb 0f32 c33b
00000020: dc32 5d3b 16ff 8e3a ab0b b43a f1e9 12bb
00000030: 9683 543b 8351 4d3a e451 f8ba b1bf dcba
00000040: 299a 3ebb 59e8 4cbb 8a83 023b 1c8b 49ba
00000050: 5603 2f3b c3a6 0a3b 1143 45ba 4e58 4cbb
00000060: d777 973b 11e5 d83b e4d9 623b 4ccb 15ba
00000070: a5dd bbbb ea0e 853a 67ab 8cbb a408 2b3b
00000080: da97 09bc eef3 22ba b5b0 1fbb 5976 fc3a
00000090: 06a6 473a 4a35 d83a 3374 8fba d9ec 1cba
000000a0: da61 a5ba 9bf9 c0ba 44ef 0a3a ab1a f33b
000000b0: bea8 8bbb a661 743b 674d 8ebb 1b95 7bbb
000000c0: a3b1 513a 386a 05bc 435b 1e3b 511e a83b
000000d0: 5caf b8bb 6df1 6bbb 9ed8 8139 cd6c 463b
000000e0: 6b6e 4abb 017c 04bc 436a 86bb 443d c8bb
000000f0: c724 47bb 1122 a93a 7ba7 6dbb aa0a 8d39

blocks.0.residual_conv.weight f4 [64, 64, 1, 1]
0.07082759 -0.05162875 -0.077802636 0.16324379 0.19897118 -0.10242034 0.030680655 0.09598722
-0.16949555 0.13176857 0.042479176 0.19613123 0.04510494 0.19723931 -0.114467196 0.19903265
-0.06408929 0.19090313 0.025003718 0.16871296 -0.18052897 -0.13346563 0.17788438 0.06908393
-0.07266557 0.18535626 -0.117765725 0.18899147 0.19860873 -0.21533489 0.12871441 -0.0045677824
-0.12551376 0.13426583 0.16166127 0.121329 -0.11984616 0.17880306 -0.19148053 0.014894657
0.15891615 -0.003953767 -0.1312776 -0.04529973 -0.17194708 0.20319633 0.058544926 0.0010881267
0.04740212 -0.18312052 0.1078445 0.21826321 0.105514154 0.16684943 -0.15195012 0.19123866
0.1269857 -0.13792247 -0.12667285 0.193444 -0.09238569 -0.026580427 -0.19967054 -0.15583654
-0.059229102 -0.13645229 -0.091572344 -0.17251667 -0.21078151 -0.15930079 -0.1625579 -0.1641918
-0.13752502 -0.039307896 0.18650398 -0.028205972 0.19966856 0.13422903 0.21122865 0.17868118
0.107194915 -0.11236686 0.11729805 0.17557776 0.024730349 -0.20192333 0.011479852 -0.024813093
0.21621719 0.11937015 -0.03676997 0.14359453 0.061025497 0.117335394 0.16897278 -0.11601679
-0.18800882 0.1943887 -0.03849566 -0.14654893 0.17688504 -0.15741464 -0.14446226 0.13891537
-0.20228378 -0.025750132 -0.16757153 0.19401495 0.20680991 -0.053642258 0.1549949 0.19942051
-0.12230628 0.023402866 -0.067160815 -0.079525866 0.21450971 -0.051286865 -0.108661465 0.030035444
-0.07556654 0.14679284 -0.16643949 0.11912311 0.15585774 0.0002769912 0.114269234 0.17298868
-0.13785666 -0.21068107 0.050738778 0.015946053 -0.20697682 -0.16088086 -0.00096161896 -0.21719594
-0.15274589 -0.019968746 -0.026712917 0.22085254 0.12864389 0.061736092 -0.1548613 -0.18782341
-0.20000495 0.074695036 0.060638346 -0.20001696 -0.13268207 -0.1931315 -0.18443458 0.21359746
-0.1965513 0.0606344 -0.10392675 -0.21116897 -0.047488146 -0.11976312 0.10733892 0.0019121151
-0.18292786 0.20795494 0.09055035 0.04255834 0.039784353 -0.011920266 0.11821921 0.07201769
-0.10862519 -0.004719114 -0.060980644 0.17538135 -0.031081019 0.1388584 -0.041247405 -0.031291507
-0.09977113 0.10014611 0.19280946 0.14345886 -0.014991049 0.16946134 -0.056531142 -0.035778526
-0.07695547 -0.1409709 -0.07915472 0.10176711 -0.16286276 -0.123889536 0.024958443 0.13245334
-0.0006971002 0.16206402 0.20861812 -0.14311393 0.20979986 0.09044907 0.030628596 0.1780922
-0.0085269455 0.048784547 -0.12801397 0.0050424146 -0.019245373 0.12684245 0.100815855 0.09608963
0.033950575 0.033254545 -0.07750776 0.14675204 0.1362852 0.08960481 0.119577356 -0.012574906
0.025272038 0.041186724 -0.06476675 -0.13440076 -0.044518724 -0.14783281 0.0069532455 0.021620335
0.17505334 -0.09789906 -0.056956675 -0.12944728 -0.16194063 -0.10738118 0.005176932 -0.00130673
-0.19717741 0.010274915 -0.13357578 0.08026423 -0.08059069 -0.18475367 0.095255084 -0.016792955
0.17794745 -0.03192004 -0.13561475 0.039934624 0.010283679 0.15240146 0.122827455 -0.20354988
0.2102071 0.17225486 0.035997838 0.136242 0.181081 -0.11371851 -0.14680767 -0.13514604
00000000: 0e0e 913d ab78 53bd fd56 9fbd 6129 273e
00000010: 1abf 4b3e c1c1 d1bd ff55 fb3c f394 c43d
00000020: 3e90 2dbe 57ee 063e a5fe 2d3d a0d6 483e
00000030: f5bf 383d 1af9 493e c76d eabd 37cf 4b3e
00000040: 3f41 83bd 1c7c 433e 99d4 cc3c 17c3 2c3e
00000050: 96dc 38be 37ab 08be 5327 363e e07b 8d3d
00000060: b0d1 94bd 08ce 3d3e 282f f1bd fb86 413e
00000070: 1660 4b3e c080 5cbe b6cd 033e 56ad 95bb
00000080: ae86 00be fb7c 093e 888a 253e 577b f83d
00000090: e771 f5bd 2618 373e 7913 44be b808 743c
000000a0: eaba 223e 9a8e 81bb a36d 06be 368c 39bd
000000b0: e512 30be b312 503e cecc 6f3d 799f 8e3a
000000c0: ba28 423d f283 3bbe 94dd dc3d 6480 5f3e
000000d0: ce17 d83d 94da 2a3e d098 1bbe 11d4 433e
000000e0: 8a08 023e 8c3b 0dbe 87b6 01be 2f16 463e
000000f0: b534 bdbd 32bf d9bc 6f76 4cbe 9d93 1fbe
00000100: 379a 72bd 26ba 0bbe 488a bbbd 36a8 30be
00000110: 1cd7 57be bf1f 23be 9475 26be e521 28be
00000120: 5cd3 0cbe 5101 21bd e6fa 3e3e 3610 e7bc
00000130: ea75 4c3e 5673 093e 534c 583e 33f8 363e
00000140: 0289 db3d 9920 e6bd f639 f03d a8ca 333e
00000150: 4d97 ca3c fdc4 4ebe fd15 3c3c d444 cbbc
00000160: 0a68 5d3e 5678 f43d 1c9c 16bd 720a 133e
00000170: dff5 793d 8a4d f03d 3307 2d3e 369a edbd
00000180: 6285 40be d50d 473e a0ad 1dbd ec10 16be
00000190: 5a21 353e 4e31 21be eaed 13be d53f 0e3e
000001a0: 7b23 4fbe f1f1 d2bc df97 2bbe dbab 463e
000001b0: fac5 533e fcb7 5bbd fcb6 1e3e e434 4c3e
000001c0: b77b fabd 5eb7 bf3c 9c8b 89bd 75de a2bd
000001d0: 6fa8 5b3e 2d12 52bd e789 debd e40c f63c
000001e0: a1c2 9abd dd50 163e 1d6f 2abe d1f6 f33d
000001f0: 2c99 1f3e 2139 9139 fd05 ea3d f223 313e
00000200: 4c2a 0dbe c7bc 57be 77d3 4f3d 4ca1 823c
00000210: bbf1 53be f4bd 24be 2815 7cba 9d68 5ebe
00000220: 6b69 1cbe 7f95 a3bc 0cd5 dabc 2b27 623e
00000230: 39bb 033e fcde 7c3d f693 1ebe c854 40be
00000240: 19ce 4cbe b6f9 983d ea5f 783d 3fd1 4cbe
00000250: cfdd 07be 44c4 45be 6bdc 3cbe 4bb9 5a3e
00000260: be44 49be c75b 783d 8cd7 d4bd ae3c 58be
00000270: ee82 42bd 5e46 f5bd 82d4 db3d f09f fa3a
00000280: 7151 3bbe 24f2 543e 7672 b93d a751 2e3d
00000290: ebf4 223d 384d 43bc ea1c f23d 037e 933d
000002a0: e276 debd cca2 9abb d7c6 79bd 2b97 333e
000002b0: 9f9d febc e530 0e3e 0af3 28bd 862b 00bd
000002c0: ce54 ccbd 6719 cd3d d86f 453e e1e6 123e
000002d0: 049d 75bc 4687 2d3e 338d 67bd 818c 12bd
000002e0: d49a 9dbd ad5a 10be df1b a2bd 466b d03d
000002f0: 7fc5 26be ccb9 fdbd a675 cc3c d9a1 073e
00000300: 9abd 36ba 1cf4 253e fd9f 553e 758c 12be
00000310: c6d5 563e 5d3d b93d d2e8 fa3c cd5d 363e
00000320: 9ab4 0bbc 4ed2 473d 1816 03be d73a a53b
00000330: 79a8 9dbc fde2 013e 8b78 ce3d a4ca c43d
00000340: c20f 0b3d eb35 083d 63bc 9ebd 2b46 163e
00000350: 598e 0b3e ba82 b73d f9e4 f43d fb06 4ebc
00000360: 4e07 cf3c 69b3 283d 6ea4 84bd 5aa0 09be
00000370: 4459 36bd 7c61 17be 0dd8 e33b 211d b13c
00000380: 2f41 333e 4d7f c8bd 674b 69bd d48d 04be
00000390: c4d3 25be aaea dbbd 41a3 a93b 9546 abba
000003a0: e0e8 49be 1e58 283c 17c8 08be 9361 a43d
000003b0: bb0c a5bd 1130 3dbe 1915 c33d 6191 89bc
000003c0: db37 363e 96be 02bd 98de 0abe 7d92 233d
000003d0: e07c 283c 210f 1c3e f68c fb3d 616f 50be
000003e0: 8840 573e 9463 303e 7872 133d 0683 0b3e
000003f0: 4c6d 393e 40e5 e8bd c054 16be b963 0abe

blocks.0.residual_conv.bias f4 [64]
0.0020698356 -0.005223564 0.0052330447 -0.00016229323 -0.0012588678 -0.0077499836 -0.008776931 -0.00012968082
-0.008770002 0.002747947 0.0055953087 0.0011922718 0.002097278 -0.013802857 -8.684836e-05 -0.0021344412
-0.004515125 0.0061379718 -0.0002081489 0.0003114612 0.0050186175 0.0032565896 -0.0023112032 0.010507842
0.0055433465 -0.0033654596 -0.0064429147 -0.0013273932 0.012671655 0.0014285133 -0.0056659845 -0.009700845
-0.0048339283 0.0017387279 0.0054926956 -0.010300923 0.0036478157 0.007521284 -0.008313463 0.0051962715
0.0056741117 0.0012897203 -0.001232181 0.0022858249 -0.007493245 -0.00506325 -0.00079508 0.0029413598
-0.0074562575 -0.0017293821 0.0032255698 -0.006577442 -0.0050307163 0.007849849 -0.008395755 -0.0060651703
-0.0029650016 -0.0036121053 -0.0013355245 0.008493146 -0.009594349 0.0030882359 0.0017538036 0.011019028
00000000: 14a6 073b 6e2a abbb f679 ab3b 422d 2ab9
00000010: 9800 a5ba 93f3 fdbb 1ecd 0fbc eefa 07b9
00000020: 0eb0 0fbc e616 343b da58 b73b 0146 9c3a
00000030: 7c72 093b 6125 62bc 5c22 b6b8 fbe1 0bbb
00000040: 9df3 93bb 0a21 c93b 8b42 5ab9 9d4b a339
00000050: 3773 a43b 826c 553b 8e77 17bb 1529 2c3c
00000060: f6a4 b53b 0b8f 5cbb 161f d3bb edfb adba
00000070: c69c 4f3c f43c bb3a b9a9 b9bb 4bf0 1ebc
00000080: ee65 9ebb 07e6 e33a 12fc b33b 34c5 28bc
00000090: 3110 6f3b 1a75 f63b 3135 08bc 7c45 aa3b
000000a0: e6ed b93b d50b a93a 2281 a1ba c7cd 153b
000000b0: e589 f5bb 9fe9 a5bb ea6c 50ba d4c3 403b
000000c0: 9f53 f4bb 6fac e2ba 1564 533b 9587 d7bb
000000d0: b5d8 a4bb a79c 003c 598e 09bc 56be c6bb
000000e0: 7950 42bb 12b9 6cbb c40c afba d626 0b3c
000000f0: 9e31 1dbc 0064 4a3b e2df e53a 2789 343c

blocks.0.skip_conv.weight f4 [128, 64, 1, 1]
-0.15880935 -0.11983998 0.033205453 -0.09636749 0.115900695 0.14760916 0.15682964 0.17676029
0.1521194 0.105810896 0.09551689 -0.03824626 -0.17583142 0.09574098 0.02780822 0.019412065
0.033045482 -0.12397685 0.023192069 0.16557972 0.034353346 -0.037029084 0.07293181 0.016014162
-0.11284468 0.13839921 -0.008016801 -0.042263437 0.03158853 0.102239564 -0.09899185 0.11207462
0.10404093 0.07035784 0.11080671 0.12727265 0.01365479 0.1009559 0.1288074 -0.023464521
0.033010636 0.10394227 -0.14823382 0.12399279 -0.07490043 0.028521499 -0.1542972 -0.08578361
-0.030562563 -0.1417717 -0.098564796 0.061219715 -0.033154577 -0.11787237 -0.0626811 -0.0106410235
0.050321147 0.16387534 -0.015005461 -0.028351989 -0.04120941 0.017259177 0.13137223 0.17207448
-0.03809321 -0.018639084 -0.057836033 0.12104415 -0.07313024 -0.032230053 -0.16713549 0.06617864
-0.07881642 -0.14652401 -0.11811288 -0.1592644 -0.08360197 0.09040724 -0.029970754 -0.06798479
0.035339005 -0.03186859 0.087941386 -0.07182491 0.10906624 0.10107784 0.05197016 0.113200285
0.09833036 -0.13241708 -0.1015901 0.04011556 0.15683162 0.02932473 0.121803135 0.14589182
-0.11751607 0.09358198 -0.1363336 0.14170764 -0.09257529 0.008936427 0.108036675 -0.011930187
-0.14199717 -0.07173807 -0.1448583 -0.11716763 0.17229581 -0.0652844 0.105667524 -0.066410676
-0.08805806 0.0007800964 0.011506392 0.045826808 0.089380294 -0.12129339 -0.16075402 -0.1672919
0.14341699 0.09069986 -0.019933889 0.12760471 0.13030712 -0.096234575 -0.05959917 -0.04772812
0.16744593 0.13044307 -0.092421144 -0.14738832 0.07452816 -0.1186047 -0.14665727 -0.16714795
0.13900343 -0.1528446 -0.11059565 0.0014525369 -0.027383266 -0.121353 -0.05999404 -0.12594
0.15802523 0.044084575 -0.0863863 -0.006702639 0.1442096 -0.001813065 -0.16660398 0.016718715
-0.0939918 -0.046879042 -0.030371146 0.09859203 0.15675251 0.064710416 0.09199833 -0.020918185
-0.09881845 0.026593644 -0.0934548 0.04103976 0.0048702187 0.03967323 0.006185487 0.16341037
0.10896672 0.047882732 0.066029616 0.1261443 0.14920034 0.061539784 0.12052402 0.059700582
0.031517077 -0.098572895 0.132158 0.0056945756 0.06618829 -0.061328378 0.14021622 -0.010030147
-0.14696382 0.17842874 -0.026873501 0.17278582 -0.1539774 0.052984737 -0.015951104 -0.057944544
0.041717857 -0.017772753 0.116629444 0.0883028 -0.14061117 -0.07932423 0.06967992 -0.046274457
-0.025202993 0.0003734911 -0.053614788 0.07607407 -0.1218317 -0.049693912 -0.05009694 0.070981964
-0.008368968 -0.1287133 -0.12250724 -0.16366468 -0.029392393 -0.036501013 0.12968381 -0.13220416
-0.14560121 0.15110739 0.04158794 0.03093455 -0.14402089 0.06919658 -0.061000273 -0.1201976
-0.16441315 -0.17692481 -0.12872425 -0.10411794 0.114413284 -0.1347833 -0.03285403 -0.006742947
0.11679874 0.042417355 0.16892934 -0.15860535 -0.053094406 0.13972475 0.16414768 -0.010447943
-0.011166623 0.1478543 0.001029885 0.07154156 -0.07738508 -0.04284945 0.16676685 -0.1811104
-0.09808055 0.00063022703 0.031452116 -0.13388868 0.06205536 -0.035720967 0.100385346 -0.09910306
00000000: eb9e 22be aa6e f5bd 7102 083d 525c c5bd
00000010: 585d ed3d db26 173e f397 203e a600 353e
00000020: 30c5 1b3e 62b3 d83d 5c9e c33d 1ca8 1cbd
00000030: 270d 34be d913 c43d 10ce e33c 0d06 9f3c
00000040: b35a 073d 93e7 fdbd 4bfd bd3c bb8d 293e
00000050: 18b6 0c3d cfab 17bd 465d 953d 2230 833c
00000060: 1d1b e7bd 86b8 0d3e e758 03bc 6d1c 2dbd
00000070: f962 013d fa62 d13d 3dbc cabd 6187 e53d
00000080: 6913 d53d c517 903d a1ee e23d c353 023e
00000090: 57b8 5f3c f8c1 ce3d 16e6 033e ab38 c0bc
000000a0: 2936 073d afdf d43d 9bca 17be efef fd3d
000000b0: 6665 99bd eba5 e93c 1600 1ebe 51af afbd
000000c0: 575e fabc 9a2c 11be 57dc c9bd 86c1 7a3d
000000d0: 18cd 07bd 1267 f1bd f35e 80bd b057 2ebc
000000e0: 8c1d 4e3d f0ce 273e 77d9 75bc 6e42 e8bc
000000f0: 33cb 28bd 1e63 8d3c 7186 063e 4b34 303e
00000100: a007 1cbd feb0 98bc 7ae5 6cbd ffe5 f73d
00000110: 4fc5 95bd a903 04bd 9125 2bbe ab88 873d
00000120: 816a a1bd 640a 16be 2ae5 f1bd 3516 23be
00000130: 8237 abbd 6e27 b93d 3a85 f5bc 9c3b 8bbd
00000140: a2bf 103d a388 02bd 9d1a b43d f018 93bd
00000150: 1f5e df3d e601 cf3d aade 543d 8dd5 e73d
00000160: 6e61 c93d 5898 07be 780e d0bd 3750 243d
00000170: 7898 203e 6b3a f03c ec73 f93d aa64 153e
00000180: 44ac f0bd e9a7 bf3d 099b 0bbe cf1b 113e
00000190: 1d98 bdbd 176a 123c 5542 dd3d d576 43bc
000001a0: b567 11be 69eb 92bd bc55 14be 95f5 efbd
000001b0: 506e 303e d4b3 85bd 3768 d83d 5202 88bd
000001c0: c957 b4bd 627f 4c3a 4e85 3c3c e4b4 3b3d
000001d0: 040d b73d ab68 f8bd b49c 24be 914e 2bbe
000001e0: e7db 123e d9c0 b93d 654c a3bc cfaa 023e
000001f0: 3b6f 053e a216 c5bd 421e 74bd 907e 43bd
00000200: f276 2b3e de92 053e 4c47 bdbd f7ec 16be
00000210: 38a2 983d 05e7 f2bd 532d 16be d528 2bbe
00000220: ea56 0e3e 4b83 1cbe f97f e2bd 0d63 be3a
00000230: df52 e0bc ec87 f8bd 4fbc 75bd 6af6 00be
00000240: 5ed1 213e 0792 343d 4deb b0bd d0a1 dbbb
00000250: aeab 133e 5ea4 edba 3c9a 2abe b0f5 883c
00000260: c67e c0bd 3d04 40bd e9cc f8bc 9eea c93d
00000270: bb83 203e e586 843d 9f69 bc3d 9d5c abbc
00000280: 5461 cabd eada d93c 3b65 bfbd 4f19 283d
00000290: 5b96 9f3b 6680 223d a0af ca3b 0c55 273e
000002a0: f229 df3d af20 443d 893a 873d f92b 013e
000002b0: f9c7 183e 2411 7c3d 4cd5 f63d 9988 743d
000002c0: 0d18 013d 96e0 c9bd 6d54 073e 9099 ba3b
000002d0: ba8d 873d 7733 7bbd d794 0f3e 7c55 24bc
000002e0: af7d 16be 06b6 363e d125 dcbc c4ee 303e
000002f0: 40ac 1dbe 8606 593d e4ab 82bc 4257 6dbd
00000300: 58e0 2a3d 2a98 91bc 6bdb ee3d 19d8 b43d
00000310: 60fc 0fbe be74 a2bd 59b4 8e3d 498a 3dbd
00000320: 8276 cebc 20d1 c339 2e9b 5bbd b9cc 9b3d
00000330: e682 f9bd d88b 4bbd 7332 4dbd fe5e 913d
00000340: ff1d 09bc 6bcd 03be 13e5 fabd b797 27be
00000350: 51c8 f0bc 1682 15bd d5cb 043e 8760 07be
00000360: 7c18 15be e5bb 1a3e 1e58 2a3d 746a fd3c
00000370: 367a 13be f0b6 8d3d 6cdb 79bd 292a f6bd
00000380: ec5b 28be c72b 35be 4ad0 03be c93b d5bd
00000390: 8351 ea3d a204 0abe f391 06bd f0f3 dcbb
000003a0: 2e34 ef3d d2bd 2d3d d0fb 2c3e 7169 22be
000003b0: 8579 59bd 0114 0f3e 5416 283e d92d 2bbc
000003c0: 36f4 36bc 1e67 173e 35fd 863a 6284 923d
000003d0: 127c 9ebd e882 2fbd eec4 2a3e 0175 39be
000003e0: 75de c8bd d235 253a efd3 003d 1d1a 09be
000003f0: c32d 7e3d 2650 12bd d596 cd3d 8cf6 cabd

blocks.0.skip_conv.bias f4 [128]
-0.003919217 0.0005311194 0.0043417052 0.0017741175 0.004945456 0.005340665 -0.0025643227 0.0026915302
0.0026060243 -0.0003997818 -0.0012665357 0.00542074 -0.0072252643 0.004143649 -0.005931437 -0.005484256
0.0012837846 -0.004026629 0.00082690787 -0.0052061263 0.0030370192 -0.001855042 0.0016416345 0.009412083
0.0015145738 -0.00083732425 -0.0006807573 0.0018177108 0.0024550643 -0.0023694083 -0.004763103 -0.0004826921
-0.0021588944 0.007084912 0.0041498938 0.007404898 0.002500083 -0.0043298053 -0.005715853 0.0023701487
0.0056907386 -0.0021778808 0.001238107 0.011312894 -0.0033926005 -0.00046706188 0.0057913763 0.005060402
0.0025247089 -0.0024859142 0.0034059978 0.0048347265 0.0014491201 0.0058300556 -0.0032588125 -0.0025608807
0.0017895714 0.0031692416 0.007844838 -0.0013425513 -0.005445082 0.005952064 -0.0005915616 0.0060261413
-0.0015904469 0.000848777 -0.0034998858 0.0005677664 0.0004034726 -0.004749225 0.005808705 0.0043267403
-0.0040705753 -0.00015745936 0.006289425 -0.0060888976 -0.0055023152 0.0020115564 -0.006290226 -0.0068027927
-0.0025234954 -0.0028068507 0.0030663675 -0.0019775152 -0.0008893519 -0.006258073 0.0035537689 -0.0014849292
-0.0029822001 0.0054995106 0.0029293972 0.0021155367 0.0022182185 -0.00047835725 0.003861759 -0.0019386353
0.00032061047 -0.0036179938 0.0067158975 -0.0021230027 0.004601938 0.0022163177 -0.0022413498 0.0009843956
-0.0017180872 -0.00386866 -0.005202104 0.0022294805 -0.0043082964 0.006701769 -0.00058180495 -0.006042702
0.0017779446 0.0046856496 -0.0025918642 0.0015323131 -0.0009347946 0.0007058332 -0.004642193 -0.0011391027
0.0066819424 0.0057728053 -0.0019314017 -0.0043256404 0.0050363056 -0.00013455978 0.004251894 0.0005165673
00000000: c66c 80bb d23a 0b3a dd44 8e3b 8189 e83a
00000010: 7e0d a23b bf00 af3b 320e 28bb 6264 303b
00000020: d5c9 2a3b ce99 d1b9 e301 a6ba 77a0 b13b
00000030: e9c1 ecbb 72c7 873b 805c c2bb 46b5 b3bb
00000040: aa44 a83a d0f1 83bb d9c4 583a 2798 aabb
00000050: ba08 473b e124 f3ba 1d2c d73a 2335 1a3c
00000060: aa84 c63a e17f 5bba d974 32ba 4140 ee3a
00000070: 25e5 203b 1348 1bbb ce13 9cbb d611 fdb9
00000080: 3d7c 0dbb 8d28 e83b d5fb 873b c9a4 f23b
00000090: 6fd8 233b 0ae1 8dbb 0d4c bbbb 7f54 1b3b
000000a0: 6079 ba3b c7ba 0ebb fa47 a23a b759 393c
000000b0: 6456 5ebb fcdf f4b9 96c5 bd3b bbd1 a53b
000000c0: 9675 253b b8ea 22bb 2937 5f3b a06c 9e3b
000000d0: 67f0 bd3a 0d0a bf3b cd91 55bb 73d4 27bb
000000e0: 0d90 ea3a 0db3 4f3b a387 003c 8cf8 afba
000000f0: a96c b2bb 8809 c33b 0713 1bba f076 c53b
00000100: 8b76 d0ba 7680 5e3a 575e 65bb 28d6 143a
00000110: 2d89 d339 639f 9bbb f356 be3b 54c7 8d3b
00000120: 7662 85bb ad1b 25b9 8517 ce3b 6085 c7bb
00000130: c44c b4bb 51d4 033b 3d1e cebb f6e9 debb
00000140: 3a61 25bb 24f3 37bb 1cf5 483b 3399 01bb
00000150: 6523 69ba 8510 cdbb 59e6 683b f5a1 c2ba
00000160: 0471 43bb 3d35 b43b 21fb 3f3b d1a4 0a3b
00000170: 885f 113b 06cc fab9 9115 7d3b ce19 feba
00000180: 9c17 a839 dd1b 6dbb 0811 dc3b 1322 0bbb
00000190: dbcb 963b a43f 113b 9ce3 12bb d606 813a
000001a0: 7131 e1ba 5889 7dbb 6976 aabb 7a1c 123b
000001b0: 9c2c 8dbb 839a db3b 4584 18ba dc01 c6bb
000001c0: ec09 e93a 148a 993b 44dc 29bb e5d7 c83a
000001d0: 010d 75ba aa07 393a 8a1d 98bb f24d 95ba
000001e0: 32f4 da3b cd29 bd3b 1627 fdba 1abe 8dbb
000001f0: 9807 a53b 9e18 0db9 7953 8b3b 3f6a 073a

blocks.0.bn.weight f4 [64]
1.0020365 0.9969004 1.0055884 0.9911825 1.0006392 0.99816364 0.99353707 1.0007026
1.0003449 1.0018616 1.0005426 0.9963609 1.0077009 0.997808 1.0044421 0.9945566
0.99511415 1.0044415 0.9991797 1.0018648 1.0015901 1.0034124 0.9990153 0.99797565
1.0024359 0.9943296 1.0017155 1.0027747 1.0009775 1.0025817 0.9897887 1.0025617
1.0059866 0.9940132 1.0021062 1.0006006 1.0038182 0.9959437 1.0093079 1.0040869
0.99718463 1.0046926 1.0059266 0.9960245 0.9991059 1.0035496 0.99544895 1.0008289
1.00508 1.007336 1.0056902 1.0007697 0.99276537 0.99808556 1.0026158 1.0052634
1.0027646 1.0008783 0.9980454 1.0004685 0.99890465 1.0031217 1.0013337 0.989363
00000000: bb42 803f dd34 7f3f 1fb7 803f 23be 7d3f
00000010: f214 803f a787 7f3f 7258 7e3f 0617 803f
00000020: 4d0b 803f 003d 803f c811 803f 8211 7f3f
00000030: 58fc 803f 5870 7f3f 8f91 803f 439b 7e3f
00000040: cdbf 7e3f 8a91 803f 3eca 7f3f 1b3d 803f
00000050: 1b34 803f d16f 803f 77bf 7f3f 557b 7f3f
00000060: d24f 803f 628c 7e3f 3738 803f ec5a 803f
00000070: 0820 803f 9954 803f cb62 7d3f f153 803f
00000080: 2bc4 803f a677 7e3f 0445 803f ae13 803f
00000090: 1d7d 803f 2bf6 7e3f 0031 813f eb85 803f
000000a0: 7e47 7f3f c499 803f 34c2 803f 76fb 7e3f
000000b0: 67c5 7f3f 5074 803f bed5 7e3f 291b 803f
000000c0: 76a6 803f 63f0 803f 75ba 803f 3919 803f
000000d0: df25 7e3f 8982 7f3f b755 803f 79ac 803f
000000e0: 975a 803f c81c 803f e77f 7f3f 5a0f 803f
000000f0: 37b8 7f3f 4b66 803f b42b 803f e546 7d3f

blocks.0.bn.bias f4 [64]
-0.0025419977 -0.002337404 0.0029868402 -0.0050483146 0.0048243026 -0.0020766463 -0.008340595 0.003319715
-0.0016907064 -0.0068794987 -0.0008616549 -0.005808621 0.004357606 -0.006580734 0.0015160458 0.0037071933
-0.0015627019 -0.0027308878 -0.005626219 -0.0043778704 0.0053692553 0.0065925005 0.0020196112 0.00076433935
-0.0012049254 0.0050278683 0.0006881842 0.0016830441 0.011345516 -5.8926482e-05 0.0012785571 -0.006566661
0.0009431734 -0.010140891 0.004091253 -0.0019600037 -0.00093900296 0.0019479856 -0.002745918 -0.00028113363
0.0025333595 0.0041699563 -0.0024115767 -0.00065187836 -0.0034136286 -0.0021329615 -0.00042186864 -0.004026966
-0.008107207 0.009134508 -0.0005805448 -0.007721621 -0.00571479 -0.006315692 -0.0072815 -0.0015788205
-0.008384172 0.0066879555 0.0014566611 0.004222745 -0.0035288502 0.0026852763 0.0007637321 0.004721741
00000000: a597 26bb 222f 19bb ddbe 433b 556c a5bb
00000010: 2f15 9e3b 5818 08bb fea6 08bc 938f 593b
00000020: b19a ddba 6b6d e1bb aee0 61ba 3f56 bebb
00000030: 40ca 8e3b 33a3 d7bb 0eb6 c63a 62f4 723b
00000040: 93d3 ccba b2f8 32bb 255c b8bb 3d74 8fbb
00000050: 94f0 af3b e705 d83b 745b 043b f25d 483a
00000060: 96ee 9dba d1c0 a43b 4367 343a 9799 dc3a
00000070: 8be2 393c d427 77b8 4295 a73a 252d d7bb
00000080: 4c3f 773a fb25 26bc eb0f 863b 6873 00bb
00000090: 6c27 76ba 8d53 ff3a dcf4 33bb 1e65 93b9
000000a0: b806 263b 21a4 883b 8b0b 1ebb d1e2 2aba
000000b0: 2fb7 5fbb 28c9 0bbb 402e ddb9 a4f4 83bb
000000c0: 17d4 04bc e7a8 153c b42f 18ba a705 fdbb
000000d0: 2243 bbbb ddf3 cebb a699 eebb 6df0 ceba
000000e0: c45d 09bc a326 db3b 70ed be3a f45e 8a3b
000000f0: 4844 67bb 76fb 2f3b 3235 483a d6b8 9a3b

blocks.0.bn.running_mean f4 [64]
-0.0066842237 -0.096715085 0.10971844 -0.0016863723 0.11600788 0.1621404 -0.0057043955 0.06480721
-0.0063363966 0.15935887 -0.08456235 -0.04209484 -0.07002568 -0.07314351 0.094621964 0.08427422
-0.016627053 -0.048964776 -0.03957579 -0.013114039 -0.014192537 0.015151375 -0.024774352 0.013557424
0.056228634 0.124943614 0.0060041766 -0.01890297 -0.068390645 0.14657238 -0.06515297 -0.017659616
0.024180485 0.01864924 0.09333471 0.050024066 0.110337734 0.0466064 0.014941261 0.040995196
-0.118853346 0.036109183 0.06043977 -0.12548432 -0.010685311 0.0011864768 -0.047362454 0.10913365
0.05671312 -0.1987929 -0.058518305 0.054108176 -0.06722957 0.030726222 0.07280038 0.027611457
0.11927053 -0.045034178 -0.082801044 0.004823041 0.07251881 0.06962981 0.11104626 0.059701145
00000000: 5507 dbbb 8f12 c6bd 10b4 e03d 4409 ddba
00000010: 8a95 ed3d 2208 263e f0eb babb a4b9 843d
00000020: 8ca1 cfbb f92e 233e 062f adbd a46b 2cbd
00000030: a069 8fbd 44cc 95bd 29c9 c13d f697 ac3d
00000040: 7535 88bc 4a8f 48bd 391a 22bd 44dc 56bc
00000050: d187 68bc 793d 783c 95f3 cabc f51f 5e3c
00000060: ff4f 663d 70e2 ff3d afbe c43b 67da 9abc
00000070: 6510 8cbd 1217 163e ec6e 85bd e6aa 90bc
00000080: 2716 c63c 4ac6 983c 4526 bf3d 09e6 4c3d
00000090: c0f8 e13d 5ae6 3e3d 31cc 743c 94ea 273d
000000a0: 6269 f3bd 39e7 133d b18f 773d f67e 00be
000000b0: 7111 2fbc 8e83 9b3a 22ff 41bd 7781 df3d
000000c0: 044c 683d 5e90 4bbe e4b0 6fbd 89a0 5d3d
000000d0: a8af 89bd 8fb5 fb3c 5e18 953d 6c31 e23c
000000e0: 1c44 f43d c275 38bd 9893 a9bd 9a0a 9e3b
000000f0: be84 943d 139a 8e3d 396c e33d 3089 743d

blocks.0.bn.running_var f4 [64]
0.053140305 0.16164665 0.074825704 0.06586108 0.17478739 0.20460919 0.11373963 0.13561761
0.111700796 0.2076427 0.08716665 0.24455197 0.23271872 0.13435955 0.11105418 0.08321913
0.08949651 0.13021532 0.1254617 0.06412686 0.02151471 0.06394411 0.11704793 0.10232202
0.15186311 0.16192502 0.123607166 0.15747336 0.14526072 0.2195174 0.10421079 0.105556324
0.07911712 0.19867747 0.09445709 0.10541566 0.20788762 0.08123205 0.06775607 0.1919172
0.2248805 0.049415506 0.11071613 0.15276447 0.11324278 0.049679387 0.06408021 0.15890196
0.14267127 0.22503927 0.1068288 0.10642266 0.079649046 0.037532978 0.12730679 0.08061793
0.17426445 0.13158089 0.11644429 0.07388364 0.16870062 0.10940444 0.16093738 0.033038486
00000000: a6a9 593d b386 253e 383e 993d 2de2 863d
00000010: 77fb 323e 1285 513e 53f0 e83d 58df 0a3e
00000020: 63c3 e43d 4aa0 543e 6e84 b23d d56b 7a3e
00000030: d14d 6e3e 8d95 093e 6070 e33d cb6e aa3d
00000040: f249 b73d 2a57 053e 0879 003e f154 833d
00000050: 9e3f b03c 21f5 823d d3b6 ef3d 358e d13d
00000060: 0182 1b3e accf 253e c125 fd3d b240 213e
00000070: 3abf 143e 2bc9 603e 776c d53d ea2d d83d
00000080: 2808 a23d 1b72 4b3e b872 c13d 2ae4 d73d
00000090: 7ee0 543e fd5c a63d b2c3 8a3d f185 443e
000000a0: 1347 663e ea67 4a3d 23bf e23d 4a6e 1c3e
000000b0: d5eb e73d 9d7c 4b3d 7c3c 833d 32b7 223e
000000c0: 6b18 123e b270 663e 0fc9 da3d 20f4 d93d
000000d0: 0a1f a33d 2ebc 193d b65c 023e 031b a53d
000000e0: 6172 323e 24bd 063e 587a ee3d 4e50 973d
000000f0: dbbf 2c3e 6f0f e03d c5cc 243e 5d53 073d
