TGNN2026/artifacts_MTGNN1m_2SoftUtility/fold_03_weights.pt (torch, 802453 bytes, 83 tensors)

A_static f4 [3, 3]
0	0x3eaaaaab	0.33333334
1	0x3eaaaaab	0.33333334
2	0x3eaaaaab	0.33333334
3	0x3eaaaaab	0.33333334
4	0x3eaaaaab	0.33333334
5	0x3eaaaaab	0.33333334
6	0x3eaaaaab	0.33333334
7	0x3eaaaaab	0.33333334
8	0x3eaaaaab	0.33333334

in_proj.weight f4 [64, 15]
0	0xbce9b2d5	-0.028527657
1	0xbe39ad7c	-0.18132585
2	0x3e3132cd	0.17304535
3	0x3e86adb1	0.2630439
4	0xbc98b0be	-0.018638965
5	0x3e4b7e9e	0.1987252
6	0xbd26a6b0	-0.04068631
7	0xbe4c1d74	-0.1993311
8	0x3dbefec1	0.09325934
9	0x3e80ddda	0.2516926
10	0xbe8e0ab4	-0.2774254
11	0x3e51d91e	0.2049298
12	0x3c12d7a6	0.008962547
13	0x3ceb1eb6	0.028701168
14	0xbdd93671	-0.10606087
15	0x3b3043e2	0.002689593
16	0xbd909b26	-0.07060842
17	0x3e307383	0.17231564
18	0x3c237682	0.009976985
19	0x3dab7879	0.08372588
20	0x3e8b3956	0.2719218
21	0xbe726c21	-0.2367406
22	0xbdb10224	-0.086429864
23	0x3e540e5f	0.20708607
24	0xbe51a33b	-0.20472424
25	0xbe332a65	-0.17496641
26	0x3e7a488f	0.24441741
27	0x3de4a4c6	0.111642405
28	0x3d9fffa1	0.07812429
29	0xbd48425a	-0.048891403
30	0x3e50f87f	0.20407294
31	0xbc7d1b1b	-0.015448357
32	0x3dae1b19	0.08501262
33	0x3ca06dc0	0.019583583
34	0x3c1a2984	0.009409312
35	0xbe79bfa1	-0.24389507
36	0x3e2151dd	0.15753885
37	0x399454b7	0.00028291877
38	0xbe3e9197	-0.18610226
39	0xbe13230a	-0.14368835
40	0x3dd9cf9f	0.10635304
41	0x3e15b79c	0.14620823
42	0x3dc3fdd6	0.095699
43	0x3b9d348c	0.004797524
44	0xbe0ff3c0	-0.14057827
45	0x3e6bc977	0.23026071
46	0x3e719ef6	0.23595795
47	0xbddea786	-0.10871796
48	0xbe313f04	-0.17309195
49	0xbe412299	-0.18860854
50	0xbd018e89	-0.031630073
51	0xbdeda603	-0.1160393
52	0x3d85d234	0.06534234
53	0x3c3b87ac	0.011445921
54	0x3e399ef4	0.18127042
55	0x3e2542c0	0.16138744
56	0xbe7ba483	-0.24574475
57	0x3e275c27	0.16343747
58	0x3e6a270a	0.22866455
59	0xbdc07c9f	-0.093987696
60	0xbdd14836	-0.10218851
61	0xbdf8fda8	-0.12157756
62	0xbc0dca71	-0.008654223
63	0xbe686e90	-0.22698426
64	0x3cc5f369	0.024163919
65	0xbdad2a74	-0.08455363
66	0x3e2ea261	0.1705413
67	0x3e15cca5	0.14628847
68	0x3b387dcf	0.002815116
69	0xbd878a48	-0.06618172
70	0x3e7a1fba	0.24426165
71	0x3dddbac1	0.10826636
72	0x3e4f78ee	0.20260975
73	0xbdd3e038	-0.10345501
74	0xbe571624	-0.2100454
75	0xbd893214	-0.06699005
76	0x3da43214	0.08017364
77	0x3d5277b4	0.05138369
78	0x3d66cde3	0.056348693
79	0x3dfaf8bb	0.12254473
80	0xbe7d084b	-0.24710195
81	0x3e6d2499	0.23158492
82	0x3e566777	0.20937906
83	0x3e8dcafa	0.2769392
84	0xbd9178a1	-0.07103086
85	0xbe5c484c	-0.21511954
86	0x3db49526	0.0881751
87	0xbe25af9c	-0.16180271
88	0xbdb6497e	-0.08900736
89	0x3e53f6cd	0.20699616
90	0x3e86f50a	0.26358825
91	0xbe61db12	-0.22056225
92	0xbce64072	-0.028106902
93	0xbe380c29	-0.17973389
94	0x3e82f3e0	0.25576687
95	0xbe30eb38	-0.17277229
96	0x3e18b3e6	0.14912376
97	0x3dca1e93	0.09869113
98	0x3c3e4f9d	0.011615661
99	0x3bf103ab	0.0073551736
100	0x3e56f68c	0.20992488
101	0xbe1dbed9	-0.15404834
102	0xbe223810	-0.15841699
103	0xbda8e76e	-0.08247267
104	0x3d2de28a	0.042452373
105	0x3e118d46	0.14214048
106	0xbe76f34f	-0.24116252
107	0x3d515181	0.05110312
108	0xbd8fca95	-0.07021061
109	0xbe237edf	-0.15966366
110	0xbe14431c	-0.14478725
111	0xbe88352f	-0.26603076
112	0xbd052edc	-0.03251539
113	0x3d51da6b	0.05123369
114	0xbd9fe014	-0.078064114
115	0x3e5f1c22	0.21788076
116	0xbca85f9b	-0.0205534
117	0x3d83054f	0.06397497
118	0x3e3077db	0.17233221
119	0x3d155ade	0.03646361
120	0xbe589172	-0.21149233
121	0xbe8686b0	-0.26274633
122	0xbe218694	-0.15773994
123	0xbd574158	-0.05255255
124	0x3e0f9909	0.14023222
125	0x3d9a062e	0.0752071
126	0xbe6c19a2	-0.23056653
127	0xbd99408c	-0.074830145
128	0xbe6b992b	-0.23007648
129	0x3e0b740e	0.1361849
130	0xbe13d1e1	-0.14435531
131	0x3d0d1702	0.03444577
132	0x3ca38e88	0.019965425
133	0x3e52b346	0.205762
134	0xbd722c0a	-0.05912403
135	0xbe3f4f53	-0.18682604
136	0x3da7bbd5	0.08190123
137	0xbe7cb36b	-0.24677818
138	0x3e45bd57	0.19310509
139	0xbdd20352	-0.102545395
140	0xbd54b32a	-0.051928677
141	0xbcef9d80	-0.029249907
142	0xbd30999d	-0.043115247
143	0x3e213a4b	0.15744893
144	0xbe818237	-0.2529466
145	0x3de74166	0.11291771
146	0xbe402f7a	-0.18768111
147	0x3cc71066	0.024299812
148	0x3dfea18e	0.12433158
149	0xbe33c45f	-0.17555378
150	0x3e7c817d	0.24658771
151	0xbe3bb82f	-0.18331979
152	0x3e60af6c	0.21941918
153	0xbd99ad42	-0.075037494
154	0x3e3e1a05	0.18564613
155	0x3de445af	0.111461036
156	0x3d8bb31b	0.06821271
157	0xbddba269	-0.10724337
158	0xbe5fdb0f	-0.21860908
159	0x3dd37878	0.10325712
160	0xbcc35c51	-0.02384773
161	0xbc078302	-0.008270981
162	0x3e1c199e	0.15244147
163	0xbe8c3a13	-0.27388057
164	0x3dc5ee34	0.09664574
165	0x3e3c86fd	0.18410869
166	0xbe4091ba	-0.1880559
167	0x3da72b04	0.081625015
168	0x3e246261	0.16053154
169	0x3d20aa1f	0.03922474
170	0x3e82e3ff	0.25564572
171	0x3e8393c3	0.2569867
172	0x3d35f5d4	0.044423893
173	0xbe38bbad	-0.18040343
174	0x3d05c2b7	0.032656398
175	0x3e85afce	0.2611069
176	0xbd658c2a	-0.056041874
177	0x3e2a4568	0.16628039
178	0x3d7caaa5	0.061686177
179	0xbe578ca2	-0.21049741
180	0xbe5619c5	-0.20908268
181	0x3e7621bb	0.24036305
182	0x3d9f0a79	0.077656694
183	0xbe5b1642	-0.2139521
184	0x3e1527a9	0.1456591
185	0xbd5402b6	-0.051760398
186	0x3da4910e	0.080354795
187	0xbe19a7fc	-0.15005487
188	0x3cae783f	0.021297572
189	0xbe658d54	-0.22417194
190	0x3e729de9	0.2369305
191	0xbd97998d	-0.07402334
192	0x3e5c178e	0.2149336
193	0xbe372872	-0.17886522
194	0x3dc1ccbd	0.09462879
195	0x3da6dba7	0.08147364
196	0xbdaee951	-0.08540595
197	0x3e1e7769	0.15475239
198	0x3e837229	0.25673035
199	0xbe26bda2	-0.16283277
200	0x3cca4cd3	0.024694836
201	0xbe39cad6	-0.18143782
202	0xbd89b369	-0.06723673
203	0xbe21d2f4	-0.15803128
204	0x3e0d924b	0.13825338
205	0xbe09f86f	-0.13473676
206	0x3e690808	0.2275697
207	0x3e02ecfd	0.12785716
208	0xbe83ed0d	-0.25766793
209	0xbe7235fd	-0.23653407
210	0x3e58d601	0.21175386
211	0xbe140898	-0.14456403
212	0xbdb6619e	-0.08905338
213	0xbe68a8cd	-0.22720642
214	0x3e41390e	0.18869421
215	0x3deb87eb	0.11500534
216	0xbe1a6dca	-0.15080944
217	0x3e375a9a	0.17905656
218	0x3d73399a	0.059381105
219	0x3e0226da	0.12710133
220	0x3cadde90	0.02122429
221	0xbdd60207	-0.104496054
222	0xbe690fa5	-0.22759874
223	0xbe89a999	-0.26887205
224	0xbe85ad57	-0.2610881
225	0xbe2ade04	-0.16686255
226	0xbe59964d	-0.21248741
227	0x3dd88f5f	0.10574221
228	0x3dac9353	0.08426537
229	0xba6d59ce	-0.00090542145
230	0xbe1ffc64	-0.15623623
231	0xbe55f7fa	-0.20895377
232	0x3e3f6746	0.1869174
233	0x3e40142c	0.18757695
234	0xbe76c7c9	-0.2409965
235	0xbe268176	-0.16260323
236	0x3e5c71ea	0.2152783
237	0x3d99e221	0.07513834
238	0xbe86c677	-0.26323292
239	0xbd824f5e	-0.06362794
240	0x3e492f46	0.1964694
241	0x3e02974c	0.12753028
242	0xbe07e49d	-0.13270803
243	0x3bf84264	0.0075762738
244	0xbd49f8da	-0.04930959
245	0x3e76f5a8	0.24117148
246	0x3e00d3ed	0.12580843
247	0x3de6be3f	0.11266755
248	0x3e605d7d	0.21910663
249	0xbd2277cc	-0.03966503
250	0x3e8a6963	0.2703353
251	0xbe80461c	-0.2505349
252	0xbbe48e2e	-0.006974957
253	0x3e449302	0.19196704
254	0xbe5d75e2	-0.21627
255	0xbdc7f862	-0.09764172

in_proj.bias f4 [64]
0	0x3b684389	0.0035440645
1	0x38c774c3	9.510808e-05
2	0x3aeba7ba	0.0017979064
3	0x3b41bc98	0.0029561874
4	0xbb930a0e	-0.0044872826
5	0xbb8c4ba4	-0.004281478
6	0x3b22c076	0.0024833954
7	0x3b3073ff	0.0026924608
8	0xba8846a9	-0.0010397035
9	0x3a718a3e	0.000921402
10	0xba76fa14	-0.000942142
11	0xbb47c48e	-0.0030482146
12	0xb802e748	-3.1209813e-05
13	0x3b2a045e	0.0025942544
14	0xbb1b9834	-0.0023741843
15	0xbb6adc91	-0.0035837034
16	0x3b76fd21	0.0037687498
17	0x3b195f82	0.0023402874
18	0x3b60f73d	0.0034327053
19	0xbae9a2d9	-0.0017825022
20	0xbaec3564	-0.0018021283
21	0xbb35bd6e	-0.0027731317
22	0xba9d19c3	-0.0011985827
23	0x3b5a7d79	0.0033338948
24	0xbb13db47	-0.002256112
25	0xbabe931b	-0.001453969
26	0x39b56ae4	0.0003460265
27	0xb8c9fe80	-9.631831e-05
28	0xb9bb3e26	-0.00035713724
29	0xbb9ff547	-0.0048815343
30	0xba3b62e9	-0.00071482226
31	0x3b26b642	0.0025438224
32	0xbaf16184	-0.0018415903
33	0x3b0d76f8	0.0021585803
34	0xbb0d31a5	-0.0021544483
35	0xbb96622b	-0.0045893393
36	0x3b0ecf53	0.0021791055
37	0xba925eb1	-0.0011167136
38	0xb8b3ba99	-8.570142e-05
39	0xbb220b92	-0.0024726135
40	0xbb119587	-0.002221437
41	0x3b7113e2	0.0036785533
42	0x3b130a2f	0.002243649
43	0x3a8725c6	0.001031094
44	0x3a1833ab	0.0005806039
45	0xbafbe16b	-0.001921696
46	0xbb5314fc	-0.0032208553
47	0x3ab1c1c4	0.0013561775
48	0x3b134fba	0.002247794
49	0x3adf1f1e	0.0017022823
50	0xbb7be0d8	-0.0038433578
51	0xbb78b471	-0.0037949348
52	0xbb10f0af	-0.0022116115
53	0x3b4708b9	0.003037019
54	0x3b7c0af3	0.0038458675
55	0x3b837474	0.004011685
56	0xbb5e6458	-0.0033934321
57	0xbb095308	-0.0020954031
58	0xbb925bd0	-0.0044665113
59	0x3b1fef54	0.0024404125
60	0xbba085f0	-0.004898779
61	0xb9ec8fe8	-0.00045120646
62	0xbaa55cf8	-0.0012616208
63	0xbb0a242b	-0.0021078687

adapt.E1 f4 [3, 8]
0	0x38830518	6.2475156e-05
1	0x3b143e09	0.0022619984
2	0xbba7c78f	-0.005120225
3	0x3ae2b729	0.0017297018
4	0x3c10efde	0.008846251
5	0xbabd7736	-0.0014455083
6	0xbc4c7c3f	-0.012480794
7	0xb9cca074	-0.0003902946
8	0xb7d27f7e	-2.5093319e-05
9	0x3c428799	0.011873149
10	0xbc53abc9	-0.012919375
11	0xbc15d0f5	-0.0091440575
12	0xbc46baf8	-0.012129538
13	0xbc10ad33	-0.008830356
14	0x3c29aecd	0.010356617
15	0xbc70f4ca	-0.0147068
16	0xb90fc679	-0.0001371148
17	0x3c1923a8	0.00934688
18	0xbba9479e	-0.005166008
19	0xbb107761	-0.0022043812
20	0xbcb15805	-0.021648416
21	0xbc3ef685	-0.0116554545
22	0x3c0cbef2	0.008590447
23	0xbcc80651	-0.024417074

adapt.E2 f4 [3, 8]
0	0xbc91a5b8	-0.017779216
1	0x3aa98a29	0.0012934852
2	0xbc23fa23	-0.010008368
3	0xbc68df16	-0.014213344
4	0x3b9a7391	0.0047134836
5	0xbb9dd4b1	-0.0048166146
6	0xbaeaaa98	-0.0017903624
7	0x3b8d0de3	0.004304634
8	0xbab7e273	-0.0014029279
9	0x3bc7ec19	0.006101143
10	0x3c05f7a6	0.00817672
11	0xbb66d594	-0.0035222517
12	0xb98b28db	-0.00026542586
13	0xb7cc562f	-2.4358827e-05
14	0x3c38ece8	0.011286952
15	0x3cc5410c	0.024078868
16	0xbbd2c069	-0.0064316285
17	0xbc72c51d	-0.014817503
18	0xbbbcdf7e	-0.005763947
19	0xbc824ad5	-0.015904823
20	0x3b306fef	0.0026922186
21	0xbc50ab3a	-0.012736136
22	0xbc1bf6fb	-0.009519334
23	0x3c3ec66d	0.011643988

support_mix.w_logits f4 [3]
0	0xbb956588	-0.0045592226
1	0x3b95628c	0.004558867
2	0xbb955eed	-0.004558435

blocks.0.filter_conv.conv.weight f4 [64, 64, 1, 2]
0	0x3e09a3ef	0.13441442
1	0xbe163b91	-0.1467116
2	0x3dff9e0c	0.12481317
3	0xbdd60e6b	-0.10451969
4	0xbd948e3c	-0.072536916
5	0xbb78b732	-0.003795099
6	0x3da1a711	0.078931935
7	0xbdb285b3	-0.08716907
8	0xbe1efe61	-0.15526725
9	0xbd3e4a22	-0.046457417
10	0xbd73387e	-0.059380047
11	0x3dc0c833	0.09413185
12	0x3e155067	0.14581452
13	0x3daf03f8	0.08545679
14	0xbd66a2b3	-0.056307506
15	0xbe148c9e	-0.14506766
16	0x3c45cb25	0.012072359
17	0xbd4541fb	-0.048158627
18	0xbe06d712	-0.1316798
19	0xbe0d8565	-0.13820417
20	0x3e142cee	0.14470264
21	0xbdcd06e9	-0.10011084
22	0x3d30f4f5	0.04320236
23	0xbd2cc6bc	-0.042181715
24	0x3dfc2ee4	0.12313631
25	0xbe186d4e	-0.14885446
26	0x3db29910	0.087206006
27	0xbd0c1c53	-0.0342067
28	0x3c8b3d78	0.016997084
29	0x3e1871f8	0.14887226
30	0x3dda7a68	0.106678784
31	0x3b22594a	0.0024772459
32	0x3e063ffd	0.13110347
33	0x3d51033d	0.05102848
34	0xbbec7f07	-0.0072172913
35	0x3c5ab359	0.013348424
36	0xbd0b343c	-0.03398536
37	0x3cb14b4f	0.021642355
38	0x3e1d1dc6	0.15343389
39	0xbdddc662	-0.10828854
40	0xbd46b14a	-0.04850892
41	0x3de5a82a	0.112137154
42	0xbd3a8adf	-0.045542594
43	0x3d996f68	0.07491952
44	0x3dc65259	0.09683675
45	0xbda1da0a	-0.07902916
46	0xbe0db261	-0.13837577
47	0xbde19855	-0.11015383
48	0xbdd51223	-0.1040385
49	0xbe13e47d	-0.1444263
50	0x3e14012b	0.1445357
51	0x3d9b593b	0.07585379
52	0xbe09f58a	-0.13472572
53	0xbe15564b	-0.145837
54	0x3e03c06c	0.12866372
55	0x3d50060f	0.050787028
56	0xbd5ad52c	-0.053425953
57	0xbdc4d167	-0.09610253
58	0xbd3a12e0	-0.045428157
59	0xbe101818	-0.14071691
60	0x3d8da745	0.0691667
61	0xbd0f519a	-0.03498993
62	0xbd20121d	-0.039079774
63	0xbd179045	-0.03700282
64	0x3dc63f6f	0.09680068
65	0x3e11352c	0.1418044
66	0xbe0f9140	-0.14020252
67	0x3da22115	0.07916466
68	0x3d88f043	0.06686451
69	0xbdce62c9	-0.100774355
70	0x3d9b7b1f	0.07591843
71	0x3dbc19bd	0.09184597
72	0x3de88321	0.11353136
73	0x3c6f3e24	0.014602218
74	0xbd11ed46	-0.035626672
75	0x3d81ec0a	0.06343849
76	0xbd522ec9	-0.05131415
77	0x3e00b116	0.12567553
78	0xbcdf0dfd	-0.02722835
79	0x3e1eb482	0.15498546
80	0x3ddd4169	0.108034916
81	0x3d11fe87	0.035643127
82	0x3d9a85c1	0.07545043
83	0xbc997660	-0.018733203
84	0x3da59a6d	0.08086095
85	0xbbbfc37e	-0.005852162
86	0x3dea3d15	0.11437432
87	0x3e159425	0.14607294
88	0x3cddae18	0.027060553
89	0xbcdea5fa	-0.027178753
90	0xbd529d19	-0.05141935
91	0xbdd18890	-0.10231125
92	0xbbce8842	-0.0063028643
93	0x3dd5d267	0.10440522
94	0xbd150f9a	-0.036391832
95	0xbdfb9182	-0.12283613
96	0x3e015386	0.12629518
97	0x3e07497b	0.13211624
98	0xbd47ccb8	-0.04877922
99	0xbc443513	-0.0119755445
100	0x3d17f667	0.037100222
101	0xbd700ba1	-0.05860484
102	0xbc7f27e3	-0.015573475
103	0xbe01f980	-0.12692833
104	0xbd782fb7	-0.06059238
105	0xbdb96647	-0.09052711
106	0x3defa70b	0.11701783
107	0xbe171c2a	-0.14756837
108	0x3c1c5f8f	0.009544267
109	0xbe0e273a	-0.13882151
110	0xb95630d6	-0.00020426823
111	0x3e12989d	0.1431603
112	0x3da1e779	0.07905478
113	0x3d8c81e4	0.06860712
114	0xbdf4c109	-0.11950881
115	0x3b040707	0.002014579
116	0xbdfafba2	-0.122550264
117	0xbd8a959a	-0.067668155
118	0xbd47ef44	-0.048812166
119	0x3e0850a6	0.13312015
120	0x3d7e456d	0.06207793
121	0xbdde3b60	-0.10851169
122	0x3d5e3ad5	0.054255325
123	0xbd0110be	-0.031510107
124	0x3e097e9b	0.13427202
125	0x3d8b9dba	0.06817193
126	0xbe163736	-0.14669499
127	0xbdbc3c01	-0.09191132
128	0xbc3f9cab	-0.011695067
129	0xbde1f5c5	-0.11033205
130	0xbda27f4d	-0.07934437
131	0xbdc655f6	-0.096843645
132	0x3dbdadde	0.09261678
133	0x3cd62e27	0.026145054
134	0xbd82cf03	-0.063871406
135	0xbdd9278b	-0.10603245
136	0xbe1b0409	-0.15138258
137	0x3dc7728b	0.09738644
138	0x3d7baf2c	0.061446354
139	0xbd1a0df1	-0.03761095
140	0xbe01e18b	-0.12683694
141	0x3ca00397	0.019532962
142	0x3d41a65e	0.0472778
143	0xbe06f5b3	-0.13179664
144	0x3d9ffc39	0.078117795
145	0x3dad4700	0.08460808
146	0x3d8d9367	0.069128804
147	0xbdb8c01b	-0.09021016
148	0xbdee1dc6	-0.116267726
149	0xbcffc207	-0.03122045
150	0x3e0803ea	0.13282743
151	0x3df326cb	0.118726335
152	0xbc0aeeae	-0.008479757
153	0xbd9d7dd6	-0.07690017
154	0x3ddc3f61	0.10754276
155	0x3db13bd8	0.086539924
156	0x3db3e2fd	0.08783529
157	0xbe012b61	-0.12614204
158	0x3d223dde	0.039609782
159	0xbde6626b	-0.112492405
160	0x3d61550c	0.055012748
161	0xbd57ff74	-0.052733853
162	0xbe01c30e	-0.12672064
163	0xbc8589a8	-0.016300991
164	0xbd826de9	-0.0636862
165	0x3d6fa3f2	0.05850596
166	0xbd0c116f	-0.034196313
167	0x3d421b29	0.047389183
168	0x3dffbc8b	0.124871336
169	0x3e0e61ae	0.1390445
170	0xbdbb559b	-0.09147187
171	0x3e02b9ae	0.12766144
172	0xbdd52eea	-0.10409339
173	0xbd664d9a	-0.05622635
174	0x3df31964	0.11870077
175	0xbd9cd21f	-0.07657265
176	0x3ddf1882	0.10893346
177	0x3e0d892a	0.13821855
178	0xbd9ed666	-0.07755737
179	0x3e14971c	0.14510769
180	0xbe18e57f	-0.14931296
181	0xbd442d62	-0.047894843
182	0x3e0e8683	0.139185
183	0xbe1388cb	-0.14407651
184	0xbde6cafa	-0.112691835
185	0xbd8dda75	-0.06926433
186	0xbd8669ad	-0.06563125
187	0x3e10d2ca	0.1414291
188	0xbb265f01	-0.0025386217
189	0xbd96ed5f	-0.07369494
190	0x3d30f659	0.043203685
191	0xbdb3ba7c	-0.087758034
192	0x3d3bb416	0.04582604
193	0xbd97d6c0	-0.07414007
194	0xbe159c4a	-0.14610401
195	0xbe0aee95	-0.13567574
196	0x3dadaf62	0.08480717
197	0xbe153612	-0.14571407
198	0x3dc79cec	0.09746727
199	0xbd91bde4	-0.07116297
200	0x3e131dca	0.14366832
201	0x3e093fcb	0.13403241
202	0xbc5cc592	-0.013474839
203	0x3bd77e13	0.0065763085
204	0x3cbcf6b8	0.023066863
205	0xbdb72add	-0.089437224
206	0xbe06ffd2	-0.13183525
207	0x3e0a273d	0.1349153
208	0x3cb9bba4	0.022672482
209	0xbd6e7405	-0.058216114
210	0x3aab01c7	0.0013046794
211	0x3d35359e	0.044240586
212	0x3d6bb893	0.05754907
213	0xbe0897d4	-0.13339168
214	0x3d5677c3	0.052360307
215	0x3ca84977	0.020542843
216	0xbdd5e0bf	-0.104432575
217	0xbdfd55ce	-0.123698816
218	0x3d8ed2f7	0.06973832
219	0x3be89735	0.0070981034
220	0x3b974e0f	0.0046174596
221	0x3c29d2d4	0.010365207
222	0x3e08d7ae	0.13363525
223	0x3d21402a	0.039367832
224	0xbd4a983c	-0.04946159
225	0xbcaafadc	-0.020871572
226	0x3c966797	0.018359942
227	0xbcdd42ce	-0.027009394
228	0xbe178041	-0.14795019
229	0xbe0c9f61	-0.13732673
230	0xbddf7bd1	-0.10912288
231	0xbaa3cad5	-0.0012496362
232	0x3b043fd9	0.0020179658
233	0x3d684dd2	0.05671484
234	0x3db06c54	0.08614412
235	0xbd81792e	-0.06321941
236	0xbda27781	-0.0793295
237	0x3d656501	0.056004528
238	0xbda9bee9	-0.08288366
239	0x3e00a282	0.12561992
240	0x3c06c9b7	0.0082268035
241	0x3e19f08c	0.15033168
242	0x3d2a6bd0	0.041606724
243	0xbd095dc2	-0.03353668
244	0x3e0f3748	0.13985932
245	0xbdc65943	-0.09684994
246	0xbdc3853e	-0.09546898
247	0xbdaa54a5	-0.08316926
248	0x3d10797c	0.035272107
249	0x3d60bcb6	0.05486747
250	0x3dc9afa2	0.098479524
251	0x3e0c1307	0.13679133
252	0xbdd5fcd1	-0.104486115
253	0x3dbf57d6	0.09342925
254	0x3db5f74b	0.08885058
255	0x3c351532	0.011052417

blocks.0.filter_conv.conv.bias f4 [64]
0	0xbaf00add	-0.0018313784
1	0x39f10f10	0.00045978324
2	0xb9fd8fa5	-0.00048362944
3	0x3a631264	0.0008662103
4	0x3a026834	0.0004974634
5	0x3ade3ba2	0.0016955028
6	0x3b3ae8ed	0.0028520182
7	0xba4c6dbe	-0.0007798335
8	0x3b4353c8	0.0029804576
9	0x3b5fe22c	0.0034161909
10	0x3b08c438	0.0020868909
11	0xbadc958d	-0.0016829238
12	0xbb378900	-0.0028005242
13	0xbb14d00e	-0.0022707018
14	0x3abf425e	0.0014591923
15	0x3aebd0fb	0.0017991358
16	0xba18f8f0	-0.00058354344
17	0x3ac9d03a	0.0015397139
18	0x3bb13ae1	0.0054086302
19	0xbab77344	-0.0013996144
20	0x3b1c17be	0.0023817862
21	0xbb6e587d	-0.003636866
22	0x3b682d1c	0.0035427278
23	0xba164b80	-0.0005733296
24	0x39b622a8	0.00034739566
25	0x3b8db7b8	0.0043248795
26	0x3b00cd1f	0.0019653512
27	0xbb85f72e	-0.004088304
28	0x3a8dad4e	0.0010809095
29	0xbb847807	-0.0040426287
30	0xbb0d5159	-0.002156338
31	0xbb1983bf	-0.0023424474
32	0xb9be6f8e	-0.0003632274
33	0x3b313dc1	0.0027044865
34	0x374cdb38	1.2210388e-05
35	0x3b3a1d2c	0.0028398735
36	0xbadb0a7e	-0.0016711501
37	0x3b5fe7eb	0.0034165333
38	0x397e023a	0.00024224157
39	0xbac8a519	-0.0015307992
40	0xbb91c7ca	-0.0044488655
41	0x3b2bfde0	0.002624385
42	0x3b906f1c	0.0044077765
43	0x3b3fb825	0.0029254046
44	0x3b72fcdb	0.0037076983
45	0x39b613f9	0.00034728626
46	0xba41e155	-0.0007395943
47	0x3b1aee8f	0.0023640727
48	0x3aab46ee	0.0013067403
49	0xbafa6d44	-0.001910605
50	0x3b90babd	0.004416792
51	0xbb72d4e4	-0.0037053162
52	0xbb85c4e1	-0.0040823077
53	0xb81b5f7c	-3.7043807e-05
54	0x3abd6b17	0.0014451471
55	0xba63c08b	-0.0008688054
56	0xb91a976e	-0.00014742996
57	0x3b22350d	0.002475086
58	0x3a9801d0	0.001159722
59	0x3b10f05a	0.0022115917
60	0xbabbb5e2	-0.0014321173
61	0xbaf27e40	-0.001850076
62	0x3b184efd	0.002324044
63	0x3b93d078	0.0045109354

blocks.0.gate_conv.conv.weight f4 [64, 64, 1, 2]
0	0xbdad3db2	-0.08459033
1	0xbcd18224	-0.025574751
2	0x3d2399c9	0.039941583
3	0xbd888454	-0.066658646
4	0x3ddbbd6b	0.10729488
5	0x3dc9fa64	0.09862211
6	0xbdeb2cb0	-0.11483133
7	0x3d29f83f	0.04149651
8	0x3ddb0a28	0.106952965
9	0x3dc19ebb	0.094541036
10	0x3d102fc1	0.03520179
11	0x3e075824	0.13217217
12	0xbe19dd86	-0.1502591
13	0x3dae4197	0.08508604
14	0xbdce9161	-0.100863226
15	0x3dcb47ee	0.09925829
16	0x3df50dea	0.119655445
17	0xbc21cc58	-0.0098753795
18	0x3da1d862	0.079026
19	0xbda0cab0	-0.078511596
20	0x3dffbdcc	0.12487373
21	0x3d0d58eb	0.034508627
22	0xbe00a1dc	-0.12561744
23	0xbbd70047	-0.0065613124
24	0x3dda310d	0.10653887
25	0x3dae1817	0.085006885
26	0xbd3d80d9	-0.046265457
27	0xbdb444e2	-0.08802201
28	0xbd432b0a	-0.047648467
29	0xbd9fde28	-0.07806045
30	0xbdeed155	-0.11661021
31	0xbdc504ee	-0.09620081
32	0x3cfccd0b	0.03085949
33	0x3e01abed	0.1266324
34	0xbdfcc2b7	-0.123418264
35	0x3c8bea8e	0.017079618
36	0xbcfa547c	-0.030557863
37	0xbe177365	-0.14790113
38	0xbdd54964	-0.10414389
39	0x3dc3acbe	0.09554432
40	0xbda51f78	-0.08062643
41	0x3ddcce1b	0.10781499
42	0xbd4fc7b5	-0.050727565
43	0xbb7646fd	-0.0037578933
44	0xbda7e4e5	-0.08197955
45	0xbcfc1407	-0.030771269
46	0x3d9ac662	0.0755737
47	0x3e06a706	0.13149652
48	0x3bfa20e9	0.0076333177
49	0xbbd1ff1d	-0.0064085857
50	0xbd9bfab2	-0.07616176
51	0x3cee3514	0.029078044
52	0xbc1cc6de	-0.009568898
53	0x3d8c8c78	0.0686273
54	0x3df87b05	0.12132839
55	0x3d6dc84d	0.05805235
56	0xbde4724c	-0.11154613
57	0x3d3698de	0.04457938
58	0xbdf7e05e	-0.121033415
59	0xbbd76499	-0.0065732715
60	0x3d4d2389	0.050082717
61	0x3dd4dbe1	0.10393501
62	0x3cef4f18	0.02921252
63	0xbdd1ac15	-0.102379
64	0xbc5f1581	-0.013615967
65	0xbbc8cc2c	-0.006127855
66	0xbd891bcb	-0.06694754
67	0xbda0b247	-0.07846504
68	0xbd842436	-0.06452219
69	0x3dd23bb7	0.10265296
70	0xbdb75329	-0.089514084
71	0x3e028d92	0.12749317
72	0x3b624cd8	0.0034530666
73	0xbd0daa61	-0.034586314
74	0x3de3e5b9	0.111278005
75	0x3d0e1348	0.034686357
76	0x3d7c6923	0.061623704
77	0xbdb81a3f	-0.08989381
78	0xbdaf9c09	-0.08574683
79	0x3e0e0c84	0.13871962
80	0xbd9da47e	-0.0769739
81	0x3d788b0e	0.060679488
82	0x3c9cae43	0.019126063
83	0x3df3b8ea	0.11900504
84	0x3c85a74c	0.016315125
85	0x3c750beb	0.014956455
86	0x3d99fd16	0.075189754
87	0xbd03932d	-0.03212278
88	0xbe164652	-0.14675263
89	0xbd8e7ced	-0.069574215
90	0x3da07034	0.07833901
91	0xbe13c46d	-0.14430399
92	0xbd421669	-0.047384653
93	0x3e19294d	0.14957161
94	0x3e152c21	0.14567615
95	0xbe0bb52b	-0.13643329
96	0xbe00a70d	-0.12563725
97	0xbe148c9c	-0.14506763
98	0xbc9771ba	-0.018486846
99	0xbe17119f	-0.14752816
100	0xbca172f2	-0.01970813
101	0xbbec078c	-0.007203048
102	0xbdf986c6	-0.12183909
103	0xbc24f708	-0.010068662
104	0xbd4145b4	-0.047185615
105	0xbd600547	-0.054692533
106	0xbd296733	-0.041358184
107	0xbd056186	-0.03256371
108	0x3cfd7b05	0.03094245
109	0x3d844100	0.0645771
110	0x3cde215a	0.027115513
111	0x3de16629	0.11005814
112	0xbd499bd2	-0.049220867
113	0xbcbd61a9	-0.023117857
114	0x3de70b16	0.11281411
115	0xbd7a4a47	-0.061105993
116	0x3d9fe4e4	0.07807329
117	0xbbab183c	-0.005221395
118	0x3e1303aa	0.14356866
119	0x3c96e264	0.018418498
120	0x3d187f6a	0.037230887
121	0xbdec9b5c	-0.1155307
122	0x3c11f1d3	0.008907753
123	0x3c94ce09	0.018164651
124	0xb9b98711	-0.00035386582
125	0xbd8f25e7	-0.06989651
126	0x3db6c005	0.089233436
127	0x3e000eef	0.12505697
128	0xbc92fcf9	-0.017942892
129	0x3da085fa	0.07838054
130	0x3dcaacf9	0.09896273
131	0xbd2846b5	-0.041083056
132	0xbe0f180b	-0.13974015
133	0x3e157e22	0.14598897
134	0x3cbd3849	0.023098128
135	0xbe1567da	-0.14590397
136	0x3e0b94b5	0.13630946
137	0x3da5ba10	0.08092129
138	0x3bc746d5	0.006081442
139	0x3dd841bc	0.10559413
140	0x3e08866f	0.13332532
141	0xbc914205	-0.017731676
142	0xbe1f169b	-0.15535967
143	0xbce559de	-0.027996954
144	0xbe15ef5e	-0.14642093
145	0xbe0223b3	-0.1270893
146	0x3d358e5a	0.04432521
147	0xbd623ddd	-0.05523478
148	0xbe1d002a	-0.15332094
149	0xbdf80e88	-0.121121466
150	0xbd02e081	-0.031952385
151	0xbe01d778	-0.12679851
152	0xbdc583ec	-0.09644303
153	0x3dbb5b41	0.09148265
154	0x3d834869	0.064102955
155	0x3d107855	0.035271008
156	0x3d47a80d	0.04874425
157	0x3d5aad57	0.053387966
158	0x3e15662c	0.14589757
159	0xbd83be40	-0.06432772
160	0x3da9d530	0.082926154
161	0x3c92e4c8	0.017931357
162	0x3dc6d092	0.097077504
163	0x3db931e8	0.09042722
164	0xbdf14e6f	-0.11782538
165	0xbe18a222	-0.14905599
166	0xbd1afef5	-0.037840802
167	0xbdf2a587	-0.11847978
168	0xbe187804	-0.14889532
169	0x3d9abe7f	0.075558655
170	0xbe18ffdd	-0.14941354
171	0x3cfe63c4	0.031053431
172	0xbd953efc	-0.07287404
173	0x3dd92af5	0.106038965
174	0x3d553718	0.052054495
175	0xbcb059fd	-0.021527285
176	0xbe12eb1a	-0.14347497
177	0x3d8637ff	0.06553649
178	0xbb86ed85	-0.00411767
179	0x3ce12f7a	0.027488459
180	0xbc601f39	-0.013679319
181	0xbda15e2d	-0.07879291
182	0xbd2b3d27	-0.041806366
183	0xbda5d7ff	-0.080978386
184	0x3ce83703	0.028346544
185	0x3d68e241	0.056856398
186	0xbcdb1787	-0.026744617
187	0x3e17b53c	0.14815229
188	0x3e101f85	0.14074524
189	0x3e097b7d	0.13426013
190	0x3def71ea	0.11691649
191	0x3dfc7346	0.12326674
192	0xbd26f84f	-0.04076415
193	0x3d8ed856	0.069748566
194	0x3e049a33	0.12949447
195	0x3de9188a	0.113816336
196	0x3d31117f	0.043229576
197	0xbdfba3b2	-0.12287082
198	0xbdadf622	-0.08494212
199	0x3d743fa5	0.05963101
200	0xbe14af14	-0.14519912
201	0x3e0da149	0.13831057
202	0x3d841e27	0.064510636
203	0xbd01e194	-0.03170927
204	0xbdc1fd7f	-0.09472179
205	0x3d920c5a	0.07131262
206	0xbc223e51	-0.009902553
207	0x3d894d03	0.06704142
208	0xbcb77bc7	-0.022397889
209	0xbdb6a14a	-0.08917482
210	0xbdb2e43f	-0.08734941
211	0xbbd13dac	-0.0063855257
212	0xbc8536bf	-0.016261457
213	0xbd724abf	-0.059153315
214	0xbdcc1d82	-0.09966566
215	0x3df4e10d	0.119569875
216	0x3e015284	0.12629133
217	0xbd88d4db	-0.06681224
218	0x3caffe8a	0.021483678
219	0x3d9fab0d	0.07796297
220	0xbe147a21	-0.14499713
221	0xbe066d89	-0.13127722
222	0xbd93d9dd	-0.072192885
223	0xbb6a183f	-0.0035720018
224	0x3e0d2f0c	0.13787478
225	0xbc13e91b	-0.009027745
226	0x3d6aeec2	0.057356603
227	0x3df0ec20	0.11763787
228	0x3d9246a9	0.071423836
229	0x3e09bfff	0.13452147
230	0x3c50ad11	0.012736575
231	0x3df3cffb	0.119049035
232	0x3e1377b5	0.14401133
233	0xbbea9b44	-0.0071596224
234	0xbdfaa25c	-0.12237999
235	0xbd8ac64a	-0.06776102
236	0x3dbbd6c3	0.09171822
237	0xbde78db8	-0.113063276
238	0x3dfc861c	0.12330267
239	0x3d7bdcf5	0.061490018
240	0xbafbe883	-0.0019219074
241	0x3e01cea6	0.12676486
242	0x3d85742a	0.06516297
243	0xbc47c354	-0.012192566
244	0x3daf97f2	0.08573903
245	0xbbd4c470	-0.0064931437
246	0xbdd070ce	-0.10177766
247	0x3d841cf4	0.06450835
248	0x3df4b359	0.1194827
249	0xbc9fc12c	-0.019501291
250	0xbdd38289	-0.10327632
251	0xbd653adb	-0.055964332
252	0xbe15a51d	-0.14613767
253	0x3d8bf4af	0.06833779
254	0x3d8e1d0c	0.06939134
255	0x3dfd97c4	0.123824626

blocks.0.gate_conv.conv.bias f4 [64]
0	0x3b04f915	0.0020290066
1	0xbb2bde1c	-0.0026224917
2	0x3b02084a	0.0019841366
3	0x3a0a6b87	0.0005280305
4	0x3a3bfd04	0.0007171186
5	0xba5fe98e	-0.0008541577
6	0xb9c1757f	-0.0003689937
7	0xb99047fd	-0.00027519456
8	0xbb59103a	-0.0033121244
9	0x3a2f917d	0.00066973997
10	0x3b36440b	0.0027811553
11	0x3a34558a	0.00068792014
12	0x38c7f185	9.534046e-05
13	0xbb22c985	-0.0024839353
14	0xba6da16e	-0.00090648874
15	0xba96a9c0	-0.0011494681
16	0xbb191618	-0.0023359116
17	0x3b53931d	0.0032283731
18	0xb986e6a2	-0.00025730307
19	0x3ac0414b	0.0014667896
20	0xbae9a2e3	-0.0017825033
21	0xbb77c9b2	-0.0037809429
22	0xbb1d91e5	-0.0024043259
23	0xba5410a6	-0.0008089639
24	0xbb0ef3eb	-0.0021812867
25	0xba7f2ca0	-0.00097341277
26	0xbb1f6f1f	-0.0024327708
27	0xbb24e9bd	-0.0025163733
28	0x3b2610ff	0.002533972
29	0x3b54b1fe	0.0032454724
30	0x3aa0b61b	0.0012261303
31	0xba814204	-0.0009861593
32	0xba20854c	-0.00061233784
33	0x3ae2a53e	0.0017291678
34	0xbba71ecd	-0.0051001073
35	0xba063ed8	-0.0005121059
36	0x39772d14	0.00023572549
37	0x3b2cca09	0.002636554
38	0xbb1e719a	-0.0024176599
39	0x3b1db098	0.0024061557
40	0xbb9085e0	-0.0044104904
41	0x3b0d2998	0.0021539684
42	0xba95d123	-0.0011430125
43	0x3a654eb3	0.0008747384
44	0xbb6f0e5f	-0.0036477072
45	0xbac01599	-0.0014654874
46	0xbb6ed21f	-0.003644116
47	0xbb1bd31d	-0.0023776956
48	0x3ba67cb1	0.0050807823
49	0x3ad47d45	0.001621165
50	0xbb81b6ec	-0.0039585736
51	0xbb663011	-0.0035123865
52	0x3a029bb8	0.00049823103
53	0x38765c92	5.8737183e-05
54	0xbaa31cb7	-0.0012444471
55	0xbb5f4950	-0.0034070797
56	0x3b12d14a	0.0022402578
57	0x3aea8c86	0.0017894662
58	0x3b19f540	0.0023492128
59	0xbb7603b7	-0.0037538835
60	0x3a691e48	0.0008892757
61	0xba1ce818	-0.00059855124
62	0x39ea5cf2	0.00044701208
63	0xbb295ad1	-0.0025841484

blocks.0.residual_conv.weight f4 [64, 64, 1, 1]
0	0x3d8ea424	0.06964901
1	0x3e037474	0.12837392
2	0x3be43498	0.0069642775
3	0x3e370476	0.17872795
4	0x3b196001	0.002340317
5	0x3d3024e8	0.043003947
6	0xbd4cd4e3	-0.050007712
7	0xbdfe2418	-0.12409228
8	0xbda3f7b3	-0.08006229
9	0x3e2861fa	0.16443625
10	0xbc30305a	-0.010753715
11	0xbcea16a5	-0.02857525
12	0x3e25bc58	0.16185129
13	0x3d20b35a	0.039233543
14	0x3d9d9dfc	0.07696149
15	0xbd098399	-0.033572767
16	0x3d2753eb	0.040851515
17	0xbcec2b02	-0.028829101
18	0xbd6709ec	-0.056405947
19	0x3e2f362d	0.1711051
20	0x3e436a14	0.19083434
21	0x3e35d8fa	0.17758551
22	0x3d0666e8	0.032812983
23	0x3d0bd01a	0.034134008
24	0x3e385113	0.17999677
25	0xbe3d6f1e	-0.18499419
26	0xbe065887	-0.13119708
27	0x3b0b2d1f	0.002123661
28	0xbe5bc5f7	-0.21462236
29	0x3e03acf9	0.12858953
30	0xbcc31db0	-0.023817867
31	0x3e115f2f	0.14196466
32	0xbd1de0bc	-0.0385444
33	0x3d9d5fca	0.07684286
34	0x3e50d978	0.20395458
35	0xbdd788cf	-0.10524141
36	0xbe0cb830	-0.13742137
37	0xbd0c3c19	-0.034237
38	0xbe0f0f1b	-0.13970606
39	0x3dd36e20	0.10323739
40	0xbe0ee6ed	-0.13955279
41	0xbe545465	-0.20735319
42	0x3e22e2fe	0.15906903
43	0xbe0879af	-0.13327669
44	0xbc8a7952	-0.016903553
45	0xbe2e67a9	-0.1703173
46	0xbd1c0c35	-0.03809758
47	0x3e544661	0.20729972
48	0xbde9502f	-0.11392247
49	0x3e4af7d9	0.19821109
50	0x3d409e6a	0.047026075
51	0x3e432258	0.1905607
52	0xbdb9c0b7	-0.090699606
53	0xbe05702a	-0.13031068
54	0x3d3ab2f5	0.045580823
55	0x3df1967f	0.11796283
56	0x3db5d009	0.0887757
57	0xbe1fac7e	-0.15593144
58	0xb90f6193	-0.00013673892
59	0xbd46ea02	-0.04856301
60	0x3e16231d	0.14661832
61	0xbe54814c	-0.20752448
62	0x3d91109f	0.07083248
63	0x3e0ab6a2	0.13546231
64	0xbdcad791	-0.09904397
65	0x3e15da5b	0.14634077
66	0xbe0052b6	-0.12531552
67	0xbdea8607	-0.11451345
68	0xbd003085	-0.03129627
69	0xbc5e7035	-0.013576557
70	0xbe0feab7	-0.1405438
71	0xbcdd9255	-0.027047316
72	0xbde21bcb	-0.11040457
73	0xbd8761d5	-0.06610457
74	0x3cc6c6a7	0.024264647
75	0xbe55e426	-0.20887813
76	0x3db9f9f4	0.09080878
77	0xbe1bd236	-0.15216908
78	0xbd55fb8b	-0.052241843
79	0x3e57c5b4	0.21071512
80	0xbe3b8382	-0.18311885
81	0xbe19d963	-0.15024333
82	0x3dd882d0	0.105718255
83	0xbdc73477	-0.09726804
84	0xbe5adb85	-0.21372803
85	0xbe228325	-0.1587034
86	0x3c3dacb8	0.011576824
87	0x3e53fbd4	0.20701534
88	0x3e5b0171	0.21387269
89	0xbc800e71	-0.015631886
90	0xbe4691fb	-0.19391625
91	0xbd6c1b3f	-0.05764317
92	0x3e39c123	0.18140082
93	0xbe49fc7a	-0.19725218
94	0xbd4d3666	-0.050100707
95	0x3db56eaa	0.08858998
96	0x3d6824ed	0.05667584
97	0x3e05ee12	0.13079098
98	0x3e482a34	0.19547349
99	0xbdf6d47b	-0.12052246
100	0x3d03c8c3	0.032173883
101	0xbe33b930	-0.17551112
102	0xbd8cb0f8	-0.068696916
103	0x3dd4a409	0.1038285
104	0x3e258692	0.16164616
105	0x3e3f693f	0.18692492
106	0x3bfde13e	0.007747798
107	0x3e038e45	0.1284724
108	0x3dce3340	0.10068369
109	0xbd933969	-0.071886845
110	0xbd81ba51	-0.06334365
111	0xbdba4acb	-0.09096297
112	0xbe393684	-0.18087202
113	0xbc3683cf	-0.011139824
114	0xbd3c5dc0	-0.045987844
115	0xbd9df143	-0.07712033
116	0x3e035422	0.12825063
117	0xbc889479	-0.01667236
118	0x3e2b7908	0.16745389
119	0x3cefa0d3	0.029251492
120	0xbd47b6d7	-0.048758354
121	0x3dfb3cde	0.12267469
122	0xbe419016	-0.1890262
123	0x3d1fe0e7	0.039032843
124	0xbe37a595	-0.17934258
125	0xbbcecf4a	-0.006311332
126	0xbe2189b7	-0.1577519
127	0x3d88dee7	0.0668314
128	0xbcbcd656	-0.023051422
129	0xbdf7e98b	-0.12105092
130	0xbcefc7d1	-0.029270085
131	0x3dfda5ce	0.1238514
132	0x3dba267d	0.09089372
133	0xbc963941	-0.018337848
134	0xbe1e2638	-0.15444267
135	0xbd7c9b3e	-0.061671488
136	0xbe5b71c3	-0.21430115
137	0xbc45532b	-0.012043755
138	0xbe4c22d3	-0.1993516
139	0xbe03ef9a	-0.1288437
140	0xbe5c2c3c	-0.21501249
141	0xbdc85e1d	-0.09783576
142	0x3e34abca	0.17643657
143	0x3cd147dc	0.02554696
144	0x3cecd5fe	0.028910633
145	0xbe3ec236	-0.18628773
146	0xbe0bd224	-0.13654381
147	0x3e0dc55a	0.13844815
148	0xbdc493b8	-0.095984876
149	0x3e0661bd	0.13123222
150	0xbd9976ea	-0.07493384
151	0x3d7f492e	0.06232565
152	0x3d124e9c	0.0357195
153	0xbdd7c35d	-0.105353095
154	0x3d126750	0.035743058
155	0x3e28a9d9	0.16471042
156	0xbde7ed80	-0.113245964
157	0x3cf1db91	0.029523643
158	0xbdc61fc7	-0.0967403
159	0xbd911c71	-0.07085503
160	0xbcc6dd2f	-0.02427539
161	0x3e4e6ccb	0.20158689
162	0x3e2c4a5f	0.16825245
163	0x3e27fd0b	0.16405122
164	0xbde7f84f	-0.11326658
165	0xbe30042c	-0.17189091
166	0xbd298777	-0.041388955
167	0xbe034531	-0.12819363
168	0xbbfc25fd	-0.0076949582
169	0xbde98da8	-0.11403972
170	0xbbed58c8	-0.0072432496
171	0xbe521a45	-0.20517834
172	0xbe0a1220	-0.13483477
173	0xbdcc8e86	-0.09988122
174	0x3bb80a2a	0.005616446
175	0xbc346aa0	-0.0110117495
176	0x3ceb286c	0.028705798
177	0xbd5602e2	-0.052248843
178	0x3e354a6b	0.1770417
179	0xbe2cd6cc	-0.16878814
180	0xbdb224c2	-0.08698417
181	0x3ddfc780	0.109267235
182	0xbe3c0b34	-0.18363649
183	0xbd1334e6	-0.03593912
184	0xbc0649d0	-0.008196309
185	0xbe54d5de	-0.20784709
186	0x3de2fad5	0.11082999
187	0xbe397dc9	-0.1811439
188	0xbdc079ae	-0.093982086
189	0x3e2b8234	0.16748887
190	0x3ab864c4	0.0014068116
191	0xbe30a9e3	-0.17252307
192	0xbe3f7ec3	-0.187007
193	0xbda40fe2	-0.08010842
194	0xbe3e571b	-0.18587916
195	0xbe49cc2d	-0.19706793
196	0x3e0e4e4e	0.13897058
197	0x3e4e294a	0.20132938
198	0xbd82b0bb	-0.06381365
199	0x3ddee925	0.108843125
200	0xbd009b72	-0.031398244
201	0x3dc67216	0.09689729
202	0x3d116e32	0.03550548
203	0x3d092dfb	0.033491116
204	0x3d9d9089	0.076935835
205	0x3e56e89d	0.20987172
206	0xbe1fa23f	-0.15589236
207	0x3dd5fe96	0.10448949
208	0x3c4edbc5	0.012625639
209	0x3deae16c	0.11468777
210	0xbe0dcbe6	-0.13847312
211	0xbdbf8b55	-0.09352747
212	0xbe603821	-0.21896411
213	0x3df8702f	0.12130772
214	0x3e0cb9dd	0.13742776
215	0xbccf83e1	-0.02533144
216	0xbe3c3423	-0.18379264
217	0xbda18dbf	-0.07888364
218	0xbe59b513	-0.2126048
219	0x3e09de5d	0.13463731
220	0xbd96154c	-0.07328281
221	0xbe47b71d	-0.19503446
222	0xbe31c8da	-0.17361775
223	0x3e143f20	0.14477205
224	0x3e13ec33	0.14445572
225	0xbe1fdaea	-0.15610853
226	0xbe04e1f3	-0.12976818
227	0xbe20569c	-0.15658039
228	0x3d47dbc0	0.048793554
229	0x3df90c55	0.12160555
230	0x3e19edc7	0.15032111
231	0xbdeed0cd	-0.11660919
232	0xb8b410cf	-8.5862e-05
233	0xbe396fab	-0.18109004
234	0xbd506fc3	-0.050887834
235	0xbe35e139	-0.17761697
236	0xbccae647	-0.024768008
237	0xbd843d1b	-0.064569674
238	0xbe55aac6	-0.20865926
239	0xbe08fa52	-0.1337674
240	0x3cdcc4bc	0.026949279
241	0x3bf54280	0.007484734
242	0x3e0ae6a8	0.13564551
243	0x3e0dd2b2	0.13849905
244	0xbe52af48	-0.20574677
245	0x3e3e64e1	0.1859317
246	0x3c7df1af	0.015499516
247	0x3cd7602c	0.026290976
248	0x3e0fb1c2	0.14032653
249	0xbcf61833	-0.030040836
250	0x3d54e0be	0.051972143
251	0x3caad9a1	0.020855727
252	0x3d53c60e	0.05170255
253	0xbdc9fc32	-0.098625556
254	0x3d9e38ef	0.07725703
255	0xbd938c9e	-0.07204555

blocks.0.residual_conv.bias f4 [64]
0	0x3a8c9212	0.0010724685
1	0x3b8529a4	0.004063802
2	0x3a4f2ba1	0.00079029246
3	0xbb8570d5	-0.0040722885
4	0xbb90ab86	-0.0044149784
5	0xbb8ab304	-0.004232766
6	0x3a9b879f	0.001186598
7	0xbb979d49	-0.004626904
8	0xbb7ec8be	-0.0038876976
9	0x3b738f3f	0.0037164239
10	0x3bb05047	0.0053806636
11	0xb895f264	-7.1500224e-05
12	0x3b65ce37	0.003506554
13	0xbb65eaab	-0.00350825
14	0x3ba2b106	0.0049649505
15	0xb9a38cc9	-0.00031194676
16	0x39bac43c	0.0003562289
17	0xbb3c0b9e	-0.0028693448
18	0x39fae4cf	0.00047854192
19	0x3b087d36	0.0020826585
20	0x3b0c4e61	0.0021409022
21	0xb941a99e	-0.00018469102
22	0xba990b2d	-0.0011676304
23	0xbacfe54b	-0.0015861181
24	0xba680f39	-0.0008852366
25	0xbb2e8015	-0.0026626636
26	0xbbb783e8	-0.0056004412
27	0x3b30cfe5	0.0026979384
28	0xbb975a71	-0.0046189358
29	0x3b6887dd	0.0035481371
30	0xbb98634b	-0.0046505085
31	0x3b1e1197	0.002411937
32	0xbba9fc0e	-0.005187518
33	0xbac6144e	-0.0015112252
34	0x3ab338b0	0.001367351
35	0x3b9177d7	0.004439335
36	0x3bd2ed34	0.006436968
37	0x3baa7bfe	0.0052027693
38	0xba2ed2de	-0.0006668995
39	0x3b8a79ed	0.0042259605
40	0x3a926922	0.0011170248
41	0x3ab4af14	0.0013785088
42	0x3b20939d	0.0024502047
43	0xb9baf451	-0.00035658714
44	0x3b8f5185	0.0043737316
45	0xbb8a3ab0	-0.004218422
46	0x3b969114	0.0045949314
47	0xbaa7e1b8	-0.0012808358
48	0xb8c3896d	-9.323922e-05
49	0x3b785ba2	0.0037896414
50	0x3b698573	0.003563252
51	0x3a828f60	0.0009960942
52	0x3aa13324	0.0012298566
53	0x3aa710c2	0.0012746083
54	0xbb610b96	-0.003433918
55	0x39f17648	0.00046055228
56	0x3a9a1d7f	0.0011758058
57	0xb9735cd2	-0.00023208864
58	0xbafaf6b0	-0.0019147005
59	0x3aabfbf1	0.0013121349
60	0x38cfb52a	9.9042736e-05
61	0xba86b90f	-0.001027854
62	0x3b428617	0.0029681975
63	0xbb9bb6d4	-0.0047520194

blocks.0.skip_conv.weight f4 [128, 64, 1, 1]
0	0xba8cd60e	-0.0010744946
1	0x3e21c373	0.15797214
2	0xbd03ace8	-0.032147318
3	0xbd192abc	-0.03739427
4	0x3dd10804	0.10206607
5	0xbd0fb404	-0.035083786
6	0xbd4f7e37	-0.050657477
7	0xbc49fa6a	-0.01232777
8	0x3e211cbd	0.15733619
9	0xbced3471	-0.02895567
10	0xbdd72f45	-0.10507063
11	0x3d964f00	0.07339287
12	0x3dda21ee	0.10651003
13	0x3e25bfc0	0.16186428
14	0x3d0d32f8	0.034472436
15	0x3e30e218	0.17273748
16	0xbda3c64e	-0.07996808
17	0x3d92e283	0.0717211
18	0x3d6a443d	0.057193983
19	0xbd5a6763	-0.053321254
20	0xbd2f9b83	-0.042872917
21	0x3de72282	0.11285879
22	0x3d1bd0d1	0.03804094
23	0x3e003eaf	0.12523912
24	0x3e09e83c	0.13467497
25	0x3db8e014	0.090271145
26	0xbe1d5f4f	-0.15368389
27	0xbd0b07ce	-0.03394299
28	0x3d185f50	0.037200272
29	0xbe2386d8	-0.15969408
30	0xbd8c19d5	-0.068408646
31	0x3e2cc0f8	0.16870487
32	0xbe27590a	-0.1634256
33	0xbcc2a243	-0.023759013
34	0x3e208113	0.15674238
35	0x3e3782c5	0.17920978
36	0x3c2e5f45	0.010642831
37	0xbdbdf7a4	-0.09275749
38	0xbe26d64e	-0.16292688
39	0xbd4c151f	-0.04982483
40	0xbdd2936a	-0.10282023
41	0xbda919c1	-0.08256865
42	0x38d7edf4	0.00010296321
43	0xbe13d9bb	-0.14438526
44	0x3db668bd	0.08906696
45	0x3e0a64b5	0.13514979
46	0x3e00c6aa	0.12575784
47	0xbd18305c	-0.037155494
48	0x3dd18b22	0.102316156
49	0x3e10e314	0.14149123
50	0x3de73ba6	0.11290674
51	0xbd46a8b2	-0.048500724
52	0xbe16f869	-0.14743198
53	0x3d7108c0	0.058846235
54	0x3d4f3231	0.050584976
55	0xbe024c3a	-0.1272439
56	0xbdeba97b	-0.11506935
57	0x3e186919	0.14883842
58	0xbdad9b5b	-0.08476897
59	0xbe1dd541	-0.15413381
60	0x3e25157f	0.16121481
61	0x3d1c9d0f	0.03823572
62	0x3db38931	0.087664016
63	0xbdb6015e	-0.088869795
64	0x3d3a60d0	0.045502484
65	0xbdf62525	-0.120188035
66	0xbdc7e9fe	-0.09761427
67	0xbdee9d06	-0.116510436
68	0xbe0e9ce4	-0.13927037
69	0x3cefe84b	0.02928557
70	0xbe017a78	-0.12644374
71	0x3d9d802c	0.076904625
72	0x3bd503fa	0.006500718
73	0xbe25e970	-0.1620233
74	0x3d8c5d8d	0.06853781
75	0x3da17c48	0.07885033
76	0x3e2c2008	0.16809094
77	0x3de194dd	0.110147215
78	0xbe20f008	-0.15716565
79	0xbe0b47a1	-0.13601543
80	0x3e2d7c03	0.16941838
81	0x3d699fd7	0.0570372
82	0x3e105939	0.14096536
83	0xbe031a13	-0.12802915
84	0x3e154f99	0.14581145
85	0x3e1fc44a	0.15602222
86	0xbcf782a8	-0.030213669
87	0xbe03a724	-0.12856728
88	0x3d400173	0.046876382
89	0x3d316224	0.043306485
90	0x3ddbfb3d	0.10741279
91	0x3da9bf09	0.0828839
92	0x3d384d24	0.044995442
93	0xbc70de89	-0.014701494
94	0xbde27f0b	-0.11059388
95	0x3ce77f93	0.028259074
96	0xbc3edf3a	-0.011649901
97	0x3dad9e6f	0.084774844
98	0xbd4f9d3e	-0.050687067
99	0x3bcbc006	0.0062179593
100	0x3d9ff577	0.078104906
101	0x3d918c64	0.071068555
102	0x3e126695	0.14296944
103	0x3cd69130	0.026192278
104	0x3ccdbef2	0.025115464
105	0x3d829746	0.06376509
106	0x3e0b229b	0.1358742
107	0xbd80e0bc	-0.06292865
108	0xbe29ab5c	-0.16569275
109	0x3e0d393d	0.13791366
110	0xbd262072	-0.040558286
111	0xbdb93752	-0.09043755
112	0x3d8f53f0	0.06998432
113	0x3df02a05	0.117267646
114	0xbe1341d8	-0.14380586
115	0xbd8f02b0	-0.069829345
116	0x3d68a100	0.056794167
117	0xbc19e468	-0.009392835
118	0x3a764f4c	0.00093959714
119	0xbd9c19cb	-0.07622107
120	0x3d96e65f	0.073681585
121	0x3e2a10d9	0.1660799
122	0x3c5ec0d7	0.013595781
123	0xbe27707c	-0.16351503
124	0x3e19a334	0.15003663
125	0x3e1a663b	0.1507806
126	0xbe0f1367	-0.13972245
127	0x3cfb11a2	0.030648056
128	0x3e2a9ac5	0.16660602
129	0xbe1c5ac6	-0.15269002
130	0x3e2e9b89	0.1705152
131	0xbcf31aa4	-0.02967579
132	0x3d24a748	0.040198594
133	0xbdde6e6a	-0.108609036
134	0xbd4bff43	-0.049803983
135	0xbded814b	-0.11596926
136	0x3e00e0b9	0.12585725
137	0x3d5158f1	0.05111021
138	0x3e04e052	0.12976196
139	0xbdf2268a	-0.11823757
140	0x3d9565cd	0.072948076
141	0xbe1715a3	-0.14754348
142	0x3ce60c49	0.02808203
143	0x3d7fc69f	0.06244528
144	0xbcdf222d	-0.027237976
145	0x3d5a89d5	0.053354103
146	0xbd63eb0b	-0.055644076
147	0x3e04dfe4	0.12976032
148	0xbc24cb0a	-0.010058174
149	0xbb86315d	-0.00409524
150	0x3e0934e3	0.13399081
151	0xbe2c625c	-0.16834396
152	0x3e14a569	0.14516224
153	0xbce16ff3	-0.027519202
154	0x3d6fbe41	0.05853105
155	0xbe038d4a	-0.12846866
156	0xbdcb4574	-0.099253565
157	0x3c2b814d	0.010467839
158	0x3e040852	0.12893799
159	0xbc3db03f	-0.011577665
160	0xbbae0bac	-0.00531145
161	0x3dc04c5c	0.093895644
162	0xbdd420a4	-0.10357788
163	0x3d1ac0c4	0.037781492
164	0x3e10b513	0.14131574
165	0xbe1c1575	-0.1524256
166	0x3e305238	0.17218864
167	0xbdaf4619	-0.08558292
168	0x3c8f2570	0.017473906
169	0x3c2c873c	0.010530289
170	0xbe1ee87e	-0.15518376
171	0x3e0c635d	0.13709779
172	0x3da2a4be	0.07941578
173	0xbd1e7488	-0.03868535
174	0x3e0fc0f9	0.14038457
175	0xbddb2d38	-0.10701984
176	0xbdc4bcf0	-0.096063495
177	0x3d136813	0.035987925
178	0xbdb78a2c	-0.08961901
179	0x3e07944c	0.13240165
180	0xbe2e8ee7	-0.170467
181	0xbe112be1	-0.14176895
182	0xbcc629be	-0.024189826
183	0xbcb54249	-0.022126334
184	0x3d946ea5	0.07247666
185	0x3d124812	0.035713263
186	0x3b332213	0.0027333542
187	0x3dbb0b6b	0.09133037
188	0xbe129efa	-0.14318457
189	0xbe07af87	-0.13250552
190	0x3bc229bf	0.0059253867
191	0xbe07aa72	-0.13248613
192	0xbe155ee8	-0.14586985
193	0x3dc47484	0.09592536
194	0xbdcaf501	-0.09910012
195	0x3d66f337	0.05638429
196	0x3dc50d3b	0.09621664
197	0x3cb3905f	0.021919427
198	0x3da39c43	0.07988789
199	0x3dc260b2	0.094910994
200	0xbddad2eb	-0.10684761
201	0x3e337f2f	0.17528985
202	0xbe26a454	-0.16273624
203	0xbd96e573	-0.07367983
204	0x3e0b594b	0.13608281
205	0xbde4f3cc	-0.11179313
206	0xbdaa73b4	-0.0832285
207	0x3df8ffd6	0.12158172
208	0xbe09276e	-0.13393947
209	0x3e1e18e9	0.1543919
210	0x3d6879ac	0.05675666
211	0xbdd44851	-0.10365356
212	0xbcff9128	-0.031197146
213	0xbd1e2867	-0.03861275
214	0x3df4d6dc	0.11955044
215	0x3d229348	0.03969124
216	0xbd2e348a	-0.042530574
217	0x3c1b2120	0.009468347
218	0xbc88cbe8	-0.016698793
219	0x3e1f6e6c	0.15569466
220	0xbde87646	-0.11350684
221	0xbc804a24	-0.015660353
222	0x3d9d4427	0.07679015
223	0x3ddc3ecb	0.10754164
224	0x3e04ce0c	0.12969226
225	0xbdd2945e	-0.10282205
226	0xbd71bf8d	-0.059020568
227	0xbc9c047e	-0.01904511
228	0x3d3e2002	0.046417244
229	0xbd853df9	-0.06505961
230	0xbe2de3cc	-0.16981429
231	0x3dfb8236	0.12280695
232	0x3dab7323	0.0837157
233	0xbe189e42	-0.1490412
234	0x3cad0ea1	0.02112514
235	0xbe14d24b	-0.14533345
236	0x3c0bc22e	0.008530183
237	0x3e23747e	0.15962407
238	0xbdf6396b	-0.1202267
239	0xbc475a0a	-0.012167463
240	0x3cb974b4	0.022638656
241	0xbd911ab6	-0.07085173
242	0x3e267f3d	0.16259475
243	0xbe013687	-0.12618457
244	0x3d2d7003	0.04234315
245	0x3d4dfbf5	0.050289113
246	0xbdf5b9fc	-0.11998364
247	0x3dab6d3a	0.08370443
248	0xbe12d924	-0.14340645
249	0xbd0bc3a8	-0.03412214
250	0x3df25162	0.11831929
251	0x3d50df90	0.050994456
252	0x3d2cb822	0.04216779
253	0xbcf73c35	-0.030180076
254	0x3d14fb69	0.036372576
255	0xbe321ee1	-0.17394592

blocks.0.skip_conv.bias f4 [128]
0	0x3b6053bb	0.0034229595
1	0x38bb14b1	8.920709e-05
2	0xba7727ca	-0.0009428231
3	0x3b11305e	0.0022154073
4	0x3a3b50c4	0.0007145519
5	0xbb416dd7	-0.0029514933
6	0xbb0bd3f1	-0.0021336044
7	0x3b629c76	0.0034578121
8	0xbb72cb6b	-0.0037047516
9	0xbb93e4a8	-0.004513342
10	0xba575e9d	-0.00082156976
11	0xbb7ca211	-0.0038548748
12	0x3b660288	0.0035096724
13	0xbb2aba5d	-0.0026051023
14	0x3b1221a4	0.0022297883
15	0x3bbb4062	0.005714462
16	0x3ba181e6	0.004928815
17	0xbb4879c4	-0.0030590156
18	0xbb92d6cf	-0.0044811736
19	0x3b6cffd0	0.0036163218
20	0x3b593134	0.00331409
21	0x3b91d5ef	0.0044505517
22	0xbb8257ff	-0.003977775
23	0x3aacbd82	0.0013179036
24	0xbb833282	-0.0040038237
25	0x3ba11786	0.0049161343
26	0x3a95af45	0.0011420032
27	0x37f4f372	2.920043e-05
28	0x3aef3081	0.0018248708
29	0x3b6f0cd6	0.0036476157
30	0xbb54c7d5	-0.0032467742
31	0x3b05cd8c	0.0020416705
32	0x3b8b56f3	0.0042523085
33	0x3b828b2a	0.003983875
34	0xbadb2be9	-0.001672146
35	0xbb8d2acb	-0.00430808
36	0xbb2e2a34	-0.0026575448
37	0x3b5ef05d	0.003401778
38	0x3b7d9dcc	0.003869879
39	0x3b12b644	0.002238647
40	0x3b433d0b	0.0029791023
41	0xbbb1cd43	-0.0054260804
42	0xbac4e1af	-0.0015020872
43	0x3916efa2	0.00014394385
44	0x3b1589e4	0.0022817785
45	0x3b8e5d3c	0.0043446105
46	0x3b376fc5	0.0027990204
47	0x395dbd47	0.00021146714
48	0x3b2b9ed2	0.0026187194
49	0xbb4c1e10	-0.0031145848
50	0x3bdbbd73	0.0067059337
51	0x3b7c73b5	0.0038521115
52	0x3b4a56c2	0.0030874466
53	0x3b55a8d0	0.003260184
54	0xbbbee0fc	-0.00582516
55	0xba5e1ad4	-0.00084726256
56	0xbad49be1	-0.0016220772
57	0xbb8cf737	-0.0043019312
58	0xbad1fbd3	-0.0016020484
59	0xbbb9e227	-0.0056727114
60	0x3ba0d854	0.004908601
61	0x3ace28d3	0.0015728719
62	0xba9e2260	-0.0012064688
63	0xbabb386e	-0.0014283785
64	0x3b2cb479	0.0026352687
65	0x3a5497d7	0.0008109784
66	0x3b821751	0.0039700647
67	0x3b2d65d9	0.002645841
68	0x3b8e9111	0.0043507894
69	0x3ba64c1e	0.005074992
70	0xbb9306c7	-0.004486892
71	0xbb559e57	-0.0032595599
72	0x3b366f6b	0.0027837406
73	0xbae57519	-0.0017506211
74	0x3b0fff20	0.0021972135
75	0x3ad2dd69	0.0016087714
76	0x3ba1d0fd	0.0049382434
77	0xbb03936a	-0.002007688
78	0x3b298333	0.0025865554
79	0xbb478412	-0.003044371
80	0x3a733bb1	0.0009278609
81	0x3bb399f9	0.0054810015
82	0x3b6e79fb	0.0036388624
83	0x3b4eb6d0	0.003154207
84	0xbb8b3e22	-0.00424935
85	0xbb8458b0	-0.0040388927
86	0xbb51aa0e	-0.003199223
87	0x3b8ce199	0.0042993543
88	0x3b232978	0.0024896543
89	0x3b89dfee	0.0042076027
90	0x3ac7b61e	0.001523677
91	0xbaaed5b2	-0.0013338833
92	0xba732ede	-0.0009276698
93	0xb8483706	-4.773496e-05
94	0xbb74c335	-0.0037347798
95	0x3b6fc32e	0.0036584842
96	0xbb368200	-0.0027848482
97	0xb97a402b	-0.00023865762
98	0xbb00ef7f	-0.0019674
99	0x3a6a4517	0.0008936687
100	0xbb6e0898	-0.003632104
101	0x3b2de6ff	0.002653539
102	0xbb24a42f	-0.0025122275
103	0xbb10d5e4	-0.0022100145
104	0x3b99228c	0.0046733078
105	0x3b8656ea	0.0040997164
106	0x3b98a15a	0.0046579065
107	0xbba9c56b	-0.0051810048
108	0xbb6ec9c5	-0.0036436182
109	0xbba38880	-0.0049906373
110	0x3b94c2fe	0.0045398464
111	0xbb674276	-0.0035287417
112	0x3b769cfc	0.003763019
113	0x390e5534	0.00013573916
114	0xbaeb0ffc	-0.0017933841
115	0xb9e19bec	-0.00043031515
116	0xbab8a378	-0.0014086803
117	0xb9e59a3d	-0.000437932
118	0xbb9f20ca	-0.0048562037
119	0xbb49b063	-0.00307753
120	0x3b9ffd25	0.004882472
121	0xbb990011	-0.0046691974
122	0x3b88b468	0.0041718967
123	0xbb67ae52	-0.0035351706
124	0xbb95b482	-0.0045686373
125	0xba3440f7	-0.00068761356
126	0x3bae884c	0.0053263064
127	0xbb3457f3	-0.0027518242

blocks.0.bn.weight f4 [64]
0	0x3f7f3b31	0.99699694
1	0x3f7fd8ff	0.99940485
2	0x3f8015b1	1.000662
3	0x3f803c54	1.0018411
4	0x3f801ae6	1.0008209
5	0x3f801943	1.0007709
6	0x3f80126e	1.0005624
7	0x3f7fcd1e	0.9992236
8	0x3f8015b2	1.0006621
9	0x3f7f0cff	0.99629205
10	0x3f8019c8	1.0007868
11	0x3f8039bc	1.0017619
12	0x3f801df9	1.0009147
13	0x3f807239	1.0034858
14	0x3f800b1d	1.0003392
15	0x3f806271	1.0030042
16	0x3f807f54	1.0038857
17	0x3f804b9b	1.0023073
18	0x3f7ebc3e	0.99505985
19	0x3f800c49	1.0003749
20	0x3f7f16d8	0.9964423
21	0x3f801b1a	1.0008271
22	0x3f7fb1d1	0.998807
23	0x3f800a78	1.0003195
24	0x3f802636	1.0011661
25	0x3f7f6a70	0.99771786
26	0x3f7ff0f8	0.99977064
27	0x3f8022c0	1.0010605
28	0x3f806df0	1.003355
29	0x3f7f52da	0.99735796
30	0x3f80205f	1.0009879
31	0x3f801ad3	1.0008186
32	0x3f7f7db1	0.99801165
33	0x3f7fa078	0.9985423
34	0x3f8013a0	1.0005989
35	0x3f8039be	1.0017622
36	0x3f803bf7	1.00183
37	0x3f801233	1.0005554
38	0x3f807c38	1.0037909
39	0x3f7ff480	0.9998245
40	0x3f7f2683	0.9966814
41	0x3f802d5d	1.0013844
42	0x3f801028	1.000493
43	0x3f8042ef	1.0020427
44	0x3f7fd5b6	0.9993547
45	0x3f7f0f22	0.99632466
46	0x3f8098a6	1.0046585
47	0x3f7ff05e	0.99976146
48	0x3f802568	1.0011415
49	0x3f8000ab	1.0000204
50	0x3f7fa48b	0.9986045
51	0x3f7fb76f	0.9988927
52	0x3f7fac75	0.99872524
53	0x3f800932	1.0002806
54	0x3f80203b	1.0009836
55	0x3f80286e	1.0012338
56	0x3f80a186	1.0049293
57	0x3f7f9ca3	0.99848384
58	0x3f7ff0b5	0.99976665
59	0x3f80338b	1.001573
60	0x3f805131	1.0024778
61	0x3f7f66e8	0.997664
62	0x3f7fca90	0.9991846
63	0x3f802710	1.0011921

blocks.0.bn.bias f4 [64]
0	0xbace873b	-0.0015756855
1	0xbb9284b0	-0.004471384
2	0xbbbc5c20	-0.005748287
3	0xbb2639a6	-0.002536395
4	0xbb158114	-0.0022812532
5	0x3b1fb171	0.0024367238
6	0x3a48a560	0.00076540373
7	0x3b4710ca	0.0030374997
8	0x3b0db94c	0.0021625338
9	0xbb458b76	-0.003014294
10	0x3b25c408	0.0025293846
11	0x3b928e36	0.0044725193
12	0xbb810933	-0.003937864
13	0xbb8e3cd7	-0.004340749
14	0x3b942d1b	0.0045219786
15	0x3bc63f7e	0.0060500493
16	0x3b5c9eff	0.0033664105
17	0x3a8b4218	0.0010624556
18	0xb8e4f86c	-0.000109181594
19	0xbb6541aa	-0.0034981766
20	0xbb1b7f92	-0.002372716
21	0xbad2455d	-0.00160424
22	0xbad4bc48	-0.0016230429
23	0xbbbf078f	-0.0058297585
24	0xba31c96e	-0.00067820295
25	0xbb06e4dd	-0.002058319
26	0xba73d1ae	-0.0009300959
27	0x3b26cf4b	0.0025453146
28	0x395951ba	0.00020725178
29	0x3999825e	0.00029279565
30	0xbb25788b	-0.002524885
31	0xbb708bf1	-0.0036704505
32	0xbb824794	-0.003975818
33	0xbba57986	-0.005049887
34	0x3bb311ad	0.0054647536
35	0xbb0c88eb	-0.0021443914
36	0xbb124750	-0.0022320338
37	0x39a32c25	0.00031122673
38	0x3ac29611	0.0014845749
39	0xbb55b900	-0.003261149
40	0x3ac955b9	0.001536063
41	0xbb5225ef	-0.0032066067
42	0xbb2bee26	-0.0026234477
43	0xbb7e6f22	-0.0038823565
44	0x3b90fc97	0.0044246423
45	0xbb933b08	-0.004493121
46	0xbb937246	-0.0044997064
47	0x3af02365	0.0018321095
48	0x3b544f63	0.003239595
49	0xbafcb586	-0.0019280172
50	0x3b9b80f7	0.0047455984
51	0xbbae53b2	-0.005320036
52	0xbb657bd9	-0.0035016446
53	0xb8e6edfa	-0.00011011581
54	0xbb6b81b6	-0.0035935468
55	0x3ae344e2	0.0017339254
56	0xb980725a	-0.0002449926
57	0xba9b698e	-0.0011857019
58	0xbab76222	-0.0013991038
59	0xbb4a6ab8	-0.0030886363
60	0xba6f32f2	-0.0009124718
61	0x3b2ed436	0.002667678
62	0x3adb2945	0.0016720673
63	0xb99d4495	-0.0002999647
