TGNN2026/artifacts_MTGNN1m_2SoftUtility/fold_02_weights.pt (torch, 802453 bytes, 83 tensors)

A_static f4 [3, 3]
000000 ab aa aa 3e ab aa aa 3e ab aa aa 3e ab aa aa 3e
       0.33333334 0.33333334 0.33333334 0.33333334
000010 ab aa aa 3e ab aa aa 3e ab aa aa 3e ab aa aa 3e
       0.33333334 0.33333334 0.33333334 0.33333334
000020 ab aa aa 3e
       0.33333334

in_proj.weight f4 [64, 15]
000000 cd 19 63 be 71 bb d7 bc 28 8a 28 be 78 8d ef bd
       -0.22177811 -0.026334496 -0.16458952 -0.11696905
000010 17 e7 d2 3d b8 93 90 3d 54 c8 0b bd 6d 27 48 be
       0.10297983 0.07059425 -0.034126595 -0.1954629
000020 99 2b 80 be 53 5f 3e be 38 13 3d be 82 63 cc 3c
       -0.25033262 -0.18591051 -0.18464363 0.024949793
000030 ef 29 e3 3d ad f4 29 be d6 df 38 bd 16 77 6c 3e
       0.110919826 -0.16597243 -0.04513534 0.23092303
000040 14 3d 85 3e 06 85 3f 3e df c8 9e bd b5 48 97 bd
       0.2602316 0.18703088 -0.07753157 -0.07386915
000050 55 eb 72 3e 8f d9 0b 3e 11 6a 90 bc 56 2a 0a be
       0.23722585 0.13657211 -0.017628701 -0.13492712
000060 1e be 3e be 9a 14 29 3e 84 b5 9f 3d 14 ca 2f be
       -0.18627211 0.16511765 0.07798293 -0.1716693
000070 6b fd 5c 3e 04 dc b6 bd 59 11 52 3e 6f 48 3b be
       0.21581046 -0.089286834 0.2051443 -0.1828935
000080 85 6f 1b 3d 72 3d 15 3e 0d 9e 4b 3e e5 66 10 bd
       0.03794815 0.14574221 0.1988451 -0.035254378
000090 f5 42 2b 3e c8 0d 0e be d6 23 b7 3c 1a c9 6d be
       0.16724761 -0.13872445 0.022355955 -0.23221245
0000a0 5b ff 2b be 60 4f 5a be 2e ae 57 be 61 ee 13 3e
       -0.16796629 -0.21319342 -0.21062538 0.14446403
0000b0 d4 95 26 be 60 ea c9 3c e5 9b 12 3e c6 c9 26 be
       -0.16268092 0.024647892 0.14317282 -0.16287908
0000c0 1e f0 03 be 19 42 45 be 6d e8 d0 bd b5 ed 86 be
       -0.12884566 -0.19263496 -0.10200582 -0.2635323
0000d0 08 a7 2c 3e cd ce 84 be 22 89 0d 3e 2b 19 76 be
       0.16860592 -0.25939026 0.13821843 -0.24033038
0000e0 5e f6 0d 3e f0 d6 00 3e 17 bc ab bc 15 80 4e be
       0.13863513 0.12581992 -0.020963712 -0.20166047
0000f0 bc d4 40 be 36 b1 12 3d 23 db c5 3c 9d e9 27 3e
       -0.18831152 0.035813533 0.024152344 0.1639771
000100 25 f0 8c be b3 d8 83 be 13 a4 b7 bd f5 ae f9 bd
       -0.27526966 -0.25751266 -0.089668415 -0.121915735
000110 20 13 08 be d7 ec 49 bc d3 b3 68 be 60 9c ab bd
       -0.13288546 -0.012324533 -0.22724847 -0.083794355
000120 34 a1 a3 bd dc a0 c2 bc e4 2d 18 bd 14 14 c7 bc
       -0.079897314 -0.023758344 -0.03715314 -0.024301566
000130 ac 7e 1c be 0c ad 41 3e ba 35 1b be 09 3d d3 bd
       -0.15282696 0.18913668 -0.15157214 -0.10314376
000140 b1 d8 81 3e 58 7c a4 3d 5f 1f 15 be f1 9f 78 bd
       0.25360635 0.08031529 -0.14562748 -0.060699407
000150 af 11 1d be 71 fb 67 3e 5f ec 27 3e 5f 1a 98 3d
       -0.15338777 0.22654511 0.16398762 0.07426905
000160 eb a1 83 3d 6c 35 51 bd ba f9 83 3e 7a 5c 98 3d
       0.06427368 -0.051076338 0.25776464 0.074395135
000170 c4 84 d1 3d d7 e9 5f 3e 51 c7 52 be 62 dc 2f 3e
       0.10230401 0.21866547 -0.20583846 0.17173913
000180 34 9a 3e be 27 66 3f bd 78 48 81 be 71 3b 22 be
       -0.18613511 -0.04672828 -0.25250602 -0.15842988
000190 1e 5b 25 bd d4 cf fc bd 6c bb 20 bc 9d 06 7f be
       -0.0403701 -0.123443276 -0.00981031 -0.24904867
0001a0 97 67 2e 3e ee 94 5d be cf 3e 11 be 48 7e d0 3d
       0.17031704 -0.21638843 -0.14184116 0.10180336
0001b0 a3 1d 2b bd 23 a3 1f 3e 42 f7 54 3e 02 ae 04 be
       -0.04177631 0.15589575 0.20797446 -0.12957004
0001c0 bf 43 2c be cc f1 5e be 1c c1 82 3e c3 9a 08 3d
       -0.16822718 -0.21771926 0.25537956 0.033350717
0001d0 92 3a 0c be 43 da 6a 3d 4a 6b 7b be 63 92 34 3e
       -0.13694218 0.057337057 -0.24552646 0.17633967
0001e0 ed 64 00 3c 0d 6d 78 3c 60 e4 c0 3d 19 32 19 be
       0.007836563 0.0151627185 0.09418559 -0.14960517
0001f0 4d a0 74 be 32 ba 30 3e c4 2f 67 3e 17 f5 39 be
       -0.23889275 0.17258528 0.22576815 -0.181599
000200 d9 61 64 3e 78 77 18 bc 53 ed 80 3e 9a 0d 0d 3d
       0.22302951 -0.009305827 0.25181064 0.0344368
000210 c6 10 8b 3e 6d 50 7a 3e 5b 25 20 3d e2 66 7d be
       0.27161235 0.24444743 0.039098125 -0.24746278
000220 d6 5a ea 3c 7b 59 87 be 2f 9b c9 3c 37 de fa bd
       0.028607767 -0.26435456 0.02461013 -0.12249415
000230 6b 35 bd 3d 36 e8 f6 3d b3 c5 ce 3c 7e 72 60 3d
       0.09238704 0.120560095 0.025240755 0.05479669
000240 23 bc a3 3d bf 1c 98 bd a1 e8 81 be ef a5 21 3c
       0.079948686 -0.07427358 -0.25372794 0.009866222
000250 03 2e 68 bd 17 81 73 bd 4f da 8b be 8a 87 24 3d
       -0.056684505 -0.05944928 -0.27314994 0.040168323
000260 90 07 20 be 74 57 ce bd 8d d4 3d bd 21 19 88 be
       -0.15627885 -0.10075274 -0.046345282 -0.26581672
000270 41 fa 27 bd c1 62 1d bd fa 73 19 bd f1 7d 34 3d
       -0.041010145 -0.038424257 -0.03746412 0.04406542
000280 95 eb 41 3d 72 8a be bd 68 a2 87 bc 88 8f d1 3d
       0.04734381 -0.0930375 -0.016556934 0.102324545
000290 80 81 58 be 12 ea 70 bd 8e fd af bd 1e 81 80 3e
       -0.2114315 -0.058816977 -0.085932836 0.2509851
0002a0 a8 71 17 be 8f ae 3c 3e 9a 93 5c bc 75 3d 83 be
       -0.1478945 0.18425964 -0.013462925 -0.25632825
0002b0 7f db 3e 3d 6e da 69 be 04 98 1e bd 4a b1 37 bd
       0.046596047 -0.2283723 -0.038719192 -0.04484681
0002c0 a8 94 2c be 24 76 1d 3e ac f0 96 3d 3c 67 c5 bd
       -0.16853583 0.15377098 0.07370123 -0.09638831
0002d0 68 97 2f be 52 ad 79 3e 08 fd 87 be dd dc 48 3e
       -0.171476 0.24382523 -0.26560235 0.19615503
0002e0 5d 37 81 3d b7 1d 54 3e 78 5e 19 be 0d 8c 01 be
       0.06309388 0.2071446 -0.14977443 -0.12651081
0002f0 c2 b9 b0 bd 64 59 00 3e 0e 07 13 3d 81 04 13 be
       -0.086291805 0.125341 0.0358954 -0.14357187
000300 6d 00 9d bd b1 37 57 be 94 d7 3f bd 86 d7 7c 3e
       -0.07666097 -0.21017338 -0.04683645 0.2469159
000310 8d ab ca bd 18 f6 f9 3d ab ad 09 3e cd 76 64 3e
       -0.09896002 0.12205142 0.13445155 0.22310944
000320 2c 2f b6 bd e7 59 9f 3d 21 e5 e5 3d 51 f9 17 3e
       -0.08895716 0.077808194 0.112253435 0.148412
000330 8b 73 b5 3d 0c 6f 2f be 39 c1 82 3d 94 93 84 be
       0.08859929 -0.17132205 0.063845105 -0.25893843
000340 63 a0 ee 3b 25 b0 c8 3d db b9 17 be 66 0b 06 bb
       0.007282303 0.09799222 -0.14816992 -0.0020453571
000350 74 66 a8 bd 75 3d 59 be e6 66 ef bd 55 5c 84 be
       -0.082226664 -0.2121485 -0.11689548 -0.25851694
000360 95 30 58 3c 9c 62 ad bd a5 4f 4d be f7 31 c7 3d
       0.013195177 -0.08466074 -0.20049913 0.09726327
000370 40 f9 3e 3d 5c 99 1e bd 8a e9 6e 3e 9e be 5e be
       0.046624422 -0.038720474 0.23331276 -0.21752402
000380 fd 35 68 be 06 eb 3e be c3 e2 a7 bd fc 33 18 be
       -0.22676845 -0.18644342 -0.08197548 -0.1486358
000390 4b c8 19 3e 4a b6 c3 3c 30 c1 a0 bd a5 ae 6c 3e
       0.15017812 0.023890633 -0.078493476 0.23113497
0003a0 2b 28 20 3e 52 0d 69 be 18 6d 81 be 11 fc 8b 3e
       0.15640323 -0.22758988 -0.25278544 0.2734075
0003b0 27 7f 60 be 26 83 5c be 51 93 d5 bd df 1a d3 bd
       -0.21923505 -0.21534404 -0.10428489 -0.1030786
0003c0 d6 98 01 3e 50 c4 d0 bd eb 67 2e 3e 57 48 a6 3c
       0.12655959 -0.10193694 0.17031829 0.020298166
0003d0 77 6e 93 bd 57 6c 7b 3e 85 8b 80 be 9e 07 18 be
       -0.07198804 0.24553047 -0.25106445 -0.14846656
0003e0 ff e1 c1 bc c2 fe 5a bd c5 6a 05 3e b1 c1 25 be
       -0.023667334 -0.053465612 0.1302901 -0.16187169
0003f0 2e 22 ad bd 00 b1 4e 3e e5 72 96 bc d9 c3 88 3e
       -0.08453785 0.20184708 -0.018365333 0.2671192

in_proj.bias f4 [64]
000000 b2 0c 8d b9 42 7f 35 3b 60 aa c9 ba 2e 58 91 bb
       -0.00026903074 0.002769426 -0.0015385859 -0.0044355607
000010 5d 32 11 3a 3e 34 20 3b 8f b4 71 3b 47 b8 0c 3a
       0.0005538816 0.0024445201 0.0036881303 0.00053680356
000020 9e 69 43 bb 89 b7 6e bb 93 be 33 3b 71 28 39 bb
       -0.0029817591 -0.0036425313 0.0027426824 -0.0028252865
000030 02 68 d8 3a 4b 08 70 bb 5f fc 56 3b 4d f3 05 3b
       0.0016510489 -0.0036626037 0.0032804233 0.0020439208
000040 61 02 42 3b 43 d7 24 bb b1 29 92 39 f9 77 83 bb
       0.0029603469 -0.002515272 0.00027878353 -0.0040121046
000050 d1 db c0 3a 7e bd 3a 3b d6 98 42 3b c5 f8 0f 3b
       0.0014713948 0.0028494294 0.0029693148 0.0021968347
000060 ad 20 69 3b 89 10 86 bb ab 61 5e 3b 08 31 41 3a
       0.0035572455 -0.0040913266 0.0033932726 0.0007369672
000070 fd 44 1d 3b f7 15 d4 3a f6 1b f2 3a 06 19 80 bb
       0.002399742 0.0016180862 0.0018471468 -0.003909233
000080 66 0a 17 bb 62 a9 17 b9 88 4d 8a bb bc d6 96 ba
       -0.002304697 -0.00014463582 -0.004220668 -0.0011508088
000090 54 af 8f bb d1 40 44 3a 32 91 8e ba 8f 9b 05 3b
       -0.0043849144 0.0007486465 -0.0010877012 0.002038691
0000a0 b3 1a 3e 3a b5 f3 37 ba 84 df 58 3b 26 94 45 ba
       0.00072519033 -0.0007017211 0.003309221 -0.00075370295
0000b0 35 ca 85 bb 52 06 68 bb 6e 9e 88 3b a0 3e 35 3b
       -0.004082943 -0.0035404158 0.004169277 0.0027655736
0000c0 03 a4 87 3a 5b 07 1f bb 3d 4a 56 3a d3 f5 8e ba
       0.0010348562 -0.0024265859 0.00081745145 -0.0010907002
0000d0 cf f9 35 3a fc dd 72 ba 34 e9 e2 ba 2b e8 70 bb
       0.00069418264 -0.00092646456 -0.0017311932 -0.0036759477
0000e0 27 36 09 3b d3 23 04 3b 84 f5 81 3b ed a8 54 3b
       0.0020936818 0.0020162954 0.0039660353 0.003244932
0000f0 57 df 3a bb ce c1 9e 3a 82 f2 79 3b 17 24 65 3b
       -0.0028514469 0.0012112202 0.003813893 0.0034964138

adapt.E1 f4 [3, 8]
000000 56 cf 2f bb dc 4f 85 3c 87 e4 7c b9 ec e7 c8 3c
       -0.0026826463 0.016273431 -0.00024117726 0.024524651
000010 d6 2c 01 ba da 55 5c bb 6d bc 23 bb fd e9 fd bb
       -0.00049276405 -0.0033620507 -0.0024984137 -0.007748841
000020 57 81 67 3c d7 74 8f bb 7b e2 dc 3b 7b 80 20 bb
       0.014129958 -0.004377942 0.0067408658 -0.0024490643
000030 ad ea 49 bc c4 22 12 3b 2e c6 d6 bb 13 6a fb b8
       -0.0123240175 0.0022298554 -0.0065543866 -0.000119883705
000040 5a 87 b9 bc b8 bb be bc 7b 36 65 bc 56 b9 2d ba
       -0.022647548 -0.02328287 -0.01399004 -0.00066270435
000050 ed 82 82 bb f4 67 11 3c 41 38 06 bc 3e 63 9c 3a
       -0.0039828927 0.008874882 -0.008192123 0.0011931432

adapt.E2 f4 [3, 8]
000000 f3 c9 36 bc 22 1b 06 bc 64 ee 9a 3b 53 01 a5 39
       -0.011156547 -0.00818518 0.0047281254 0.0003147224
000010 65 3b 5b bb 97 bc b2 3c c5 50 d4 3b 04 83 dc 38
       -0.003345215 0.021818442 0.006479355 0.00010514821
000020 8a d6 5d 3b d9 f8 19 bc aa 18 02 bc 08 f1 ed 39
       0.00338498 -0.009397709 -0.007940451 0.00045383745
000030 f8 fb 85 b8 ef 01 25 3c 27 31 29 3c 74 cb 25 3b
       -6.388867e-05 0.010071262 0.01032666 0.002529827
000040 d2 73 d2 bb 68 c2 9a 3b 7c 4f 49 3b 14 ad 06 bc
       -0.0064224983 0.004722882 0.0030717542 -0.008219976
000050 70 ca 00 3c a5 db 90 3b b3 54 91 bc 91 e0 22 bb
       0.007860765 0.004420715 -0.017740583 -0.002485309

support_mix.w_logits f4 [3]
000000 22 0f d0 38 c0 4f d0 b8 6e 8f d0 38
       9.9210316e-05 -9.9330675e-05 9.944929e-05

blocks.0.filter_conv.conv.weight f4 [64, 64, 1, 2]
000000 eb 81 8e 3a 0c d0 59 bc 46 1d 1a be 0b ce 41 3d
       0.0010872459 -0.013294231 -0.1505023 0.04731564
000010 63 ab 08 be b9 61 3d 3d 01 6f 63 bd 63 05 23 bd
       -0.13346629 0.046235774 -0.055525783 -0.03980006
000020 80 d0 4c 3d bc dd 76 3d 34 69 44 bd 57 fd f4 3d
       0.05000353 0.060270056 -0.047951892 0.11962383
000030 1a 60 ed 3d 9b 0b c1 3c 70 2e 82 3d 4c a2 29 bd
       0.115905955 0.023565104 0.063565135 -0.041414544
000040 30 2d d8 bd 6a 99 0b 3d cf 97 06 3d b5 5e 05 bd
       -0.10555494 0.034081854 0.03285962 -0.032561023
000050 92 d7 07 bc 82 49 13 be b7 09 81 3b 79 f1 c3 3d
       -0.008291142 -0.1438351 0.0039379257 0.09567542
000060 a0 b9 06 3e 3e 45 0f 3e a3 01 c3 3c 02 1a c4 3d
       0.13156748 0.13991258 0.023804491 0.09575273
000070 3f d2 d3 bd ef 45 45 3d 33 6e f9 bc b1 3c 1c 3e
       -0.10342836 0.048162397 -0.030448055 0.15257527
000080 e3 4b c4 3d 1c f2 b6 bd e9 c0 79 bd 62 98 cf 3d
       0.09584787 -0.089328974 -0.06097499 0.101364866
000090 b5 6e 59 bd 02 e2 3d bb f9 af 8d 3c 32 83 e3 3d
       -0.053084094 -0.0028973822 0.017295824 0.11109008
0000a0 e7 0b d6 bd 01 ff fa bd 5e e3 e4 bd a5 4f 24 3d
       -0.10451489 -0.122556694 -0.11176179 0.040115017
0000b0 70 fb 07 bb 41 4b 20 3d 33 df 02 3e 48 e3 1b be
       -0.0020749234 0.039134268 0.12780456 -0.1522342
0000c0 2c ec 8c bd e3 ec 8f 3d cd ba d5 3c 89 ca 60 3d
       -0.06880984 0.070276044 0.02609005 0.054880653
0000d0 bb ca 12 be fb e0 85 bd 1d dc 06 3e 0c 13 ba 3d
       -0.14335148 -0.06537052 0.13169904 0.09085664
0000e0 59 43 2a 3d 3d 69 0a be 76 cb 58 3d 56 6f 1b 3e
       0.041568134 -0.13516708 0.05292841 0.1517919
0000f0 8d c4 f1 bd b7 67 01 3e 58 04 19 be 43 0e 30 bd
       -0.11805067 0.1263722 -0.14943063 -0.04298235
000100 32 83 a2 3d d7 1a 83 3d 2d 51 24 3d 47 07 fc 3c
       0.0793518 0.06401604 0.040116478 0.030765189
000110 2d 42 11 3e 12 8d b9 bd c6 e4 cd ba b8 17 0f 3d
       0.141854 -0.0906011 -0.0015708439 0.03493473
000120 d1 c1 04 be 1a dc 3f 3d 7e 86 1b 3d bf 9a 81 bd
       -0.1296456 0.046840765 0.03797006 -0.063283436
000130 00 6b 18 be d7 c5 cd 3d 72 96 15 be b1 a3 32 3d
       -0.14884567 0.100475006 -0.14608172 0.04361314
000140 d6 c1 be bd 52 83 fc 3d 43 69 d7 bd 4d 27 2e 3d
       -0.09314315 0.12329735 -0.10518124 0.04251795
000150 f7 aa 2e 3d 6d 0b e4 3c 6c 46 81 3c 2f 61 d0 bd
       0.042643514 0.02783748 0.01578065 -0.10174786
000160 be a7 e6 3d 0e 59 6a bd c5 fd f0 ba 20 84 c8 3d
       0.11262463 -0.057213835 -0.0018386176 0.09790826
000170 90 8b 7c 3c 1e 5d 49 3d b3 50 e6 bd be c4 19 be
       0.015414134 0.04916107 -0.11245861 -0.15016457
000180 d4 ce 6d 38 c4 17 1d 3d 20 2d 3e 3d e6 5f 08 3e
       5.6697827e-05 0.038352743 0.046429753 0.13317832
000190 08 cf de 3b 7a b3 04 be fb 79 0a bd e7 e1 68 3d
       0.0067995824 -0.1295909 -0.033807736 0.056856062
0001a0 bf 94 11 be ba d6 44 bd e2 fb ba bd f2 a4 84 3a
       -0.14216898 -0.04805634 -0.09130074 0.0010119958
0001b0 7e 76 6a 3d b6 cc 20 bc c1 d1 a0 bd 5d 7b 16 be
       0.05724191 -0.009814432 -0.078525074 -0.14695497
0001c0 41 56 8b bc d8 ee 9b bc c5 3b 06 be 96 b0 cd 3d
       -0.017008903 -0.019034788 -0.13108738 0.10043447
0001d0 c8 24 fc 3d b7 24 27 bd 28 76 f8 bc 91 1a c8 3d
       0.12311703 -0.0408065 -0.030329779 0.09770692
0001e0 a2 b4 c8 bc c1 47 17 bd 3d 45 97 bd 7e e3 48 bc
       -0.024500195 -0.036933664 -0.07386253 -0.01226127
0001f0 b7 87 0b be cf de 02 3e c0 8a 00 bd 8c 9a 64 bd
       -0.1362599 0.12780307 -0.031382322 -0.05581145
000200 1c a4 f7 3c f5 37 03 be f0 a7 03 be b8 4b 1a 3e
       0.03022962 -0.12814315 -0.12857032 0.15067947
000210 70 ca 17 3e 6a 73 8c bb ef 1b 07 3e 59 b7 d8 bd
       0.14823318 -0.0042862194 0.1319425 -0.10581846
000220 e9 43 b7 3c 78 03 ce bd 77 a4 1f 3c d5 6f 83 3d
       0.02237125 -0.10059255 0.009743801 0.06417815
000230 2d 83 1a 3e 26 7b c0 bc 8e 66 91 3d eb 84 d2 3d
       0.15089102 -0.023496222 0.07099639 0.10279258
000240 ec 66 17 3e 1f 61 53 3d c5 79 a4 bd 19 21 64 bd
       0.14785355 0.051606294 -0.08031038 -0.055695627
000250 04 e6 8c bd 9b 86 1b be bd b7 52 3d cf fe d4 bc
       -0.068798095 -0.15188067 0.051444758 -0.026000408
000260 b2 df 0b 3e 98 fe 42 3d 82 19 c5 bc 16 c7 19 3c
       0.13659552 0.04760608 -0.024060015 0.009385845
000270 55 fd 00 bb 46 45 4b 3c 75 d5 36 3d c9 87 58 3d
       -0.0019682248 0.012406653 0.044637162 0.05286387
000280 4d ca 1b bd 54 95 02 3d 52 c6 c9 bd 66 7f b8 bd
       -0.038034726 0.03188069 -0.0985228 -0.09008674
000290 1c c8 52 bd 53 00 0f be 6d e6 e2 3d 56 cf 79 3d
       -0.05146037 -0.13964967 0.110791065 0.060988747
0002a0 1b 4c 5a bd a1 28 2a ba 40 6a 80 bc 51 96 13 3e
       -0.053295236 -0.00064910395 -0.015675664 0.1441281
0002b0 fe 1c 5f bd 07 c5 bf 3c 77 de 55 bd d4 85 ca 3d
       -0.05447101 0.02340938 -0.052214112 0.09888807
0002c0 ad bf 15 bd 7d 83 94 bd 2b 80 4a 3c 68 63 45 bd
       -0.03655975 -0.07251642 0.012359659 -0.048190504
0002d0 a8 b3 01 3e 85 bb 9b bd f2 00 b0 bc 12 e5 60 3d
       0.1266619 -0.07604126 -0.021484826 0.05490596
0002e0 7e 71 bf bd 7c f1 fc bd 45 66 86 3d a9 c4 ad 3d
       -0.09347819 -0.12350747 0.06562475 0.084847756
0002f0 22 82 d3 bd 51 87 c2 bc 48 cb 75 3d a1 c6 37 3d
       -0.10327555 -0.023746165 0.060008317 0.04486716
000300 44 21 c2 bd fb 62 4c bd 05 76 be 3d 1d 2f a8 3d
       -0.09479001 -0.049899083 0.09299854 0.08212111
000310 44 4c f7 bc 3a 24 94 bd f3 65 dd bd 9b bf 1d bb
       -0.030187733 -0.07233472 -0.10810461 -0.0024070505
000320 45 26 6b bd 07 c7 19 be a0 5c dd 3d a7 19 1a be
       -0.057409544 -0.15017329 0.108086824 -0.15048848
000330 d8 b4 b7 3d 4a eb 77 3d 70 c1 1b 3e 44 6d 80 3d
       0.0897004 0.060527124 0.1521051 0.06270841
000340 67 ee 6a bc 61 70 05 3d f5 32 da bd dd 1d 00 be
       -0.014339066 0.032577876 -0.106542505 -0.12511392
000350 d4 37 d8 bb 4d 79 0d be c0 48 f7 3c bd 1a 84 bd
       -0.006598452 -0.13815804 0.030186057 -0.064504124
000360 83 43 50 bd 9e 94 a4 bd 4a 9b c3 3d 89 df aa 3a
       -0.050845634 -0.08036159 0.095511034 0.0013036589
000370 21 a7 d6 3d 8b 45 ce bd bf 5f 9c 3d 3f af 18 be
       0.10481096 -0.10071858 0.076354496 -0.14910601
000380 12 40 21 3d 61 53 fd 3d 86 7d fc 3c b6 9b c0 3d
       0.039367743 0.12369419 0.030821573 0.094046995
000390 ef 3b 7b bd 63 a0 0c be 64 96 01 3e 34 ca 9f 3d
       -0.061336454 -0.13733058 0.12655026 0.07802239
0003a0 02 80 11 be 91 80 b5 bd 22 30 7e 3c 89 07 a0 bc
       -0.14208987 -0.08862413 0.015514405 -0.019534843
0003b0 df 7b 9a 3d 80 c5 db bc 92 89 16 be 54 2f b7 bd
       0.07543158 -0.026827574 -0.14700916 -0.08944574
0003c0 24 3c 18 3e 6e 4d bf bd 5a 07 e1 3d c6 5f e8 bc
       0.14866692 -0.093409404 0.1098773 -0.02836598
0003d0 ad c0 0b 3e c6 bb 0b 3e 0c a4 02 3c 16 d0 6f 3d
       0.13647719 0.13645849 0.007973682 0.058548056
0003e0 19 f3 a8 bc 3d d2 0e be 54 fa bd bd c6 8f 03 3e
       -0.02062373 -0.13947387 -0.09276262 0.12847814
0003f0 b3 8a 8d bd 06 ab 16 3e f1 97 45 3d 94 6b cb 3d
       -0.069112204 0.14713678 0.048240606 0.09932628

blocks.0.filter_conv.conv.bias f4 [64]
000000 f0 fb 3e bb c7 49 03 3b 57 6a c3 ba 22 85 53 3b
       -0.0029141866 0.0020032988 -0.0014909011 0.0032275398
000010 5f 04 31 bb 99 b7 4c 3b 38 78 06 bb fa 13 8d bb
       -0.0027010662 0.0031237362 -0.0020518433 -0.00430536
000020 03 9e ba 3a 3e 77 81 3b 3f c4 64 bb ab a8 7d 3b
       0.0014237765 0.0039509824 -0.003490701 0.003870527
000030 cb 95 f8 ba c1 99 ee ba 3b 70 14 3b 17 6d 5f 3b
       -0.001896554 -0.0018203781 0.0022649902 0.0034092122
000040 81 5b fc b8 b1 99 8d 3a 2a 37 bb 39 5a b5 33 3b
       -0.0001203334 0.001080325 0.0003570852 0.0027421326
000050 4b 22 6d bb be e5 96 3b 62 c9 90 3b f5 f0 36 bb
       -0.003618377 0.004605024 0.004418538 -0.0027914618
000060 a8 30 50 bb 63 7b 4c bb 01 87 f2 3a d3 58 ac b9
       -0.0031767283 -0.0031201474 0.0018503369 -0.00032872576
000070 f7 86 9a ba 39 c0 1f 3b 99 10 92 39 86 e7 ad 3a
       -0.001178949 0.0024376048 0.00027859656 0.0013267852
000080 0d 76 25 3b 25 1e 03 ba 4e ca 84 39 94 fe 62 3b
       0.0025247366 -0.00050017453 0.0002532773 0.0034636604
000090 fa b7 a2 39 ea ff 8c 3b b1 36 6a b9 84 a4 8a 3a
       0.0003103612 0.0043029683 -0.00022336353 0.0010577594
0000a0 65 f1 20 3b 1b 24 22 3a 1a 27 16 ba 39 96 2d bb
       0.0024557945 0.00061851897 -0.00057278725 -0.0026487245
0000b0 17 54 97 3b 51 1a 6f 3b 57 e5 16 3b 62 50 f4 ba
       0.0046181786 0.0036484192 0.002302488 -0.0018639679
0000c0 cc fd 2e 3a 74 70 86 3b 81 f6 31 ba 99 ba 0d ba
       0.0006675392 0.004102761 -0.0006788746 -0.00054065284
0000d0 15 e1 d9 ba 6d 73 8d bb 06 c0 02 3b a4 12 5a 3a
       -0.0016622866 -0.0043167383 0.001995088 0.00083188177
0000e0 cc 27 8f 3a ef 2a 89 3a bd 93 e5 3a bb f0 3d 3a
       0.0010921895 0.0010465066 0.0017515343 0.00072456495
0000f0 78 19 5d 3b dd 5d df b9 f6 20 f7 ba 66 15 5a 3b
       0.0033737104 -0.00042603808 -0.0018854428 0.0033276915

blocks.0.gate_conv.conv.weight f4 [64, 64, 1, 2]
000000 62 52 a2 bd d3 b4 d3 3d 85 7b e2 3d b2 92 85 3c
       -0.079258695 0.10337224 0.11058716 0.016305301
000010 97 c1 6c bd 89 7f 5b 3c 85 77 97 3d 45 e4 a6 3c
       -0.05780181 0.013397106 0.073958434 0.02037252
000020 e5 6f 7b bc a8 6b 0d 3d 09 35 d3 bb 28 52 54 3d
       -0.015346502 0.034526497 -0.0064455313 0.051836163
000030 36 93 96 bd a4 52 4b 3d 14 76 f9 3d d9 24 1f 3d
       -0.07352297 0.04963936 0.12180725 0.0388535
000040 1f e4 dc bd b7 8b 93 3d 66 b6 e9 bd b5 e6 9d bd
       -0.10785698 0.07204383 -0.11411743 -0.077100195
000050 90 0f bd 3d 2f 2f 46 3d 5e f1 f5 3c bd e8 0b bc
       0.09231484 0.04838484 0.03002232 -0.008539376
000060 aa 9a d0 3d 25 95 5c bd 2b 50 07 be 2b 17 a1 bd
       0.1018575 -0.053853173 -0.13214175 -0.07865747
000070 3c 1e 3e 3d 31 95 72 bd 99 2f ea bb 26 45 8e 3d
       0.046415552 -0.05922431 -0.0071467874 0.06946783
000080 4b 2a 3c 3d b3 cd 80 bb c3 c7 1c 3e 4d dc 7e bd
       0.04593877 -0.0039307713 0.15310578 -0.062221814
000090 c5 c6 c5 bd 8a 28 9b bc 31 6c ce bd 1a 6e 8d 3c
       -0.09657053 -0.018940229 -0.100792296 0.017264415
0000a0 17 75 b5 bc a4 22 4c 3d 6f 01 39 bd 76 bb 0b be
       -0.02215056 0.049837723 -0.045167383 -0.1364573
0000b0 e5 3c da 3c 50 92 d5 bd 3b f3 d1 3c 16 b3 df 3d
       0.026640365 -0.104282975 0.025628677 0.1092283
0000c0 24 a1 a8 bd f1 71 93 bd 41 f1 75 3d 99 16 1d be
       -0.0823386 -0.07199467 0.06004453 -0.15340652
0000d0 ec 82 01 be 9b 43 d0 bd b6 81 36 3d 66 5e fd 3d
       -0.12647599 -0.10169145 0.044557296 0.12371521
0000e0 5f c5 64 3c 1e ab e9 bd 68 fc e4 bd bc 06 db 3d
       0.013963073 -0.11409591 -0.11180955 0.10694644
0000f0 5e 4d 8c 3d c2 d5 14 3e 08 6d ea bd 9e f4 11 bd
       0.06850694 0.14534667 -0.11446577 -0.035633676
000100 93 d7 85 3d e5 ff 1f 3d 50 3d 24 bd b4 64 19 3e
       0.06535258 0.0390624 -0.040097535 0.14979821
000110 3e d7 a0 bd b8 ea 0c be 05 f6 0b be 2a d4 fc bd
       -0.07853554 -0.13761413 -0.13668068 -0.123451546
000120 e1 ea dd 3c 54 6a a9 3d 44 cd 3d bc ff 85 e1 3c
       0.027089538 0.082722336 -0.011584584 0.027529715
000130 b1 d7 a9 3d 82 3a 1b be 36 07 93 bd 4a 04 6f 3d
       0.08293093 -0.15159038 -0.0717911 0.0583537
000140 d2 c0 c8 bd be fe 4d 3d 87 81 d2 3c 03 3f 1a be
       -0.098024026 0.05029177 0.02569653 -0.150631
000150 73 ee a6 3d c7 0e 83 bd 41 df 83 bd fb d5 e7 3b
       0.08150949 -0.06399303 -0.06439067 0.007075069
000160 40 89 15 3c 86 df cb bd 2b a4 f8 3d 0e 5f d1 bd
       0.009126961 -0.09954743 0.121406876 -0.10223208
000170 ee bc 3a 3c b9 09 14 be a1 8d 94 bd 68 61 b3 3d
       0.011397583 -0.14456834 -0.07253576 0.08758813
000180 a0 9b 8a 3b 99 cd 32 3d 00 62 06 bd 72 df 92 3d
       0.0042299777 0.043653104 -0.032808304 0.07171525
000190 74 54 1d bd 32 96 de 3d 14 31 c6 3d 07 5f 58 3b
       -0.03841062 0.10868491 0.0967733 0.0033015625
0001a0 35 34 15 bd 4b 18 d5 3d 39 5c 0d 3e 90 52 56 3d
       -0.03642674 0.10405024 0.13804711 0.05232483
0001b0 5a 2b 76 bd 27 04 13 be 73 71 1a 3c 3f e8 91 bd
       -0.060099937 -0.14357053 0.009426462 -0.071243756
0001c0 5e 8d 67 3d 99 93 17 be 40 fd ca 3b 3c f5 ed bd
       0.056531303 -0.14802398 0.0061947405 -0.1161904
0001d0 b5 52 3b bd 82 7e a5 bd ea a6 51 bd 75 ed df bc
       -0.045733172 -0.0808077 -0.051184572 -0.027334908
0001e0 e6 db cf bb a7 0e e3 bd 97 3b bb bd f3 b2 06 3e
       -0.0063433526 -0.11086779 -0.09142225 0.13154201
0001f0 25 96 b5 bd 9e 7a da bd 5e b0 08 be 9e af 8a 3d
       -0.088665284 -0.106679186 -0.13348529 0.067717776
000200 c9 d0 ca 3d 2c a1 ea 3d 54 a4 0a be ba e0 ea 3d
       0.09903104 0.11456522 -0.13539249 0.114686444
000210 72 be 05 be f1 63 14 bd 60 bb fb bd 8c 2e bc bd
       -0.1306093 -0.036228124 -0.12291598 -0.091885656
000220 a3 09 4d bd 7c f3 b3 3d a3 60 c8 3d 43 56 f1 3d
       -0.05005802 0.08786675 0.09784057 0.11784031
000230 ce 25 16 bd ea 39 ee 3d e1 08 a1 3d 42 38 c0 bb
       -0.036657147 0.1163214 0.07863022 -0.0058660815
000240 b0 97 ab bc 75 c1 82 3d 21 7e fb bd 6a 03 17 be
       -0.020946354 0.06384555 -0.122799166 -0.14747396
000250 3d 6e fe bd 25 7c b0 bd 47 d9 ad bd fb da 19 3e
       -0.1242337 -0.08617429 -0.08488708 0.1502494
000260 11 f9 b1 bd 4f e9 10 be c5 d9 cd bc c9 f6 8b bc
       -0.08690084 -0.141515 -0.025128255 -0.01708545
000270 c6 54 0c bd 4f ab 8d bb 52 41 79 3c 65 9a 98 3c
       -0.034260534 -0.0043234 0.0152133275 0.018628309
000280 ce 37 a8 3d ab fc 15 3e 0a 17 80 bd 92 f3 65 3d
       0.08213769 0.14647166 -0.06254394 0.05614049
000290 98 13 cf bd 6d cb 6e bd 18 f0 b3 bb 7b 77 eb bd
       -0.10111159 -0.05829947 -0.005491268 -0.114973985
0002a0 79 ad 00 3e 1b a6 98 bd 5d 5c 8b 3c 04 73 50 3d
       0.12566175 -0.07453557 0.017011816 0.050890937
0002b0 95 2a 19 3e ff 17 4f bd a5 6f c5 bd fc ba 30 38
       0.1495765 -0.050559994 -0.09640435 4.2135813e-05
0002c0 80 f3 9c 3c 19 58 20 3d b9 aa 82 3d 33 af 96 bd
       0.019159079 0.039146516 0.06380219 -0.07357635
0002d0 f8 bd 7b 3d fb cb f9 bd a2 b7 4c 3d e1 df 08 3e
       0.061460465 -0.12197109 0.049979813 0.13366653
0002e0 7f 6c d7 3d b8 6c cf 3d d9 d0 bf 3d b4 5a bc 3c
       0.10518741 0.10128158 0.093660064 0.02299247
0002f0 0c de be bd d4 dc b6 bd c5 4b 0b bd f3 32 9b bd
       -0.09319696 -0.08928838 -0.034007806 -0.07578077
000300 a8 99 99 bd f5 86 9d bd 29 58 c0 3c a6 33 85 3d
       -0.07500011 -0.07691757 0.023479538 0.06503992
000310 1d 5d c9 bd de f9 14 3e 17 56 41 3c e1 33 0b 3e
       -0.09832213 0.14548442 0.011800311 0.13594009
000320 7f c1 ab 3d cb 01 f7 3b cc 76 8d bd c6 fa fe 3d
       0.08386516 0.0075380555 -0.06907424 0.12450175
000330 ec 6b a0 bd b5 25 c6 3c 63 97 37 bd 86 db 16 3e
       -0.078330845 0.024187902 -0.044822108 0.14732179
000340 9c c5 19 3e 52 a4 e9 bd 6c b3 15 3e 56 88 0a 3e
       0.15016788 -0.11408295 0.14619225 0.1352857
000350 48 66 bc bc 39 6f b2 bd 05 fc 6f bc 23 a3 e8 3d
       -0.02299799 -0.0871262 -0.0146474885 0.11359241
000360 77 81 ae 3d e6 4a 9d 3d 2f ba a3 38 a1 55 ac 3d
       0.08520787 0.07680301 7.807125e-05 0.0841477
000370 d8 5d ca 3d f1 98 19 3e 16 9d 30 bd 51 80 16 3e
       0.098811805 0.14999749 -0.04311856 0.14697386
000380 9c bb ee bd 06 61 63 bd 13 d5 3f bb 4a 31 71 bc
       -0.116568774 -0.05551245 -0.002927129 -0.014721224
000390 58 97 fb 3d d6 1c ae bc d8 41 8d 3d 8e 0f 01 bd
       0.12284726 -0.021253984 0.06897324 -0.031508975
0003a0 14 86 a4 bd 43 d9 13 be ef 66 f4 ba 30 47 ed 3d
       -0.08033386 -0.14438348 -0.0018646399 0.115858436
0003b0 93 e5 cb bd 00 c0 19 3e 7c 5d ed 3c 93 a1 8e bd
       -0.09955897 0.15014648 0.02897524 -0.069644116
0003c0 70 ca 1f 3d 51 74 c7 bd 59 43 47 3d 3d 72 32 3d
       0.03901142 -0.097389825 0.048648212 0.043565977
0003d0 13 18 42 3d 3a 42 ad 3d 5c d3 0e 3e 67 e3 0d bd
       0.04738624 0.08459897 0.13947815 -0.034640696
0003e0 9e 8f a3 3d 0a 0d 29 3d ce 82 27 3c 11 98 1c 3d
       0.07986377 0.0412722 0.010224057 0.03823096
0003f0 00 5a e6 3c 8f c2 08 3e 19 9f 6e 3d d6 e9 b8 bc
       0.028119087 0.13355468 0.058257196 -0.02257244

blocks.0.gate_conv.conv.bias f4 [64]
000000 12 0b 20 3b 7a a5 5d 38 c5 96 e7 3a aa fc 84 ba
       0.002442066 5.2844618e-05 0.0017668834 -0.00101461
000010 20 0d 9d 3a f0 66 a0 ba b0 bb dc 39 f5 8c 35 3b
       0.0011982061 -0.0012237709 0.00042101508 0.0027702425
000020 84 49 a5 3a 46 d8 96 3a 99 a2 f3 3a 58 d3 41 b9
       0.001261041 0.0011508546 0.0018587887 -0.00018484646
000030 bd 8e 22 3b ba 7c c3 3a 25 fc 1e 3b 16 54 28 b9
       0.0024804317 0.0014914491 0.0024259177 -0.00016053053
000040 8e bd 03 b9 ef 50 4d bb e0 16 87 ba 98 1a af ba
       -0.00012563748 -0.0031328758 -0.00103065 -0.0013359366
000050 6d 48 7f 3b 4a 66 34 ba a4 c7 fc ba c3 a3 c0 3a
       0.0038953081 -0.00068816973 -0.0019285572 0.0014697242
000060 25 b5 5d bb 14 08 2c 3b 70 01 d8 38 b4 40 bd ba
       -0.0033829894 0.0026249932 0.000102999504 -0.0014438839
000070 bb b2 42 3a 6b 02 51 39 f8 75 b5 b9 bf 00 21 bb
       0.00074271456 0.00019932694 -0.00034610904 -0.0024567095
000080 b2 eb 12 ba fa 6d f8 3a 4d c0 2a bb 71 a1 0f 3b
       -0.00056045793 0.0018953674 -0.0026054562 0.0021916295
000090 11 3a 42 ba 19 11 5e ba 14 c2 a0 ba 7c 2f 3d bb
       -0.0007409165 -0.00084711757 -0.0012264871 -0.0028867414
0000a0 78 cc 08 bb 21 71 25 3a d1 a5 4e b8 38 96 c0 ba
       -0.0020873826 0.0006311108 -4.9268656e-05 -0.0014693206
0000b0 ea 10 95 3b 54 71 1e bb 6e 95 5f 39 03 c2 68 bb
       0.0045491355 -0.0024176436 0.00021322604 -0.003551603
0000c0 bc 03 4d 3a 26 9b 62 3b 44 63 e8 b8 db fa a8 ba
       0.0007820686 0.003457734 -0.00011081112 -0.0012892144
0000d0 95 ac a8 b9 36 d5 88 b9 7e 21 4a 3b f2 c7 c9 ba
       -0.0003217204 -0.00026098796 0.0030842717 -0.0015394671
0000e0 4e eb 09 bb 42 49 22 3b 2f 3e fd b8 51 7f e4 b9
       -0.0021044794 0.0024762903 -0.00012075563 -0.00043582407
0000f0 00 8b 01 3a 66 ea 89 3a 56 bb 2c bb 8c 10 14 3b
       0.0004941672 0.0010522127 -0.0026356778 0.002259287

blocks.0.residual_conv.weight f4 [64, 64, 1, 1]
000000 b4 94 a7 3d d9 a1 40 be 1c 99 18 3e c6 24 94 bd
       0.0818266 -0.1881174 0.14902157 -0.072335765
000010 2a fc 1f 3e 1b e6 57 3e 92 d3 52 3d dc 3e 4f 3e
       0.15623537 0.21083872 0.0514713 0.20238823
000020 5c d4 49 3d 34 90 12 be 9e 7e 21 3d ae 41 0e bd
       0.049274787 -0.14312822 0.039427392 -0.034730606
000030 c1 ea e2 bc 49 53 a1 bc 20 a2 42 3d f9 e6 2c be
       -0.02769983 -0.019693034 0.047517896 -0.16884984
000040 dd a1 2c be 21 0b 1a 3e ac 8f 3b 3d aa 5c 03 3d
       -0.16858621 0.15043308 0.045791313 0.032070793
000050 84 67 3c be e6 91 2c be 80 29 51 be e2 3e d0 3d
       -0.18398863 -0.16852531 -0.20425987 0.10168244
000060 03 a0 44 be 9b 37 69 bc f2 78 03 bd 48 e7 18 be
       -0.19201665 -0.014234449 -0.032097764 -0.14931977
000070 48 80 91 3d 77 06 4c be 0c 26 70 bd 98 4d 05 be
       0.07104546 -0.19924341 -0.058630034 -0.13017881
000080 ad 54 10 be 92 a7 33 3e d2 71 ba 3d 8e 0d f3 3d
       -0.14094801 0.17544392 0.09103741 0.1186782
000090 bf d7 4d 3d 38 86 cb 3d 5f c7 ee bd 5f a5 f4 3d
       0.05025458 0.099377096 -0.11659121 0.119456045
0000a0 7a dc 33 be 7c 57 e9 3d ea cf b9 3c 44 40 fd 3c
       -0.17564574 0.113936394 0.022682149 0.030914433
0000b0 c1 97 f6 3d cd 3f 13 be 78 09 0a 3e 37 9d 98 3d
       0.120406635 -0.14379807 0.13480175 0.07451861
0000c0 bc 20 59 bd 9b ca ab 3d ec 16 67 bd 29 04 1d be
       -0.053009734 0.08388253 -0.056418344 -0.15333618
0000d0 51 fd 14 3e 15 e8 e9 3d 8e e9 ef bb a2 89 10 be
       0.14549758 0.11421219 -0.007321543 -0.14115003
0000e0 33 d9 bb 3b 1a b8 df bd ab a9 36 bc b1 19 a1 3c
       0.0057326793 -0.109237865 -0.01114885 0.01966557
0000f0 41 b5 92 bd 8f e5 44 3d bf d6 63 bd ae fb 34 3c
       -0.07163478 0.048070487 -0.05562472 0.011046333
000100 48 56 05 3e 9e 1a 53 3e cd 94 53 3d 6c 43 9c 3c
       0.13021195 0.20615622 0.05165558 0.019075118
000110 a9 ad 47 bd e2 3d a2 3c ba 0e f1 bd 73 2a 12 bd
       -0.0487496 0.019804899 -0.11770387 -0.035685014
000120 f8 5f 54 bd 3e c5 17 be 95 26 2e 3e 62 86 61 bd
       -0.051849335 -0.14821336 0.17006905 -0.055059798
000130 c3 f7 2e 3e c6 ff 97 bd 95 67 9f 3d 31 a2 3a 3e
       0.17086701 -0.07421832 0.077834286 0.18225934
000140 3c 79 86 3d 21 94 44 3d b2 40 5c be ed 86 a8 3c
       0.06566092 0.04799283 -0.21509054 0.02057215
000150 1c e5 11 3a d7 cb ef 3d 83 1e 14 3c 8d eb 3e 3e
       0.0005565451 0.11708801 0.009040478 0.18644543
000160 8a 0b df 3d 79 b2 55 3e 90 7e 12 3e 7b 54 11 bc
       0.10890873 0.20868863 0.14306092 -0.008870239
000170 d1 9a 3e 3e a0 a9 8e 3d 44 95 b0 3c d3 54 34 3e
       0.18613745 0.06965947 0.02155555 0.17610483
000180 c1 77 3c 3d 1d 4b 06 3e a5 34 eb bd 58 f4 19 be
       0.046012644 0.13114591 -0.114846505 -0.15034616
000190 99 aa be bc 3c cb 65 3d d7 ec 0c be e8 8c c3 bd
       -0.023274707 0.056102023 -0.13762222 -0.0954836
0001a0 fd c8 74 3d 2a c5 57 be 20 81 a2 3d 54 d3 10 3b
       0.05976199 -0.21071306 0.07934785 0.0022098618
0001b0 82 9e 14 3c 9d 2c 01 3b 69 28 32 bc c5 9c 36 3d
       0.009070994 0.001971043 -0.010873892 0.0445831
0001c0 c7 67 45 3e f0 bb 2c bd d1 a2 06 3e cc 3f 5a 3e
       0.19277869 -0.04217142 0.13148047 0.21313399
0001d0 c4 ca 78 bd 06 61 cc bd a2 4a 59 be 01 82 b0 bc
       -0.060740247 -0.09979443 -0.21219876 -0.021546366
0001e0 37 53 70 bd b6 2a 1d 3d 16 ab aa 3d 07 84 f7 bc
       -0.05867311 0.03837081 0.08333413 -0.030214323
0001f0 06 02 4e 3d a0 9e c9 3d 15 7d 0b be c8 58 05 3c
       0.0502949 0.098447084 -0.13621934 0.008138843
000200 e0 d2 22 3e f7 87 01 be 42 f8 96 3d 1d 95 4b be
       0.15900755 -0.12649523 0.0737157 -0.19881101
000210 9a f7 39 3e 16 94 6a 3d bb 01 46 3e 89 a1 e9 3d
       0.18160859 0.057270132 0.19336598 0.114077635
000220 46 3b 0e 3d 9c 1e 43 be 73 48 13 be 64 66 53 3e
       0.034724496 -0.19054645 -0.14383106 0.20644528
000230 6b 73 38 3e c8 a9 cf 3d d5 f0 4a 3b 40 6b 03 be
       0.18012778 0.10139805 0.00309663 -0.12833881
000240 e4 4c 9b bd fa 93 e4 bd b9 ae 3e 3e 02 75 3e be
       -0.07583025 -0.11161037 0.18621339 -0.18599322
000250 d2 a5 47 be 65 54 86 3d d2 22 54 be b6 29 c4 3c
       -0.19496849 0.06559066 -0.20716408 0.02394567
000260 9a 6c 0c be a4 63 a1 bd 67 93 45 3d c5 03 18 3e
       -0.13713303 -0.07880333 0.048236277 0.14845188
000270 e6 1e f3 bd 83 12 27 be e0 06 35 be 19 2e 4a 3e
       -0.11871128 -0.16315655 -0.17678404 0.19744147
000280 51 e9 c3 bd 6c b3 82 3d 60 e8 1a 3d bd ae a4 3c
       -0.09565986 0.06381878 0.037819266 0.020102853
000290 a4 29 c6 3c c0 41 a1 bc a1 fc cc bd b0 e5 f0 bd
       0.024189778 -0.019684672 -0.10009123 -0.117625594
0002a0 bd db 80 bd 5c d3 44 3e 82 dd b6 3d a0 c9 58 3e
       -0.06291912 0.19221252 0.08928968 0.21170664
0002b0 ff b7 4c bc bf 5f 2d 3d ed f6 c9 bd a4 1d a3 3d
       -0.01249504 0.04232764 -0.098615505 0.07964638
0002c0 f9 43 fb bd 1d af 27 3c 22 9a 4f bc 12 61 22 be
       -0.12268824 0.010234621 -0.0126710255 -0.15857342
0002d0 b8 66 4f 3c 41 86 89 3c 73 02 15 3e f1 38 0b be
       0.012658767 0.01678765 0.14551716 -0.1359594
0002e0 a4 7d 18 3e 8c e9 b6 ba 84 84 c3 bd 3f 7a e8 bd
       0.14891678 -0.00139551 -0.0954676 -0.113514416
0002f0 f8 17 3d be 26 13 01 be 39 6e d6 bd c0 9a f9 3d
       -0.18466175 -0.12604961 -0.10470242 0.12187719
000300 4c 0f 3f 3e 71 7a 88 3d 08 76 2c 3e e6 c9 b5 3d
       0.18658179 0.06663979 0.168419 0.088764
000310 00 15 af bc 4d 73 42 3d 72 55 05 be c0 be 60 be
       -0.021372318 0.04747324 -0.13020876 -0.21947765
000320 16 13 ce 3d 09 17 a9 3c 4e a5 d7 3c 9c 96 a9 bd
       0.10062234 0.020640867 0.02632394 -0.082806796
000330 97 de a0 3d 9f c6 0c 3e 0a b5 10 3d 47 ca 3f be
       0.07854956 0.13747643 0.035328902 -0.18729506
000340 0a 4e 2c 3e d3 dd 56 be 9b d7 14 3e 37 4d 13 be
       0.16826645 -0.20983057 0.14535372 -0.14384924
000350 26 5e f1 bd 98 cd 58 be eb fb 89 bd 1b ba 33 3d
       -0.117855355 -0.21172178 -0.06737503 0.043878656
000360 27 e5 2f 3d 66 d6 3c 3e ff 55 ad 3d 35 fc 1e 3e
       0.042943146 0.18441162 0.08463668 0.15525897
000370 08 5e 0a be 50 cb 00 bc 59 a1 23 3d 43 6a eb 3d
       -0.13512433 -0.0078609735 0.039948795 0.11494877
000380 d4 59 39 3d 8f 74 d4 bc 11 52 39 be 6d f3 2b be
       0.045251682 -0.025934486 -0.18097712 -0.16792078
000390 75 12 08 be 54 61 0c be 46 4d 8c bd d2 54 88 3d
       -0.13288291 -0.13709003 -0.06850676 0.06656803
0003a0 6b d0 3a 3e 23 9c 91 bd 1c 32 27 3d 9f dc 55 bd
       0.18243568 -0.07109859 0.040819272 -0.052212354
0003b0 4f 38 ca 3d 03 d5 dd bd bb e8 cd 3d 00 2b 50 3e
       0.09874021 -0.108316444 0.100541554 0.20328903
0003c0 0f 85 09 bd 78 05 ac 3d 99 a4 8b bd 20 99 46 be
       -0.03357416 0.083994806 -0.06818504 -0.1939435
0003d0 ab ac 4f 3e 1e 42 23 3e c6 e2 f9 bd 14 0e d3 3d
       0.20280711 0.1594319 -0.12201457 0.103054196
0003e0 68 97 16 3e 71 3f c9 bc 06 92 2d be 14 64 f5 3d
       0.14706194 -0.024566384 -0.16950235 0.11981979
0003f0 61 b6 28 3d fa d5 49 3d 97 6e aa 3b 5a 6f a2 3d
       0.041189555 0.04927633 0.0052011716 0.07931395

blocks.0.residual_conv.bias f4 [64]
000000 08 50 68 3b cf 46 32 bb 3e c3 9a b7 d1 e3 b2 ba
       0.0035448093 -0.002720285 -1.8449147e-05 -0.0013648217
000010 c1 33 66 ba 23 90 8f 3a 15 31 42 3b 92 cd e3 ba
       -0.00087815156 0.001095299 0.0029631306 -0.001737999
000020 82 f0 84 3b a8 f6 e3 36 f6 66 81 bb 7a 99 1b bb
       0.004056991 6.7938417e-06 -0.0039490415 -0.0023742602
000030 97 4f 41 3a 3e f4 c6 39 99 77 94 3b 26 87 7c bb
       0.00073742255 0.00037947478 0.0045308587 -0.0038532703
000040 e0 ee 36 bb 76 b7 86 3b b9 7d e9 ba ff 71 d6 ba
       -0.0027913377 0.0041112257 -0.0017813958 -0.0016360878
000050 5d aa 09 3b 5a d4 bc 3a a9 e8 67 3b b2 4c 80 ba
       0.0021006085 0.0014406547 0.003538648 -0.0009788482
000060 c7 22 97 bb a6 c0 5c 3b 0c 0f 9f 3a 8c a8 22 3b
       -0.0046123 0.0033684163 0.0012135222 0.00248197
000070 6c 2d 5e ba 2d 33 89 bb c1 3b 81 bb f1 32 aa ba
       -0.00084753963 -0.004187009 -0.003943891 -0.0012985152
000080 1e d6 02 bb ba 2b 3a 3b 91 12 5f 3b fd 0c 42 39
       -0.001996405 0.002840741 0.0034038166 0.0001850612
000090 e5 68 a5 ba fa 71 e7 ba 96 59 0d 3b 62 c3 bd 3a
       -0.0012619762 -0.0017657869 0.002156829 0.0014477784
0000a0 c8 56 3e ba 38 ca c3 3a 0a fa 28 bb c3 33 88 b9
       -0.0007260856 0.0014937585 -0.00257838 -0.00025978507
0000b0 6d 05 f2 3a d3 33 17 3a 85 c6 a5 ba 7d b2 6f b9
       0.0018464752 0.0005767915 -0.0012647664 -0.00022859308
0000c0 5a ea 9b ba 0c c0 16 3b a5 3c e8 ba ea c8 1c ba
       -0.0011895404 0.0023002652 -0.0017718269 -0.0005980866
0000d0 6c f6 38 ba 6c 57 42 ba 64 b6 be ba 6f 83 01 bb
       -0.00070557627 -0.00074135396 -0.0014550206 -0.0019762178
0000e0 8d 6e 0a ba 00 22 1e ba 2a 22 d8 3a f0 7b 18 3a
       -0.00052807556 -0.0006032288 0.0016489674 0.0005816808
0000f0 af c3 c1 b9 5c b5 d0 b8 84 a7 40 3b 93 61 d9 38
       -0.00036957624 -9.951994e-05 0.0029396722 0.00010365541

blocks.0.skip_conv.weight f4 [128, 64, 1, 1]
000000 57 c9 b0 bc 2c bf 07 3e a8 69 03 be 4f 47 f6 bc
       -0.021580381 0.1325652 -0.12833273 -0.0300633
000010 7d 27 06 be d2 cd fa 3d ec a4 15 bd 2d 0d cb bd
       -0.13101001 0.12246288 -0.036534235 -0.099146225
000020 25 e0 20 3e 81 d7 6f 3c f1 52 2c 3d 87 ec e9 bd
       0.15710504 0.0146387825 0.042071287 -0.11422067
000030 7b a8 f8 3d 01 dd 26 3e dd d8 27 bd 20 1d b6 bd
       0.1214151 0.16295244 -0.0409783 -0.08892274
000040 fc e8 20 3e 27 ad ea 3b 65 84 09 3e e6 7b f9 bc
       0.15713876 0.0071617546 0.13429411 -0.030454587
000050 32 11 2b 3e fa 8d 48 bd 58 08 15 be e7 a5 9f bd
       0.16705778 -0.048963524 -0.14553964 -0.07795315
000060 85 5e 5a bd a9 89 e5 3d 39 dd 0b be f5 35 0a be
       -0.053312797 0.11207897 -0.13658608 -0.13497145
000070 2d 1d 70 bd 07 c8 da bd 5d c8 e2 bd 0f f3 1e 3b
       -0.058621574 -0.106826834 -0.110733725 0.002425376
000080 82 53 2a bd 6b e6 56 bd 99 05 09 3e dc 75 f4 bd
       -0.041583546 -0.052465837 0.13381042 -0.119365424
000090 92 3c 4a 3d 98 59 30 3e 4e 0a 62 bd d5 b2 24 3d
       0.04937417 0.17221677 -0.05518561 0.04020961
0000a0 9f d9 9f bd 6b 23 c9 bc 74 01 25 be 0d d0 39 bd
       -0.0780518 -0.024553021 -0.16113836 -0.04536443
0000b0 d2 a1 1b 3e 22 40 ba 3d 14 92 a5 3c 63 01 d2 3d
       0.15198448 0.090942636 0.020211257 0.10254171
0000c0 3f b9 b3 3c 0a 55 bb bb c5 f1 9b 3d 92 10 83 3b
       0.021938918 -0.0057169246 0.07614473 0.003999778
0000d0 9f 03 1e be 1e e8 1b 3d 4e b3 ee 3c 0a d1 1f 3e
       -0.15431069 0.03806316 0.029138234 0.15607086
0000e0 23 fe e9 bb b5 27 05 3e 33 92 26 3e df 1f c8 3d
       -0.007140891 0.13003428 0.16266708 0.09771704
0000f0 86 b6 ec bd 3a 35 da bd 5f 70 c9 3d d5 aa c6 3d
       -0.11558251 -0.106546834 0.09835886 0.097005524
000100 0e 82 3a 3c a0 7c 8e 3d bf 52 d8 bd 68 50 bd bc
       0.0113835465 0.06957364 -0.105626576 -0.02310963
000110 c3 3b ed 3d 95 e9 e5 3c 7b f6 ee bd bb bb 10 bd
       0.11583664 0.028065482 -0.11668106 -0.035335284
000120 22 96 a8 3d 57 5b de bb b2 5d de 3d f0 9e 5f bc
       0.082317606 -0.006785791 0.10857715 -0.0136487335
000130 f3 dc 14 3e 2a 1b 04 3e e6 a4 42 bd d5 4c d4 bd
       0.1453741 0.12900987 -0.04752054 -0.10366217
000140 ad 36 1d bc 37 39 56 bd 04 77 99 3d fe cf 40 3d
       -0.009595555 -0.052300658 0.074934036 0.047073357
000150 40 1c 33 3d b4 d3 89 bd 43 12 02 bd e5 49 02 bd
       0.043728113 -0.06729832 -0.031755697 -0.031808753
000160 1f 94 26 3e f7 19 46 bc 57 1f 2a 3e a7 a7 0c 3d
       0.16267441 -0.012091151 0.16613518 0.034339573
000170 6b 22 29 be d8 35 33 be 27 9b ad 3c 87 95 27 3e
       -0.16517036 -0.17501009 0.021192146 0.16365634
000180 51 5d 1c 3d 33 4d 28 3e 81 bf 0a 3c dc 9d d6 3d
       0.03817493 0.16435699 0.00846851 0.10479328
000190 74 9a f6 3c 56 a9 a4 3d be 23 9a 3c 65 0e 16 be
       0.030102946 0.08040111 0.018815871 -0.14653929
0001a0 bf 78 e0 3d 53 f2 4d bd e1 ae 0d be ea bd a3 3d
       0.109605305 -0.050279927 -0.13836242 0.079952076
0001b0 dc cd 3f 3d 9c e5 19 be 19 34 0a 3e fa 12 9e 3d
       0.046827182 -0.15028995 0.13496436 0.07718463
0001c0 42 c2 19 be 90 2d 04 3e 02 d3 9d bd b9 61 d2 bd
       -0.1501551 0.12908006 -0.07706262 -0.10272545
0001d0 06 1c 1c be 0b 2d 27 be 40 a0 1a be 7f 46 7c 3d
       -0.15245065 -0.16325776 -0.15100193 0.061590668
0001e0 af 3e 2f 3e 70 33 3c 3d 92 35 14 be 2c 8b 05 be
       0.17113756 0.045947492 -0.1447356 -0.13041371
0001f0 45 5b f0 3d ed db bf bd 5a a6 6c 3c e9 50 f2 3d
       0.11736158 -0.093681194 0.014443958 0.11831839
000200 c7 0e fb 3d 5f db b8 bd 6c cc 8f bd ac 93 b5 bc
       0.12258678 -0.09026217 -0.07021412 -0.022165142
000210 78 75 c9 3d b2 16 e7 3b fe f3 9d bd 5d da 7d bd
       0.098368585 0.007052266 -0.077125534 -0.061975826
000220 62 76 05 3e 8d c1 9c 3d e2 3c 17 be 89 21 95 bd
       0.1303344 0.076541044 -0.14769319 -0.07281787
000230 42 f4 ff 3d 62 9f c2 3d 76 19 81 3c ac c1 23 3c
       0.1249776 0.09503056 0.015759211 0.009994905
000240 4a 4b 4e bd 05 15 8f bc 81 45 19 be 53 9b 17 3e
       -0.05036477 -0.017466078 -0.1496792 0.14805345
000250 3e 36 68 bd 86 da 13 be 41 13 b8 bd b9 ce 1c 3e
       -0.056692354 -0.14438829 -0.089880474 0.15313233
000260 ef 5f 07 be 3d ec 08 be 08 7e 87 bc e1 a0 2e bb
       -0.1322019 -0.13371368 -0.016539589 -0.0026646184
000270 0f fd cf 3d 88 74 fe 3d e7 71 c1 3b f4 45 24 3b
       0.10155689 0.1242457 0.005903471 0.002506611
000280 4e b2 1d 3e 00 2a 97 3d 85 a7 43 3b b2 db 7c 3d
       0.15400049 0.07381058 0.0029854488 0.061732955
000290 ab 7d a1 3d db 68 1f be 21 49 bc bd c8 9d 18 3e
       0.078852974 -0.15567343 -0.09193636 0.14903939
0002a0 5b 3f be bd 16 8c d4 bd a9 e8 18 bd 54 72 72 bd
       -0.09289428 -0.10378282 -0.037331257 -0.059191063
0002b0 ba 2d 2d 3a 08 cd 05 3e a2 ca 2c 3e f5 09 b9 bd
       0.000660624 0.13066494 0.16874173 -0.09035102
0002c0 88 28 19 3b d5 c2 3b bb 76 b8 7c 3d d1 ad 6f bd
       0.0023370106 -0.0028650064 0.061699353 -0.058515374
0002d0 68 2d db 3d f3 ec 17 3e aa 15 f5 bc e6 9e 29 be
       0.1070202 0.14836483 -0.029917557 -0.16564521
0002e0 eb 32 d2 bd a7 40 a3 3d 2a bf 04 be 3f 60 1a 3e
       -0.10263618 0.07971316 -0.12963548 0.15075777
0002f0 12 6e 29 3e cd 38 13 3e 4b 89 98 bd fd 8b bb 3c
       0.16545895 0.14377137 -0.074480616 0.0228939
000300 0b 51 1c 3e cb 03 8f bc 63 54 e2 3d 91 ad 42 bd
       0.1526529 -0.017457863 0.11051252 -0.047528807
000310 ff 4c bf bd 82 19 12 3d 99 e0 7d 3d 33 9d f9 3d
       -0.09340858 0.035668857 0.06198177 0.121881865
000320 d6 b0 f5 3d 93 57 2a 3e 41 c3 28 bd 85 cd a3 bd
       0.119966194 0.1663497 -0.041201834 -0.07998184
000330 b3 78 80 bd e0 33 29 be 51 ac 4c 3c 0a 08 e7 bd
       -0.062730215 -0.16523695 0.012492255 -0.1128083
000340 58 9c 92 3d 08 95 1f 3e d5 69 69 bd 9f d8 97 bd
       0.071587265 0.15584195 -0.056985695 -0.07414364
000350 e2 f3 1b be 93 d6 b4 3c 17 09 ae bd d6 b0 d5 3d
       -0.15229753 0.022074973 -0.084978275 0.104341194
000360 02 2a 34 3e 43 08 e9 bd fd 73 94 bd 98 4f 88 3d
       0.1759415 -0.11378529 -0.072486855 0.06655806
000370 b8 36 f6 3d 65 65 1b be 45 c8 89 bd 78 91 c6 3d
       0.120221555 -0.15175398 -0.067276515 0.09695715
000380 2f 07 df 3d 72 16 1a be 33 ae ef 3d e4 28 03 3e
       0.10890042 -0.15047625 0.11703148 0.12808567
000390 48 1c 80 3d 98 20 ac bd 29 31 b6 bd d9 74 86 bd
       0.06255394 -0.08404654 -0.08896095 -0.06565256
0003a0 86 97 90 bd 50 3e be 3d d5 4e 6b 3d b0 d2 c6 3d
       -0.07060151 0.09289229 0.057448227 0.09708154
0003b0 f6 44 ff 3d 0e 84 f2 bd 68 72 ff bc d4 7b 2e 3e
       0.12464325 -0.11841594 -0.031182483 0.17039424
0003c0 0a ee ee bd 30 af fc bc 59 b7 d2 3c 9b 4c 57 3d
       -0.11666496 -0.030845255 0.025722193 0.05256329
0003d0 f9 80 8a bd 71 e4 13 be 64 ee 35 be 69 05 9f bd
       -0.06762881 -0.14442612 -0.1776672 -0.07764704
0003e0 31 72 79 3d a9 a0 ad 3d a0 85 8e 3c 06 b8 c3 3d
       0.060899917 0.08477909 0.017397702 0.09556584
0003f0 92 61 de bc cf 55 fb bd d2 db c4 3c 15 4d 26 be
       -0.027146135 -0.12272226 0.0240306 -0.16240342

blocks.0.skip_conv.bias f4 [128]
000000 f6 06 0b bb d0 03 89 3b 72 00 96 bb b0 42 79 3b
       -0.0021213866 0.0041813627 -0.00457769 0.0038034134
000010 5c a6 9c 3a 99 c1 4b 3b c4 af 65 bb 5f ce 90 3a
       0.0011951434 0.0031090735 -0.0035047391 0.0011047832
000020 48 40 65 3b 3c 0c d9 ba aa 6d 68 bb a2 dc 09 3b
       0.0034980942 -0.0016559432 -0.0035465755 0.0021036048
000030 29 dd 69 3b 0e d0 fc ba 77 91 32 ba 42 a9 8b bb
       0.00356848 -0.0019288079 -0.0006811837 -0.0042621205
000040 f5 66 0b 3b 1a e2 84 3a 5a b2 63 3b 35 8c a4 3b
       0.0021271084 0.0010138184 0.0034743757 0.005021597
000050 59 8d 24 bb 6d 39 50 bb ea 59 1d bb 14 35 2c 3b
       -0.0025108664 -0.003177251 -0.0024009892 0.0026276754
000060 4e c8 81 bb 26 0b 2f bb c8 42 82 b7 be 9b 3b 3b
       -0.0039606458 -0.0026709526 -1.5528305e-05 0.0028626765
000070 30 9c 81 3b c5 32 8b bb 89 11 8c 3b 78 a5 aa 3a
       0.0039553866 -0.0042479956 0.0042745513 0.0013019284
000080 28 84 29 3b 10 47 4e 3b c4 c7 92 3b 50 a8 d6 ba
       0.0025866125 0.0031475462 0.0044793803 -0.0016377065
000090 9e b9 c0 ba 75 f1 dd b9 cb e3 78 bb 12 c6 2f bb
       -0.0014703756 -0.00042332304 -0.0037977572 -0.002682094
0000a0 b9 ed 13 3b 38 81 a2 3b d1 59 8e bb 0d c0 89 3a
       0.0022572114 0.0049592517 -0.004344203 0.0010509506
0000b0 e8 a4 95 bb fe a8 9f 3b 97 66 9c 3b 9b 11 92 ba
       -0.0045667775 0.0048724404 0.004772972 -0.0011144163
0000c0 72 5d 81 bb b8 f0 85 3b d6 74 19 3b b3 01 a7 3b
       -0.003947907 0.004087534 0.0023415587 0.005096638
0000d0 7e 3d 9f bb 62 94 60 ba 9f 54 3e bb 62 6f 4e bb
       -0.0048596254 -0.00085670326 -0.0029042137 -0.0031499495
0000e0 55 fd a3 3b 72 9b 6e bb 6a dd 84 bb 66 f2 21 bb
       0.0050045648 -0.003640857 -0.004054715 -0.002471113
0000f0 3e 80 41 3b 3c 04 cf 3a 8e b7 94 3b f3 fc c0 3b
       0.0029525901 0.0015794109 0.004538483 0.005889529
000100 15 be 4c bb 65 ef 41 3b 83 1c 5b bb d1 65 0f 3b
       -0.0031241227 0.0029592153 -0.0033433742 0.0021880756
000110 f0 bd 51 3b 9a 2a ef 39 03 36 07 3b 3c 87 74 bb
       0.003200408 0.00045617373 0.0020631559 -0.0037312051
000120 0b 51 81 3b 7f c1 e5 3a de 49 d1 3a 31 e2 1f 3b
       0.0039464287 0.001752898 0.0015967449 0.0024396295
000130 2a 73 fd 3a 75 48 32 bb 67 b8 df 39 54 62 0c bb
       0.001933669 -0.0027203832 0.00042671265 -0.0021420913
000140 55 67 87 bb 53 23 45 bb d5 04 68 bb 4b 3f 67 3b
       -0.004132191 -0.003008087 -0.003540327 0.0035285528
000150 89 13 12 3b 89 6e 89 bb 48 c8 12 3b 21 a6 30 bb
       0.0022289476 -0.004194085 0.002239721 -0.002695449
000160 d6 f1 2a bb f4 15 62 ba 47 56 c3 ba d1 03 1b 3b
       -0.0026084087 -0.0008624487 -0.0014903032 0.0023653398
000170 3f ec 5e 3b bd 0d 54 bb 41 6d 59 3b 6d ce af 3a
       0.0034015325 -0.0032356821 0.0033176693 0.001341296
000180 30 f3 6e 3b 4f dc 2b 3b 77 d9 8e 3b 9a 92 ba 3b
       0.003646087 0.0026223843 0.00435942 0.005693746
000190 05 0f ac 3a e3 fd 85 3b a9 8e 3c bb 70 9a 29 b9
       0.0013127035 0.0040891035 -0.0028771556 -0.00016174628
0001a0 e5 ab 61 3b 07 e8 af ba f3 b9 2b bb 54 cf f2 ba
       0.0034434733 -0.001342059 -0.0026203364 -0.0018524923
0001b0 53 69 a6 3b bc db 41 bb 2e 70 83 39 30 60 bb 3b
       0.0050784736 -0.0029580435 0.00025069847 0.0057182536
0001c0 52 b2 24 3b b2 5c 19 bb 58 e6 4e 3b e4 c8 7b 3b
       0.0025130701 -0.0023401198 0.00315704 0.00384193
0001d0 70 69 b1 ba f9 73 84 ba 2d b2 2d 3b ea 47 57 bb
       -0.0013535451 -0.0010105363 0.0026503906 -0.003284926
0001e0 0f c4 73 b8 2c 0f b0 ba 7b 79 fa b8 b1 f2 27 bb
       -5.811831e-05 -0.0013432256 -0.000119435565 -0.0025626833
0001f0 eb bc 55 bb e9 c0 74 bb 5a f0 77 bb f2 2d a5 ba
       -0.0032613825 -0.0037346429 -0.003783247 -0.0012602194

blocks.0.bn.weight f4 [64]
000000 e0 97 80 3f 4e 53 80 3f fa 1d 80 3f b9 db 7f 3f
       1.0046349 1.0025423 1.0009148 0.99944645
000010 73 04 80 3f 06 a0 7f 3f b3 47 7f 3f 27 78 80 3f
       1.0001358 0.9985355 0.9971878 1.0036668
000020 f8 46 80 3f 4e 2e 80 3f f1 cd 7f 3f 4c 49 7f 3f
       1.0021658 1.0014131 0.99923617 0.9972122
000030 0f 06 80 3f df c1 7f 3f 17 e3 7f 3f 8e 3f 7f 3f
       1.0001849 0.999052 0.99955887 0.9970635
000040 03 07 80 3f be 51 7f 3f 4e ca 7f 3f 7a 9e 7f 3f
       1.000214 0.99734104 0.9991807 0.9985119
000050 0a 3f 80 3f 07 04 80 3f 92 0f 80 3f 74 72 80 3f
       1.0019238 1.0001229 1.0004752 1.0034928
000060 0b 6a 7f 3f b0 4d 7f 3f 7c 58 7f 3f 7e 0b 80 3f
       0.99771184 0.99727917 0.9974439 1.0003507
000070 2f 08 80 3f b1 75 7f 3f af 42 80 3f 06 e6 7f 3f
       1.0002497 0.9978896 1.002035 0.9996036
000080 a1 52 80 3f 5c c9 7f 3f 5e f8 7f 3f eb 7e 80 3f
       1.0025216 0.99916625 0.99988353 1.0038732
000090 9e 21 80 3f eb d1 7f 3f ce b3 7e 3f 92 56 80 3f
       1.0010259 0.99929684 0.9949311 1.0026419
0000a0 1d b1 7f 3f c9 0b 80 3f f7 cd 7f 3f 63 a7 7f 3f
       0.9987963 1.0003597 0.9992365 0.99864787
0000b0 34 2c 80 3f b8 54 80 3f b2 b0 7f 3f a3 06 80 3f
       1.001349 1.0025854 0.9987899 1.0002025
0000c0 3a 38 80 3f 00 53 80 3f 56 be 7f 3f a6 2e 7f 3f
       1.0017159 1.002533 0.99899805 0.99680555
0000d0 23 23 80 3f 4c e3 7f 3f 56 c6 7f 3f 69 25 80 3f
       1.0010723 0.999562 0.9991201 1.0011417
0000e0 ed ee 7f 3f 2e f2 7f 3f f2 91 7f 3f f6 bb 7f 3f
       0.99973947 0.9997891 0.9983207 0.9989618
0000f0 06 27 80 3f 47 f3 7f 3f cb 5a 80 3f 71 d2 7f 3f
       1.0011909 0.99980587 1.0027708 0.99930483
