TGNN2026/artifacts_MTGNN1m_2SoftUtility/production_best_weights.pt (torch, 803285 bytes, 83 tensors)

A_static f4 [3, 3]
000000 ab aa aa 3e ab aa aa 3e ab aa aa 3e ab aa aa 3e
       0.33333334 0.33333334 0.33333334 0.33333334
000010 ab aa aa 3e ab aa aa 3e ab aa aa 3e ab aa aa 3e
       0.33333334 0.33333334 0.33333334 0.33333334
000020 ab aa aa 3e
       0.33333334

in_proj.weight f4 [64, 15]
000000 fe d0 3a 3e 65 03 27 be 05 c1 8a 3e eb 08 7e bd
       0.18243787 -0.16309889 0.27100387 -0.062020224
000010 1a 57 61 be b9 a1 02 3e 9a 5a 82 3c c9 43 86 3e
       -0.22005883 0.12757005 0.015912343 0.2622359
000020 55 3f 2e 3e 61 0d d5 3d 36 ef 1d bc be 04 94 bc
       0.17016347 0.104029424 -0.009639552 -0.018068668
000030 75 fd 84 3e 2e 89 f7 bc 54 99 33 3e 50 42 34 3d
       0.25974622 -0.03021678 0.17538959 0.044008553
000040 60 c9 85 be bb bf fb 3d 2a cd 61 bd fa b6 5b be
       -0.261302 0.12292429 -0.0551273 -0.21456519
000050 ea 56 6d be 69 bf f4 3d 90 48 f0 bd 01 07 d7 bd
       -0.23177686 0.11950571 -0.1173259 -0.10499383
000060 5f cb b8 3d 56 56 5f 3e 4a 93 e8 3d d7 a9 35 3e
       0.09023165 0.21810278 0.11356218 0.1774057
000070 60 17 d4 3b 1e 9e bc 3d 72 5d 41 3e 54 ac 2e be
       0.006472513 0.09209846 0.18883303 -0.17057925
000080 d1 59 11 be 15 85 e2 bd ea f4 84 3e 60 18 84 3e
       -0.14194418 -0.1106054 0.25968105 0.25799847
000090 cb 86 0a be 25 d0 73 bd 98 51 fe 3c 29 3e 32 bd
       -0.13527982 -0.059524674 0.031044766 -0.04351631
0000a0 f8 01 15 3d c8 9c 86 be 66 62 8a be 80 80 15 3e
       0.03637883 -0.2629149 -0.27028197 0.145998
0000b0 c1 3c d0 bc e4 1f 2c 3d aa c5 bf bd d5 79 53 3e
       -0.025419595 0.0420226 -0.09363873 0.20651944
0000c0 d1 6c c0 bd 8d 87 8b bd a3 08 89 3e c1 28 e5 bd
       -0.09395755 -0.06812964 0.26764402 -0.11189414
0000d0 a0 e4 85 3e 04 45 a2 3d 11 94 91 3c 00 fb 90 3d
       0.2615099 0.0792332 0.017770799 0.070791245
0000e0 d7 f5 5c be 67 10 83 3e 87 e6 fd bd 02 ee b1 bd
       -0.21578155 0.25598451 -0.12397485 -0.086879745
0000f0 2a 91 8c 3d 34 8c db 3c 24 b7 8a be d1 70 88 be
       0.06863625 0.026800252 -0.2709285 -0.26648572
000100 13 ab 5c 3d 58 ca 29 be fc 2d 04 be cb 14 d7 bd
       0.053874087 -0.16581094 -0.12908167 -0.10502013
000110 58 d7 01 3e 2d 57 31 3e 25 76 06 3e b0 1e 0a 3e
       0.12679803 0.17318411 0.13131006 0.13488269
000120 22 e0 00 3e 03 3e 02 3e 67 f9 36 3e 40 d5 0e 3e
       0.125855 0.12718968 0.17868577 0.13948536
000130 fc c4 ca bd ec ea 6e be 0f b5 8b 3d 07 08 16 3e
       -0.09900853 -0.23331803 0.068216436 0.146515
000140 fd c0 0a 3e 54 da 22 bd 4b 17 5b be 78 7b 59 be
       0.13550182 -0.039758995 -0.21395604 -0.21238506
000150 5d f8 84 bd 15 61 8c 3e ff a6 08 3e 25 df 86 3e
       -0.06492684 0.27417818 0.13344954 0.2634212
000160 3a 10 22 be 84 2f 57 be 76 bd 1c 3e 95 ce 4c 3e
       -0.15826502 -0.2101422 0.15306649 0.2000068
000170 3a 22 2e 3e 0d a3 88 be b7 f4 87 3c 54 a2 f4 bb
       0.17005244 -0.26686898 0.016596181 -0.00746564
000180 91 eb ef 3d 6c 48 53 be a0 e6 80 3e c5 90 16 be
       0.117148526 -0.20633096 0.25175953 -0.14703663
000190 df 6e 2f be e0 3d f0 3d a4 f3 a2 3d 1b b9 8b be
       -0.17132138 0.11730552 0.07956627 -0.27289662
0001a0 0e 14 86 be 40 ad 07 3e 23 1c 9b bd 73 34 9e 3d
       -0.26187176 0.13249683 -0.07573726 0.07724848
0001b0 12 84 6f be 3b 5c 6b 3e 60 4d 7a 3e 0c fa 10 be
       -0.23390225 0.22984402 0.24443579 -0.14157885
0001c0 f9 eb 01 3e 57 40 4e 3e 45 d6 69 3e 05 64 88 3e
       0.12687673 0.20141731 0.22835644 0.2663881
0001d0 64 de 82 3e 0c 2a c7 3d d6 b2 6e 3e b0 24 57 be
       0.25560296 0.09724817 0.23310408 -0.21010089
0001e0 47 9a 32 3d 4f a2 88 3e df e6 d8 bd 63 2a 4e 3d
       0.04360416 0.26686332 -0.1059091 0.050333392
0001f0 4d 98 f7 bd 37 6d 69 bd 31 6b 2e bd 94 29 5e 3e
       -0.12089596 -0.05698892 -0.042582694 0.21695548
000200 96 29 92 bd 91 d4 5e 3e f7 b7 19 be f4 f6 0e 3d
       -0.07136838 0.21760775 -0.15011583 0.03490348
000210 7c 45 60 be 3c 46 5b 3e b5 b8 cf bd be ea 40 be
       -0.21901506 0.21413511 -0.10142652 -0.18839547
000220 dd 71 0d 3e c8 d0 0f bd bb de 8b 3e b0 d7 65 be
       0.13812967 -0.03511122 0.27318367 -0.2244556
000230 0c 73 3d be 82 b0 89 be 76 80 46 bd b5 48 87 be
       -0.18500918 -0.26892477 -0.048462354 -0.2642266
000240 44 0f dd 3d 82 df 3e 3d ce 41 bd bd b0 98 17 3e
       0.10793927 0.046599872 -0.09241067 0.1480434
000250 8d 53 ff bd 0e 26 ce bd 22 e5 38 be 6f c6 d8 bd
       -0.12467108 -0.10065852 -0.18056157 -0.10584723
000260 1a 29 72 be 05 98 6e 3d 3c 55 f3 bd 3e c1 cf 3d
       -0.23648492 0.058250446 -0.118814915 0.1014428
000270 d9 e4 43 3e 4f 43 76 bd 77 12 00 be a6 b7 40 3e
       0.19130267 -0.060122784 -0.12507044 0.18820056
000280 5c 98 63 be c1 a4 3e be e5 c2 23 3e 29 32 2f 3e
       -0.22226089 -0.18617536 0.15992315 0.17108978
000290 30 49 d0 bd fc 06 78 3e d1 93 a2 bb 3b 26 7a 3e
       -0.101702094 0.24221414 -0.0049614687 0.24428646
0002a0 3b e3 1e 3e 03 28 41 be f1 30 65 be 6f 3f db bd
       0.15516369 -0.1886292 -0.22381951 -0.107054584
0002b0 9a fe 83 3e 7e 67 0c be 51 93 7d 3e d1 cb 42 3e
       0.25780183 -0.13711354 0.24763228 0.19023062
0002c0 ba 72 8f bd 1a f8 33 be ca 4e 22 3b 85 a4 88 be
       -0.07004304 -0.17575112 0.00247662 -0.26688018
0002d0 a6 e9 23 be 89 00 ed 3d 90 f1 89 be 2a 45 e7 3d
       -0.16007099 0.11572368 -0.2694211 0.11292489
0002e0 39 87 29 3d a0 f1 3e 3e e0 ab 8a be 91 7d 1e be
       0.041388724 0.1864686 -0.27084255 -0.15477587
0002f0 2c b6 35 3e 12 38 fa 3d 04 e6 62 be 18 cc 87 3e
       0.17745274 0.12217726 -0.22158056 0.265229
000300 67 93 ce bd c6 f7 3b be b0 20 4e 3e 9d 8a 1d be
       -0.100867085 -0.18356237 0.20129657 -0.15384908
000310 aa d3 17 be fa 77 5d be 1f 24 52 be 0f 9f f1 3d
       -0.14826837 -0.21627799 -0.20521592 0.11797916
000320 14 f9 25 3e 48 8a 3b 3e 59 5f 8d 3d 37 de 02 be
       0.16208297 0.18314469 0.06902952 -0.1278008
000330 97 c3 74 3e f3 3d 39 3e 7f 51 20 3c ab c5 8c 3d
       0.23902737 0.18090038 0.009785055 0.0687364
000340 09 4e 8b 3e cb 17 65 bd b1 ab ff bd 26 e4 02 bd
       0.27207974 -0.055930894 -0.124839194 -0.03195586
000350 f4 25 28 be 64 99 9c 3d dc fd 81 3e 2f b5 89 3e
       -0.16420728 0.076464444 0.25388992 0.26896045
000360 0a 77 3e 3e 55 b0 87 be af 00 46 3e 15 7e 04 be
       0.18600097 -0.26501718 0.19336198 -0.12938721
000370 22 6c 25 3d c2 bd 33 3e 59 32 a0 bd 5c c5 32 3e
       0.040386327 0.17552856 -0.07822103 0.17458099
000380 62 84 02 3e 94 c0 5e 3e 7c eb d1 bd d4 40 88 3e
       0.12745813 0.2175315 -0.10249993 0.2661196
000390 22 e5 28 be 67 46 b5 3c 9d 95 e3 bc 50 09 5a 3e
       -0.16493657 0.022128297 -0.027781302 0.21292615
0003a0 5f 81 81 be fa 72 1d 3c e4 dc 27 bd d3 ce 02 3e
       -0.25294015 0.009609932 -0.040982142 0.1277421
0003b0 ac e2 c5 bd 8e 15 78 bd 60 99 86 3e 6f 88 0f 3e
       -0.09662375 -0.06056743 0.2628889 0.14016889
0003c0 7f 1a 0a 3e 42 e9 59 bd 0d d3 01 be 15 8a 8a 3d
       0.1348667 -0.053200968 -0.12678166 0.06764618
0003d0 31 2c ea 3c 32 5f bf 3c 2b 57 87 be 0e 9f ba bd
       0.028585525 0.023360822 -0.2643369 -0.091123685
0003e0 80 6d 04 be e7 56 63 3e 06 d4 4f be ee 88 41 be
       -0.12932396 0.2220112 -0.20295724 -0.18899891
0003f0 2a 93 14 3e df 64 08 3e c5 b9 4a be 07 b2 c1 3d
       0.14509264 0.1331973 -0.19797428 0.09457784

in_proj.bias f4 [64]
000000 db 53 83 b9 ca 9d 35 bb 0c 34 1e bb 18 06 13 bb
       -0.00025048744 -0.0027712458 -0.002413991 -0.0022434052
000010 92 1f 72 bb 26 8d d3 3a 48 be 49 3b f8 f1 58 bb
       -0.0036945087 0.0016140088 0.0030783582 -0.003310321
000020 8f c4 11 3b 18 b3 90 3a 12 0d 62 bb c7 35 1a bb
       0.0022242402 0.0011039702 -0.0034492654 -0.002353059
000030 70 01 f3 38 38 9e 01 3a de c5 0f b9 b0 95 11 3a
       0.00011587411 0.0004944536 -0.00013711254 0.0005553616
000040 2b 2d 01 3a d4 ec ce ba f4 c2 26 bb a9 e4 18 3b
       0.000492769 -0.0015787133 -0.002544579 0.0023329651
000050 17 c6 c6 3a ec f2 92 3b c3 73 73 bb 88 b6 ee 3a
       0.0015165237 0.004484525 -0.0037147857 0.0018212358
000060 29 16 1d 3a 51 83 4f 3b 53 cf 00 bb ba 4c d3 b9
       0.0005992377 0.0031663964 -0.0019654825 -0.00040302222
000070 db a9 14 3a cb 3c ce 3a fc fe ac 3a 03 8c 9b 3a
       0.00056710624 0.001573467 0.001319855 0.0011867288
000080 0e 2f 3d 3b 02 f7 d5 3a 18 35 69 ba e6 26 69 bb
       0.0028867158 0.0016324224 -0.0008896156 -0.0035576164
000090 33 9e e4 3a 49 5f 2d 3a 40 c2 6f 3a fd 8e 97 3a
       0.0017442167 0.0006613625 0.0009146072 0.0011563
0000a0 e7 3f 9f ba d2 a9 4b 38 ff 34 88 3a 4e 42 09 ba
       -0.0012149782 4.855713e-05 0.0010391771 -0.00052360154
0000b0 d4 85 1c 3b 3d 95 f9 ba d5 3e 6f bb 83 01 32 bb
       0.0023883479 -0.0019041669 -0.0036505957 -0.0027161546
0000c0 8d 81 f9 39 b4 8b 0c bb 21 fa 4f 3b f4 29 b8 3a
       0.00047589504 -0.0021445574 0.0031734782 0.0014050589
0000d0 57 2f 4e bb 7c 9a c2 b9 f5 fb 90 bb 8c e2 53 3b
       -0.0031461322 -0.00037117663 -0.004424567 0.0032331077
0000e0 a3 a0 f1 ba 36 e1 bc b9 d4 6f 1a 3a fa 17 90 3a
       -0.0018434714 -0.0003602595 0.00058912975 0.0010993474
0000f0 c1 79 c3 3a 8a 5a c3 3b 4b 0f c5 ba 57 7b eb 3a
       0.0014913605 0.005961721 -0.0015034465 0.0017965835

adapt.E1 f4 [3, 8]
000000 15 e4 84 3c 0a 15 cc ba a0 b2 b3 3b 91 9d fb ba
       0.01622204 -0.0015570235 0.0054839402 -0.0019196739
000010 2a 30 3d bb b7 1e d8 ba 91 ad 39 bc 05 a9 4f 3c
       -0.002886782 -0.0016488646 -0.011332885 0.012674575
000020 20 e1 c8 39 84 0b ae b9 b0 bd 9b 3a 9a 0f 32 bc
       0.00038314704 -0.00033196446 0.0011882093 -0.0108679775
000030 84 16 ae 39 a4 dc e1 3c 8d fb a5 3b 24 3c c7 bb
       0.00033204642 0.02757103 0.0050653876 -0.0060801674
000040 cb b7 0e bc c3 0b 1c bc c3 ac 28 3c c6 94 bb bb
       -0.008710812 -0.009524289 0.010295096 -0.0057245223
000050 f2 3e 97 bb 65 b1 94 bb c5 9d fe 3b 9a 39 58 3c
       -0.004615658 -0.0045377486 0.0077702724 0.013197327

adapt.E2 f4 [3, 8]
000000 59 f9 50 3a 43 df 18 3c e2 58 0f 3c 95 ab 25 3b
       0.0007971726 0.0093305735 0.008749219 0.0025279273
000010 07 b5 e3 bb c5 73 fb 3b ef 1b db ba ba 09 d8 bc
       -0.0069490704 0.007673713 -0.0016716699 -0.026371825
000020 16 8e 7f bc f2 b6 fc 3a de e4 b7 ba d9 3e 3c 3b
       -0.015597841 0.0019280596 -0.001403 0.0028723984
000030 94 4c 9e 3c b3 ed 5b bc 06 bf 52 3c 7b e2 a6 bb
       0.019323625 -0.013423371 0.012862926 -0.0050929165
000040 2e 95 42 b9 38 d5 da 3a 73 a7 8c bb 65 d1 03 3c
       -0.00018556856 0.0016695624 -0.0042924224 0.008045529
000050 cf 99 cd 3b 15 9b b4 ba 07 f8 0d bd 7f 1f de bc
       0.006274439 -0.0013779128 -0.034660365 -0.027114628

support_mix.w_logits f4 [3]
000000 e8 d2 76 bb 65 ca 76 3b d2 c0 76 bb
       -0.003766233 0.0037657258 -0.003765155

blocks.0.filter_conv.conv.weight f4 [64, 64, 1, 2]
000000 94 d3 96 3c 54 01 9f bd 3c 07 67 3d 92 2c 3d 3d
       0.018411435 -0.07763925 0.056403384 0.046185084
000010 a0 06 b9 3c b9 90 65 3b 96 ef bd 3d a5 aa b3 bd
       0.022586167 0.0035028888 0.09274213 -0.08772782
000020 7c ae f2 3d 36 c5 0e 3e 94 5e 78 bd eb 94 85 3d
       0.118496865 0.13942418 -0.06063707 0.065225445
000030 af 71 2d bd 9c 37 23 bd c1 2e a3 3d 6d 06 92 bd
       -0.042344745 -0.039847955 0.07967902 -0.07130132
000040 e9 64 04 3e e9 c4 c3 3d cd a9 f6 3c 65 90 bf bd
       0.12929119 0.09559042 0.030110264 -0.09353713
000050 2f ec bf 3d e8 1b 29 bd 51 08 97 3d 60 2f 86 bd
       0.0937122 -0.04128638 0.07374633 -0.06552005
000060 fd 14 e3 3d 0e 71 d1 3d 7e 48 02 be 82 fa 80 bc
       0.110879876 0.102266416 -0.12722966 -0.015744451
000070 59 50 e8 bc 0c 35 c8 bd 34 87 ac bd 0a 1b d0 3d
       -0.028358625 -0.09775743 -0.084242254 0.10161407
000080 81 f9 65 bd 88 38 d1 3c 2f 5f a2 bd 18 3c 03 3e
       -0.05614615 0.025539652 -0.07928311 0.12815893
000090 85 48 3a bd c6 c6 63 3d f1 af c5 3d 89 e6 91 bd
       -0.045479316 0.055609487 0.09652699 -0.07124049
0000a0 23 e7 b6 bc 56 89 ca bd db 4a d2 bd 32 78 96 3d
       -0.022327011 -0.09889476 -0.10268184 0.07347144
0000b0 84 b5 e0 bd aa 5e 9b bd ac 4a 8b 3d 07 48 0c bd
       -0.10972121 -0.07586415 0.06801352 -0.034248378
0000c0 13 ed bf 3d 2a e7 b0 3d 0a a1 08 3e cd a8 53 bd
       0.0937139 0.08637841 0.13342682 -0.051674653
0000d0 98 c2 a7 bc 9c 6a aa 3d 7b 07 6d bd dd fc 9a bd
       -0.020478532 0.083211154 -0.057868462 -0.07567761
0000e0 69 ab ff 3d 17 39 39 bb 51 a3 fc 3d 90 9b cd bc
       0.12483866 -0.0028262788 0.12335838 -0.025098592
0000f0 62 6d 78 3c 81 fa a4 3d 1d 32 bb 3d 75 d2 24 3d
       0.015162798 0.08055592 0.09140418 0.04023977
000100 fc 63 af 3d 21 74 1b be 47 12 25 3d ce d2 08 3e
       0.085639924 -0.15181018 0.040300634 0.13361666
000110 88 e2 9f bc f2 6e 86 bd 24 e2 00 bc bf 8e 06 3e
       -0.019517198 -0.0656413 -0.007866416 0.13140391
000120 22 aa 1b be a9 6a a6 3d 66 f0 fb 3d 8a 2c ea 3d
       -0.1520162 0.081258126 0.12301712 0.114342764
000130 82 81 dc bc b2 35 43 3d dc 61 87 bd 71 c6 6e 3c
       -0.026917223 0.04765863 -0.06610462 0.014573679
000140 6c e7 bf 3d 43 87 8d bd d8 f8 0c be 41 66 c3 bc
       0.09370312 -0.06910565 -0.13766801 -0.02385247
000150 63 c8 1d bd c2 ba ee 3c 85 bf e5 bd 5f 55 2c 3d
       -0.03852118 0.029141787 -0.1121817 0.042073604
000160 ce c3 ee 3d 64 eb 09 3e e9 de c2 bd 8f dd 17 bd
       0.116584405 0.134687 -0.09515173 -0.03707653
000170 8e 68 c5 3c de 20 07 be 50 bb 8e 3d cc 60 bf bd
       0.024097707 -0.13196132 0.06969321 -0.093446344
000180 cc 9c 7e 3d 27 69 e1 bd 6f 35 4e 3c a3 70 d6 3d
       0.062161252 -0.11006384 0.012585982 0.104707025
000190 83 26 19 be d6 47 00 bd e7 46 c1 bd 81 40 4f 3d
       -0.14956097 -0.031318508 -0.09437352 0.050598625
0001a0 86 9a 0e 3d 8f a7 09 3e 5c 18 0c 3e 8e f6 b0 bd
       0.034815334 0.13442825 0.13681167 -0.086407766
0001b0 c4 8d 09 3e dc d0 17 3d 64 73 9a 3c e3 91 08 3e
       0.13432986 0.03706442 0.01885385 0.13336901
0001c0 de e8 13 be c1 c7 0e be 80 2b 22 3c c1 d6 97 3d
       -0.144443 -0.13943388 0.0098980665 0.07414008
0001d0 9b f6 93 bd 5f 9f c5 bb 9b 17 29 bd f6 f0 5a bb
       -0.07224771 -0.0060309614 -0.041282278 -0.0033407784
0001e0 2b 7f 9c bc 85 34 58 3d a2 3e e8 3d 01 5e 19 bd
       -0.019103607 0.05278446 0.11340071 -0.037443165
0001f0 e6 08 56 3d c1 c6 8a 3d 46 ed cc bd 92 3f 07 3e
       0.05225458 0.067761905 -0.10006194 0.13207844
000200 31 9e 68 bd c0 58 4d 3d 45 e2 06 be d0 55 09 bd
       -0.056791488 0.050133467 -0.13172252 -0.033529103
000210 9d ae 8d 3d 5b 31 25 bc 3e b2 ac 3d 2c 7c 8a bd
       0.069180705 -0.010082568 0.084324345 -0.06761965
000220 8c 41 38 3d 5c 53 16 3e 31 8f 06 be 99 04 a7 3d
       0.044984385 0.14680237 -0.1314056 0.08155174
000230 15 b2 15 be 0a e5 7a bd ee 5e 28 3c 8b 67 1d be
       -0.14618714 -0.061253585 0.010276539 -0.1537153
000240 bd c2 a7 3d d1 67 0f be 66 48 d3 bc 78 30 2e 3d
       0.0819144 -0.14004447 -0.025791358 0.042526692
000250 08 de 6e bd e5 24 07 3e 3e 92 f7 bd ad c3 b2 3d
       -0.058317214 0.13197668 -0.1208844 0.087287284
000260 57 cc c5 bd 67 81 03 be c7 47 30 bd dc 5b 49 3d
       -0.09658115 -0.12842332 -0.043037202 0.04915987
000270 ff 6a a1 bd 08 17 29 bd 9f 66 d7 3d 09 09 4f 3b
       -0.07881736 -0.04128173 0.1051762 0.0031591079
000280 63 71 68 3d 9a bb 8b bc 95 ce 03 3e d3 d5 06 3e
       0.05674876 -0.017057229 0.12871774 0.13167505
000290 b0 c5 d7 bd 28 5f dd 3d ed 70 03 be c6 ab e5 3c
       -0.10535753 0.10809165 -0.12836047 0.02803601
0002a0 ab 71 05 3c eb 7e e9 bd 96 2e 82 bc 2e 35 2e 3d
       0.008144776 -0.11401161 -0.015891355 0.042531185
0002b0 bc 4e d2 3d af 39 bf bd ba 26 fc bd 54 60 0e be
       0.10268924 -0.09337174 -0.12312074 -0.13903934
0002c0 2e 4e f4 bd 8e eb 62 bd 69 41 c3 bd 72 79 9e bd
       -0.11928974 -0.055400424 -0.0953396 -0.077380076
0002d0 4a d9 93 3d b1 3f af bd 9d a8 5d bd 91 46 09 be
       0.07219179 -0.0855707 -0.05411588 -0.13405825
0002e0 51 f4 86 bd 27 a8 df 3d 8a 57 b4 3d b2 80 dd 3d
       -0.065895684 0.109207444 0.08805759 0.10815562
0002f0 d5 b3 28 bd ba 66 b0 3d 65 06 bf bc a7 55 46 3d
       -0.041187126 0.086133435 -0.023318479 0.04842153
000300 d6 8e fc bd 74 56 da bd c9 39 10 bb 34 dd 09 3e
       -0.12331931 -0.10661021 -0.00220071 0.13463289
000310 38 81 40 bb 01 ab ad bd 3f 68 82 3b 8f e4 ad bd
       -0.0029373895 -0.08479882 0.0039797123 -0.0849086
000320 e0 9c 56 bc 8d 15 a4 3d eb 95 d6 bc 8c bf 32 bc
       -0.013098925 0.08011923 -0.026194533 -0.010909926
000330 38 7a de bd 21 a6 0f be 1a 30 09 be 71 dc a4 bc
       -0.10863155 -0.14028217 -0.13397256 -0.020124646
000340 e6 3f 36 3d af f1 7a 3d 37 bc 01 3e ad 05 0a 3d
       0.044494532 0.061265644 0.12669455 0.03369682
000350 35 46 23 bc 97 ba 00 3e 29 c2 f0 3d 06 1c bb bd
       -0.009965469 0.12571178 0.11755783 -0.091362044
000360 aa dc 00 3e 32 d2 8b bc 5b 06 07 3e 90 2a 6f bd
       0.12584177 -0.017068002 0.13186018 -0.0583902
000370 1f 05 b0 bd a4 0a d9 3d 64 5c 21 3d 5a 46 0b bc
       -0.08594727 0.10597733 0.03939475 -0.00850066
000380 02 bd 90 bd b9 f3 8c 3d 72 f9 0b bd 74 b6 49 3d
       -0.070673004 0.06882424 -0.034173436 0.049246266
000390 11 7c d4 3d 1d 67 05 bc c8 09 51 3d ff ed 8e 3d
       0.10375226 -0.00814226 0.05103472 0.06978988
0003a0 06 4d 16 3e 2a 91 bf bd 9c d7 71 3d 1c 67 8a bd
       0.1467782 -0.0935386 0.05904351 -0.06757948
0003b0 5c c7 1a be b3 f8 f1 ba 20 db 85 3c a2 94 8b bd
       -0.15115112 -0.0018460959 0.016339839 -0.06815459
0003c0 cd 4c 12 3e 2c 21 db 3d e7 5d 18 3d 2e 0e 1d be
       0.1428711 0.106996864 0.037198927 -0.1533744
0003d0 60 4c 68 3d 0a 8a cb 3c e8 0d 04 3c 40 a2 ee 3d
       0.056713462 0.024846096 0.008059956 0.116520405
0003e0 e8 99 77 3d d6 0e f1 3d d5 d7 9a bd cd 24 c8 bd
       0.06044951 0.11770408 -0.07560698 -0.09772644
0003f0 73 5a 04 be 43 d2 b3 bd d9 7e fd 3d e8 60 00 3e
       -0.12925129 -0.087803386 0.1237771 0.12536967

blocks.0.filter_conv.conv.bias f4 [64]
000000 5e 9c 75 ba 23 a7 7d ba 4c 48 b7 3a d0 2e 23 3a
       -0.0009369309 -0.00096760894 0.0013983338 0.0006224932
000010 de 2d 55 3b b9 75 31 3b 0d 08 44 ba 67 5b 15 bb
       0.003252856 0.0027078225 -0.00074780063 -0.0022790076
000020 b5 51 e9 ba 75 5f 70 bb b3 8f 96 3b ec b8 d8 b7
       -0.001780084 -0.003667799 0.004594767 -2.5835318e-05
000030 bc 44 30 3b 13 9d 19 39 81 d0 5d bb 22 97 dc 39
       0.0026896438 0.00014649732 -0.0033846202 0.00042074273
000040 6b 05 ab b8 9c 09 17 bb 9c d3 02 3b 03 41 3f bb
       -8.1549246e-05 -0.00230465 0.0019962555 -0.0029183037
000050 18 0c a4 bb b3 ff 84 3b 52 8f 40 38 d2 c3 d3 3a
       -0.0050063245 0.004058802 4.5909845e-05 0.0016156381
000060 4d 93 bf 3a c4 cf b2 3a 51 e7 dc ba 62 fa a6 b9
       0.0014616043 0.0013642241 -0.0016853606 -0.00031848537
000070 e4 70 48 3a 69 65 06 bb ce ea b0 b9 e8 9f 1c bb
       0.00076462165 -0.0020507223 -0.0003374428 -0.0023899022
000080 e5 f3 14 ba 3a 06 54 ba a0 5e 05 bb 3f ac 6c 3a
       -0.0005682095 -0.0008088086 -0.002035059 0.0009028352
000090 dd c5 13 bb fa c2 d4 39 40 e2 12 b8 88 9f 2e 3a
       -0.0022548356 0.0004058106 -3.5019824e-05 0.0006661345
0000a0 7e c8 12 3a 22 63 12 3b 08 5e 94 3a ac a2 0a 3b
       0.00055993337 0.002233692 0.0011319527 0.002115409
0000b0 ae 14 09 3b 73 57 70 bb 16 55 cb b9 80 6d 36 3b
       0.0020916867 -0.0036673218 -0.0003878257 0.0027836263
0000c0 68 82 a5 ba 24 e4 09 bb c6 01 36 bb 09 e4 08 bb
       -0.0012627365 -0.0021040523 -0.0027772053 -0.0020887873
0000d0 5a 72 72 3b ee 72 db 3a 69 ce 1c bb e6 de 4d 3b
       0.0036994428 0.0016742626 -0.002392674 0.0031413375
0000e0 31 12 28 3b 14 59 7c b9 57 5a 77 3b 34 03 00 3b
       0.0025645609 -0.00024065777 0.0037743056 0.001953316
0000f0 a1 92 6e bb ef af 6f bb 38 32 1c bb 43 38 df 3a
       -0.0036403316 -0.003657337 -0.0023833644 0.0017030317

blocks.0.gate_conv.conv.weight f4 [64, 64, 1, 2]
000000 b4 ad 16 3e b9 df e6 3d 28 90 17 bc 9e e7 05 3e
       0.147147 0.112731405 -0.009250678 0.13076636
000010 e3 3d ec 3d 9a 95 28 3d 4d 8a 0d be d1 d4 a1 3d
       0.115352415 0.041158296 -0.13822289 0.0790192
000020 22 32 f4 3d 75 12 b0 3c 1c d2 f7 bd f6 4c a1 3d
       0.119236246 0.021493176 -0.12100622 0.07876007
000030 39 2a de bd b9 2d 03 3e 9d db d3 3d 01 cc b2 bd
       -0.10847897 0.1281041 0.10344622 -0.08730317
000040 f5 a6 1a 3e 63 8d c9 ba d8 1f 05 3e ee df af bc
       0.15102752 -0.001537722 0.13000429 -0.021469083
000050 3e 0e 16 bc 3a 78 a0 bd 1d f1 8f 3d 44 a5 f4 bd
       -0.009158669 -0.078354314 0.070284106 -0.119455844
000060 5f 09 d0 39 f9 08 41 3d 8b 01 86 3d ad 57 1c 3d
       0.00039679834 0.047127698 0.06543263 0.03816955
000070 71 9c ef 3d 16 08 96 bd d2 e7 1c be 95 34 81 bd
       0.11699761 -0.07325761 -0.15322807 -0.06308857
000080 0c 3d 35 3b ff 39 16 3e 58 7a 0d be be 60 06 be
       0.0027654795 0.14670561 -0.13816202 -0.13122842
000090 99 2c a0 bd 6a ea df 3d 66 f3 b6 3d 32 ed 5a 3d
       -0.07821006 0.10933383 0.08933143 0.053448863
0000a0 70 5b 7d bd 6f ae 8c 3d aa 9d e9 bd 43 d3 14 be
       -0.06185478 0.06869208 -0.11407025 -0.14533715
0000b0 fe b5 a8 bc 05 0f 8c bb cc 47 0d be a4 eb 0c 3e
       -0.020594593 -0.0042742514 -0.1379692 0.13761765
0000c0 2f e2 0f be ef 2e 08 3e bf 8e fb bd 15 c2 b1 3d
       -0.14051126 0.13299154 -0.12283086 0.08679596
0000d0 37 9b b1 3d 08 d3 b4 3d 85 e4 42 bd 41 d0 7d 3d
       0.08672183 0.088293135 -0.047581214 0.061966185
0000e0 d9 cc 3d bc d3 08 ce bd e8 5b ec 3d 7f 2d f0 39
       -0.011584484 -0.10060277 0.11540967 0.00045810264
0000f0 06 eb 90 3d fa 19 b6 bd 5a eb 65 3d 90 ee 10 be
       0.07076077 -0.088916734 0.056132652 -0.14153504
000100 01 d6 9b bc d9 9b d3 3d 58 e8 90 bc 70 be 3b 3a
       -0.019022943 0.1033246 -0.017688915 0.0007161861
000110 16 04 ed bd 66 22 02 3e 30 d1 41 3d 73 82 ef 3d
       -0.11573045 0.12708434 0.047318637 0.11694803
000120 bc 9e 66 bd 6a c8 d4 3d cc fb 05 be 13 79 07 be
       -0.056303725 0.103897884 -0.13084334 -0.1322978
000130 17 21 1a 3e 5a ab 02 3e ce 96 02 be 2a 30 b0 bc
       0.15051685 0.12760678 -0.1275284 -0.021507341
000140 57 16 9a 3d f0 51 17 3e 0a 59 15 3c 7d 80 cc bd
       0.07523792 0.1477735 0.009115467 -0.09985445
000150 62 98 ff bd b7 ae 08 3e 86 60 ef bc 6e 96 b6 3d
       -0.124802366 0.13347898 -0.02922083 0.08915411
000160 47 81 e4 bd 8e 81 50 bd 2b 06 01 3e 98 10 43 3d
       -0.1115747 -0.050904803 0.12600009 0.047623247
000170 0e 6e 0b 3d a9 75 6a 3d 06 d1 4f 3c 48 7f 9b 3d
       0.034040503 0.057241116 0.012684112 0.07592636
000180 e3 3c ef 3d c5 38 dc bd a8 a9 c2 3d 18 07 59 bb
       0.11681535 -0.107530154 0.095050156 -0.00331158
000190 97 f4 ec 3c 80 5d e0 3c 6e 56 cd 3b 10 38 7a bd
       0.028925223 0.027388334 0.0062664067 -0.06108862
0001a0 b3 c8 d2 bd 18 59 0c 3e 74 e8 5b bd 66 0a ad 3d
       -0.102921866 0.13705862 -0.05368848 0.08449249
0001b0 fa 7b 6b 3d 53 b0 c8 3d 83 4d d0 bc 48 7e e3 bd
       0.05749128 0.09799256 -0.025427585 -0.111080706
0001c0 73 9f 0d be cf 0f ca 3d 35 15 97 bd 92 82 0b 3e
       -0.13830356 0.098662965 -0.07377092 0.13624027
0001d0 0d 91 a3 bd b0 c6 a7 bd 12 f9 7b bc 8a 00 c9 3b
       -0.079866506 -0.081921935 -0.015379207 0.0061340975
0001e0 34 b6 be 3d 73 a0 04 3d cf 13 dd bc 6d fe bf 3b
       0.09312096 0.03237958 -0.026986985 0.0058591873
0001f0 dc 0d cf 3d 54 ec c3 bd a7 e8 9f bd 3c f7 84 bc
       0.10110065 -0.095665604 -0.07808047 -0.016231172
000200 66 31 c9 bd e8 6a cc 3d 4b ad 08 3e 1d 32 55 3d
       -0.09823875 0.09981328 0.13347356 0.052049745
000210 87 99 bf bd e3 b6 06 be d6 88 ea bd c7 22 e9 3d
       -0.09355455 -0.13155703 -0.11451881 0.113835864
000220 c1 62 03 3d 71 3b 18 be 7f 25 89 bd 81 9d a5 ba
       0.0320766 -0.14866425 -0.06696605 -0.0012635441
000230 5b 6e 0d bc 36 16 fc 3d 33 15 1a be a2 5d e3 3d
       -0.008632268 0.12308924 -0.1504715 0.111018434
000240 be 62 e6 bd e3 e2 00 be d1 87 fd 3d a2 71 bf bc
       -0.11249302 -0.1258655 0.123794205 -0.023369614
000250 23 c6 e0 bd 0b 9c 11 be 0d d9 a8 3d 05 43 f0 3d
       -0.109752916 -0.14219682 0.08244524 0.11731533
000260 aa 6f cc bd 28 73 19 bd 52 62 1a be 90 e1 9e 3d
       -0.09982236 -0.037463337 -0.15076569 0.077578664
000270 38 43 b5 bd 92 eb 82 bd a2 e5 02 3e 9d 97 06 be
       -0.088507116 -0.06392588 0.1278291 -0.13143773
000280 ec 4e 46 bd 38 7b 03 3e b1 fe 0a be 9f 78 4b bd
       -0.04841511 0.12839973 -0.1357372 -0.04967558
000290 19 72 ca 3d 64 dd a2 bd f9 70 31 3c 86 08 ef 3d
       0.09885044 -0.07952383 0.010830157 0.116715476
0002a0 5e 5f 82 3d f0 4d 9b 3d bc d1 7f bd 12 f2 d9 bd
       0.06365846 0.07583225 -0.062455878 -0.106418744
0002b0 40 6c ae bd 6d c6 12 bd 1e ad e3 3c 8a 89 ba 3d
       -0.08516741 -0.035833765 0.02779251 0.09108265
0002c0 28 39 05 be 0a 31 16 3e 3d e6 05 be 5d 68 b8 3d
       -0.13010085 0.14667144 -0.1307611 0.09004281
0002d0 8e 3f 16 be ab 0e bc 3d 08 20 dc bd 88 49 ea 3c
       -0.14672682 0.09182485 -0.10748297 0.028599516
0002e0 b1 c4 14 be eb f2 80 bd 64 49 f2 bd c2 71 0a 3e
       -0.14528157 -0.06296333 -0.118304044 0.13519958
0002f0 be c1 58 bc 76 56 42 3c ba ad 54 bc c4 a3 b4 bc
       -0.0132297855 0.011861434 -0.012980873 -0.022050746
000300 a4 1d 1a 3e a6 1f 65 bd b4 22 f6 3d ea d0 15 3e
       0.1505037 -0.055938385 0.12018338 0.14630476
000310 1f 1e 74 bd d9 93 17 be ec df 0a be 4b a9 55 3a
       -0.05959904 -0.14802493 -0.13561982 0.0008150532
000320 b3 d0 a0 bd 38 45 87 3d 17 16 ab 3d d4 59 20 be
       -0.07852306 0.06604999 0.08353823 -0.15659267
000330 88 a3 e2 3d 59 86 03 be 1d d6 3f 3d 32 98 0b 3e
       0.11066347 -0.12844218 0.046835054 0.13632277
000340 45 92 ea 3d 58 cb b3 bd de 9e 6a 3d 3c 84 c0 bd
       0.1145368 -0.08779019 0.057280414 -0.09400222
000350 34 77 25 bd b0 5a a9 bc 33 1b 0c 3d 4f 27 01 bd
       -0.040396884 -0.020673126 0.034205627 -0.03153163
000360 bd 1e 0d be e3 eb 71 bc d5 21 e9 3b b2 93 b7 bd
       -0.13781257 -0.014765712 0.007114629 -0.089637175
000370 e9 14 09 be 2c fd b7 bc a3 1a db bd f2 de 9d 3b
       -0.13386883 -0.022459589 -0.1069844 0.004817837
000380 22 7b 84 3d 58 b3 cd bd 18 60 96 3d 61 ca d5 bc
       0.06468798 -0.10043973 0.07342547 -0.026097478
000390 cd a4 db bb 15 70 ff bd 63 56 cb bd dd fe ed 3d
       -0.0067029954 -0.1247255 -0.09928586 0.11620877
0003a0 e2 3b fb bd 37 9b ab 3d f4 8c f7 3d 25 68 72 bd
       -0.12267281 0.08379214 0.120874316 -0.05918135
0003b0 5b 5b 73 3d a6 69 72 bd 18 d6 6d 3d 1e b0 09 bd
       0.059413295 -0.059182785 0.058065504 -0.033615224
0003c0 00 0c dc 3d c7 f9 ee bc 82 d7 68 bd 58 85 bb 3d
       0.10744476 -0.029171837 -0.05684615 0.09156293
0003d0 23 75 16 3e 00 11 09 be 30 4b 56 3c 9e 27 b9 3c
       0.14693122 -0.13385391 0.01307945 0.022601899
0003e0 a3 87 07 be d1 d0 0c 3e 8a d6 fe 39 58 3a c5 3d
       -0.13235335 0.13751532 0.000486065 0.09630269
0003f0 71 9d cd 3d e7 ee 12 3e 4b 6b 6d bd 00 d8 ab bd
       0.10039795 0.14348947 -0.05796365 -0.08390808

blocks.0.gate_conv.conv.bias f4 [64]
000000 76 3d 9e 39 42 06 e9 39 93 dc 3e bb 41 0a c6 ba
       0.000301819 0.00044445886 -0.0029123172 -0.0015109257
000010 9b 66 de 3a 9d 6d 7a 3a e1 95 dd 3a 27 d0 fa 3a
       0.0016967835 0.0009553077 0.0016905629 0.001913552
000020 4b 98 51 3a 49 f0 16 bb af f1 8f 3b b2 b3 09 3b
       0.00079954107 -0.0023031405 0.0043928246 0.0021011648
000030 e9 0b f1 ba 4d 7c 3c bb 18 ce 62 bb 84 e1 c7 3a
       -0.001839039 -0.0028760612 -0.0034607705 0.0015249704
000040 7f f6 79 39 07 2e b8 3b b8 65 ab ba e5 d5 51 3b
       0.00023838317 0.0056207213 -0.0013076579 0.003201836
000050 b0 53 00 3a 04 c0 da 3a 1a 13 79 3a 01 f6 24 b8
       0.0004895283 0.0016689305 0.00095014425 -3.9329756e-05
000060 2c 0d 08 ba b8 5f 55 3b 4b 57 37 3b 88 22 6c bb
       -0.0005189951 0.0032558274 0.0027975615 -0.0036031324
000070 2c fa e5 ba 36 f6 d0 b9 b6 61 c1 ba af 57 68 bb
       -0.001754587 -0.00039856293 -0.0014753852 -0.0035452654
000080 82 c9 af 3a 63 38 4b bb 91 72 9a 3a fa dd 63 3b
       0.0013411494 -0.003100895 0.0011783411 0.003476976
000090 e6 66 a9 3b a9 3c ca b9 3e 25 39 bb 87 9d 32 3b
       0.005169737 -0.00038573638 -0.0028250958 0.0027254538
0000a0 06 a9 23 bb 2d dd b6 ba 4b 8c 59 3b 1e 76 61 bb
       -0.0024972572 -0.0013951414 0.0033195193 -0.0034402679
0000b0 c5 78 fd b9 d8 61 8e 3b 03 b7 04 bb df a8 23 3b
       -0.000483459 0.00434516 -0.0020250685 0.0024972481
0000c0 8c 2f be 3a 08 b2 4c ba 5b a8 d7 b9 bb 0a a1 ba
       0.001451002 -0.0007808511 -0.0004113343 -0.0012286523
0000d0 54 e8 ae 3b 9c b3 f9 3a b2 38 85 bb ef c8 aa b8
       0.0053377543 0.001905072 -0.0040655965 -8.1436585e-05
0000e0 1d 1f 01 3b 4f bd ba ba 5a ee 93 38 77 e4 a0 ba
       0.0019702383 -0.0014247092 7.053903e-05 -0.0012275119
0000f0 16 f9 f6 3a 2f 1c 0f ba ea f6 08 bb df 35 7a 3b
       0.0018842544 -0.0005459217 -0.0020899125 0.0038179082

blocks.0.residual_conv.weight f4 [64, 64, 1, 1]
000000 6f d4 0d be c3 f2 02 3e e7 c4 1a 3d 74 69 5d be
       -0.13850568 0.12787919 0.037785437 -0.21622258
000010 22 87 1a 3e 4d 7e c1 3c a4 e5 98 bd 5c 9b 9a bd
       0.15090612 0.023619795 -0.074656755 -0.07549164
000020 e8 3f 9b 3d e3 df 2d be 15 4c d3 bc 11 67 ff 3d
       0.075805485 -0.16979937 -0.025793115 0.1247083
000030 45 35 68 3d 96 5f 2c be e4 54 4a 3e cd 04 4f be
       0.056691427 -0.16833338 0.19758946 -0.20216675
000040 af 08 1c bd f9 53 4a be bd 98 49 bb dd 4c 00 3e
       -0.03809422 -0.19758596 -0.0030761205 0.12529321
000050 80 96 1d bd b6 fd b1 3c 5e b5 54 be d5 26 29 be
       -0.038473606 0.021727424 -0.20772311 -0.1651872
000060 b8 f2 74 3d c6 ee d1 bd 8c d0 96 3c 0f da 33 3e
       0.059801787 -0.102506205 0.01840999 0.17563652
000070 ef 0c db 3d b3 7c 00 bd 1f de 4b 3e f7 ea a5 bd
       0.10695826 -0.031368922 0.19908951 -0.081014566
000080 34 c9 52 bc f3 20 59 3e a1 6c 05 3e f8 20 36 be
       -0.012865353 0.21203975 0.1302972 -0.17786014
000090 8c 89 28 be f3 e7 9f bd 04 98 14 3d 31 c2 4a 3e
       -0.1645872 -0.07807913 0.036277786 0.1980064
0000a0 06 b9 0e 3e 94 69 31 be 2d 41 2a bc fb dc b9 bd
       0.13937768 -0.17325431 -0.010391516 -0.09075352
0000b0 06 6e 01 3e a1 a5 df 3c 0a b3 4e bb 7c a5 78 bd
       0.12639627 0.027300658 -0.003153982 -0.060704693
0000c0 9b e3 4b 3d 72 a6 75 bd 1f 22 b5 3d 4d f3 91 3c
       0.04977761 -0.059973188 0.08844399 0.01781621
0000d0 2d 0a 42 be 0b e0 04 3e 09 7e c8 bd ff c2 2e be
       -0.18949194 0.1297609 -0.09789664 -0.17066573
0000e0 0c d5 db 3d 59 c1 91 bc 71 45 37 3e c3 2b 42 3e
       0.10733995 -0.01779239 0.17897584 0.18962006
0000f0 a8 74 6e 3c 9d eb 14 bd b0 af 14 3e 11 35 b8 3d
       0.01455418 -0.03635751 0.14520144 0.089944966
000100 94 2b 26 bb 3d 49 60 3d a1 67 06 3e a2 42 e9 bc
       -0.0025355564 0.054757345 0.13125469 -0.028474156
000110 6b aa e4 bd b0 2e d3 3d b7 95 a6 bd e6 7e d3 bd
       -0.11165317 0.10311639 -0.081340246 -0.10326938
000120 3b ec 3d bd 2a 73 c6 bd 85 05 22 bd 76 ed 27 3d
       -0.046367865 -0.096899346 -0.039556045 0.040997945
000130 99 e9 56 3d 27 7a 02 3e 02 ea 9f bd c6 a1 4a bd
       0.05246887 0.1274191 -0.07808305 -0.049470685
000140 9b 07 5b bd 71 df 45 3e af 38 88 3d 90 b8 5b 3e
       -0.05347405 0.19323517 0.066514365 0.21457124
000150 bc 4a 59 3c 93 c3 17 be 48 cb 5a 3e 05 06 3e 3e
       0.013262447 -0.148207 0.21366608 0.18556984
000160 2e 10 97 bd 51 a9 5b 3e 3b a3 06 be 24 7d 93 bd
       -0.07376133 0.21451308 -0.13148205 -0.07201603
000170 4d eb 56 be 60 ab a4 3d 5c 5e 55 be f1 01 bb 3d
       -0.20988198 0.080405 -0.20836776 0.0913123
000180 2b ca c2 bc 64 f0 98 bd 6b a0 07 be c7 d9 fa 3d
       -0.023778042 -0.07467726 -0.13244788 0.12248569
000190 cb 1d c7 bc 89 99 da 3d 11 67 a2 bd a2 5c 41 3e
       -0.024306199 0.10673816 -0.079298146 0.18882993
0001a0 d2 fc 1c be 5e b9 37 be b3 ec 03 be 38 98 17 3e
       -0.15330818 -0.17941806 -0.12883262 0.1480416
0001b0 53 81 8d 3d 86 27 ae bd 8d 47 54 be 35 dd 2e 3e
       0.06909432 -0.08503632 -0.2073042 0.17076571
0001c0 e9 5e ea bc 7d 26 76 3d 7b e5 ba 3d 2c b6 2d 3e
       -0.02860971 0.0600953 0.09125801 0.16964024
0001d0 59 b1 f8 bb 66 ac 41 bd f3 0d bb bc 94 d0 03 3e
       -0.007589501 -0.047283553 -0.0228338 0.12872535
0001e0 c3 63 81 bc 1e 38 1d 3e 0b ad 43 be 94 de 61 3d
       -0.01579464 0.15353438 -0.1910898 0.055143908
0001f0 5e 1d 1c 3d 94 cf 23 bc 8d 99 50 be 03 41 0f be
       0.038113944 -0.009998221 -0.20371075 -0.13989644
000200 28 e5 77 bd 0c 54 88 3d d1 9e 06 3e 51 f4 0d be
       -0.060521275 0.06656656 0.13146521 -0.1386273
000210 b1 a1 33 be 0b e7 47 be 37 b7 a8 3d ff 6e 16 3e
       -0.17542149 -0.1952173 0.082380705 0.14690779
000220 38 1f a2 3c 13 53 4e 3e 9a f0 f6 3d f0 97 f7 bd
       0.019790277 0.20148878 0.1205761 -0.12089527
000230 c3 30 29 3d ab fd 0e be 4f 2f c8 3d 77 e1 84 bd
       0.04130627 -0.13963954 0.097746484 -0.064883165
000240 36 6a 95 3d 1b 56 94 3c f9 61 f4 3d 02 53 2f be
       0.07295649 0.018107465 0.11932749 -0.17121509
000250 65 bb ac 3d 16 70 54 3d ab cb 34 3d 01 fc 09 be
       0.0843418 0.051864706 0.044139545 -0.13475038
000260 b1 6d c2 bd ee 19 a1 3b e9 f5 ae bd 4c c9 f9 bd
       -0.09493578 0.004916421 -0.085429974 -0.121965975
000270 c5 7c 93 bd 40 9e 44 3d b5 cb 17 be 27 b1 19 3e
       -0.07201532 0.04800248 -0.14823802 0.15008985
000280 66 f4 40 3e 7d 4f cb bd 13 ff aa bd 16 6e 1d 3e
       0.1884323 -0.099272706 -0.08349433 0.15374026
000290 49 cf 09 be 19 51 4b 3e e7 a9 52 be 6b d0 81 3d
       -0.1345798 0.19855155 -0.20572625 0.06338581
0002a0 43 42 24 bd 83 d8 4a be df 62 49 3e 27 5a 04 bc
       -0.040102255 -0.19809155 0.19666623 -0.008078135
0002b0 60 14 83 bd e2 1a bc 3d c9 62 92 bd ae b5 ab bd
       -0.064003706 0.09184815 -0.07147748 -0.08384262
0002c0 c7 b9 16 be 71 fd 13 bd da 13 55 be 09 e3 4a 3e
       -0.14719306 -0.036130372 -0.20808354 0.1981317
0002d0 e2 c3 4d be 18 5f 39 3e d9 e2 17 3e 88 e7 41 be
       -0.20094255 0.18102682 0.1483263 -0.18935978
0002e0 86 17 2b bd f2 bd 47 3e 75 c8 47 be 22 8b 60 3c
       -0.04177048 0.19506052 -0.19510062 0.013705047
0002f0 da b9 20 3e c4 94 ff bd 3b 20 48 bd 13 6a be bc
       0.15695897 -0.12479547 -0.048858862 -0.02324394
000300 ae 31 b1 3d 5f d3 4a bd 1f e5 97 3d 49 52 51 be
       0.08652054 -0.049517985 0.07416748 -0.20441546
000310 9b e7 28 3d 73 a4 a7 bc 82 fb 9e 3d 57 82 ab bd
       0.0412365 -0.020464158 0.07762815 -0.0837447
000320 15 92 46 3e 29 34 ac bd 9f ff 5a 3c cd b9 52 be
       0.19391663 -0.08408386 0.013366609 -0.2057869
000330 7e 7e 27 be 71 91 36 be d2 fa 8b bc ff 73 26 be
       -0.16356847 -0.17828919 -0.017087374 -0.16255186
000340 c1 ac 0d 3e cc 65 0c 3e c9 3d 34 be ef 47 04 3e
       0.13835432 0.13710707 -0.17601694 0.12918065
000350 4c 1e 50 be 66 5f f4 3d f4 f7 b5 3c 6c 5d 32 3e
       -0.20324057 0.11932258 0.02221296 0.1741845
000360 d5 80 29 be 6e f3 1a be 29 de b9 3b bc 79 a2 3c
       -0.16553052 -0.15131924 0.0056722355 0.019833438
000370 31 9e 5f be c4 6b 3f 3c 61 cf 3b 3d f0 5b 5d bd
       -0.21837689 0.011683408 0.04585207 -0.054042757
000380 ea e6 77 3d 07 9c 3c be 0d 03 ee 3b 42 4b 8b bd
       0.06052295 -0.18418895 0.0072635473 -0.06801464
000390 6a 9e 37 3d 25 e9 53 3e d0 3d df bd fc 30 2d bc
       0.04482881 0.20694406 -0.10900462 -0.010570761
0003a0 9f fb 71 3d f8 01 38 3e 0a 49 88 3c 4b ce 9d 3b
       0.059077855 0.17969501 0.01663639 0.004815852
0003b0 87 6d ff 3c 15 21 08 be 64 25 fc 3c 85 8e c5 3d
       0.031180156 -0.1329387 0.030779548 0.09646324
0003c0 d7 78 37 3e 39 da 1f bd 82 6e 47 3e 4b 84 24 be
       0.1791719 -0.039026473 0.19475749 -0.16066091
0003d0 87 2a 4c 3e b3 d9 ee 3c b8 8d 8f 3d 3a 8d 14 be
       0.19938098 0.029156541 0.070094526 -0.14506999
0003e0 80 8a 0f 3e ce 91 df bd 07 20 1d be f1 36 d3 bd
       0.14017677 -0.10916482 -0.15344249 -0.103132136
0003f0 22 c0 dc bb 9b a6 d2 3c ae 65 c4 3d 6c 8e a7 bc
       -0.006736771 0.02571421 0.09589706 -0.020453654

blocks.0.residual_conv.bias f4 [64]
000000 31 51 0c b9 b8 a3 3f 3b 21 f3 b4 ba 03 43 a3 b9
       -0.00013381687 0.002924187 -0.0013805368 -0.0003113971
000010 c4 40 c9 3b f8 89 70 3b 7c 1a 8f bb 5f e6 28 3b
       0.006141754 0.003670333 -0.004367171 0.0025772077
000020 a3 75 9e 38 fe c5 2e 39 4a 46 67 3b 31 e3 99 3b
       7.555939e-05 0.00016667691 0.0035289698 0.004696273
000030 10 8d 97 bb 3f 26 6a 3a 34 0c 17 b9 86 c1 7f ba
       -0.0046249703 0.0008932091 -0.00014405028 -0.0009756315
000040 b6 6c 89 3a e1 06 f6 ba 8c 4e e4 ba 79 2b 4d bb
       0.0010484669 -0.0018770361 -0.0017418428 -0.003130643
000050 54 09 ef 3a ff 0e 3c 3b 01 20 59 3b 7c 15 95 3a
       0.0018237033 0.0028695462 0.0033130648 0.0011374201
000060 ac de 8b 3a 79 6d b6 3a 51 a4 f7 ba 4a f9 1c 3b
       0.001067122 0.0013918123 -0.0018893575 0.0023952299
000070 1b 98 06 bb a2 f4 c4 39 2c 54 7a bb 25 31 f9 3a
       -0.002053744 0.000375663 -0.0038197143 0.0019011839
000080 e9 98 53 bb fe 1b 4a bb 42 e2 1e bb 98 5f 8a 3b
       -0.0032287186 -0.0030839439 -0.0024243747 0.0042228214
000090 1e 66 6a 3b 62 91 87 3a 07 39 2a bb d8 d8 81 3a
       0.0035766433 0.001034301 -0.0025973932 0.0009906543
0000a0 e5 85 95 bb 46 e8 1c 3b 6b 2a 98 3b 91 a6 30 3b
       -0.0045630806 0.0023942157 0.0046437285 0.002695475
0000b0 87 7a 5e bb a6 28 81 b8 3d 74 39 bb dc 78 84 ba
       -0.0033947544 -6.158771e-05 -0.0028298043 -0.001010682
0000c0 86 cc 11 3b 9e 81 ca b9 ef 76 00 3a 24 ae f3 3a
       0.002224715 -0.00038625015 0.0004900535 0.0018591327
0000d0 dc a3 be 3a 84 5f 52 ba d1 39 26 3b 95 fb 14 3a
       0.0014544684 -0.0008025097 0.002536405 0.00056832406
0000e0 b5 f4 7e 3b 11 b8 54 3b a6 14 19 bb d3 d0 6d 3b
       0.003890318 0.0032458345 -0.0023358255 0.00362878
0000f0 a7 15 38 ba 78 b0 49 39 3b b6 e3 3a e5 86 35 ba
       -0.00070222694 0.00019234593 0.0017373034 -0.0006924703

blocks.0.skip_conv.weight f4 [128, 64, 1, 1]
000000 ee 7e 24 3e 78 86 0e be 16 46 94 bd b5 8d b5 bd
       0.16064045 -0.13918483 -0.0723993 -0.08864919
000010 02 18 19 be 20 cc 89 3d 8b f5 f2 bb 07 13 63 bd
       -0.14950565 0.06728387 -0.007414525 -0.055438068
000020 73 b0 74 bc 39 44 20 be 7a f0 2b 3e d6 88 8f bd
       -0.014934647 -0.15651025 0.16790953 -0.07008521
000030 ef 76 91 3d 5b b6 22 3e 23 b9 2e 3e c2 72 2e 3d
       0.07102763 0.15889876 0.17062812 0.04258991
000040 65 39 19 be 98 d7 79 3d 18 78 df bd d1 89 78 3d
       -0.149633 0.06099662 -0.10911578 0.060678307
000050 35 5c b6 bc 29 a5 24 3e f4 34 2d be c0 52 32 3c
       -0.022260765 0.16078629 -0.16914731 0.010883987
000060 3e 74 b4 3d 83 85 00 3e b9 f2 d0 3d a3 7d 2d be
       0.08811234 0.1255093 0.10202546 -0.16942458
000070 01 b5 01 bd fc 7b ad 3d 74 c1 a9 bd 88 40 1b be
       -0.03166676 0.08470914 -0.082888514 -0.15161335
000080 85 5a 24 3d 96 3c cd 3d 50 43 d3 3d 3f 2c 81 bc
       0.04012539 0.100213215 0.10315573 -0.015768168
000090 b8 95 7c bd 05 b6 07 bd 84 5e 8b bd 5e 37 ee bd
       -0.06166622 -0.03313257 -0.06805137 -0.11631654
0000a0 29 64 06 be 17 b7 34 3e bf ca 53 bd 8e 06 a9 3c
       -0.13124146 0.17647968 -0.051707026 0.020633008
0000b0 0c 0d a4 3d 16 c2 af 3d ed ba ad bb 71 ed 0b 3d
       0.08010301 0.08581941 -0.0053018243 0.03416199
0000c0 9a 7e 01 3c 2c 22 f1 3d 89 85 4f 3d ad 7e 2b 3e
       0.007903719 0.11774096 0.05066446 0.16747542
0000d0 57 fd 9e bd f2 bd 0a be b6 e3 b3 bd ad 3c 28 be
       -0.077631645 -0.13549021 -0.08783667 -0.16429396
0000e0 16 6c 63 3d 38 28 f8 3d 2d e3 04 3e 80 ee 9a bd
       0.055523 0.12117046 0.12977286 -0.075650215
0000f0 0e 83 cb bc 57 dd cd bd 19 84 e5 bc a7 b6 34 3e
       -0.024842765 -0.10051983 -0.02801709 0.17647801
000100 76 2c a9 3d 8e 29 2f bd f1 38 09 bd 62 4d d9 3d
       0.082604334 -0.04276424 -0.03350157 0.10610463
000110 79 1a b8 3d ae 89 28 3c 32 e2 cd bd a8 4f 15 3e
       0.08989424 0.010286732 -0.10052909 0.14581168
000120 2e 1d 14 be 26 a2 6d 3d 41 36 0e 3e 92 fd a5 3d
       -0.14464256 0.058015965 0.13887884 0.08105005
000130 a0 ee 1e be 7c e0 b3 bc 72 17 0d 3e a8 20 6c bd
       -0.15520716 -0.021957628 0.13778475 -0.05764833
000140 ee ba 01 3e 63 a7 aa bd d5 07 97 bd f9 e7 12 3d
       0.12668964 -0.08332708 -0.07374541 0.035865758
000150 0a 07 4a 3d 66 1c 24 be a3 fd 7f bd 30 06 f7 3c
       0.04932312 -0.16026458 -0.062497746 0.030154318
000160 ed 13 29 be 68 2d 43 bd 71 92 53 3d 51 b2 2b be
       -0.16511507 -0.047650725 0.05165333 -0.16767241
000170 3f 1c 19 3e 2e c3 f0 3d 84 43 f8 3a 4b 6b 98 3d
       0.14952181 0.117559776 0.001894102 0.074423395
000180 b8 c6 ae bd e7 cd ce 3d de 0f 6a 3c a7 a8 eb bd
       -0.08533996 0.100978665 0.01428601 -0.11506777
000190 f9 31 32 be 7a 67 03 bd fe aa a1 3b 0e ea 8a 3d
       -0.17401876 -0.032081105 0.004933714 0.06782924
0001a0 1b ea 0f be b2 75 11 3e b8 cf 34 3d 41 86 71 bc
       -0.14054148 0.14205053 0.04414341 -0.014741481
0001b0 1e 0d 2a bd 3e 66 82 bc e4 61 c3 bc c0 f6 06 3e
       -0.041516416 -0.015917893 -0.023850389 0.13180065
0001c0 ef 9b c9 3d 54 5f 1f 3e fe f7 1f 3e 75 5c fe 3d
       0.09844195 0.15563709 0.15621945 0.124199785
0001d0 e1 8b 74 bd 8b 04 30 3e 5e f6 09 bd 35 7c 06 3e
       -0.05970371 0.17189233 -0.03368222 0.13133319
0001e0 92 cf 2e be d6 53 a4 3d 57 2f 06 3d 57 d6 03 3e
       -0.1707137 0.08023803 0.03275999 0.12874733
0001f0 ac b0 8c bc 8f 9c da bd 56 f5 10 be 0b 28 1d be
       -0.017174087 -0.106743924 -0.14156088 -0.15347306
000200 13 46 18 be d3 79 bf bd ad 28 26 3d 7d 0c 98 bd
       -0.14870481 -0.09349408 0.040566135 -0.07424257
000210 34 c9 1c bd cd 44 a3 3c 58 c1 17 3d 13 3b de bc
       -0.03827782 0.019930268 0.03704962 -0.027127778
000220 34 6f 35 be 6e 25 1f bd 02 31 f9 3d 99 df 48 bd
       -0.17718202 -0.038854055 0.121675506 -0.049041364
000230 4d da 2b be e5 68 da 3d 2e eb e6 bd 66 44 51 3d
       -0.16782494 0.10664538 -0.11275326 0.05109062
000240 90 6f 2d bd b9 07 80 bd 23 93 8a bd 9f e4 ed 3d
       -0.042342722 -0.06251473 -0.06766345 0.11615872
000250 12 a4 80 bc 51 8b 8d 3d d4 f2 0f 3e b3 61 fa bc
       -0.015703235 0.06911338 0.14057475 -0.030564165
000260 46 58 be 3d 2d ce 80 3d 0d 14 34 bc d2 c7 29 3e
       0.092941806 0.06289325 -0.010991109 0.16580132
000270 9b bc 02 3b 23 8a 1e 3d 5b 95 76 bb 3f 1c 83 3d
       0.0019948843 0.038705956 -0.0037625644 0.06401872
000280 da 90 42 3d 5e 54 f2 3b d2 f5 09 3d af e1 b1 bd
       0.047501422 0.0073953113 0.0336817 -0.08685624
000290 a7 51 da bd 2f c5 f4 bd 1f 48 26 3d 5f 99 b4 3d
       -0.10660105 -0.11951672 0.040596124 0.08818316
0002a0 3e 71 b2 bc c7 00 15 3e 19 18 e9 3d e2 30 21 be
       -0.021782514 0.14551078 0.113815494 -0.15741304
0002b0 ea c1 30 3e 36 9f 2a 3e a7 ac 93 bc e3 4d 20 be
       0.17261472 0.16662297 -0.018026663 -0.15654711
0002c0 04 58 fd bd df 92 27 be 6b 37 34 3e c9 18 27 3e
       -0.12370303 -0.1636462 0.17599265 0.16318049
0002d0 7d 70 39 be 95 06 22 3d 04 d2 8a 3d b8 a7 9f 3c
       -0.18109317 0.03955706 0.067783386 0.019489154
0002e0 29 8d 7e bd 87 58 26 be e8 75 7e bc cc 12 b3 bd
       -0.06214634 -0.16244708 -0.015531041 -0.087438196
0002f0 5f 49 90 3d c4 a9 21 3d 7b 4a 12 3e 23 28 63 3d
       0.070452444 0.03946854 0.14286225 0.0554582
000300 b8 5b 01 3e ec ae 27 bd 30 b9 d5 bd 3f 47 35 bd
       0.12632644 -0.040938303 -0.10435712 -0.0442574
000310 b5 76 1d 3e 7d 14 5a bd c0 ae 22 be 41 a7 02 be
       0.15377314 -0.053242195 -0.15886974 -0.12759115
000320 b2 80 1f 3e 05 b2 e2 3c d5 01 61 bd 1a b9 fc 3c
       0.15576437 0.027672777 -0.054933388 0.030849982
000330 ab c0 ce bd 30 30 27 3e 5a a1 7d bd b7 86 7f 3d
       -0.10095342 0.16326976 -0.061921455 0.062384333
000340 fb 81 b9 bd c8 ba 19 3e 54 43 ea bd ed d6 b4 3d
       -0.09057995 0.15012658 -0.11438623 0.08830056
000350 15 c2 02 3e 34 44 86 3d c6 56 54 bd 1d 9b f7 bc
       0.12769349 0.065559775 -0.051840566 -0.030225331
000360 61 ac b3 3c 8c 07 ec 3d d0 fe 77 bd 21 8f 4a bd
       0.021932783 0.11524877 -0.060545743 -0.049452905
000370 d3 16 2e bd fc 2b 73 3d b6 1e 28 3e 0a c2 09 be
       -0.042502236 0.05936812 0.16417965 -0.13452926
000380 27 c0 8b 3d 23 78 68 bd 32 0d 27 be 97 13 5e bd
       0.068237595 -0.056755196 -0.16313627 -0.0542179
000390 2e c8 31 bc a0 be 6e bd 5b d2 d7 3d 63 40 ba 3d
       -0.010850949 -0.058287263 0.10538169 0.09094312
0003a0 48 22 3c 3d 27 61 e2 bc 77 05 bd bd 9f bb ac bd
       0.04593113 -0.027634216 -0.09229558 -0.084342234
0003b0 9f f2 16 be 61 c0 2e bd ed 03 e6 bc 3d 1f 81 3c
       -0.1474099 -0.042663936 -0.028078044 0.015761966
0003c0 03 ed 20 3e 8a f0 16 be 7f b8 77 3d 16 aa ce bb
       0.15715413 -0.14740196 0.060478684 -0.006306897
0003d0 99 7d 2b 3e 18 c0 d0 bd 67 d2 ae bc a5 eb b9 3d
       0.1674713 -0.10192889 -0.021340562 0.09078149
0003e0 29 9b c7 3d a2 be 6e 3b eb a8 86 bd a3 d9 f8 3d
       0.09746391 0.0036429544 -0.06575187 0.12150886
0003f0 56 7c f5 3d f3 58 b5 3d 08 f5 de 3d f5 0c 68 bd
       0.11986606 0.08854856 0.1088658 -0.05665298

blocks.0.skip_conv.bias f4 [128]
000000 5e d4 4a 3b 0a 0f eb ba b2 9a 70 bb e0 50 9b ba
       0.0030949335 -0.0017933559 -0.00367133 -0.0011849664
000010 50 91 3b 3b 2e ab dd ba 63 a5 98 3b 10 07 b9 3a
       0.0028620549 -0.0016911977 0.0046583875 0.0014116485
000020 54 22 ed ba 95 7f 02 ba b1 d6 4d 3a 94 75 81 bb
       -0.0018091896 -0.00049781176 0.0007852121 -0.003950784
000030 a7 a3 12 bb a6 7d 10 bb a4 07 92 3a 19 70 82 3a
       -0.0022375376 -0.0022047549 0.0011141193 0.0009951621
000040 b8 5f ad 38 53 05 91 b9 a8 13 19 bb 14 27 b0 3a
       8.267112e-05 -0.00027660522 -0.0023357663 0.001343938
000050 d9 84 6d bb 13 4f b4 b9 43 03 d1 ba 16 92 89 3b
       -0.0036242513 -0.0003439119 -0.0015946407 0.004198323
000060 30 4c 1d 39 b4 4e 69 b9 a7 6b 88 ba 4e 0d 94 3a
       0.00015001069 -0.00022249931 -0.001040806 0.0011295469
000070 00 a7 40 b9 62 3b 8d 3b 5c da c7 ba 0c 2e d3 ba
       -0.00018372759 0.0043100575 -0.0015247571 -0.0016111745
000080 61 38 d1 ba 66 0f 26 bb e7 59 81 bb 51 3d 53 3b
       -0.0015962237 -0.0025338768 -0.003947485 0.0032232592
000090 1a b1 b2 3a c1 2b 5e bb 15 d4 bd ba 3a eb a0 b9
       0.0013633103 -0.003390059 -0.0014482761 -0.00030692836
0000a0 58 b6 43 bb 88 c9 b6 3a 86 99 39 ba a7 40 b2 39
       -0.0029863324 0.0013945559 -0.0007080067 0.00033998975
0000b0 10 f1 63 bb 67 65 95 3a c5 1e 62 bb 5a 1b 54 3b
       -0.0034781136 0.0011398018 -0.0034503203 0.0032364936
0000c0 8e 0d 71 bb f0 d3 0c 3b 22 79 36 3b 04 bc cb 3a
       -0.003678176 0.002148863 0.0027843197 0.0015543704
0000d0 0f 19 44 bb 71 33 8a ba 86 3f 92 39 1b 87 1d 3a
       -0.0029922163 -0.0010543895 0.0002789462 0.0006009207
0000e0 05 b4 0d 3b 25 11 de ba 74 dc 7b 38 85 3b 8a bb
       0.0021622193 -0.0016942365 6.0048376e-05 -0.004218521
0000f0 93 3a dc 3a 24 84 24 3b c3 98 1c 3a ad 89 3a bb
       0.0016802124 0.0025103176 0.0005973691 -0.0028463409
000100 f3 18 62 b9 7b 6f 82 3a 7b e1 da ba 07 2b 3b 3b
       -0.00021562334 0.0009951437 -0.0016699278 0.0028559582
000110 d9 4f 39 3b 0f 33 77 3a da 74 89 bb c2 ca 1b bb
       0.0028276353 0.00094299106 -0.004194838 -0.0023771976
000120 61 00 51 bb a7 8c 44 3b 3c e2 93 ba c1 c6 5e ba
       -0.0031891095 0.0029991062 -0.0011282633 -0.00084982446
000130 65 66 e5 ba 0e e9 b4 39 95 d6 aa 3a 0f 0f ad 39
       -0.001750183 0.00034505915 0.0013033921 0.0003300835
000140 e2 45 7c 3b f9 4a d9 39 aa 74 b4 bb e9 ad 0b 3b
       0.0038493802 0.00041445324 -0.0055070715 0.0021313375
000150 c3 a1 ac 3a 51 56 08 bb bd b1 3c 3b c0 28 ab ba
       0.0013170767 -0.0020803402 0.0028792464 -0.0013058409
000160 0b 84 33 bb c3 5a 86 3a 97 ae 56 3b 9f c3 d3 3a
       -0.0027391936 0.0010250438 0.0032757872 0.0016156322
000170 7d 95 a1 b9 0d 09 22 3a d1 30 70 3a 60 fa 01 3b
       -0.0003081969 0.0006181158 0.00091625476 0.0019833073
000180 84 04 de ba 9e 18 fa b9 1d e7 72 bb 23 82 96 3a
       -0.0016938602 -0.00047702057 -0.0037064024 0.0011482876
000190 7c a2 6d 3a ae 54 87 bb ab 8c c7 3a da 15 61 bb
       0.00090650446 -0.0041299677 0.0015224417 -0.00343453
0001a0 95 48 53 bb ba bc 2b 3b 06 03 c3 3a f6 48 ce ba
       -0.0032239307 0.002620502 0.001487822 -0.0015738297
0001b0 8b 2c 28 bb 78 fa f5 ba 47 90 80 bb d5 5b 89 ba
       -0.0025661315 -0.0018766662 -0.003923449 -0.0010479639
0001c0 c6 05 a1 bb 2d 00 30 3b f7 97 9c bb 1e dd 81 bb
       -0.0049140183 0.0026855574 -0.004778858 -0.003963127
0001d0 79 03 19 ba a3 f2 28 3b e5 af a3 39 8a f9 cc 39
       -0.0005837004 0.0025779388 0.00031220834 0.00039095833
0001e0 32 ac 6a bb d7 01 cc 3b b6 a5 e6 b9 5f 5f f8 ba
       -0.0035808203 0.0062258053 -0.00043992483 -0.0018949321
0001f0 87 cc 59 3b 7a 2b 34 3a f1 d4 88 bb 12 b7 a3 bb
       0.003323348 0.00068729336 -0.004175775 -0.004996189

blocks.0.bn.weight f4 [64]
000000 7c d5 7f 3f 10 fd 7f 3f 6a be 80 3f 74 d2 7f 3f
       0.99935126 0.9999552 1.005811 0.999305
000010 69 68 7f 3f b1 ce 7e 3f d3 6d 80 3f 22 a1 7f 3f
       0.9976869 0.99534136 1.0033516 0.99855244
000020 5e 7e 80 3f 46 df 7f 3f cd 2c 7f 3f 9a 0d 80 3f
       1.0038564 0.99950063 0.99677736 1.0004151
000030 22 26 80 3f de 28 80 3f 6f 18 80 3f bd 60 80 3f
       1.0011637 1.0012472 1.0007457 1.0029522
000040 11 36 80 3f ff 77 7f 3f 02 11 7f 3f 34 8c 7f 3f
       1.00165 0.99792475 0.99635327 0.9982331
000050 ab 10 80 3f 66 41 80 3f b5 07 80 3f 19 d9 7f 3f
       1.0005087 1.0019958 1.0002352 0.9994064
000060 c4 42 80 3f 31 57 80 3f 64 57 80 3f 93 3a 80 3f
       1.0020375 1.0026609 1.002667 1.0017875
000070 79 76 7f 3f 09 3b 80 3f ac c5 7f 3f ff f4 7e 3f
       0.9979015 1.0018016 0.99911 0.99592584
000080 98 14 80 3f 56 3a 7f 3f dc 7c 7f 3f 6a 6e 7e 3f
       1.0006285 0.9969839 0.99799895 0.9938723
000090 f1 1e 80 3f 5c 43 80 3f 49 4a 80 3f 4f 47 80 3f
       1.0009443 1.0020556 1.002267 1.0021762
0000a0 3a 2e 7f 3f fa a7 7f 3f 4f 96 7f 3f 5b 5b 7f 3f
       0.9967991 0.99865687 0.9983873 0.9974877
0000b0 d3 26 80 3f 22 6d 80 3f ce fc 7e 3f c5 e7 7f 3f
       1.0011848 1.0033305 0.996045 0.9996303
0000c0 31 29 80 3f a6 18 80 3f 3c 0d 80 3f 76 ee 7f 3f
       1.0012571 1.0007522 1.0004039 0.9997324
0000d0 24 db 7f 3f eb 79 80 3f 85 bd 7f 3f 39 08 7f 3f
       0.9994376 1.0037206 0.9989856 0.9962192
0000e0 e4 25 80 3f e0 fc 7f 3f d8 f7 7f 3f ce a8 7f 3f
       1.0011563 0.9999523 0.99987555 0.9986695
0000f0 ee f7 7f 3f 75 32 80 3f 8d 12 7f 3f d6 e3 7f 3f
       0.99987686 1.0015398 0.9963768 0.99957025
