TGNN2026/checkpoints_MTGNN1m_auc_3class/fold_02_best.pt (torch, 882481 bytes, 82 tensors)

A_static f4 [3, 3]
00000000: abaa aa3e abaa aa3e abaa aa3e abaa aa3e
00000010: abaa aa3e abaa aa3e abaa aa3e abaa aa3e
00000020: abaa aa3e
0.33333334 0.33333334 0.33333334 0.33333334 0.33333334 0.33333334 0.33333334 0.33333334
0.33333334

in_proj.weight f4 [64, 15]
00000000: b487 043e 312d fb3d da5f 7b3c 007e 46be
00000010: 0d36 88be c7cd 69be 5ac1 303e 57ee e83d
00000020: 7a4f 5c3e 50dc 4f3c e25d 3fbe 7725 7dbc
00000030: aecf 0bbd c91c 8ebe 6555 fc3d 2ac5 9fbd
00000040: 011a 183e ee2b dcbd e0e4 f23d e128 dfbd
00000050: 8dde 823e fc3e a8bd 78a1 593e ac7a 893e
00000060: f874 123e 2975 0c3d c2c8 76be 2a9d 26be
00000070: 87e1 f83d ade1 ecbd ebe3 403e 4fa7 6e3d
00000080: 0889 24be 0c85 673e 7b87 b23d aac4 48be
00000090: dced 473d 1c30 72be fd03 7a3e b997 433e
000000a0: cc3c 423e e759 3bbe fd3a d23d 799a 87be
000000b0: 1cdb b1bd 3ff1 353e a67e 8abe 45d0 673c
000000c0: 9243 a8bd 8b08 363e 3ec5 9f3d 5a7a 043e
000000d0: 2d61 bdbc 26e9 1fbc d87f 5c3e a6a6 29be
000000e0: 33a5 68bd f094 38bd 89ac debd 6b68 89be
000000f0: cf79 47be e61f debd e9f7 6ebd 7c44 11be
00000100: 43db 3d3d 13d2 82be eaf7 f5bd 1e58 bdbd
00000110: e2fc 2e3e 7b60 bd3d 48ad 0dbd 4904 703e
00000120: 2559 893d b67a 023c ea65 173e 2992 873e
00000130: 156d 31be 786f 04be 83dc 863e 180d 803e
00000140: d759 0bbd 3f9d e9bd 4c94 613e 8e8a 3cbd
00000150: ad07 8f3d edba 6a3e c9dd f4bd 77dd 0fbe
00000160: d321 413d d6a9 e9bd 28dd dabd 24b9 303e
00000170: 55b5 b23d 700f ee3d 2785 233e 603e 2f3e
00000180: 5121 a73c 59f6 7c3e 1af2 8ebd 9545 11be
00000190: 571e 85be 7bbd 7fbe 6815 943b 8583 c4bb
000001a0: ccd1 88be 66b1 053d 6b09 423e 8101 a73d
000001b0: 1c90 a43c 2734 4a3d 77d3 26be 3da4 843e
000001c0: 095e 19be 9472 893d 1afb 893e 0b2f 48be
000001d0: f6ec d3bd 17a2 a0bd c08d 2bbe 192e 8bbe
000001e0: e86e 7dbc c407 6c3e 3a90 7abe b029 2dbb
000001f0: bcaf 39be 93f3 dcbd 77ec 073e 2514 9a3d
00000200: 47dc 30be e924 be3d 4bcd 423e d847 6b3e
00000210: 1119 8abe ef2a 563e 3281 76be ee55 1d3e
00000220: 1a89 f9bd f291 a33c ae14 5dbd 9cf0 103e
00000230: beda aa3d 09cf d7bd 8eac 61be 80f0 c8bd
00000240: 7afd 4c3c 82e3 b9bd 7ca9 6bbd d67c 013e
00000250: 2898 7cbe 5c01 353e 6afb 64bc 65e6 3cbe
00000260: 942b 823e 4fa0 e13d de3e 1f3e 4c5b cb3d
00000270: d088 6abe c58c d23d 669f 22be d7de d43d
00000280: 1799 e8bd 7397 a03c eedb c33d 51de 403e
00000290: 7591 1fbd eee9 8a3e 18c0 6e3e deba 2dbe
000002a0: 8c3d ccbb 96dc a2bd 60c2 883e 6a0d 5c3e
000002b0: 85b5 f9bd 0969 7cbe 1cac 193e 1f36 2fbe
000002c0: f1d0 b7bc 5453 46bb 6918 8b3e 6c20 4dbe
000002d0: a00e 543e 91e9 2e3e 9c46 5bbe a6e9 8bbe
000002e0: 0620 99bd a7d0 62bb ce57 a3bc df44 77be
000002f0: 491a 8abc 1812 8a3e 8f3b 683e fda3 05be
00000300: c8ef 323e c610 2e3c 12d5 dc3d 7b56 1abe
00000310: 0751 823e 6167 a9bd 3367 c9bd c551 b2bd
00000320: 329d 80be 8439 75be 6df1 41bc 0cf2 4b3e
00000330: 084c 4ebe 3669 50be daca b33d 4c9f 313e
00000340: 2109 ec3d a39b 15be be13 06ba f83a d53c
00000350: 3829 40be 3447 4d3e a808 1ebe 1e45 7c3e
00000360: 94a7 7d3e b1e9 82be c163 513e 3ec4 353e
00000370: 4ee2 0639 ba1d 2ebe 7f43 5a3d e35b 803e
00000380: a3a2 b43b aa6f 403e 3ad9 34bc 24ca 813e
00000390: d052 823d e9dc 9b3d 81ca 703e c7c6 2dbe
000003a0: 4faa d33d 04ad 113d b076 003d c830 4abe
000003b0: 4fb9 853d e5dc 90bd 5340 4dbe 0737 8a3e
000003c0: 43a1 34be 223f 823e 75e7 153e c3b2 be3d
000003d0: 9b2c ec3d bbf0 ccbd c225 acbd 01b2 473e
000003e0: 3d62 fa3d 8790 36be a154 26be dc00 5ebe
000003f0: cb87 463e f4e2 82be 4bfd 523e fdc3 bfbd
0.12942392 0.12264479 0.015342677 -0.19384003 -0.26603737 -0.22832404 0.17261258 0.11373585
0.21514693 0.012686804 -0.18688157 -0.015450827 -0.034133606 -0.27756336 0.12320975 -0.07801278
0.1485367 -0.107505664 0.11860061 -0.10896469 0.25560418 -0.08215138 0.21253002 0.26851404
0.14302433 0.03429142 -0.2410002 -0.16270891 0.12152391 -0.11566482 0.18836944 0.058265027
-0.16067898 0.22609347 0.08717247 -0.19606271 0.048810825 -0.23651165 0.24415584 0.19100846
0.18968505 -0.18296014 0.10265157 -0.2648504 -0.0868437 0.1776781 -0.2704975 0.014148776
-0.08216013 0.17776696 0.07801293 0.12937298 -0.023117626 -0.009760177 0.21533144 -0.16567478
-0.05679817 -0.045063913 -0.10872752 -0.26837477 -0.1948006 -0.10845928 -0.058341894 -0.14186281
0.046351682 -0.255509 -0.120101765 -0.09245323 0.17088655 0.09246918 -0.034589082 0.23439135
0.06706456 0.007963827 0.14784971 0.264787 -0.17326768 -0.12933147 0.26340112 0.2500999
-0.034021225 -0.114069454 0.22029227 -0.046030574 0.06983886 0.22922869 -0.11956365 -0.14049326
0.047151398 -0.11409347 -0.106867135 0.17258126 0.087259926 0.11624038 0.15968762 0.17113638
0.020401629 0.24703349 -0.06979771 -0.141867 -0.2599971 -0.24974625 0.0045191534 -0.0059971237
-0.26722562 0.032639883 0.18948905 0.08154584 0.020088248 0.049366143 -0.16291605 0.25906554
-0.14977278 0.06711307 0.26949388 -0.19549195 -0.10347931 -0.07843416 -0.16753292 -0.27183607
-0.015468337 0.23049837 -0.2446908 -0.0026422553 -0.18133444 -0.107886456 0.13273798 0.075233735
-0.17271529 0.09284384 0.19023626 0.22976625 -0.2697225 0.20914815 -0.24072722 0.15364811
-0.12184353 0.019967053 -0.0539748 0.14154285 0.08342503 -0.10537536 -0.2203848 -0.09811497
0.012511605 -0.09076597 -0.05753468 0.12645277 -0.24667418 0.176763 -0.013975957 -0.18447264
0.25423872 0.110169046 0.15551326 0.09929523 -0.22903752 0.10280756 -0.15881118 0.10394066
-0.113573246 0.019603467 0.09563433 0.18834807 -0.038957078 0.271316 0.23315465 -0.16965815
-0.006232923 -0.0795223 0.26710796 0.21489492 -0.12192825 -0.24649443 0.15007061 -0.1711049
-0.022438498 -0.003026207 0.2716706 -0.20031899 0.20708704 0.17081286 -0.21413654 -0.27326697
-0.07476811 -0.003460923 -0.01993933 -0.24147366 -0.016858237 0.2696693 0.2267897 -0.13050838
0.17474282 0.010624116 0.107828274 -0.15072052 0.25452444 -0.08271671 -0.09834137 -0.087070026
-0.2511993 -0.23947722 -0.011837346 0.19916552 -0.20146191 -0.20352635 0.08778925 0.17345923
0.11525179 -0.14610152 -0.0005114636 0.026029095 -0.18765724 0.20046693 -0.1543299 0.24635741
0.24770957 -0.25568917 0.2044821 0.17750642 0.00012863541 -0.17003527 0.053287026 0.25070104
0.005512552 0.18792596 -0.011038119 0.25349534 0.063634515 0.07610495 0.23514749 -0.16970359
0.10335218 0.03556539 0.03136319 -0.19745171 0.065294854 -0.07073382 -0.20044069 0.26995108
-0.17639641 0.25438792 0.14639075 0.0931144 0.11531945 -0.10006853 -0.08405639 0.19501497
0.12225769 -0.1782857 -0.16243221 -0.21680015 0.19387738 -0.25563776 0.20604436 -0.09363554

in_proj.bias f4 [64]
00000000: b9fa 32b9 e720 dc3b 68ca 183b 09b3 c9bb
00000010: b82b 02bb 7075 f5ba eee4 13bb 3f4f 8b3a
00000020: 65e3 db3b 7d9f bb38 13c1 56bb c4a0 9abb
00000030: a86e b33b c50f ca3b 6081 bf3a 3518 5aba
00000040: 8322 a1bb d034 283b a470 873b 0448 07bb
00000050: fb31 a33b 7336 00bc 10d2 e037 69eb b9bb
00000060: 4bb9 54bb 9957 afbb 1c7a ab3a 0d7b 813b
00000070: 4a43 0d3c 7aeb da3b 4096 fbbb ec29 2bbb
00000080: 7840 8f3b abf1 c6ba 0433 d3bb 7572 f3b9
00000090: 6e6f 023b 5cd5 9b3b b0c9 a93b 3980 383b
000000a0: b7f6 183b cfa8 96bb 4c88 8a3b 609a eb3a
000000b0: ae50 273b f2fa 253c 3857 803b d524 afbb
000000c0: 1cdc b8ba fa28 d33b aa88 823b 323b 05bb
000000d0: b590 f939 11dc 94bb 8b34 e63a 2c7f 93bb
000000e0: 8bce 59bb 2227 f9ba 2234 a339 9b3e f1ba
000000f0: a65c d1bb 739d adba e60d e43b 6efb 46ba
-0.00017068804 0.0067177895 0.0023314003 -0.006155376 -0.0019862484 -0.0018727016 -0.0022566873 0.0010628476
0.006710457 8.946562e-05 -0.003276889 -0.004718872 0.0054758377 0.0061664307 0.00146107 -0.0008319647
-0.004917444 0.0025666244 0.004133301 -0.002064229 0.0049803234 -0.007825482 2.6800699e-05 -0.005673815
-0.0032459076 -0.0053510186 0.0013082656 0.0039514364 0.008622 0.006680903 -0.0076778233 -0.0026117517
0.004371699 -0.0015178224 -0.0064452905 -0.0004643385 0.0019902843 0.004755659 0.0051815137 0.0028152599
0.0023340413 -0.0045977603 0.0042276736 0.0017975084 0.0025530267 0.010130631 0.0039166473 -0.005344967
-0.0014103684 0.006444094 0.003983577 -0.0020329473 0.00047600796 -0.0045428355 0.0017563266 -0.004501244
-0.0033234681 -0.0019008855 0.00031128625 -0.0018405499 -0.0063892184 -0.0013245776 0.0069596646 -0.00075905665

adapt.E1 f4 [3, 8]
00000000: 65ff 9c3d fc72 2b3d 45ec 583d 276e 9e3d
00000010: fc25 9abd 02bd 41bd e4a9 5b3d bb7e 71bd
00000020: f912 48bc 522e fabb 99a0 e63a 1754 63bb
00000030: 051d b53b 361c 16bc 408c 2b3c 8401 23bc
00000040: 798c 163d 7f9f 283d bdf3 093d e377 533d
00000050: 06a4 1abd 1a35 edbb bd42 043d 6cb4 46bd
0.076659 0.041857705 0.0529597 0.07735854 -0.07526776 -0.047299393 0.053628817 -0.05895875
-0.012211555 -0.0076349163 0.0017595469 -0.0034687573 0.005527141 -0.009161999 0.01047045 -0.009949092
0.03675506 0.041167732 0.033679713 0.051628005 -0.03775408 -0.007238996 0.03229021 -0.048511907

adapt.E2 f4 [3, 8]
00000000: ae20 16bc 9358 0db9 699d 20bc 6e57 cc3b
00000010: 09fb a6bb d717 d23a 334e 36bb 4223 143c
00000020: 6732 8b3b eed1 073c 6a58 d4bc 25a8 163c
00000030: 8dbd f73b 2087 8cbb 4b16 47bb b0eb 8bb8
00000040: 67a1 6c3d 9fb1 533d 45e9 863d ff07 8a3d
00000050: 5833 83bd 12cc 02bd 68ff 393d 5b66 6abd
-0.009163065 -0.00013479804 -0.0098031545 0.0062360084 -0.0050958437 0.0016028833 -0.0027817606 0.009041609
0.004247952 0.008289797 -0.025921065 0.009195362 0.007560438 -0.004288569 -0.0030378278 -6.671937e-05
0.057771113 0.051683065 0.065874614 0.067398064 -0.064062774 -0.031932898 0.04540959 -0.05722652

support_mix.w_logits f4 [3]
00000000: 9b7d 7c3b 94c5 91bb 5a24 a53b
0.0038527015 -0.004448602 0.005039734

blocks.0.filter_conv.conv.weight f4 [64, 64, 1, 2]
00000000: 1987 b0bd e026 06bd ca30 543d 0bff 0f3e
00000010: afb5 46bd 1214 073e faf8 cf3d 1af3 893d
00000020: e3a1 fa3b 9f6d 91bd 3d11 08be a88f 813d
00000030: 7a70 933d 36e2 b73b 40b3 a83d 2886 b4bd
00000040: d236 f3bd 7843 0f3e 8213 f73d 1667 ebbd
00000050: 5b6e ad3d 117e 8d3d f588 64bd 3c19 31bd
00000060: 9041 793c 082b c33d aed4 a4bd 1d45 d0bd
00000070: d3eb 0cbb ce46 12bd ae22 c7bd 526c 823d
00000080: 4a15 bbbd 03ca 05be e2ed 08be d042 c6bd
00000090: b29c 093d 0458 d7bd 08ad 05be d261 e93d
000000a0: da33 103d 8b3d 093c 1f5e ea3c 705a 18be
000000b0: 788a e1bd 6fdd 903d fa5e 48bc e0d6 113d
000000c0: 5a2f a6bd 51b6 f0bd c700 11be 69dd 1e3e
000000d0: 463a f13d 0b58 a83d 7751 19bd 0951 b0bc
000000e0: dee8 9a3d fb9a 04bd 19e5 fbbd 2f4d 51bd
000000f0: b44c 7e3d 6cb1 0ebe da9b 1c3d 6d5d e03d
00000100: c6bb f93c 6a05 bf3d 5b60 c6bd b41d 133d
00000110: 7046 d6bd 26e7 493d 940f 133e 3fd5 b0bd
00000120: bf95 ef3d 3edb 8d3d 640d e3bc 3ae7 6dbd
00000130: 0fb4 863d f2d2 17be 4763 14be 268d eebd
00000140: dbc1 0b3d ea93 083e 507e ef3d e2a0 243d
00000150: 595e 023e bb1b a43d 3b22 adbd 1c0a 0d3d
00000160: 91da 403d 3f75 a4bd ded3 f63d 1aed bf3d
00000170: 73d2 8ebd 7c8c 0f3e dc1e e9bc c63c b0bd
00000180: 5816 42bd fc14 52bd c77b e4bc e58e 5ebd
00000190: 8cba a13d 1e56 e93d fec8 293d 4f36 003e
000001a0: 570a 5c3d 1000 d43d c1ea 003e d8b7 b23d
000001b0: f380 7abd 1bad e1bc cb5a 1a3e 2ed1 d3bd
000001c0: 6f05 273d 7d6a 85bd 900b 043e a29e d13a
000001d0: c895 f23b 201b e5bd bab5 cd3d 4736 753d
000001e0: 642e 88bd 4f59 58bd 2c39 d53c be63 0b3e
000001f0: 8ce5 a6bd d15d 67bd 1b8a af3d dc5a f5ba
00000200: 5d62 a13c 6cdc a93d 5ce7 a33d 677f 94bd
00000210: 5a3c 84bc d27f fabd 14a1 683d f256 953d
00000220: d259 113e cd44 003e 559e a33b b5ec e63c
00000230: 25b3 603c b02a 1d3e 5dd3 683d a17c 573d
00000240: 0a04 99bd b603 dfbd 1ede 8fbd 1dfb 0b3e
00000250: 8fbe bfbd 5aef 6fbc 9276 023e 48b7 12be
00000260: 5291 f4bd f64c 9bbd 36c9 133e e8ca 09be
00000270: fc8f c7bd ba31 02be 0fae 153e 9522 443d
00000280: 8568 f43b 131c e6bd 65a0 48bd a2bd be3d
00000290: b02c 07bc 38e6 ee3d c07f 193e 3e6f 163e
000002a0: 84f7 c4bd 2053 093d cdde 9b3d 02c5 fb3d
000002b0: ece4 603d ca01 ed3d 852b f639 37b8 af3d
000002c0: 4061 99bb c17d f3bd 48ea 073e db89 95bc
000002d0: 8aff 193d 7f28 763d ccef a4bd a54b 10be
000002e0: c7e3 803d 3420 843d e1e4 583d e480 f3bd
000002f0: 7019 b43d c10e 09be 4188 0dbe 2eae a03d
00000300: 7816 363c d20e 18be 078f 2f3d 16d1 81bc
00000310: 4385 efbd da1a d13d a3c6 e23b db34 92bd
00000320: bb2c c2bd 1d1c afbd 51dd 4fbd 7541 4ebc
00000330: 4e6a 9cbd a70c 3c3d eade 9d3d 2fbe dbbd
00000340: 5c2e 24bd 6a65 a93c a9d9 013e 6eb0 26bd
00000350: 944f ac3d 49d4 99bd 6f69 c43b 3ad5 9abc
00000360: 9471 1d3d 13dd 893a 5c15 0b3e 778a 2dbd
00000370: d987 f7bc b011 063e 953b e8bd a151 2fbd
00000380: c17a 893c 166d c13c 3250 c3bd 4818 c9bd
00000390: f9d3 0c3b 327c c83d 42a7 573d 7ab3 e5bb
000003a0: 9feb 9f3d 8407 b73d 22cb 0dbd 7d3c dcbd
000003b0: 3e80 e0bc 0aef 583d 33bb 81bd bf83 9abd
000003c0: 002d 0f3e 889d 1b3e 4715 49bd ff9b 67bd
000003d0: ddaa fabd 2892 1fbe 910a 4e3d f8e2 b4bd
000003e0: 1613 8e3d dea3 023e 061e b6bd 755a 6dbd
000003f0: 1fd4 ec3d 8bea 1abe 109f cbbd 5f23 0f3e
-0.08619518 -0.032751918 0.05180434 0.14062135 -0.04851311 0.1319125 0.101549104 0.06735821
0.007648693 -0.07100987 -0.13287826 0.063262284 0.071991876 0.0056116832 0.08237314 -0.08814651
-0.118756905 0.13990581 0.12064268 -0.114942715 0.08468314 0.06908811 -0.055794675 -0.043236956
0.015213385 0.09529692 -0.08048378 -0.10169432 -0.0021502867 -0.035712056 -0.097234115 0.06368317
-0.0913492 -0.13065343 -0.13371995 -0.09680712 0.033596702 -0.105148345 -0.13054287 0.11395611
0.0352057 0.008376489 0.028609334 -0.14878249 -0.11012739 0.07073485 -0.012229675 0.03560531
-0.081145 -0.11753524 -0.14160453 0.15514149 0.11778693 0.08219918 -0.037431207 -0.021523016
0.07563947 -0.032374363 -0.12299556 -0.051099 0.06208487 -0.13934869 0.03823457 0.109553196
0.030485045 0.093272045 -0.09686347 0.035917 -0.10462654 0.049292706 0.14361411 -0.086344235
0.11698484 0.06926583 -0.027716346 -0.058081843 0.06577312 -0.14826563 -0.14490996 -0.11648016
0.03412042 0.13337675 0.11694014 0.040192492 0.12731303 0.08013102 -0.084537946 0.03443347
0.04708344 -0.080301754 0.12052129 0.093713954 -0.06973734 0.14018434 -0.028457098 -0.086053416
-0.04738459 -0.051289544 -0.027891053 -0.054335494 0.07896909 0.11393379 0.041451447 0.12520717
0.0537208 0.103515744 0.12589552 0.08726472 -0.06115813 -0.027548363 0.15073697 -0.10342632
0.040776666 -0.06514452 0.12895036 0.0015992711 0.007403109 -0.11186814 0.10044427 0.059866216
-0.06649473 -0.052819546 0.026028238 0.13612267 -0.08149251 -0.056485955 0.085712634 -0.0018719095
0.019700224 0.08293995 0.08003113 -0.072508626 -0.01614206 -0.12231411 0.05679424 0.07291974
0.1419442 0.12526245 0.00499324 0.028189043 0.013714586 0.15348315 0.056842197 0.05260909
-0.074714735 -0.1088938 -0.07024787 0.13670011 -0.09362518 -0.014644468 0.12740543 -0.14327729
-0.1194178 -0.075830385 0.14432225 -0.13456309 -0.0974426 -0.12714282 0.1461718 0.047884542
0.0074587488 -0.112358235 -0.04898109 0.09313513 -0.0082504 0.116650045 0.14990139 0.14690873
-0.09617522 0.03352654 0.07610855 0.12293436 0.054905817 0.11572607 0.000469532 0.08580058
-0.0046807826 -0.1188922 0.13272965 -0.018254211 0.037597217 0.060097214 -0.0805355 -0.14091356
0.06293445 0.06451455 0.05295265 -0.11889818 0.08793914 -0.13384534 -0.13821508 0.07845722
0.011113755 -0.14849404 0.04286101 -0.01584677 -0.116953395 0.102102 0.006920652 -0.07138988
-0.09481188 -0.08550284 -0.050748173 -0.012588848 -0.076374635 0.045910504 0.07708533 -0.10729634
-0.040083274 0.02067824 0.12680687 -0.0406956 0.08413616 -0.07511193 0.005994014 -0.018900502
0.038438395 0.0010518156 0.13582367 -0.04236838 -0.030216144 0.13092685 -0.11339489 -0.042802457
0.016782166 0.023611587 -0.095367804 -0.098190844 0.002148865 0.097893134 0.052649744 -0.0070099207
0.07808613 0.0893698 -0.03461755 -0.10753725 -0.0274049 0.05296234 -0.063345335 -0.0754466
0.1398201 0.15196812 -0.049092557 -0.056545254 -0.12239621 -0.15583098 0.050303046 -0.08832353
0.06937234 0.12757823 -0.08892445 -0.057947595 0.115638964 -0.15128534 -0.09942448 0.13978337

blocks.0.filter_conv.conv.bias f4 [64]
00000000: 82e1 8a3b 42fa c6ba d3a0 7fb9 f44c 4bbb
00000010: e22b 41bb 8687 9aba 2cb8 113b 1691 a4bb
00000020: 64bd ae3a 63fa 533b 6bd1 6eba 49aa 2dbb
00000030: 7247 bc3b d930 9c3b cbf0 f73b 5911 553b
00000040: 4007 61bb 4db5 e8bb c05a 013c 28e5 5e3b
00000050: 3321 ddb9 7735 eeb9 d8b6 903a b1b0 46b9
00000060: 17ff b6bb 1074 953a 4409 bdbb e102 c03b
00000070: 8846 593b 8fad d93b 473c 85ba e8d6 46bb
00000080: ae83 35bb 2135 b23b 1aa3 643b 414b c6ba
00000090: 3d98 ab3a 0352 0fbc a2c1 3fba 0155 923a
000000a0: 3b77 31bb 90b2 b73b 106f cebb 2e76 fc3a
000000b0: 5a32 52bb 94c5 bfbb 3ef2 91ba 50e0 d4ba
000000c0: 845d 90b8 8fe7 873b 7f43 00b9 0033 bb35
000000d0: fee9 c03b cea1 4c3b eab6 85bb 6bce b9ba
000000e0: 57de c33b a9f1 a53b dc9e f43b b9aa 6bbb
000000f0: b337 22bb e502 a038 cc1d 52ba d431 ad3b
0.0042383084 -0.0015180784 -0.00024378607 -0.003102121 -0.002947562 -0.0011789657 0.002223502 -0.0050221784
0.0013331589 0.0032345287 -0.0009110185 -0.0026499203 0.0057458216 0.0047665653 0.0075665466 0.003251156
-0.0034336597 -0.007101691 0.007895172 0.00340111 -0.0004217714 -0.00045434732 0.001104082 -0.00018948574
-0.0055846083 0.0011402387 -0.005768927 0.005859718 0.0033153612 0.0066430042 -0.0010165059 -0.0030340496
-0.0027696895 0.0054384624 0.0034887255 -0.0015128629 0.0013091635 -0.00874758 -0.00073149253 0.0011164249
-0.0027079124 0.005606003 -0.006299861 0.0019261295 -0.003207347 -0.0058524106 -0.0011134816 -0.0016241167
-6.883874e-05 0.004147477 -0.00012232176 1.3947429e-06 0.005887269 0.0031224373 -0.004080643 -0.0014175897
0.0059774327 0.0050642085 0.0074652266 -0.0035959913 -0.0024752438 7.629934e-05 -0.00080153043 0.005285481

blocks.0.gate_conv.conv.weight f4 [64, 64, 1, 2]
00000000: 2799 1a3d c7bf ecbc 2387 043e 3500 0dbe
00000010: 9409 1a3e 6023 a83d 1a32 c23d 8db3 fabd
00000020: 8d57 083e ebf4 093d 800f 43bd aa81 973b
00000030: 6102 8bbd a771 cd3d 65d8 ae3c efe5 3abd
00000040: 495b e2bd ec9e 033d 6f52 593b cc17 04be
00000050: a985 d7bd 19da bbbc 2cb7 a33d 6347 e93d
00000060: d655 d33d b123 e4bd 6f52 7abd 6de2 813d
00000070: cb08 b4bd 2ab3 bc3d 44b4 9abd ceef e43d
00000080: 93ef d4bd 0280 60bd 9e5f 95bd ba4f e93d
00000090: a2e9 073e 3398 7a3d facf 3abc 6a46 88bc
000000a0: 11bc 80bd 967b 85bd 5d8f a0bd 0f27 063d
000000b0: 78bb db3d 1962 f93d df16 06be 1ae5 a53d
000000c0: 87ea dd3d 278e d63b a0e7 1e3e 63e0 f2bd
000000d0: 9882 a63c 4906 7cbd 9f8b 0f3c e37d da3d
000000e0: 6129 223d 50cb b0bb 1592 1ebe 9120 503d
000000f0: 3b8d 96bd 6b90 08be 0e4d 76bb bc3b 623b
00000100: a8f1 eb3d 7d19 293d 99f9 713d f3e6 cbbd
00000110: 64a8 923c 0a73 2e3d 7872 6f3c 2c0d abbc
00000120: 6122 2ebb 3962 cabc 70f2 b9bd 8005 e8bd
00000130: 4c0d 823d edde fd3d c90e 28bd ea31 aebd
00000140: c19c 0c3d 3d0a b1bd d247 4abc d7a0 063e
00000150: ce5b 503d 4072 a0bd 7444 9c3d 0f5c 1f3e
00000160: a3bd da3d 5947 bc3d 78a3 d7bd 4f73 143e
00000170: cbdc 02be abb7 1a3e d937 8f3d d959 b5bd
00000180: d25a 87bc e80d b8bd 7358 5dbd e23c 4abd
00000190: 4240 983d c4e1 f33d 2d66 46bd 8e50 39bd
000001a0: dada 043e 4db7 93bd 0215 4d3d d0ba 06be
000001b0: a37f 5a3d 4659 4a3c 7628 b33c a6ab 46bd
000001c0: d5b4 4ebc c926 10be 122f debd 02a1 02be
000001d0: e829 8d3d 21be bc3d 3948 0ebe 003d cebd
000001e0: 775e fcbd b2a0 35bd 7de6 043e eeb9 4cbc
000001f0: 986d 503d 4244 eebd 9c97 4dbd c787 193e
00000200: 85b9 dabd 11a1 0cbe 5bc0 3b3d a92e bb3d
00000210: aed6 7bbd dc2b 19be 31fd e8bd 8172 83bd
00000220: 63a7 52bd 6b6f 0dbe f792 543d c611 ddbd
00000230: 19cc febd e510 b73d 2d59 eabd c94c a0bd
00000240: 8a77 a7bd 6bb9 a4bc 45f7 013e 6ade 893d
00000250: 53b8 f3bd 2d23 b0bd e9ea 86bd ea5d 15be
00000260: c68d e83c 027a 233b c7a6 0cbe c947 afbd
00000270: 7122 a8bc 3162 fe3d aa60 df3c e190 08be
00000280: f09b 973d 92a1 193e 7f29 07be 89e4 08bd
00000290: f511 ab3d 61ef f03b dbee 8bbd 5436 5fbd
000002a0: 7f9e b5bd 373c 0f3e 3638 d13d 9172 c43d
000002b0: 2134 0a3e ce2f 003d d500 99bd 0b15 f8bd
000002c0: 317f 563c 3762 1fbd 2bc0 fe3d 23d6 023e
000002d0: 2c59 83bc 2d03 61bd 6d39 9bbd e849 ce3d
000002e0: 3d23 52bc 2543 65bd 1f0c f5bc db84 eeba
000002f0: 43a7 d03d 81b3 16bd 92f8 b5bd 27c4 1c3e
00000300: 720a d23b cbff 19be 2279 00be 7cc2 b33d
00000310: df5d a53d 851f 4bbb a068 efbc a1ae 023e
00000320: 31b3 c0bd 660c be3d 4a8c c3bc 9f1f a4bd
00000330: 9264 043d 978c f93c e9bc bbbd bc07 f3bb
00000340: df6d c7bd 1107 9a3c 82d7 b03d 9f38 44bd
00000350: 20d0 f33c 7a70 87bc 3fce 07bd 06ce febd
00000360: 70ad adbd 4bce cc3d e469 06be 39fb 113d
00000370: a995 a6bd 6390 87bd b2f4 bc3d 7407 f8bc
00000380: 3cb3 3ebd b5a1 033e f155 16be c5d1 fabc
00000390: 3b9b e7bd 9f32 29bc 37f0 3fbd 98cb 16be
000003a0: e7ff 6ebd 2bd5 7a3d 37d7 2dbd 8374 b8bd
000003b0: b76f 56bd 32b7 50bc c0ec 30bd acb7 bb3d
000003c0: 5415 ab3d 7842 bb3c 943f 56bd 4000 37bd
000003d0: 2078 cabd 7cca c2bd 63b6 97bc 8623 6abd
000003e0: 5e48 12bd 1cb4 123e cf69 e93c b81d 05be
000003f0: 1e4a 433a a4a7 a9bd 8a4f 05be 1d3b bebd
0.037743714 -0.02890004 0.12942176 -0.1376961 0.15042716 0.08209872 0.09482212 -0.12241278
0.13314648 0.033680838 -0.047622204 0.0046236115 -0.06787563 0.10031443 0.02134342 -0.045629438
-0.110525675 0.03213398 0.0033160707 -0.12899703 -0.105235405 -0.022931146 0.07993922 0.11390569
0.10319106 -0.1113962 -0.06111377 0.063420154 -0.087907396 0.0921386 -0.07553914 0.111785516
-0.10397258 -0.054809578 -0.07293628 0.1139216 0.13272718 0.061180305 -0.011402125 -0.016635139
-0.06285871 -0.06517713 -0.078398444 0.032752093 0.10729116 0.12176914 -0.13094662 0.08100338
0.10835748 0.0065477076 0.15518045 -0.118592046 0.020325944 -0.06152943 0.008761316 0.10668542
0.039590243 -0.0053953305 -0.15485413 0.050812308 -0.07351156 -0.13336341 -0.003758255 0.0034520468
0.11520702 0.041284073 0.059075925 -0.099561594 0.01790256 0.04259018 0.014614694 -0.020880304
-0.0026570784 -0.02470504 -0.090794444 -0.11329174 0.063501924 0.12396035 -0.041029725 -0.08505614
0.03432918 -0.08644531 -0.012346225 0.13147293 0.0508688 -0.078342915 0.07630244 0.15562461
0.106807016 0.09193296 -0.10529226 0.14497112 -0.12779538 0.15109126 0.06993074 -0.08855028
-0.016522799 -0.089870274 -0.05403943 -0.04937447 0.07434131 0.11908296 -0.048437286 -0.04524284
0.1297411 -0.07212696 0.050068863 -0.13157201 0.05334438 0.012350386 0.02186988 -0.04850354
-0.012616356 -0.14077295 -0.10848822 -0.12756732 0.068927586 0.09215952 -0.13894738 -0.100702286
-0.12322705 -0.044342704 0.1297855 -0.012495501 0.050885767 -0.11634113 -0.050193414 0.14993201
-0.10679916 -0.13733317 0.04583774 0.09139759 -0.06148403 -0.14958137 -0.113764174 -0.06418324
-0.051429164 -0.13812034 0.05189797 -0.10794406 -0.12441272 0.08938769 -0.1144279 -0.078271456
-0.08177097 -0.020107945 0.12691982 0.06731875 -0.119003914 -0.08600459 -0.06587774 -0.14586607
0.028387915 0.0024944548 -0.13735496 -0.08558614 -0.020524235 0.12421072 0.027267773 -0.13336517
0.074027896 0.1500304 -0.13199423 -0.033421073 0.083530344 0.007352755 -0.068326674 -0.05449517
-0.08868121 0.13987814 0.102157995 0.09592164 0.13496448 0.03129559 -0.07470862 -0.12113389
0.013091848 -0.038912024 0.12438997 0.12776999 -0.016033731 -0.05493467 -0.075793125 0.1007269
-0.012825784 -0.055972237 -0.029913006 -0.0018197553 0.10188153 -0.036792282 -0.08885302 0.15309201
0.0064099366 -0.15038984 -0.12546209 0.08777329 0.08074545 -0.003099413 -0.029224694 0.12761928
-0.09409178 0.092797086 -0.023870606 -0.08013844 0.032322474 0.030462546 -0.09166891 -0.0074166935
-0.09737753 0.018802198 0.08634855 -0.04790556 0.029762328 -0.016533125 -0.033155676 -0.124416396
-0.08480346 0.10000285 -0.13126332 0.035639975 -0.08134014 -0.066193365 0.092263594 -0.030276991
-0.04655765 0.12854655 -0.14681222 -0.030617604 -0.11308905 -0.01032701 -0.046859946 -0.14726102
-0.058349516 0.06123845 -0.042441573 -0.09006598 -0.052352633 -0.01273899 -0.043194532 0.09165892
0.083536774 0.022858843 -0.052306727 -0.044677973 -0.09886193 -0.09511277 -0.018519586 -0.057162784
-0.035713546 0.14326519 0.028492836 -0.12999618 0.0007449704 -0.08283928 -0.13018623 -0.09288619

blocks.0.gate_conv.conv.bias f4 [64]
00000000: 7512 3cbb c3b7 20bb a7aa e63b 2074 f43b
00000010: f69e 433c 4a38 1abc 8e3c 41bb 7db7 ae3b
00000020: a478 2eb8 5b8e f93b e65b d239 a726 933b
00000030: 18d3 c13b 7a8a 85bb 9bd0 ccbb b172 27bb
00000040: 4ecb 9cbb b1ac 063a ee0d a7bb 3e5d ae3b
00000050: 442f 11bb 9dec c23a fc2a b53b 3814 8cba
00000060: 147a b43a af73 1c3b 129e c8bb 0415 0fbb
00000070: 00dc 23ba c8fc 89bb bf63 6dbb 7fe8 363b
00000080: a438 a13b c9fd 513b 87d5 d23a 8800 623b
00000090: ca38 ef3b f855 cf39 22c9 27b9 12f8 d6bb
000000a0: e7a8 04b9 8657 8cba ea35 c8b9 fa44 8a3a
000000b0: ef6f fe3b be6a d23b c80e 3e3b 1d46 0e3c
000000c0: 7975 95ba 2ef7 453b 2d58 ac3b 35b8 6bbb
000000d0: 0e3b 3e3b 4f7c 92bb 7e27 ca3a cebc 233c
000000e0: 89a3 49bc e110 533b 0384 1f3c d261 3dbb
000000f0: a515 5e3b 768b b13b daf5 e63b 6893 3dba
-0.0028697525 -0.0024523593 0.0070393863 0.0074601322 0.011939755 -0.009412834 -0.0029485556 0.005331932
-4.1597188e-05 0.007615847 0.0004012279 0.0044906917 0.005915057 -0.0040753456 -0.0062504536 -0.002555054
-0.004784978 0.00051374274 -0.005098096 0.005321174 -0.0022153417 0.0014871542 0.005528806 -0.0010687178
0.0013769292 0.0023872664 -0.006122359 -0.0021832595 -0.0006250739 -0.004211042 -0.0036222783 0.0027909575
0.004920082 0.0032042137 0.0016085365 0.003448518 0.007300471 0.00039546168 -0.00016001289 -0.006560334
-0.00012651422 -0.0010707236 -0.00038187142 0.0010549121 0.0077648084 0.006421416 0.002900051 0.0086837085
-0.0011402807 0.0030207145 0.005259535 -0.003596795 0.0029026899 -0.004470385 0.0015423147 0.009993745
-0.012307056 0.0032206106 0.009736064 -0.0028897417 0.0033887413 0.0054182364 0.0070483508 -0.0007231743

blocks.0.residual_conv.weight f4 [64, 64, 1, 1]
00000000: f268 3b3e a09f d73d ed0d a3bd 491d 0fbe
00000010: 83b2 c53d f598 363e 032f 3c3d 76bf 4f3d
00000020: fee4 0fbe 3ba1 123d ef06 06be b5e3 a9bc
00000030: 98e5 f13d 2c4c 433e 9f49 06be b085 113c
00000040: ac44 373e 012f 1c3e b76a 693c 0c54 87bd
00000050: 2812 843d c7c6 0fbe 498b b1bd 5c95 403e
00000060: 41e5 99bd 3ddf f63d 085d ee3d a2b5 903d
00000070: 14ec 713c 07fc de3d 7dbe 323e b3d6 1f3d
00000080: 22f1 0c3d 6026 c1bd 1ec1 24be fa5f 01be
00000090: 9530 233e dc3e 05be d9df 5f3d 9aff 73bb
000000a0: 22e5 d63d 2401 2bbd 444d 0e3e 620b d73d
000000b0: f65f 5bbe 9e7b 25be 523b 573e 165d b2bd
000000c0: 6653 b43d 364f 943d 148c aa3c ae97 683d
000000d0: a7a9 b43b f6cf 68bd 2b3a 3fbd e968 9bbd
000000e0: 90ce 07be eb77 943c 88ed 3ebc 8a06 b4bc
000000f0: e60c 21bd 7697 a7bd e214 c33d dd24 f33d
00000100: 7533 31bd 5fdc cb3b 7c03 40be 19a1 2f3e
00000110: d5bb c13d dedd 9ebd aedb 4d3b 11cc 333d
00000120: 4109 81bd 802d 443d fe1e 2e3d a8e1 333e
00000130: be1c ad3d 24ba b33d 2b38 103d cfd9 163e
00000140: 215c 59bd 9dd8 cd3d 1ba9 5a3b 2f3f 85bd
00000150: 7efe 56be 8b93 46be 7f55 363e 93bb cb3d
00000160: 86c3 59be eff1 493e 428d f33c c20f bc3d
00000170: 9a4f 523e eaa9 943d 6b2c 1ebd a710 54be
00000180: 8803 36be f2ab c73d fe35 133e 40f9 a13c
00000190: 2a15 cdbd a48e 39bd 0c9d 2c3e 8a57 07be
000001a0: c67b 77bc ccbc f43c 1a95 f1bd ccc1 063e
000001b0: ccb5 5f3e 4f80 b6bd d988 6c3d a11b 43be
000001c0: a17b 6b3d 401c 8a3d ba22 153d f909 7f3c
000001d0: 7a7c 663c a003 b5bc f2b4 07be c7fd 303e
000001e0: 4b2a eabd 2547 a1bd d87a 083d 416b 8c3d
000001f0: aed5 40be 94a7 023e aac0 e2bc 3da8 0abe
00000200: e546 19be 9fa0 07be d083 2e3e 68d1 203e
00000210: ab40 ad3d 13c1 53be 6bf8 7a3d ba34 b03d
00000220: 50bf 103e 34d4 74bd 9e3e 4fbe 8798 b03d
00000230: 2e4c eabd 7048 aa3d 3f71 ccbd 3164 a4bd
00000240: be56 56be b357 2fbe 2695 523d 9b2f 8f3d
00000250: ee16 29be 4cfd 2c3e 6c3e f63d cea0 febb
00000260: ca41 0c3e 7439 533e 04fc 85bd 0e0a f2bb
00000270: c296 083d 018a 2b3e cceb 023e 84da 21be
00000280: 2795 52bb d982 493e 7b12 013d 1005 a7bb
00000290: 29f6 243e 49e5 c3bd 77d6 0fbd 2860 323d
000002a0: 4f67 38be 60a3 55be ce2e 59be 5bbc 7e3d
000002b0: 9476 f1bb 29ae 303d dddd efbd 5740 2e3e
000002c0: 56a2 60be f6b4 0abe e589 0f3e 2114 633d
000002d0: 297c 393e 1ab4 cbbb 18ab efbd 2027 5b3e
000002e0: 8864 ccbd aad2 533e 2069 133e a374 e3bc
000002f0: 6e02 dfbd fd7d 37be 7532 ad3d 3afb 073e
00000300: f343 bc3c 251b d8bd 24d0 bb3d 6c72 3f3d
00000310: 7953 123e f944 523e 2247 e13d e28d 5c3d
00000320: 3a9c 2c3e 8ce7 da3c acb1 093e 0eee fcbd
00000330: c8f7 f9bc 0fde 33be 66d9 4bbe 7d58 e23d
00000340: dea2 2bbe d28f ed3b 5b95 b43d 1e63 48be
00000350: aef7 27bd 89e1 f93d 3e63 633d 015a 39bc
00000360: 8b65 29be d24a 3cbe 5508 af3d 6f77 bcbd
00000370: c774 0f3e 3b6a f73d c562 1abe 2a40 1a3e
00000380: d000 9037 5e5f 2abe 81d6 723c 34b1 133e
00000390: f7ea 023e 541c 80bd 65c4 d1bd da97 56be
000003a0: cb1b 063e 8b2f 223e 979c bcbd e77b 2d3e
000003b0: a6b2 f8bd fdec 243e 18dc f03d fac5 49be
000003c0: 9fc1 c83d ad6a 6bbd 07bb 303d 7b61 c9bd
000003d0: 24ac 95bd a66e c83d 530a 023e d24d 33be
000003e0: 9cb7 003d 4b10 ef3d 129d 893c e4dd 0bbe
000003f0: 140d 33be 8809 33bd 850b 683d 3a15 5dbe
0.18301752 0.10528493 -0.079616405 -0.13976015 0.09653189 0.17831786 0.04594327 0.0507197
-0.14052197 0.035798293 -0.13088582 -0.020738462 0.1181137 0.19072026 -0.13114022 0.008881971
0.1789729 0.15252306 0.014246634 -0.066078275 0.064487755 -0.14040671 -0.08669145 0.18806976
-0.0751443 0.12054298 0.11638838 0.07065894 0.014765758 0.10887914 0.17455478 0.039023113
0.03440965 -0.094311476 -0.16089293 -0.12634268 0.15936501 -0.1301226 0.054656837 -0.0037231208
0.10492922 -0.041749135 0.13896662 0.10500218 -0.21423325 -0.16160437 0.21018723 -0.08709161
0.088049695 0.07241671 0.020818748 0.056785278 0.005513388 -0.056838952 -0.046686333 -0.075883694
-0.13262391 0.018123588 -0.011653312 -0.021975774 -0.03931894 -0.08183186 0.095254675 0.118722655
-0.043261964 0.0062213386 -0.18751329 0.17151298 0.09459654 -0.077571616 0.0031411457 0.043895785
-0.06300593 0.047894955 0.042510025 0.1756655 0.08452748 0.08775738 0.035209816 0.14731525
-0.053066377 0.10051081 0.0033364955 -0.06506192 -0.20995519 -0.1939222 0.17806052 0.09947886
-0.21265993 0.19721197 0.029730443 0.09182693 0.20538178 0.07258971 -0.03861658 -0.20709477
-0.17774785 0.09749593 0.14376065 0.019772172 -0.10013802 -0.04530205 0.16856784 -0.13216987
-0.0151051935 0.029875182 -0.11796017 0.13159865 0.21846694 -0.08911192 0.057747696 -0.19053508
0.05749095 0.067436695 0.03641007 0.0155663425 0.014067763 -0.022096455 -0.13252619 0.17284308
-0.11433848 -0.07874898 0.033320278 0.068563946 -0.18831512 0.12759238 -0.02767976 -0.1354074
-0.1496845 -0.13244866 0.1704247 0.15704882 0.084596 -0.2067912 0.061272066 0.08603807
0.1413548 -0.059772685 -0.2023873 0.08622842 -0.11440311 0.083145976 -0.099825375 -0.080269225
-0.20931527 -0.17123298 0.05141177 0.06991502 -0.16512653 0.168935 0.12023625 -0.0077706343
0.13696972 0.20627385 -0.06542209 -0.0073864525 0.0333469 0.16751863 0.12785262 -0.15806013
-0.0032132359 0.1967882 0.031511765 -0.005097039 0.16109528 -0.09565217 -0.03511664 0.043548733
-0.18008159 -0.20863104 -0.21209261 0.06219135 -0.007368872 0.043134842 -0.11712239 0.17016731
-0.21936926 -0.13545594 0.14017446 0.05543912 0.1811377 -0.006216538 -0.117025554 0.21401644
-0.09980112 0.2068583 0.14395571 -0.027765578 -0.10889135 -0.17919154 0.084568895 0.13279429
0.02298162 -0.105520524 0.09170559 0.04673998 0.14289655 0.20534123 0.10999896 0.053846247
0.1685647 0.026721738 0.13446683 -0.12350093 -0.03051366 -0.17565177 -0.1990715 0.11052034
-0.16761348 0.0072498107 0.0881755 -0.1956906 -0.04100769 0.122012205 0.055514567 -0.0113129625
-0.16542642 -0.18387917 0.08546511 -0.09202468 0.14009391 0.12080809 -0.1507674 0.15063539
1.7166516e-05 -0.16637942 0.0148216495 0.14423066 0.12784944 -0.06255403 -0.102425374 -0.20956364
0.1309654 0.15838449 -0.09209555 0.16941796 -0.121434495 0.16106029 0.117607296 -0.19704428
0.09802555 -0.05747478 0.043147113 -0.09833046 -0.07308224 0.097867295 0.12699251 -0.17510155
0.031425104 0.116730295 0.01679853 -0.13658863 -0.17485458 -0.04371026 0.05665161 -0.21590129

blocks.0.residual_conv.bias f4 [64]
00000000: 773c 78bb 256e c03b 3d1d f03b 8c3c bbbc
00000010: 75a9 07bc 4281 753c bfd8 cc3b b810 93bc
00000020: c6ab 233b 85c9 4f3b c13c 3bbc b3ad c4ba
00000030: b306 b3bb 7bf5 0d3c 66c0 043c 1fe4 5e3b
00000040: 3700 103b 3634 b83c 5ed8 f5bb 0b07 523c
00000050: c2fb 9b3c 7582 87bb e5cf 7fbc eb6e 06bc
00000060: b401 8dbc 604b b4bb 5c79 b3bc 56d3 ce3b
00000070: a56d 77ba 6611 e83b 3235 23bc a425 373c
00000080: e85e 0d3c d962 76bc eb4b 6bbb 107e 033b
00000090: 53cf adbb afbe 473b 0689 b33b 90c6 e53b
000000a0: b2c6 cd3b 8ab3 893c 6ef8 65bc 2c64 d2bb
000000b0: dafb f8bb 933b 8bbb 6a5e 81bc 4d3e ad3a
000000c0: a7ef 3d3c 9e31 3c3c bcdf 73bb 66fe 96bb
000000d0: 4d7a 8e3c f6b3 0bbc c59b 023c 331a eabb
000000e0: 8fd5 b53b df1b bb3b fb89 993b b0e4 223c
000000f0: 5a95 0cbc a4f7 d737 3603 86bb 21b6 f53b
-0.0037877837 0.0058725053 0.007327704 -0.02285602 -0.008280148 0.014984431 0.006251424 -0.017952308
0.002497421 0.0031705808 -0.011428059 -0.001500538 -0.005463445 0.008664484 0.008102512 0.0034010482
0.0021972784 0.022485834 -0.0075025996 0.012819062 0.019040946 -0.0041354247 -0.015613531 -0.008205156
-0.017212726 -0.0055021495 -0.021908455 0.0063118143 -0.00094386406 0.007082152 -0.009961413 0.011178408
0.008628584 -0.015038216 -0.0035903405 0.0020064153 -0.005304256 0.0030478647 0.005478981 0.007012196
0.00627979 0.016809244 -0.014036281 -0.006420633 -0.0075983824 -0.004249045 -0.01579209 0.001321742
0.011592782 0.011486439 -0.0037212214 -0.0046079634 0.017392302 -0.008526793 0.007971709 -0.0071442365
0.00554914 0.0057101096 0.004685638 0.009942219 -0.00858053 2.5745314e-05 -0.0040897382 0.007498518

blocks.0.skip_conv.weight f4 [128, 64, 1, 1]
00000000: 90d4 883d 56f8 de3d ac6d b73d 0be1 c53d
00000010: cbaf a93d f41f 893c 447a 80bc 301e 8dbd
00000020: d6e5 d33d b384 c03c b7ee 60bd 0527 f8bd
00000030: d9d7 e63d c1a6 253e 9c55 0fbe 0f42 22be
00000040: ebb3 75bd 066b 223e d393 a4bd 23f0 ab3c
00000050: cf8c 20bc 941d 2b3e b3fb 02be 7e23 1a3e
00000060: 56ba 773d 20b7 363e d101 303e d492 df3d
00000070: 48a3 c1bb ab7e b93b 49ae ce3d 33cc 29bd
00000080: ea5d e73b 017a 2dbe f5e2 cdbc 56df d1bd
00000090: 3bb1 a5bc f3db b1bd 54b0 3bbd d887 8abd
000000a0: 4c3e 183d e603 a93d 45e8 8d3c 3519 26be
000000b0: 88db b93d cefe 24be dd09 db3d 5fef 74bc
000000c0: e8fa 00be 32c6 9f3d 2876 87bd 5c25 f33d
000000d0: 7264 dc3d f432 0cbe 19db 2a3e 03c1 0fbe
000000e0: 4b16 8fbd c156 bc3d 38cb 18be 3a9d de3c
000000f0: 5b51 4b3d 4375 74bd 6e8f b23d bd36 aabd
00000100: 997c 5a3d 5cfa 843d 0ee3 85bc f58b a43d
00000110: 6551 7fbc 395b 01be 78e4 20be 0e1f c2bd
00000120: aef8 39bd 861a f5bd 4996 883d 7083 46bd
00000130: 4262 9ebd 01b6 c2bd 0243 c4bd cda4 16be
00000140: 36e8 953c f022 973c 50ef 943d eea6 33bd
00000150: 4bdd 23be c1a0 ccbc cf6a c9bd d50f e3bd
00000160: b5e4 973b f5f6 6bbd f949 fb3d c2e7 273e
00000170: 08b8 7abd 43af 22be 7f10 ebbd 5dca 653d
00000180: 976a a1bd c990 e23d 0711 5c3c af17 043e
00000190: b224 81bc 56a8 72bd d9f5 cf3d 0d12 1ebe
000001a0: c471 bf3d c018 953d c4fc c7bc 59ec ce3b
000001b0: 7a1b 21bd ac64 013e 4aa2 e6bc 9d56 87bd
000001c0: ba5b febb fdb0 353e 3fd8 9d3d 4692 3abd
000001d0: eacf 383d b8ed e73d 5d02 bd3d f9f7 2abe
000001e0: b3cc eebd b823 313e aea2 11be 3a6e 6bbd
000001f0: c84a cf3d 3563 83bd b450 f9bb 142c 4b3d
00000200: 4b58 20be 2536 8abd adb8 1ebe bc79 fd3d
00000210: 5420 9fbd b772 d1bd 1173 053e 2521 083e
00000220: cb13 cc3d 3b25 a6bd cef0 81bc bc5e c83d
00000230: 71f4 8d3d 0574 7d3d c1d4 86bd e361 8b3d
00000240: 9c24 233e 4bfb eabd 78f2 1bbe 8b19 2c3e
00000250: 35d0 183d 4142 d3bd 1c58 f83d ebbd 253e
00000260: 0078 c13b 65e2 aebd 3f3c 4abd 1a6f 023e
00000270: bf1e 12bd c87f 37bb 8171 e43d 23dc ce3d
00000280: 5825 3bbd 5cf7 cbbd b1f0 a6bb 7fb1 a7bd
00000290: e33c 473c e46d 0239 99ed 73bc 8f9a c23d
000002a0: 6323 2bbe 43b5 eb3d 617b f7bd 594a 193e
000002b0: 5742 023e 5949 47bd 79a0 833d 8b69 85ba
000002c0: de63 dfbc 5069 08be 9cec 24be 71bb 393e
000002d0: bbd8 353e 8a7b 2c3e 745d e7bd 54eb f23d
000002e0: ed16 b13d a946 d1bd 8886 0e3e 4229 963d
000002f0: 435f 09be c4ff fd3d 6d97 2bbe 6dda 223e
00000300: 40be 203d a9f0 35bc 41df a13c fe50 29bd
00000310: 1bfb ebbd bf5b a03d 5bdf 24bd 6efe eabd
00000320: 0a81 473b 6327 f43d ac29 843c b829 dcbd
00000330: 8166 743c 2595 d5bc 2b58 4fbc 4397 583d
00000340: 6793 da3d 0df5 61bd a1c4 7cbd ea53 7a3d
00000350: 810a 2dbe f6d3 32be 4d20 18be 6711 c33d
00000360: 018c c0bd 9169 1e3e 43e2 3dbd 5766 e43d
00000370: 0156 f93d 1a98 febd f4f7 1dbe 0df9 14bd
00000380: 6cfe 46bd 27bc 233e 6e32 003e a871 a8bd
00000390: 3612 cd3d 98df bb3c 709b c83d eb51 2cbd
000003a0: 880c c0bc 8f67 d73d 0789 edbc c1bf eebd
000003b0: 21a8 f8bd b183 a7bd ffd4 9c3d 81e9 14be
000003c0: 2eee 00be 029d ccbd 904c 79bd 76d7 d5bb
000003d0: f1a8 e1bd 0c1c 0cbe d986 11be 2339 95bd
000003e0: 488f cb3d c573 26be a225 38bd 9ca2 24be
000003f0: ae02 e5bd b536 053e e5a3 e43d 2c3a 27bc
0.06681168 0.1088721 0.08956465 0.09662064 0.08285483 0.01673887 -0.0156833 -0.068905234
0.10346572 0.023500776 -0.054915156 -0.121168174 0.112716384 0.16176893 -0.13997501 -0.15845512
-0.059986036 0.15861139 -0.08036008 0.02098853 -0.009799196 0.16710502 -0.12791328 0.15052602
0.06048044 0.17843294 0.17188193 0.10916677 -0.005909357 0.005660852 0.10091836 -0.041454505
0.007060756 -0.16941072 -0.025132636 -0.10247676 -0.020226112 -0.0868453 -0.045822456 -0.067641914
0.037168786 0.08252697 0.017322669 -0.16220553 0.090750754 -0.16112825 0.10695241 -0.014949649
-0.12595713 0.07801475 -0.066143334 0.1187236 0.10761346 -0.13691312 0.16685142 -0.14038472
-0.06986674 0.091962345 -0.14921272 0.02717458 0.049638133 -0.059682142 0.08718763 -0.08311222
0.05334148 0.06493065 -0.01634362 0.08034507 -0.015583371 -0.12632455 -0.15712154 -0.094785795
-0.045403175 -0.119679496 0.066692896 -0.048465192 -0.07733585 -0.09507371 -0.09583093 -0.14711304
0.018299203 0.018449277 0.07272208 -0.04386037 -0.16002385 -0.024978997 -0.09834825 -0.11087004
0.0046354183 -0.057608563 0.122699685 0.16397002 -0.061210662 -0.1588717 -0.11477756 0.05610119
-0.078816585 0.11062772 0.013431794 0.1289966 -0.015764568 -0.05924257 0.101543136 -0.15436573
0.09347871 0.07280111 -0.02441252 0.006314796 -0.039332844 0.1263606 -0.028153557 -0.06608317
-0.0077623995 0.17743297 0.07707261 -0.045549653 0.045120157 0.11324638 0.092289664 -0.16696157
-0.11660137 0.17298782 -0.14222214 -0.057478167 0.10121685 -0.064154066 -0.0076084975 0.049602583
-0.15658681 -0.067486085 -0.15500136 0.123767346 -0.07769838 -0.10226958 0.13032176 0.13293894
0.09964713 -0.0811257 -0.015861895 0.09783694 0.06931389 0.061878223 -0.06583548 0.0680578
0.15931934 -0.114737116 -0.15229213 0.16806619 0.037307937 -0.10315371 0.121261805 0.16185729
0.0059041977 -0.08539275 -0.04937386 0.12737694 -0.035673853 -0.0027999748 0.11154462 0.101005815
-0.04568991 -0.099592894 -0.0050946106 -0.081881516 0.012160513 0.00012438704 -0.014888191 0.09502136
-0.16712718 0.11509182 -0.120840795 0.14969768 0.12720619 -0.048653934 0.06427092 -0.0010178549
-0.0272693 -0.13321424 -0.16105884 0.1813791 0.17758457 0.16844001 -0.11297122 0.118612915
0.08646951 -0.102185555 0.13918507 0.07332088 -0.13415246 0.12402299 -0.16756983 0.15903635
0.039243937 -0.011104741 0.019759776 -0.041337006 -0.11522504 0.07829999 -0.04025207 -0.1147431
0.0030441904 0.11921575 0.016133152 -0.10750145 0.014917017 -0.026072094 -0.012655298 0.05287863
0.10672646 -0.05516534 -0.061710957 0.061115183 -0.16898538 -0.17463669 -0.14856072 0.095248036
-0.094017036 0.15469958 -0.046358358 0.11152332 0.12174607 -0.12431355 -0.15426618 -0.036370326
-0.04858248 0.15989743 0.12519237 -0.08224803 0.10013239 0.022933766 0.09795272 -0.04207031
-0.023443475 0.10517799 -0.028996004 -0.11657668 -0.12141443 -0.08179415 0.07657813 -0.145422
-0.12590858 -0.09990884 -0.06086403 -0.006525929 -0.11018551 -0.13682574 -0.14211597 -0.072862886
0.09939438 -0.162551 -0.044957764 -0.16077656 -0.11182152 0.1300915 0.11164073 -0.01020674

blocks.0.skip_conv.bias f4 [128]
00000000: c48f b63b 5909 e0b9 ba35 093c 92a8 8039
00000010: 293a 4abb 78c4 fa3a 261f d9bb 4fa6 d93b
00000020: 1c88 ea3b b707 17bb 50bd 5fbb a279 72ba
00000030: f3d0 c23b d938 963a 13f4 84ba e88c 163b
00000040: c39f ab3b 01a4 11bb 325f 043b f1c5 72ba
00000050: 9001 94bb bad3 bb3b 0e65 a0bb 5946 263c
00000060: 44c5 70ba fd6e 8bb9 dd06 f8bb 9298 b9bb
00000070: 0674 c23b 10c6 e43b be40 533b 15ba 883b
00000080: c944 853b 6d0e e5ba a412 343b 281f 273b
00000090: 8f91 3bbb 166b c9ba 360c 6d3b 7770 caba
000000a0: 8e20 c0bb 1a9f fa3b 0d63 d6bb 6444 ba3b
000000b0: fc25 cebb a9d3 9c3b a444 fbba 5dec 003b
000000c0: 54b2 edb9 237f dfbb e93b 37bb 6203 903b
000000d0: a69f 48bb 7276 2e3b 06b6 903b 9283 b53b
000000e0: 764c 063b 306c b1bb e886 9abb 3938 0a3c
000000f0: 8b06 223b 1d18 cebb 5b2d 01bb e043 94b9
00000100: 6566 03bb ec25 c03a bcf0 fdb9 176d 7bba
00000110: e518 b03b dc47 b03a b64d 033c 0f89 b33b
00000120: 39c7 103b 1a77 493b b3aa c93b 7471 2c3c
00000130: 19f9 3a3b 822e 85bb 3721 a9bb 1fcc cc3b
00000140: e6e6 d6bb a7ab f93b 9463 d1bb 5b2f f33b
00000150: 1235 ea3a 612b 343b cd91 5cbb 3bf4 20bb
00000160: 81ca 3cbb 294e fbba 09c8 f33b 8ee2 3c3b
00000170: beb9 30bc facb 3dba 42b8 353b 919c 42bc
00000180: 3053 6c38 3a30 bc3a 9f74 c4bb 2697 e53b
00000190: ee4d 943b 0960 793b 2ad4 693b c0cc bbba
000001a0: e74a 26ba d728 20bc fed7 ad3a 6a42 8c3b
000001b0: 4ed0 8cbb e76d 2f3c a13d 643b b7f3 963a
000001c0: fc28 43bb ef6f 253b 419b cebb dc6c 5b3b
000001d0: 6012 ad3b cc45 8dbb 7a9d ef3b b732 703b
000001e0: 48f3 663b 0c27 823c ad7f 8b3b 2c82 d8b9
000001f0: 1a8e 443b a6e7 0c3b 4016 03b8 b041 e53b
0.0055713374 -0.00042731574 0.008374626 0.00024539657 -0.003085742 0.0019132039 -0.0066260276 0.00664214
0.007157339 -0.002304537 -0.0034139939 -0.0009249692 0.005945319 0.0011461034 -0.001014354 0.002297217
0.005237551 -0.0022222998 0.0020198342 -0.0009261063 -0.004516788 0.005732027 -0.004894859 0.010148608
-0.00091846683 -0.0002659484 -0.0075691775 -0.0056639398 0.005934241 0.0069816187 0.0032234634 0.0041725733
0.0040670377 -0.0017475613 0.002747693 0.0025500748 -0.0028620695 -0.0015366997 0.0036170608 -0.0015444894
-0.005863256 0.007648361 -0.0065425695 0.0056844223 -0.006291149 0.004785974 -0.0019170237 0.0019672133
-0.00045337027 -0.006820576 -0.0027959293 0.0043949345 -0.0030612736 0.0026620892 0.00441623 0.005539366
0.0020492352 -0.0054145083 -0.004715789 0.008436256 0.0024723138 -0.0062894956 -0.0019710872 -0.0002827933
-0.0020050046 0.0014659739 -0.00048435281 -0.0009591146 0.0053740614 0.001344915 0.008014133 0.005478985
0.0022091402 0.0030741156 0.006154382 0.010525096 0.0028529821 -0.004064382 -0.00516143 0.006249919
-0.006558287 0.0076193395 -0.0063900445 0.0074214167 0.0017868599 0.0027491676 -0.003365624 -0.0024559635
-0.0028807225 -0.0019173074 0.0074396175 0.002882156 -0.010786472 -0.00072401727 0.0027728234 -0.011878149
5.634426e-05 0.0014357634 -0.0059953476 0.0070065437 0.0045258915 0.0038051626 0.0035679438 -0.0014327988
-0.0006343559 -0.009775362 0.0013263223 0.004280378 -0.004297293 0.010707355 0.0034826773 0.0011516724
-0.0029779067 0.002524372 -0.006305129 0.0033481633 0.0052817315 -0.004311299 0.007312474 0.0036651322
0.0035240222 0.01588776 0.0042571635 -0.00041295716 0.0029991926 0.0021500378 -3.1253556e-05 0.006996356

blocks.0.bn.weight f4 [64]
00000000: 312d 803f b185 813f d242 803f 4521 813f
00000010: f3b9 813f 001f 813f 8477 803f d826 803f
00000020: 2fa7 7e3f 5cc1 7d3f 6cbe 7e3f 26f7 7f3f
00000030: 6d39 803f baab 7e3f 6339 813f 7d45 803f
00000040: 3d78 803f 182e 813f 0696 803f f06f 7e3f
00000050: e6ff 803f f360 813f dfe9 7f3f fa23 7f3f
00000060: fa1f 803f 1897 7f3f f1d0 803f 7a41 803f
00000070: 4095 7e3f 3b8b 803f 430c 803f 6d04 803f
00000080: b039 7e3f bce0 803f 2c79 803f ac3b 7f3f
00000090: c91e 813f f462 813f 0b2b 7f3f c4b4 803f
000000a0: 15b3 7f3f ca63 803f 224c 7e3f f639 803f
000000b0: 15af 7d3f e429 803f 3862 803f 5474 813f
000000c0: 7bf8 7c3f aee4 803f a2a4 803f d9c0 7e3f
000000d0: 1c21 7d3f 64c0 803f 9f8b 803f aaf8 7e3f
000000e0: 7991 7f3f 7aa2 803f 2ca0 803f bf2e 803f
000000f0: 5b9c 7e3f b725 7f3f 5aef 7f3f bf08 813f
1.0013791 1.0118924 1.0020392 1.0088278 1.0134872 1.0087585 1.0036473 1.0011854
0.9947385 0.9912317 0.9950931 0.99986494 1.0017525 0.99480784 1.0095638 1.0021206
1.0036694 1.0092192 1.0045784 0.99389553 1.0078094 1.0107712 0.99966234 0.9966427
1.0009758 0.99839926 1.0063764 1.0019982 0.9944649 1.004249 1.0003742 1.0001351
0.99306774 1.0068583 1.0036979 0.9970043 1.008752 1.0108323 0.99675053 1.0055165
0.9988263 1.0030453 0.9933492 1.0017688 0.9909528 1.0012784 1.0029974 1.0113626
0.9881665 1.0069788 1.0050242 0.9951301 0.98878646 1.0058713 1.0042609 0.9959818
0.9983135 1.0049584 1.004888 1.0014266 0.9945733 0.99666923 0.99974597 1.0080794

blocks.0.bn.bias f4 [64]
00000000: 2682 be3a 3a2e 7a3b be09 eb3b dbe0 c9bb
00000010: 962a e83a 4a32 5b3b 4a9c eeb9 1322 79bb
00000020: 9e64 8ebb dab0 ed3a 15c7 50bb 66fe 903b
00000030: 57fe a3bb a836 383a 7f19 9dbb 3bb7 d3bb
00000040: 9a21 ac38 0bb2 023b 6898 88bb 20d7 083c
00000050: a425 883b 4355 96ba 9622 fa3b ef7d 52b9
00000060: cfa4 2bbb 07d0 c13b 1911 19ba 9f40 263b
00000070: a4d5 06bb 8b6c feba 0b80 07bb b084 84bb
00000080: 4026 87bb 13bb 25bb 08e9 8839 cd2a acbb
00000090: 2fdd 0bba 4d46 093b 2eae 193a 2e2e 68bb
000000a0: 919f 873a 9162 833a da4f 19bc 3016 3bbb
000000b0: 4096 82bb 471e aebb 69a6 ef3a b1f0 29bb
000000c0: 2e9f bf3b 0da0 443a f6f4 e4ba 24e4 a43b
000000d0: 0b7a 173b 1796 853a 57da 083b 54fc 89bb
000000e0: 1d71 453c 69da d73a 50a7 bbbb 6f58 d73b
000000f0: b9b6 2dbb 5355 453b 064d 0cbb 8cb3 caba
0.0014534637 0.0038174526 0.007172792 -0.006160838 0.0017712887 0.0033446723 -0.00045511342 -0.0038014695
-0.0043454906 0.0018134371 -0.0031856943 0.004424858 -0.005004685 0.00070271874 -0.004794299 -0.0064610518
8.207858e-05 0.0019942548 -0.004168559 0.008352071 0.0041548777 -0.0011469502 0.0076335175 -0.00020074075
-0.0026190763 0.0059146914 -0.00058390346 0.0025368107 -0.0020574117 -0.001941101 -0.0020675685 -0.004044138
-0.004124433 -0.0025288507 0.00026113563 -0.0052541257 -0.0005335388 0.0020946444 0.00058624416 -0.0035427916
0.0010347237 0.0010023882 -0.009357417 -0.002854716 -0.0039851964 -0.005313668 0.0018283847 -0.0025930817
0.005847833 0.0007500656 -0.0017468024 0.0050320793 0.0023113515 0.0010191825 0.0020882094 -0.004210988
0.012050894 0.001646829 -0.0057267323 0.0065718214 -0.0026506616 0.0030110672 -0.0021408214 -0.0015464886

blocks.0.bn.running_mean f4 [64]
00000000: 7fa1 263d 4d08 113d 2b54 c63d fb9b 34be
00000010: fac9 453c 46de 11be 0221 033d f7ed a3bc
00000020: f014 953d 3083 ecbc 88c1 d9bd f94f 273d
00000030: c33e c43d 227b 1e3e 4c61 1f3d 55ef 24bc
00000040: 0e97 b13d acc8 7e3d 08c5 b4bc dcfd 0ebd
00000050: ec61 053e 5c26 733c b2f5 41bd 1f1f 1bbe
00000060: 9eac c13d feb3 783d 64be 673b 60ba 133d
00000070: 16bc b3bd bf2e ea3c d9d9 093d 320c c03d
00000080: cb83 f8bc 2da6 5cbd 5417 a53d 2e87 89bc
00000090: 0adf 38bd b2f3 37bd 62c0 0fbd 2679 22bd
000000a0: 2b3b fcbb 51ec 343d f9c7 0bbd c7ac e33c
000000b0: 611d 633d 5335 c2bd 5b5b aa3d 14e3 acbd
000000c0: 0bbe a13c 24ea ee3c 4b3f 19bc 84d6 56bd
000000d0: 7598 383d 0275 9f3d ac8f 733d e250 283e
000000e0: c5e6 05bd 30ed 4b3c 27bf 3ebd 7f76 a43b
000000f0: ad7f d93d 1aa1 b03c d00a f73d 4ad5 8b3d
0.04068136 0.035408307 0.096840225 -0.17637627 0.012072081 -0.14244947 0.0320139 -0.020010931
0.07279384 -0.028871149 -0.10632616 0.040847752 0.09582283 0.15476659 0.03891115 -0.010066827
0.086713895 0.062203094 -0.022066608 -0.034910068 0.13025635 0.014840689 -0.047353454 -0.1514859
0.09456752 0.06071853 0.0035361284 0.036066413 -0.08776109 0.028586743 0.03365502 0.09377326
-0.030336281 -0.053869415 0.0806109 -0.016788092 -0.04513458 -0.04491014 -0.03509558 -0.039666317
-0.007697483 0.04417068 -0.034126256 0.027792348 0.05544794 -0.09482827 0.08318206 -0.08441749
0.01974394 0.029164381 -0.009353469 -0.05245067 0.04506727 0.07785989 0.059463188 0.16437104
-0.032690782 0.012446687 -0.046569016 0.0050190086 0.10620055 0.021561194 0.12062609 0.06827791

blocks.0.bn.running_var f4 [64]
00000000: f298 4f3d f5dd 153e 2741 bb3d 59a4 5f3e
00000010: ee62 ab3d 415e fc3d 3824 073e a1da 063e
00000020: 1061 8c3e 7b3a cc3d 1451 f73d 8482 283e
00000030: 5438 123e 65ae 603e f803 a83d 3caa 453d
00000040: 4b1a 8a3e ffbf c43d 1e87 433d 4c4f a33d
00000050: 8b86 883e 2bcc f53c 5158 d43d 5092 6f3e
00000060: 2f97 643e 9845 1b3e 803f b73d 4705 a53d
00000070: 398e 153e faa6 8b3d f276 453e 3010 2c3e
00000080: a90d f73d b166 053d 4e29 dd3d a944 d53d
00000090: 953c 8d3d 7cbd b93d e740 7b3d e4c8 c43d
000000a0: 4a7d 133e 6619 eb3d cf11 213e 58da 3e3e
000000b0: 65f8 2b3d 8355 d03d 5276 963d b638 2e3d
000000c0: 27db d93d 6062 543e ad28 063d 3341 2d3e
000000d0: 7708 ce3d c932 4e3e 0794 163e 48f9 513e
000000e0: ea21 453e 9e47 033e 29dc 723d fb86 ce3d
000000f0: ad23 083e 999a c03d 83d7 653e 7c8b 793d
0.05068297 0.14635451 0.09143286 0.21840037 0.08368479 0.12322665 0.1319741 0.13169338
0.27417803 0.09972092 0.12076011 0.16456038 0.142793 0.21941526 0.08203882 0.04825805
0.26973185 0.09606933 0.04773628 0.07974109 0.26665148 0.030004581 0.103684075 0.23395658
0.22323297 0.15163267 0.089476585 0.08057647 0.14605035 0.068189576 0.19283655 0.1680305
0.12063152 0.032568637 0.10798894 0.104134865 0.06896321 0.090693444 0.061341193 0.09608629
0.14403263 0.11479454 0.1572945 0.18637979 0.041984934 0.1017256 0.073467866 0.042534553
0.10637503 0.20740652 0.032753635 0.16919403 0.10060208 0.2013656 0.14704905 0.2050525
0.19251218 0.12820289 0.059291992 0.10084339 0.13294859 0.09404487 0.22445492 0.06092404
