TGNN2026/checkpoints_MTGNN1m_auc_3class/fold_01_best.pt (torch, 872945 bytes, 82 tensors)

A_static f4 [3, 3]
000000 ab aa aa 3e ab aa aa 3e ab aa aa 3e ab aa aa 3e
       0.33333334 0.33333334 0.33333334 0.33333334
000010 ab aa aa 3e ab aa aa 3e ab aa aa 3e ab aa aa 3e
       0.33333334 0.33333334 0.33333334 0.33333334
000020 ab aa aa 3e
       0.33333334

in_proj.weight f4 [64, 15]
000000 2a 86 9a 3d 68 45 62 bc e6 9a 0e 3e 21 c7 62 be
       0.07545121 -0.013810493 0.13926277 -0.22146274
000010 e2 29 90 3e 30 0d 65 3e 10 0a 08 3e 2b 6e 11 bd
       0.28156954 0.22368312 0.13285089 -0.035505455
000020 a6 37 84 be b7 e9 74 be 26 1d 60 3e 24 86 d3 bd
       -0.25823706 -0.2391728 0.21886119 -0.1032832
000030 4a 0a 32 3e 35 9a a8 3d 4d 68 82 3e dc 43 60 be
       0.17386737 0.08232538 0.254702 -0.21900886
000040 1f 94 b7 3a 49 b2 6f be 3a a1 af b7 39 be 64 be
       0.0014005936 -0.23407854 -2.0936703e-05 -0.22338189
000050 2e 11 2d bc 98 b3 16 3e 4e 80 06 3e e4 53 ad bd
       -0.010563178 0.14716947 0.13134882 -0.084632665
000060 86 6a 41 3e b9 35 8b be 9e 7e b5 bd b2 34 f4 3b
       0.18888292 -0.27189425 -0.08862041 0.007452571
000070 e8 a8 69 3e 63 49 79 be 10 1c 82 bd 92 92 7a be
       0.22818339 -0.24344401 -0.06353009 -0.24469975
000080 75 ec 22 be 7d 20 00 3e 21 d6 0c be 2c 49 3c be
       -0.15910514 0.12512393 -0.13753559 -0.18387288
000090 32 b5 df bd fa 7e 2d 3e a7 19 06 3e bc 29 c9 3d
       -0.10923232 0.16942969 0.13095723 0.09822413
0000a0 43 18 73 3d 26 57 e0 3c 42 00 f6 bd 82 f0 44 3e
       0.05934931 0.027385306 -0.12011768 0.19232371
0000b0 e8 9f 8c 3c f8 36 11 3e 75 06 2a 3e 85 f3 8c bd
       0.017166093 0.14181125 0.16604026 -0.06882385
0000c0 1f 28 41 3e 81 f6 f5 bd 99 95 0e bd ef fb 5c 3e
       0.18862961 -0.120099075 -0.034810636 0.2158048
0000d0 d3 14 4c 3e ad 3e e8 bd 4b 25 b6 3d b6 28 d2 3d
       0.19929819 -0.113400795 0.08893832 0.10261671
0000e0 34 97 35 3e ec 08 b7 bd 7b 9a 87 3e 8b 5e d7 bd
       0.1773346 -0.089372486 0.26485047 -0.105160795
0000f0 1c 95 17 be d6 96 f5 3d 14 fd 6f 3d a6 a8 69 3e
       -0.14802974 0.1199166 0.058590963 0.2281824
000100 9e a4 60 be 9d bb 99 bd e3 9c 07 be 67 e6 1e 3d
       -0.21937796 -0.075064875 -0.13243441 0.038793948
000110 d4 0e cf 3d 32 7e f0 3a 6b a7 3b 3b d7 28 7f be
       0.1011025 0.0018348156 0.0028633724 -0.24917923
000120 82 6a eb 3d 56 ed 85 be 6c 8c 2c 3d 96 fe ae bb
       0.11494924 -0.26157635 0.042126104 -0.0053404076
000130 6e fb 76 3e 73 b6 70 3e 21 db 6e bd 8b 22 12 bd
       0.2411935 0.23507099 -0.058314446 -0.035677474
000140 46 b4 74 3e 51 7b 79 3e e1 09 e4 3d e8 2f a5 3d
       0.23896894 0.24363448 0.11134697 0.08065778
000150 6f 77 81 3e 21 e8 7f 3e 7a 29 78 3b 0d 4e 66 be
       0.25286433 0.24990894 0.0037866519 -0.22490712
000160 b2 40 0b be a3 b4 d3 3d 1f 17 4a 3e e4 5c 66 bd
       -0.13598898 0.10337188 0.19735382 -0.05624093
000170 4a 18 91 3d 85 d6 32 be dc 99 70 3e d4 71 86 be
       0.07084711 -0.17464645 0.23496193 -0.2625872
000180 fc 90 18 3e a3 73 02 be b5 16 3b bc 40 ad 20 bd
       0.14899057 -0.12739424 -0.011418988 -0.039227724
000190 f2 6c 90 3d 5e f1 bf 3d 2f f1 80 3e 45 42 2f 3d
       0.0705203 0.09372209 0.25184008 0.04278781
0001a0 6b 45 63 be bc 77 1b 3e d6 c3 5f 3e 0f da 2a be
       -0.2219445 0.15182394 0.21852049 -0.16684745
0001b0 26 a5 7c 3c 10 ef 1f 3e f5 2c c2 3d f2 be 64 be
       0.015420234 0.15618539 0.09481231 -0.22338465
0001c0 c7 81 28 3e 35 32 d3 bc 3c 9c 48 3e 1c 18 aa 3d
       0.16455756 -0.025780777 0.19590849 0.0830538
0001d0 d3 33 93 3d f2 07 33 3d 08 77 99 bd 47 dd db 3d
       0.07187619 0.04370875 -0.074934065 0.10735565
0001e0 31 13 3c 3d bf c4 6b bd 54 62 75 be 01 89 ce 3d
       0.04591674 -0.05756068 -0.2396329 0.10084725
0001f0 b1 d2 f1 3d 32 85 98 bd 65 ea f2 bd df 1a 47 3e
       0.11807764 -0.0744728 -0.118611135 0.19443844
000200 a9 40 3d 3d cf fd 33 3e 4c 19 55 bd f4 cb 97 3c
       0.046204243 0.17577289 -0.052026078 0.01852987
000210 0e aa cc bd 7b 70 5c 3d 0b e2 53 be cc f2 90 be
       -0.09993373 0.053818207 -0.20691697 -0.2831024
000220 d4 0d 72 3c da d5 a2 bb 3e 0a 54 3e e7 34 c0 3d
       0.014773805 -0.0049693407 0.20707032 0.0938509
000230 97 bf 02 3e 34 a5 69 3e 0d ef 3b bd e3 3b 1a 3d
       0.12768398 0.22816926 -0.045882273 0.03765477
000240 06 4f 3a be 7a 72 7a bd ec 0c 11 be 3c 6d 11 3e
       -0.18194208 -0.06114433 -0.14165086 0.14201826
000250 c1 68 f1 bc b1 0b 2c 3e 5b de a7 3d 44 5b 08 be
       -0.029468896 0.16801335 0.08196708 -0.13316065
000260 5f da cf bd b5 39 8a be 8d e3 4e 3e 82 e0 6d 3e
       -0.10149073 -0.26997152 0.20203991 0.23230174
000270 35 ee f2 bd 7b a2 07 bb df ea 94 be ec a0 48 3d
       -0.11861841 -0.002069621 -0.29085442 0.048981592
000280 2e ed 50 3e 57 27 a8 3d f7 9b c7 3b 28 0f bd bd
       0.20402977 0.082106285 0.0060915905 -0.092314065
000290 df 7d 23 be e7 53 1f be a9 d5 88 3d d3 79 98 3b
       -0.15965985 -0.1555935 0.066813774 0.0046531945
0002a0 ba 41 12 3e 8d 73 83 be 21 4e 2e 3e be cd ba bd
       0.14282885 -0.25674096 0.17021991 -0.091212735
0002b0 97 a6 0e be 6c e7 4f 3e f1 a8 d6 bd 04 14 55 3e
       -0.13930736 0.20303124 -0.10481442 0.20808417
0002c0 c6 15 65 be dd a2 d4 bd 38 22 43 be 73 7a 76 be
       -0.22371587 -0.10382626 -0.19056022 -0.24070148
0002d0 b1 57 a6 bd 3f ed bc bd 3e 8a 0a be 83 6e 88 3e
       -0.081221946 -0.092249386 -0.13529298 0.26646814
0002e0 f3 1e 7e 3d e1 df 66 bd 24 38 b8 3d 38 a8 14 be
       0.062041234 -0.05636585 0.08995083 -0.14517295
0002f0 2b 59 87 be 9b 3e 2f 3e c0 8d 30 bd 1e ec 65 3e
       -0.26435217 0.17113726 -0.043103933 0.22453353
000300 3e ac 49 bd 35 29 38 3e 32 8f ea 3d b2 28 55 3e
       -0.04923653 0.17984469 0.114530936 0.20816305
000310 20 3e 4f 3e 7d e9 db bd bc 78 80 bd a4 cb 81 be
       0.20238543 -0.10737894 -0.06273028 -0.25350678
000320 b6 f1 8b 3e 3e 17 21 be 82 f7 23 bd 2c cc 73 be
       0.27332848 -0.15731522 -0.040030964 -0.23808354
000330 ba 87 8b 3e b6 af 62 be 6e a5 42 3e 74 38 9a 3c
       0.2725199 -0.22137341 0.19008419 0.018825747
000340 01 a7 55 bd 3b d2 e7 3d 6c 25 d3 bd 16 a9 ca 3d
       -0.05216122 0.11319395 -0.10309872 0.09895532
000350 f6 e2 6b be 37 8c fc bd 59 5a 9f bd 2a 2e d4 3b
       -0.23035797 -0.12331431 -0.07780904 0.0064752297
000360 38 13 5a 3c cb 76 b4 3d 8d 6a c2 3d 54 4b 84 be
       0.013310246 0.088117205 0.09492979 -0.2583872
000370 61 8a f6 bd 3f ee 8d be e2 d7 8c be 17 31 69 bd
       -0.120381124 -0.2772083 -0.27508456 -0.05693158
000380 5d 6d 0e be aa 6b 56 3e c6 aa 84 bd 91 98 c1 bc
       -0.13908906 0.20939508 -0.06477885 -0.02363232
000390 9b a2 16 3e 43 9a 3a bd a9 04 02 bd ea 78 68 3e
       0.14710467 -0.04555727 -0.031742726 0.22702375
0003a0 4b 44 94 3e 64 3d c2 3d 9d a3 38 be ef fc 4c 3e
       0.28958353 0.094843656 -0.18031164 0.20018362
0003b0 9b e5 55 bd 5e f0 90 be 1b f8 05 3e 03 52 fc 3d
       -0.052220922 -0.28308386 0.13082926 0.1232033
0003c0 46 c0 27 be 5b 3a 2e be 27 a2 1c 3e 02 8b c9 3d
       -0.1638194 -0.17014448 0.15296231 0.09840967
0003d0 86 84 c2 3d 43 21 32 3e 33 85 0e 3e 75 08 1a 3e
       0.09497933 0.17395501 0.13917999 0.15042289
0003e0 10 28 29 be aa 02 b7 3d 25 2f e2 bd 21 3f 66 3e
       -0.16519189 0.08936055 -0.11044148 0.2248502
0003f0 41 d2 55 be 95 ea 72 3c 35 49 86 be f3 53 a8 3d
       -0.20880987 0.0148264365 -0.26227728 0.08219137

in_proj.bias f4 [64]
000000 cc 7b 40 3b 43 40 d6 ba 83 96 c6 bb 44 9e a3 3b
       0.0029370664 -0.0016346056 -0.006060423 0.004993232
000010 a3 46 3b bc ae 1a 0b bc 22 8f bf 3b d9 fc 86 bc
       -0.011430415 -0.008490248 0.00584592 -0.016477989
000020 c3 d6 9d bb bb d1 25 3a c8 3e 15 3b eb aa ff 3b
       -0.0048168614 0.0006325503 0.0022773016 0.0078023574
000030 46 1c d4 3b c3 19 9f 3b 50 6a e2 3b 4c ee 81 bb
       0.006473097 0.004855366 0.006909646 -0.003965175
000040 2f 99 67 3b aa 22 9b 3b b4 3c 35 bb 8f 76 2d 3c
       0.0035339107 0.004734357 -0.002765459 0.010587349
000050 1f cb ea 3b 4f 97 d6 bb e9 44 df 39 64 3d a1 bb
       0.007165327 -0.006548799 0.00042585217 -0.0049206484
000060 66 7d 88 bb 12 0b bc 3b 18 e2 b0 3b 7b 5a d7 ba
       -0.0041653393 0.0057386244 0.005398046 -0.0016430164
000070 64 16 f1 ba 1c 4b ed 39 a6 ad 71 3a 97 6e 93 3b
       -0.0018393514 0.00045260123 0.0009219296 0.0044992673
000080 3f 5e 8d 3b ea a6 5d ba 26 24 ea 3a be 88 8f b7
       0.0043142135 -0.0008455353 0.0017863556 -1.7110604e-05
000090 b8 13 d0 bb ea d1 4e ba b2 c1 58 bb 94 f2 14 3c
       -0.006350007 -0.0007889556 -0.0033074436 0.009091038
0000a0 59 bf 3d 3b 7e 90 5e 3b cb ba ad ba 18 12 b7 bb
       0.0028953163 0.0033960636 -0.0013254521 -0.0055868737
0000b0 58 62 a8 bc 10 cc d2 3b 0f 82 22 bc a3 03 01 bb
       -0.020554706 0.0064330176 -0.009918704 -0.0019686006
0000c0 3b 40 b9 3b c1 13 b3 3b 28 3b 7e 3b ca 79 9f 3a
       0.005653409 0.0054650013 0.0038792584 0.0012167033
0000d0 95 e7 86 3b dc 25 91 ba 11 a9 b0 3a 31 02 ce bb
       0.004116962 -0.0011073905 0.001347812 -0.0062868823
0000e0 6b fa 94 3a bb 94 21 3b a2 53 e8 3b ae 29 39 3c
       0.0011366134 0.00246553 0.007090048 0.011301441
0000f0 41 c1 fc 3b 06 bf 45 ba 82 e8 e8 b9 86 13 74 3b
       0.0077134673 -0.00075434183 -0.0004442372 0.0037243082

adapt.E1 f4 [3, 8]
000000 80 7e 30 3d 8e 7e f8 bc c7 6c f8 3c 25 9b 31 bd
       0.04308939 -0.030333783 0.030325307 -0.043360848
000010 ec 96 ec 3c 65 37 12 3d 5c 7f 57 3d 0f 11 95 3c
       0.028880559 0.03569736 0.052611694 0.01819661
000020 c8 d7 91 bc fc 63 1d bc e7 1d 1a 39 5f 06 26 3c
       -0.017803088 -0.009606358 0.00014697724 0.010133355
000030 db 36 30 3c 09 86 06 3b dc ef a7 3b bb 1a 8f bb
       0.010755266 0.0020526669 0.005125029 -0.0043672
000040 ed 92 a6 3d dc c7 a7 bd 8d 5e a1 3d 57 6e 93 bd
       0.081334926 -0.08192417 0.07879362 -0.0719878
000050 c1 2f a4 3d 9a a4 96 3d 02 aa d1 3d 88 d7 ba 3d
       0.08016921 0.07355614 0.102375045 0.091231406

adapt.E2 f4 [3, 8]
000000 5b e2 90 3b 4c 50 86 bb 61 a5 55 bb 2e e1 0e 3c
       0.004421515 -0.0040989276 -0.0032599794 0.008720679
000010 c9 60 6d bc 81 07 5f bc 31 2a 0f bc b3 6e 7a 3c
       -0.014488407 -0.013612629 -0.008738087 0.015285182
000020 57 bc b3 3a 60 7d 93 bb 5c 71 9a 3b 44 2a b3 3b
       0.0013712746 -0.00450103 0.0047132205 0.005467685
000030 83 34 4e bc 45 82 cd bb 27 14 49 ba 10 93 be 3b
       -0.012585762 -0.006271633 -0.00076705444 0.005815871
000040 f8 f3 a3 3d 4f 25 89 bd 7e ee a3 3d 20 60 c0 bd
       0.08005518 -0.06696569 0.08004473 -0.093933344
000050 f7 20 b0 3d e4 d7 c1 3d 1c cc a0 3d 6f ae a8 3d
       0.086000375 0.09465006 0.07851431 0.082363956

support_mix.w_logits f4 [3]
000000 30 3d 7c 3d c6 8d 81 bd 21 f0 84 3d
       0.06158179 -0.06325869 0.064911135

blocks.0.filter_conv.conv.weight f4 [64, 64, 1, 2]
000000 7c ae de bd 7e ee 97 bd 05 66 e1 3a dc 5f 09 be
       -0.10873124 -0.07418536 0.0017196542 -0.13415474
000010 6b b6 f6 bd 5c 62 b8 bd 4f ab d0 bd 99 d5 c5 3d
       -0.12046512 -0.090031356 -0.101889245 0.09659881
000020 62 d0 19 3d 95 ea 8e 3c 81 38 ac 3d e3 b4 04 3e
       0.037552245 0.017445842 0.08409215 0.12959628
000030 11 5c e1 3c f9 4d 90 bd 55 11 25 bc ed f4 d0 3d
       0.027509721 -0.07046122 -0.010074933 0.10202966
000040 84 16 46 3d c3 fd bc 3c 84 f4 fd bd 32 27 20 bd
       0.048361316 0.023070222 -0.12400153 -0.03909988
000050 ad 3f f6 bd 8c f3 f6 bd a5 47 ac 3d 07 cb 26 3d
       -0.12023864 -0.12058172 0.084121026 0.040720966
000060 31 58 99 bc 49 47 68 3d 50 c3 4c bd a6 0c 05 be
       -0.01871881 0.056708608 -0.049990952 -0.12993106
000070 7a e4 cd bd 2f 72 19 3e ac 17 f3 3c 89 98 0e 3e
       -0.10053344 0.14984964 0.029674374 0.13925375
000080 80 19 8a 3c 88 c3 04 be 56 a1 2c 3d eb a3 95 3d
       0.016857862 -0.12965214 0.04214605 0.073066555
000090 d5 44 f8 bc f0 d0 b3 bd 8c 5e 82 bd 89 71 0a bd
       -0.03030626 -0.08780086 -0.0636569 -0.03379968
0000a0 48 77 3f bd a1 a0 0f bc 7c 71 12 3e ad aa 99 3d
       -0.046744615 -0.008766324 0.14301103 0.07503257
0000b0 45 3c e0 3d 7c a0 01 be 35 fb 87 bd a8 49 88 3d
       0.109489955 -0.12658876 -0.06639711 0.06654674
0000c0 a6 21 b2 3d 09 50 3b 3d 72 9f b8 bc ab 02 75 3d
       0.08697824 0.045730624 -0.022536967 0.059816997
0000d0 b4 45 25 3d e5 15 28 3c e7 18 2d bd 2a 21 29 3d
       0.040349677 0.010259126 -0.042260077 0.041291393
0000e0 01 d1 0d 3e 38 02 e9 bd 38 d5 7d bd 4c 7c 05 3e
       0.1384926 -0.11377376 -0.06197092 0.13035697
0000f0 d0 a3 1e bc e2 cd ea 3d 07 fb d6 bd 6e 7b 00 be
       -0.009682611 0.1146505 -0.104970984 -0.12547085
000100 ba 68 8e 3d d7 83 98 3d a4 a5 c1 bd ec fa d9 3d
       0.06953569 0.074470215 -0.094554216 0.10643563
000110 e5 c4 65 3d 38 00 d4 3d d9 b5 b7 3c ba 1a a8 bd
       0.056095976 0.10351604 0.022425579 -0.08208223
000120 42 42 4b bc 32 15 05 3e 81 e0 bc bd aa ee 89 3c
       -0.012405934 0.12996367 -0.09222508 0.016837437
000130 1e f4 8e 3d 1b 87 a0 3d 51 2d 0a be 43 d1 a3 3d
       0.069801554 0.07838269 -0.1349385 0.07998898
000140 18 58 c3 bb ec ab aa bc 08 78 e9 bd e5 60 04 3d
       -0.0059614293 -0.020833932 -0.11399847 0.03231897
000150 f9 51 ad 3d df 5e 17 3e 96 4a d5 3d ca ca fe 3d
       0.08462901 0.14782284 0.10414617 0.12441023
000160 36 1c 64 3d 21 a7 bf 3d f7 5d 7c 3d 92 b7 c9 3c
       0.055690967 0.09358049 0.06161305 0.024623666
000170 f6 b9 e7 3d f5 be 9b 3d 27 eb a8 3d 55 94 0b 3d
       0.11314766 0.076047815 0.08247977 0.034077007
000180 49 0f 07 be 7b 73 0e 3e c7 84 59 3d ed 31 19 bb
       -0.13189425 0.1391124 0.053105142 -0.0023375705
000190 41 9b 61 3d 1c 97 86 3d db 30 1e 3d 7d a1 be bd
       0.055079702 0.065717906 0.03862081 -0.09308145
0001a0 1d d4 12 bd 8b 7a de bd df 47 be bc b2 48 8a 3d
       -0.03584682 -0.10863217 -0.02322763 0.06752147
0001b0 60 57 47 bd 92 e0 dd bb f8 ba 7b 3d 26 6d 3b bd
       -0.04866731 -0.0067711556 0.061457604 -0.04575839
0001c0 24 d0 94 bd e2 b0 de 3d a8 3e f1 3c 99 e3 d3 3d
       -0.07266262 0.108735815 0.029448822 0.10346145
0001d0 e8 56 1d be ce b6 18 3e 94 42 89 3d 68 ec 86 3d
       -0.15365183 0.14913484 0.06702152 0.0658806
0001e0 58 f0 46 3c 51 8d 49 bc 1e 92 8a b8 4d 72 a2 3d
       0.012142263 -0.012301759 -6.607569e-05 0.079319574
0001f0 e6 77 e6 bd 40 d2 50 3d b4 c7 87 3d 71 d6 2d bd
       -0.112533376 0.05098176 0.06629887 -0.042440835
000200 d7 2d bf 3c 1d b4 46 3c 2d a0 95 bd da c7 1b bd
       0.023337288 0.012127903 -0.07305942 -0.03803239
000210 f0 80 f6 3a b1 14 48 bd 1b e3 ed bb 3c 7d ea 3d
       0.0018806737 -0.048847858 -0.007259739 0.11449668
000220 62 18 bc 3c 9a bf 81 3d 97 a2 14 3c 8b ba 07 3e
       0.022960845 0.06335373 0.009071968 0.13254754
000230 a3 9a 83 3d 28 aa 8f bd 3c f6 a9 3d 31 9d fd 3c
       0.06425979 -0.070148766 0.082989186 0.030958744
000240 9a 89 9a bd 83 7f dd bc e8 ef b0 bd b7 55 e0 bd
       -0.07545777 -0.027038341 -0.086395085 -0.10953849
000250 ff 5e 12 bd 37 f2 8b bd 3e a3 08 3e fc 26 12 3e
       -0.035735127 -0.06833308 0.13343522 0.14272684
000260 21 ee 03 3e 7e f7 79 bc 8a b7 b6 3d de 5c 81 3c
       0.12883808 -0.015256761 0.08921726 0.015791353
000270 f7 44 14 3e 03 61 b4 bc 27 48 9a bb 3d e3 10 be
       0.14479433 -0.022018915 -0.0047083083 -0.14149185
000280 2c 0d 0b 3e 7d 3b c4 bd 5e 79 a0 3c f4 95 be 3c
       0.13579243 -0.09581659 0.019589122 0.023264863
000290 26 bd b9 bd 62 62 a5 3b 9d 63 e8 bc b3 3b d2 bd
       -0.0906928 0.0050471285 -0.028367812 -0.10265293
0002a0 6f 3e 21 3d 09 99 68 bd db 75 00 be 89 3e ed 3d
       0.039366182 -0.05678657 -0.12544958 0.11584193
0002b0 da 05 9b bd 71 2c 13 3d 2a db 57 3d 36 b4 32 bd
       -0.075694755 0.035931055 0.052699246 -0.043628894
0002c0 e9 be bb bd 98 82 2d 3b d3 6f a7 3d 8c 3c be 3c
       -0.091672726 0.0026475545 0.08175626 0.02322223
0002d0 db 3d 03 be a1 32 dc 3d f4 c3 95 bd a7 ba d9 3c
       -0.12816565 0.10751844 -0.07312766 0.02657826
0002e0 9a 01 a0 bd 54 25 c9 3d f9 21 ec bd 05 4c 78 bd
       -0.078128055 0.09821573 -0.11529917 -0.060619373
0002f0 96 3f fb bc 48 4b b0 bd 67 98 93 bd de 1e 0d 3d
       -0.030669969 -0.08608109 -0.07206803 0.034453265
000300 87 4c 9b 3c 34 9f dc 3c 6f 1b 22 3d 9f 02 b2 3d
       0.01895739 0.026931383 0.039576944 0.08691906
000310 6f b5 1f be c9 c4 f1 bd 35 e8 86 bc 1b 52 0c be
       -0.15596555 -0.11805112 -0.016468147 -0.13703196
000320 1d f9 95 3d a6 76 c9 bd 5e 25 06 be 54 fc c8 3d
       0.07322905 -0.098370835 -0.13100192 0.09813753
000330 a2 b7 65 bd 20 70 d6 bc ea d0 25 be dc 3a 94 bd
       -0.05608333 -0.026176512 -0.16192976 -0.07237789
000340 43 c9 fc bd 0c 51 df 3d d8 90 df 3d 7e 51 52 bc
       -0.12343075 0.1090413 0.10916299 -0.012836812
000350 ef 93 1c 3e 4a d6 0d bd 3c 24 47 3b 69 b5 bc 3d
       0.15290807 -0.03462819 0.0030386588 0.09214289
000360 f5 cb c2 bc bf 05 92 bd f9 4d 8f 3d 45 8b 01 3d
       -0.023778895 -0.07130002 0.06997294 0.03162696
000370 d9 5d 6d bd 31 84 92 bd 78 70 61 bd b9 1b 99 bd
       -0.05795083 -0.0715412 -0.0550389 -0.07475991
000380 6e 57 c8 3c f8 b1 2d 3d 0e 30 5b 3d 34 90 87 bd
       0.024455752 0.042406052 0.053512625 -0.066193014
000390 01 d9 15 3e 63 ea ea 3c 3e f8 ca 3d ac e2 04 3d
       0.14633562 0.028676217 0.0991063 0.032442734
0003a0 0c ff 05 3e fc aa 2f be 16 fc 5a 3d bf be c7 bb
       0.13085574 -0.17155069 0.053463064 -0.0060957368
0003b0 e3 02 84 bd de c4 b1 3d 10 a7 0e be 18 bd 8d bc
       -0.06445863 0.086801276 -0.13930917 -0.017302081
0003c0 92 03 8b bd 16 ed 1d 3e be dd dd 3d b5 94 1e 3d
       -0.0678779 0.15422472 0.108333096 0.038716037
0003d0 0f 81 56 bd d2 32 b5 3d ce d5 d0 bd e5 c8 7e bd
       -0.052369174 0.08847584 -0.1019703 -0.062203307
0003e0 03 26 2d be a1 8e 85 bd d7 03 6b bd 4a 42 85 bd
       -0.16909032 -0.06521345 -0.05737671 -0.06506784
0003f0 c6 db 70 3c de 64 ba 3d 39 55 85 3d 37 de 04 be
       0.014700836 0.0910127 0.065103956 -0.12975393

blocks.0.filter_conv.conv.bias f4 [64]
000000 c1 ed 27 bc b3 de 5e 3c 36 39 2f bc d8 4c 7c bb
       -0.010249556 0.0136029 -0.0106947925 -0.003849795
000010 8c cb 45 3c 32 9b 00 3c 42 7c 68 3c 21 24 e4 bb
       0.012072455 0.007849501 0.014189782 -0.0069623147
000020 9a 1c c1 ba d9 3e 9a 3b 4b ec 3a bb d0 29 24 3a
       -0.0014733255 0.004707199 -0.002852219 0.0006262334
000030 2b d1 d3 3a 15 bb 8c 3a d4 27 42 3b d9 71 94 3b
       0.0016160359 0.0010736907 0.002962579 0.0045301733
000040 84 f7 33 bb b6 6f 9b bb 4f 6d 4d b9 a6 9a 33 bc
       -0.0027460763 -0.0047435416 -0.00019591044 -0.010962164
000050 8d e6 93 3b 89 38 ab bb 14 71 e9 ba dd 47 c4 bb
       0.004513568 -0.0052252454 -0.0017810189 -0.005990012
000060 5f 23 11 3b 06 7e 40 bc 28 95 8c bb 04 ac af bb
       0.0022146327 -0.011748796 -0.0042902417 -0.005361082
000070 4b 5c 3a bb 92 93 a8 3b 8a 2a 16 bc b8 54 31 3c
       -0.0028436359 0.005144545 -0.009165416 0.010823421
000080 9f 8f 3c 3a 97 41 33 bb 5f f4 04 3b 3d 54 42 bb
       0.0007193032 -0.0027352327 0.0020287258 -0.002965226
000090 bc 83 ad 3b db 46 1e 3b 1d 5a 9a bb 77 58 ce bb
       0.005295245 0.002415112 -0.0047104494 -0.006297167
0000a0 8c 26 76 bb 0e b8 35 bb 47 4f 8a bb 42 4c 94 3b
       -0.0037559597 -0.0027728113 -0.0042208764 0.004525692
0000b0 fb 78 00 bc b4 41 27 ba 57 df df 3a 8a 93 a0 3b
       -0.007841344 -0.0006380335 0.001708011 0.0049004005
0000c0 4d 56 ba 3b 9c a4 fd 3a aa 3a 24 3a 6a a9 8d 3b
       0.0056865574 0.0019351426 0.0006264845 0.0043231742
0000d0 d4 71 79 3b b2 52 41 bc 83 a9 1a 3b 28 4f f5 ba
       0.0038062232 -0.011799501 0.0023599572 -0.0018715607
0000e0 4a 3c e7 3a c2 e9 91 39 a1 7d 5e 39 5e 56 1d bc
       0.0017641869 0.00027830718 0.0002121837 -0.009603111
0000f0 9b cf ba 3b 5c e6 cd 3a ff c6 74 bb b4 5d d0 ba
       0.005701018 0.0015708911 -0.0037350056 -0.0015897066

blocks.0.gate_conv.conv.weight f4 [64, 64, 1, 2]
000000 5e e4 04 3e 8c fb de bb a5 32 a3 bb 45 d0 b5 bd
       0.1297774 -0.006804889 -0.0049804025 -0.08877615
000010 83 7d e9 3d c9 17 f7 bd 90 59 c5 bb d9 c1 12 be
       0.114008926 -0.120650835 -0.0060226396 -0.1433176
000020 04 c1 6c bd be 6b d3 3d 76 78 a1 bc 98 09 ee 3d
       -0.05780126 0.103232846 -0.01971076 0.116229236
000030 ab b2 be bd 4d 1d 6e bc a2 4d 44 3a a9 dc 88 bd
       -0.09311422 -0.014533353 0.0007488375 -0.066827126
000040 bf 15 0d be 48 85 59 bc 27 e1 d4 bd 8b bc 02 bc
       -0.13777827 -0.013276406 -0.10394507 -0.007979522
000050 8c d3 5d 3d f6 e4 b1 3d 1e 3b cb 3d d1 78 93 3d
       0.054156825 0.08686249 0.09923385 0.07200778
000060 17 b9 89 bd 76 f0 39 3d b2 1e 16 be 6e ce a1 bc
       -0.06724756 0.045395337 -0.14660147 -0.019751754
000070 c6 cd 95 3d f4 1d 11 be 88 e1 d1 bc fa ba bd bd
       0.07314639 -0.14171582 -0.025620237 -0.092641786
000080 b3 c2 a4 3d da 51 8a bd fd 36 fe bd c3 2c e8 bd
       0.080449484 -0.06753893 -0.12412832 -0.113366626
000090 fb ef 8e 3b ac c3 15 be 57 6b 1f bd a0 59 1d 3d
       0.004362104 -0.14625424 -0.038920727 0.03841555
0000a0 9f 46 63 bd ec cb 0d 3e 6d b9 e5 bd 2e 29 28 bd
       -0.05548727 0.13847321 -0.11217008 -0.041054897
0000b0 c8 69 e5 bc de f0 01 3e 38 9f bb 3d c9 28 22 be
       -0.028004542 0.1268954 0.09161228 -0.15835871
0000c0 d3 11 63 bc 8f b7 e2 bd 98 4e 23 3e 09 ae 82 3d
       -0.01385923 -0.11070167 0.1594795 0.06380851
0000d0 a9 12 e7 3d 70 b1 24 bd b2 51 37 bd 36 cb cf 3c
       0.11282856 -0.04020828 -0.044755645 0.025365453
0000e0 c3 7a 5f 3d 03 08 ae 3d 16 a7 e7 3d ea 56 d1 3d
       0.054560434 0.08497622 0.11311166 0.10221656
0000f0 56 36 16 3e 8c 32 c2 3d 66 01 0b 3e 59 1d 0c be
       0.14669165 0.09482297 0.13574752 -0.1368307
000100 f6 11 8f 3d 1a 44 0d 3e cb 86 0b 3e 33 8d 99 bd
       0.06985848 0.1379551 0.13625638 -0.07497635
000110 db 0b e5 bc 19 99 b6 bd f5 47 24 bd c3 13 21 3e
       -0.027959755 -0.0891592 -0.040107686 0.15730195
000120 13 8a e1 3d 3b dc 0d be aa d1 ac 3a 1e 36 40 bd
       0.11012664 -0.13853543 0.0013185043 -0.04692661
000130 36 40 d1 39 27 c8 b4 3b f3 19 eb bd 29 da be bd
       0.00039911427 0.005517024 -0.11479559 -0.093189545
000140 5b e9 52 bd a9 8f 54 3d 21 aa 0b be 90 4e 23 bd
       -0.051492076 0.051894818 -0.13639118 -0.039869845
000150 d8 84 17 3d 8b 8c b9 bd 5a 32 1e bd 12 b7 0a 3e
       0.036991924 -0.090600096 -0.038622238 0.13546398
000160 df 16 af 3d be 76 ea 3d 03 d0 a5 3c 07 e4 b1 3d
       0.08549284 0.114484295 0.02024079 0.08686071
000170 a8 60 c1 3d 65 05 fe 3d 69 3d b6 bd bf e7 1f 3e
       0.09442264 0.12403373 -0.08898432 0.15615748
000180 8e db 7c bd f6 70 06 bd fe 2b d4 3d eb 4e 98 3d
       -0.06173282 -0.03282257 0.10359953 0.074369274
000190 10 83 ba bd ed d9 05 be 51 62 bd 3d fb 5e 43 bd
       -0.091070294 -0.13071413 0.09247268 -0.047698002
0001a0 aa 18 98 bc 6a 7c 17 be fd 22 da 3d 98 e9 85 bd
       -0.018566448 -0.14793554 0.10651205 -0.06538695
0001b0 a0 98 cf 3d 5b 4c a3 bd 1c af ec bc c0 86 fe bd
       0.10136533 -0.07973548 -0.028892092 -0.12428045
0001c0 97 28 81 bd 70 6f ec 3b bf f2 b5 bc b7 fc f2 bd
       -0.0630657 0.007215433 -0.022210477 -0.11864608
0001d0 9f 76 9c 3c fa f5 0e bc c0 8e d7 bd 98 b6 7c 3c
       0.019099532 -0.008725638 -0.10525274 0.015424393
0001e0 4e 60 cd bd e8 ee 02 3e 6e 12 cf 3c c3 f7 04 3d
       -0.10028134 0.12786448 0.025277343 0.032462846
0001f0 60 72 b8 bc 3f cc 02 3e 8e 79 c5 3d 73 5c 87 bb
       -0.022515476 0.12773226 0.09642325 -0.004130894
000200 fd ff 66 3d 64 cd 1c 3e d0 8e f7 3d b8 aa a4 bd
       0.056396473 0.15312725 0.12087786 -0.080403745
000210 72 9e 13 3e 9e 54 fb bd 7f bf b2 3d 05 ba 43 3d
       0.14415911 -0.12271999 0.08727931 0.047784824
000220 45 13 8a 3c a2 6b b9 3d 58 46 27 be 00 fc 13 be
       0.016854892 0.090537325 -0.16335428 -0.14451599
000230 0b 25 89 3d 47 5c 93 bd 83 e3 14 be 37 e8 04 3e
       0.066965185 -0.07195335 -0.14539914 0.12979208
000240 81 52 4f bd ac 5e d4 bd 07 f4 d6 3d 32 1d d9 bd
       -0.05061579 -0.1036962 0.10495763 -0.10601272
000250 f4 41 f8 39 97 1c 7d 3c 9c ed 72 bd 4a b2 04 3e
       0.00047351385 0.015448711 -0.059308633 0.12958637
000260 a2 bd 02 be ea 6d 8c 3d d5 be c6 bc 10 b3 01 3e
       -0.12767652 0.06856902 -0.024260918 0.12665963
000270 f1 e7 e5 bc 75 76 b0 bd dd 27 ea bd f6 e7 89 3c
       -0.0280647 -0.08616344 -0.114333846 0.01683424
000280 a0 9d 8e bd f9 58 8b 3d 99 8e 01 be 4b 8b 9d bd
       -0.06963658 0.068040796 -0.12652053 -0.07692584
000290 d8 f2 8c bd 03 5d 9b 3d 28 19 18 be ec 3f 4a bd
       -0.06882256 0.075861 -0.14853346 -0.049377367
0002a0 5b 6a 8a bd a0 a0 82 bd e2 3e 5e 3d 55 45 cb 3d
       -0.06758567 -0.06378293 0.05425919 0.099253334
0002b0 ae f0 1d be 7f 8a ea 3c 92 2e bb 3c ba 17 7f 3d
       -0.15423843 0.028630493 0.022849355 0.062278487
0002c0 c0 f6 13 3e c9 60 6d 3d c0 9f 70 3c 90 da 1a be
       0.14449596 0.05795363 0.014686525 -0.15122437
0002d0 a2 30 0b 3e bc 39 d9 3d fe 9d b1 bd 19 8d 45 3d
       0.1359277 0.10606715 -0.08672713 0.048230264
0002e0 cc 35 df 3d d1 9f b5 3d bf 6a aa bd 7d bf 8a bc
       0.10898933 0.08868373 -0.083211415 -0.016937012
0002f0 01 87 0f 3e 4b cf be 3d 1c 47 a4 3a 04 d6 f0 3d
       0.14016344 0.09316882 0.0012533399 0.1175957
000300 50 5c d3 bc da 15 d7 bc 6d 6f eb 3d ae 6c 86 bd
       -0.025800854 -0.026255537 0.11495862 -0.06563698
000310 50 50 74 bd 4f dd e0 bd d7 f6 16 be 92 1e cc 3d
       -0.059646904 -0.10979711 -0.147426 0.09966768
000320 73 39 73 bd ef d8 8e bc d0 dd 0c be f3 e4 99 bd
       -0.05938096 -0.017437426 -0.1375649 -0.07514372
000330 b7 67 5d bd 5f ba 28 3e b2 24 34 bd 04 41 36 3d
       -0.05405399 0.16477345 -0.043980308 0.044495597
000340 8c 52 0c be 8c e2 82 3d 8c 02 a3 3c 7f 2b f7 3d
       -0.13703364 0.06390867 0.019898675 0.12068843
000350 01 13 c8 3d 06 af cd bd c1 24 7d bd 2c a5 02 3e
       0.0976925 -0.10043149 -0.06180263 0.1275832
000360 aa 29 b6 3d cc da 90 bc 72 f7 df 3d 6b 00 ca bd
       0.088946655 -0.017682455 0.10935868 -0.09863361
000370 cc b4 88 bd 07 5e 22 bd e1 4a 09 bd 1a 50 19 3d
       -0.06675109 -0.039640453 -0.033518676 0.037429906
000380 33 b8 9b bd 05 cd 96 bc 2b 92 48 3d 8b 47 dc bd
       -0.076034926 -0.018408308 0.04896752 -0.10755833
000390 8e b2 95 3c 64 17 14 be e5 7e 12 be 80 6b f6 bd
       0.018273618 -0.14462048 -0.14306219 -0.12032223
0003a0 50 c2 90 3d 40 9e 7d 3d 39 64 b3 bd e0 69 6a 3d
       0.07068312 0.061918497 -0.0875935 0.057229877
0003b0 87 2c 0e 3e 7b c3 3f bd 07 7f 1e 3e 13 a2 53 bd
       0.13884173 -0.046817284 0.15478145 -0.051668238
0003c0 32 c8 cb bd cb 61 71 3d 9c d1 12 3c a5 b0 c7 bc
       -0.099502936 0.058931153 0.008961108 -0.024376223
0003d0 6b e9 df 3d a0 a5 aa 3d f9 8b 9b bb e8 85 06 be
       0.10933193 0.08332372 -0.0047469107 -0.13137019
0003e0 91 b3 32 3d e1 1a b7 3d bc 69 db bd 6e f3 b4 3d
       0.04362828 0.089406736 -0.107135266 0.08835493
0003f0 6e 23 ca 3d 45 3b 4c 3d f2 6c 13 3e b6 50 00 be
       0.09870039 0.04986121 0.14397028 -0.12530789

blocks.0.gate_conv.conv.bias f4 [64]
000000 aa b9 4e bc e2 06 b2 3c dc 7a 43 bc 18 4a 21 3b
       -0.012617508 0.021731798 -0.011931147 0.0024610814
000010 79 38 8d bc 0c 70 58 bc d4 5d 8b bb 43 27 1a 3b
       -0.017238842 -0.013210308 -0.0042531285 0.0023521937
000020 fe d9 6f 3c 67 a4 ab 3b 57 ef a2 3b 03 ed 4e 3c
       0.014639376 0.005238104 0.004972379 0.01262975
000030 b7 e9 ed 3b fb 28 5a bc 7d d3 ff ba 79 ca 18 3c
       0.007260527 -0.013315435 -0.0019517984 0.009325617
000040 97 15 29 bb a9 09 8b bb ff 36 1e 3c a8 a6 b8 3a
       -0.0025800222 -0.004243095 0.009656667 0.0014087753
000050 f3 ad 01 3c 31 39 12 3c e8 a2 1a 3c 74 a3 67 bc
       0.007915008 0.008924768 0.009438254 -0.014138091
000060 69 fc 4e 3a 4b d0 65 3c b8 43 8e bc b7 93 9c 3c
       0.00078958884 0.014026712 -0.017366275 0.019113405
000070 0f d0 e1 bb 93 be f3 3b cf 0b bd bc 7a a1 d0 ba
       -0.0068912576 0.0074384897 -0.02307692 -0.0015917264
000080 ca db 3a 3b 13 61 4e bc c4 00 d9 bb 41 1b 20 3c
       0.0028512352 -0.0125963865 -0.0066224057 0.009772123
000090 79 96 96 bb bf de 75 bc 3d b6 c1 3b c0 07 26 b9
       -0.0045955745 -0.01500672 0.005911617 -0.00015833881
0000a0 72 db 4e ba c9 f5 91 3c e7 4a 94 bb 2d f0 07 3c
       -0.0007890976 0.017817395 -0.0045255306 0.008297008
0000b0 d1 bd 68 bc ca 83 7a 3c 4b 2c 22 bb e0 26 26 3c
       -0.014205412 0.01529021 -0.002474564 0.010141104
0000c0 e9 fc 6e 3c fc 16 12 bc bf 84 05 3c a9 95 df bb
       0.014586666 -0.008916613 0.008149325 -0.006823261
0000d0 a5 81 9a 3b 74 a2 8f 3c c2 d8 bc bb 28 3a 8f 3b
       0.004715162 0.017533518 -0.005763144 0.0043709464
0000e0 c4 6d 5e ba 4a 59 41 bc b1 de 01 3c ce 4f 90 bc
       -0.0008484984 -0.011801073 0.007926629 -0.017616179
0000f0 21 99 ef bb a6 8a 9d bc 0e 7f 47 3c 54 0c 2f 3c
       -0.0073119556 -0.019231152 0.012176288 0.010684092

blocks.0.residual_conv.weight f4 [64, 64, 1, 1]
000000 01 23 3c 3d 85 0b 0e 3d 9d 4c 4b 3e 05 e9 38 3e
       0.04593182 0.034678955 0.19853444 0.1805764
000010 18 e5 2c 3e 7b af 15 3e 59 43 18 3e 52 4d d5 3d
       0.16884267 0.14617722 0.14869441 0.10415138
000020 db 54 ac bb d7 09 37 3d 67 84 69 be f4 ed 1b be
       -0.005259139 0.04468712 -0.22804414 -0.1522749
000030 8c d7 41 3e 29 45 3d 3d 57 5f 68 bd 00 72 b4 bb
       0.18929881 0.046208534 -0.05673155 -0.005506754
000040 03 cc 95 bb 97 91 c0 3d b6 8d e3 3d a9 dd 4a be
       -0.004571439 0.09402769 0.111110136 -0.19811119
000050 ca 09 29 be 0f ce 8b bd 37 ae eb b9 12 db 14 be
       -0.1650764 -0.06826412 -0.00044952493 -0.14536694
000060 35 bf 40 3e fb 62 55 bd ce fb 4c be 33 10 2e 3e
       0.1882294 -0.05209635 -0.20017931 0.16998367
000070 ee c9 41 3e df 32 fb bd 42 70 0d be f1 90 01 be
       0.18924686 -0.12265562 -0.13812354 -0.12652947
000080 d4 52 37 3e 63 e7 07 be e8 20 25 be 5b 7c d3 3d
       0.1790269 -0.13271861 -0.16125834 0.10326453
000090 0c 02 90 3d 1c 73 16 be 3f c8 45 be 08 da a7 bd
       0.070316404 -0.14692348 -0.19314669 -0.08195883
0000a0 6c 21 08 3e e8 d3 4d bc 3a 3d 4b 3e e6 d7 67 be
       0.13294 -0.012562729 0.19847575 -0.22640952
0000b0 96 95 11 3e 57 8f e0 bd 06 07 36 3e 36 b7 b9 3c
       0.14217219 -0.1096484 0.17776117 0.02267037
0000c0 77 e4 37 bd c0 8a 16 be 50 8f 4b be 23 37 9e 3d
       -0.044895615 -0.14701366 -0.19878888 0.0772536
0000d0 89 24 ca 3d ca 82 4a 3e 13 6e f5 bd d6 8f f8 bc
       0.0987025 0.19776455 -0.119838856 -0.030342024
0000e0 6e 45 16 be 47 5a 9a 3d a8 69 79 bd 95 bf a1 bc
       -0.14674923 0.0753675 -0.060891777 -0.019744674
0000f0 77 18 28 be 28 d1 43 be 2c 82 15 3e de d6 0f be
       -0.16415583 -0.19122756 0.14600438 -0.14046809
000100 2a 3b 4a bd 71 4b 8b bd de 03 e6 3b 67 1f 15 be
       -0.04937283 -0.06801499 0.007019504 -0.1456276
000110 a2 7f 70 bd b5 8f 18 be ac ba 43 bd dd ff d9 3d
       -0.05871547 -0.1489857 -0.047785446 0.10644505
000120 72 fc 81 3d 73 b3 48 be fb b1 08 3e 76 47 3f 3e
       0.06346978 -0.19599704 0.13349144 0.18679604
000130 2a 61 c6 bd 2d 49 32 bd 9f b2 4d be 73 84 b8 bd
       -0.09686501 -0.043526817 -0.2008767 -0.09009638
000140 60 f9 f1 bd 85 d7 ac bd 4e fb 15 3e 4f ed 46 be
       -0.11815143 -0.084395446 0.14646646 -0.19426464
000150 75 62 2d be 95 57 e2 bd ac b1 3d be 0b 30 ed 3d
       -0.1693209 -0.11051861 -0.18524808 0.11581429
000160 97 52 24 3e 8a 54 23 3e db c8 dd 3c 02 57 ba 3d
       0.1604713 0.15950218 0.027073314 0.09098627
000170 38 23 93 bd 86 aa c5 3c 3c 1a c2 3c af e2 c7 bd
       -0.07184452 0.024129163 0.02369415 -0.09760033
000180 d0 4e 0f bd 73 78 27 3d 2f 2b 46 3e 37 b2 3e bd
       -0.03498727 0.040886354 0.1935241 -0.046556678
000190 27 80 a6 3c dc ae c4 bd 35 51 9f bd ec 50 12 bd
       0.02032478 -0.09603664 -0.07779161 -0.035721704
0001a0 74 80 b7 bd 37 5f 84 bc e2 91 2b be 17 a3 36 bd
       -0.08960047 -0.016158683 -0.16754869 -0.04458913
0001b0 e4 66 c1 3d 58 4d ff bd 8c 70 15 3c 83 c6 45 3e
       0.09443453 -0.12465924 0.009121072 0.19314007
0001c0 91 45 1e 3e 19 31 3d 3e 1a ca 4b bc 71 de 2e bd
       0.15456225 0.1847576 -0.0124383215 -0.042692605
0001d0 a1 df 98 bd 92 05 c7 bc 0c ed d8 bd 6e 4e 4b be
       -0.07464529 -0.024294648 -0.10592088 -0.19854137
0001e0 3f 83 3c be d8 69 49 3e 37 8d 1d 3e b9 d2 48 bd
       -0.18409441 0.19669282 0.153859 -0.049029086
0001f0 79 b1 75 3d 3f 04 db bc 6f 9e e1 bd 2c 33 6b be
       0.059983704 -0.026735423 -0.11016547 -0.2296874
000200 fc 93 9d 3b 77 2b 07 bb 1f 6c 3a bc b3 5a 5b bd
       0.004808901 -0.0020625272 -0.011378317 -0.053553294
000210 6a ef d2 bd fb 0a be bd 0d 84 42 3e 8d fb e7 bd
       -0.10299571 -0.09279438 0.18995686 -0.113272764
000220 ee b9 d5 bd 62 6a d0 bd 8b 58 3b be ec 44 ca 3c
       -0.10435854 -0.10176541 -0.18295495 0.024691068
000230 23 a7 b5 3d e4 31 99 bd 16 eb f3 3d 18 83 f5 3d
       0.088697694 -0.07480219 0.119100735 0.11987895
000240 39 41 55 3e 2e 9f 5a bc 61 51 e3 bb 98 29 47 3e
       0.20825662 -0.013343615 -0.0069371914 0.1944946
000250 df 77 0c 3e f9 9b 32 be b9 32 28 bd 70 14 5d 3e
       0.13717602 -0.17442311 -0.041063998 0.21589828
000260 c0 1e 32 3e 1e e0 fc bd df 7d b6 bd 77 d5 85 3d
       0.17394543 -0.123474345 -0.08910727 0.06534856
000270 f5 93 a1 bc f3 93 3c 3d ab 88 10 3d 3e af 0b bd
       -0.019723872 0.046039533 0.035286587 -0.03410267
000280 3b 98 3f 3e a5 50 31 3e 09 a8 46 be 29 69 36 3e
       0.18710415 0.1731592 -0.19400038 0.17813553
000290 45 d3 56 3e 47 af e6 bd 9a 50 ca bb e3 71 3b 3c
       0.2097903 -0.112639 -0.0061741592 0.011440727
0002a0 d9 6e 97 bd a6 fb dc bd 54 50 a9 bd de 0e 18 3e
       -0.073941894 -0.10790186 -0.082672745 0.14849421
0002b0 5e 57 6e be da 2a 22 bd 3a 0f 6c bd 01 c5 4c 3e
       -0.23275515 -0.039591648 -0.05763171 0.19997026
0002c0 83 98 4f bd 63 21 39 be 97 2e b3 bd e9 dc 0c 3e
       -0.050682556 -0.18079142 -0.08749121 0.13756146
0002d0 9b 27 15 be 60 c3 26 be a2 ea c5 bd 6f 0e 20 3e
       -0.1456589 -0.16285467 -0.09663893 0.15630506
0002e0 a5 6b eb bd 75 2c 45 bd a9 31 0d 3d 15 99 23 3e
       -0.11495141 -0.0481381 0.034471188 0.15976365
0002f0 81 5f 7d 3d 0a bd 4e 3e c7 34 18 3e 38 65 2b bd
       0.061858658 0.201893 0.14863883 -0.041844577
000300 ea ff 01 3e 10 fa a2 3d a1 2e 33 be 2e d7 97 3c
       0.1269528 0.07957852 -0.17498256 0.018535223
000310 ed fd 35 be d3 20 c1 3c d6 13 ad bd a8 3e 0c be
       -0.17772646 0.023575222 -0.08451049 -0.13695776
000320 11 39 29 3c 71 ab ac bd a6 20 1d be 12 b5 e2 bd
       0.010328547 -0.08431137 -0.15344486 -0.11069693
000330 ec 26 32 be 00 c9 0d 3e 4b 70 ec bc ef 1e 48 be
       -0.1739766 0.13846207 -0.02886214 -0.1954305
000340 e2 72 1d be b7 6d c2 3d 79 87 fd bd 93 2c d5 bd
       -0.15375856 0.09493583 -0.12379355 -0.104088925
000350 ff 5c 4d be fd c8 14 3d 0c 51 19 3e 4a f9 60 3e
       -0.20055006 0.03632449 0.14972323 0.21970096
000360 1c a3 22 bc cc 35 1a 3e 92 50 a4 3d b3 97 da bd
       -0.009926584 0.15059584 0.0802318 -0.106734656
000370 88 81 18 3e ba 1b e1 3c 2c dc 86 bd 02 c4 31 bd
       0.14893162 0.027479041 -0.06584963 -0.04339982
000380 7f f3 1b 3e 7b 0c 42 3e ac f3 40 3d 4d 5d 97 3d
       0.15229605 0.18950073 0.047107384 0.073908426
000390 02 f3 82 bd 05 55 11 3e 7b 7e 14 3e dd 6b 8b bd
       -0.06394006 0.14192589 0.14501373 -0.06807683
0003a0 0d 36 8b bd fb 6f 4e 3e f5 1e 0a 3c 40 fe 3b be
       -0.06797419 0.20159905 0.008430232 -0.18358707
0003b0 63 77 2b b8 0d d1 d1 3d 1b 3c 85 3d 11 23 e4 3d
       -4.0880765e-05 0.102449514 0.06505605 0.11139501
0003c0 00 4d 17 3d c8 2a 63 bd 1e 0c 3a bd 26 bf a0 bc
       0.036938667 -0.05546072 -0.045421712 -0.019622397
0003d0 d4 bd d1 3a 48 59 58 bc 9a 1f 32 bd 81 61 9b bd
       0.0016002008 -0.01320488 -0.04348717 -0.07586957
0003e0 00 f9 f3 3d b2 04 d1 3d 1a 63 07 bd 0f fb 17 be
       0.11912727 0.10205974 -0.033053495 -0.14841865
0003f0 b7 2d 16 bd ff 53 e8 3d df 54 94 3d f1 68 7c 3d
       -0.03666469 0.11344146 0.072427504 0.061623517

blocks.0.residual_conv.bias f4 [64]
000000 56 3e 25 3a 56 d1 ca 3b 1e b1 a3 3c c9 22 21 bc
       0.0006303539 0.0061895056 0.019981917 -0.009834954
000010 37 93 8f bb 1b 8d c6 3c 4b ee b3 bc 9a e6 1f bd
       -0.004381563 0.024237206 -0.021964213 -0.03903828
000020 1c 68 a8 bc ab 13 2c 3d 9e 25 ec 3b 0a 31 a5 bc
       -0.020557456 0.042010944 0.0072066328 -0.020164985
000030 ca 60 f6 bb 5e 4f 8a 3c 74 fb 21 3d 5d 0a bd bc
       -0.0075188624 0.016883548 0.039546445 -0.02307623
000040 5f 36 a0 3a 25 29 18 bd 61 d7 53 3c c4 d3 ac bc
       0.0012223235 -0.037148613 0.012929768 -0.021097071
000050 4c 3e d3 3b d8 59 a8 3b a1 48 3e bc 89 e4 4a 3a
       0.0064466354 0.0051376633 -0.011613996 0.0007739743
000060 84 b5 b9 3b 17 2a 29 3d e7 81 e0 bb 74 6c 1a bc
       0.0056673903 0.041299906 -0.006851423 -0.009425271
000070 12 d4 c8 3c 0b 13 26 3c 3e fc 52 bc 44 a4 16 3c
       0.024515186 0.010136376 -0.012877522 0.009194437
000080 dc dc 3b 3c 70 3c 70 3c a1 41 44 3c 6e 2a a2 bc
       0.011466231 0.014662847 0.011978538 -0.019795623
000090 a3 4e ed bc a0 7d cd 3c 14 e9 38 3c 57 5e 09 bd
       -0.028968161 0.025084317 0.011286039 -0.033537235
0000a0 5f ce 24 b9 f3 fd 1d 3d 6c f4 83 3c d3 57 06 3d
       -0.00015717138 0.038572263 0.01610776 0.0327986
0000b0 9e d5 3c 3b 66 b9 93 3c 06 73 e8 ba 37 90 03 3c
       0.002881385 0.01803274 -0.0017734475 0.008029989
0000c0 e8 d2 da bc 7e 2c 2d bc 39 bf 21 3d 7c 4d fc 3c
       -0.026711896 -0.01056969 0.039489005 0.030798666
0000d0 ac b1 1f bc ac fc be 3c 97 14 82 3c 4e 39 08 bd
       -0.00974695 0.023313843 0.015878959 -0.033257775
0000e0 87 44 c1 3c 7b 5e 70 bc 19 01 d8 bc 31 6c 3c 3c
       0.023592247 -0.014670963 -0.02636771 0.011500404
0000f0 ed 08 76 3b 97 7e 03 bd 1f 3a b4 bc 99 d4 2d bc
       0.0037541941 -0.032103147 -0.02200037 -0.010609769

blocks.0.skip_conv.weight f4 [128, 64, 1, 1]
000000 da 2a 23 be fd 6b 3d 3e 80 48 e1 3d 25 3a b4 bd
       -0.15934315 0.18498226 0.110001564 -0.08800153
000010 71 16 bf 3c 7e 19 8e bc c6 a0 1c be d6 c3 f9 bb
       0.02332613 -0.01734614 -0.15295705 -0.0076222224
000020 a6 96 96 3b 58 53 fc 3b 79 2a 84 3c 33 1d a8 bd
       0.0045955954 0.007700365 0.016133534 -0.08208694
000030 95 20 31 be 14 74 54 bc 47 7d 8b bd b4 cd 31 3e
       -0.17297585 -0.012967128 -0.06811004 0.17363626
000040 df 29 00 be 79 a3 72 bd 4f de 5a 3d 87 92 1c bd
       -0.12515973 -0.05923793 0.053434666 -0.038225677
000050 99 6f 34 bd 52 6e 93 bd 1c e4 d4 bd e3 eb 31 be
       -0.04405174 -0.07198776 -0.10395071 -0.1737514
000060 a9 f7 ec bd 94 9a a3 bd b5 7f 35 bd 4e 2b 21 3d
       -0.11570675 -0.07988468 -0.044311244 0.03934794
000070 54 c8 eb bd 2a 50 20 bb ea e4 7c 3d 1d c3 f2 bd
       -0.11512819 -0.0024461844 0.061741747 -0.11853621
000080 22 12 d4 3b fa 03 26 3e d6 28 d8 bc dd dc 28 bd
       0.006471888 0.16212454 -0.02638666 -0.041226257
000090 eb 2d 46 3d bd 9c 83 3c e5 82 08 3e f2 39 91 bc
       0.048383635 0.01606595 0.13331182 -0.017727826
0000a0 60 d7 3f bd 4a 80 07 be 2a 53 94 bc 59 68 21 3c
       -0.046836257 -0.13232532 -0.018106062 0.009851539
0000b0 b3 1f 1c bd cc e1 0e bd 9d 52 0d 3e 90 7f 94 b9
       -0.03811617 -0.034883305 0.13801046 -0.000283238
0000c0 f7 27 4e 3c 56 af 04 be e4 56 24 3e 32 3a 86 3c
       0.012582771 -0.1295751 0.16048771 0.016385172
0000d0 17 37 2a be 33 9c f3 bd a9 d2 0e 3e eb 26 ad bd
       -0.16622578 -0.11895027 0.13947548 -0.08454689
0000e0 60 7f 0c 3e 5c f8 d0 bc dd c2 05 be 2a a4 26 be
       0.13720465 -0.025509052 -0.13062616 -0.16273561
0000f0 50 9a fe 3d 32 d2 e2 3d 79 a1 ba bb 84 e4 27 3d
       0.124317765 0.11075248 -0.0056955186 0.040989414
000100 e2 ad 2a 3d 68 22 f9 3d ce 4f 84 3c c4 9c 06 bc
       0.041669734 0.121647656 0.016151335 -0.008216087
000110 6a ee a8 3d 53 80 fd bd 53 79 e3 3d 5c 12 fd 3c
       0.08248599 -0.123779915 0.11107125 0.030892543
000120 df 56 2c 3d d6 19 5e bd 03 94 93 3d 00 cb 64 3d
       0.042075034 -0.054223858 0.07205965 0.05585766
000130 82 ed 24 be 67 8c 01 3e 6c 71 96 3d b2 14 43 bd
       -0.16106227 0.12651215 0.07345852 -0.04762716
000140 61 da fb bd e1 a7 20 3e 0d 88 f3 bd 04 dd 1d be
       -0.12297512 0.1568904 -0.11891184 -0.15416342
000150 e1 7a cf 3c 85 9f e9 3d b4 0e 37 be 47 90 c3 3d
       0.025327148 0.11407379 -0.17876703 0.09549003
000160 d8 35 f9 bd 68 45 f0 3c 5a cb cf bd 47 4b 63 bd
       -0.12168473 0.02932997 -0.10146208 -0.055491712
000170 5c e4 de 3d cb 8e 8f 3d b2 2e 15 bb 10 b9 f8 bd
       0.108834 0.070096575 -0.0022763428 -0.12144673
000180 98 4a c4 bb 1a a7 67 3d e6 78 eb bd 0b 5e 6f 3c
       -0.0059903376 0.056555845 -0.11497669 0.014609824
000190 00 85 f0 bd ee 4b 88 bd 92 b3 14 3d ca 2e a1 bd
       -0.11744118 -0.066551074 0.036304064 -0.078702524
0001a0 43 62 a7 bd 64 f8 b6 bc 81 08 db bd 00 0f ee 3d
       -0.08173039 -0.022335239 -0.10694981 0.11623955
0001b0 2c fa ad 3d d8 96 0b 3e 33 65 21 3e e8 35 f2 bd
       0.08494982 0.13631761 0.1576126 -0.11826688
0001c0 56 e4 be 3d 15 cf c2 3d 0d 7b 09 3e 78 2d 85 3d
       0.093208954 0.09512154 0.13425846 0.06502813
0001d0 58 b4 c7 3d db 62 2d be 47 6d 70 bd 47 b6 8b 3d
       0.09751195 -0.16932242 -0.058697965 0.06821876
0001e0 64 f2 db 3c 1a 40 52 3d ad 6c e7 3d 2d 01 fa 3d
       0.02684898 0.051330663 0.11300025 0.122072555
0001f0 cc 1f f5 3d 11 aa 2e 3d dd 4a 0f 3e 22 97 8b bc
       0.119689554 0.042642657 0.13993402 -0.01703984
000200 2c 57 81 3d e8 00 8c 3d ca 74 52 3d b7 b8 e5 bd
       0.06315455 0.0683611 0.05138091 -0.11216872
000210 a5 b6 68 bc 68 a0 48 bd ba 54 e4 bd a0 f9 29 bd
       -0.014203702 -0.0489811 -0.11148973 -0.041497827
000220 e3 3f be 3c a2 45 42 bd 8d 91 08 3e 37 73 f4 3d
       0.023223823 -0.04742969 0.13336773 0.11936038
000230 49 5c c3 bd 1a 6a ef 3d fc 61 85 3d 5f bf 81 bd
       -0.09539086 0.11690159 0.0651283 -0.06335329
000240 49 95 4d bd 83 c9 f2 3c 8e 0d 1e be e1 21 2c be
       -0.050191198 0.029637104 -0.15434858 -0.16809799
000250 28 4d bd 3d f7 ed c5 3d 1f 83 d0 bd a1 a2 d2 bd
       0.09243232 0.09664529 -0.10181259 -0.10284925
000260 88 eb 71 bd a7 61 1f 3e 3c 1d f5 3d 86 a3 21 3e
       -0.05906251 0.15564595 0.11968467 0.15785035
000270 f6 8e d2 bd 6f 09 9d bd 39 58 81 bd 06 29 e0 bd
       -0.10281174 -0.07667815 -0.06315655 -0.109453246
000280 4c d7 32 3d 41 d7 43 3b 26 25 95 bd 55 a9 6d 3d
       0.043662354 0.002988294 -0.07282476 0.058022816
000290 fe 4b 1d be 16 b4 29 3e ae 83 21 3e b7 f7 71 bc
       -0.1536102 0.16572604 0.15772888 -0.0147685325
0002a0 f0 e5 c2 bd 79 be f2 3c fd 69 10 3e b2 7a 9b 3c
       -0.09516513 0.02963184 0.14102931 0.018979404
0002b0 7b 9f 02 3e e0 ef 2b be e5 21 a7 3c 06 bb 38 3d
       0.1275615 -0.16790724 0.020401904 0.045100234
0002c0 7d a7 1a 3e b1 26 03 3e 10 5e 27 3e 74 81 f6 3d
       0.15102954 0.12807728 0.16344476 0.1203641
0002d0 3f 5e 15 be 24 f3 a1 3d cb 03 e8 bd 01 d3 5c 3d
       -0.14586733 0.079077035 -0.113288485 0.053912167
0002e0 eb 06 6a 3d 22 13 3a 3e f6 3b e9 bd 23 17 ac 3c
       0.057135504 0.18171361 -0.1138839 0.021007126
0002f0 13 71 07 3e ad ca fb bc 65 26 31 3e 76 02 b9 bd
       0.13226728 -0.030736292 0.17299803 -0.090336725
000300 14 66 d2 3d a3 2c 44 bd b5 a3 31 3d 34 a1 d3 bc
       0.10273376 -0.04789413 0.043369014 -0.025833704
000310 e3 a5 ac bd 93 69 41 3e d6 35 39 3e 49 ea cb bd
       -0.08430078 0.1888793 0.18086943 -0.09956796
000320 e6 ca d5 3c aa 40 bb 3d 38 ef 04 be 5b f1 8c bd
       0.026097726 0.09143193 -0.1298188 -0.068819724
000330 fb 0c 88 bd bb 09 1e be 6a 38 1f 3d 50 db 1a be
       -0.06643101 -0.154334 0.03887216 -0.15122724
000340 fd cf b6 bd f6 ed 15 3e d7 aa ee bd 0c b6 d4 bc
       -0.08926389 0.14641556 -0.11653679 -0.025965713
000350 4d 4d 43 be a6 d2 a7 bd 95 f8 b4 bd 85 95 b7 3d
       -0.19072457 -0.08194475 -0.08836476 0.089640655
000360 0d 56 d2 bd af 72 3e 3c 7e b5 03 be 69 eb 6f 3d
       -0.10270319 0.011624022 -0.12862203 0.058574114
000370 37 35 22 bd 2a 24 83 3d 46 62 d4 bd f7 6c d9 3d
       -0.03960153 0.06403382 -0.10370307 0.106164865
000380 20 61 8d bc ca 40 13 bd 56 d0 1f be ec 4b 6b 3c
       -0.017258227 -0.03595046 -0.15606818 0.014361363
000390 c6 70 e4 3c 05 ed 93 bd 90 8e b8 3d ec 19 a1 bc
       0.027885806 -0.07222942 0.09011567 -0.01966568
0003a0 07 12 13 be 5a ca 3d bd 8e 49 14 bc 72 51 ab 3d
       -0.14362346 -0.046335556 -0.00905074 0.08365144
0003b0 42 a0 65 3d b3 8e 3e be f8 ff a9 3d 9a 02 dc 3d
       0.056061037 -0.18609123 0.08300775 0.10742684
0003c0 d4 75 a5 3d d0 fb fc bc e9 19 26 be 85 65 79 3d
       0.080791146 -0.030881792 -0.16220821 0.060887832
0003d0 2f 31 b2 bb c3 3c 1d 3d e5 9b b0 bc e4 b5 f8 3d
       -0.005437992 0.038388025 -0.021558711 0.12144068
0003e0 16 a9 74 3b 4a d4 77 bd b6 53 12 3e bd 0f 8e 3d
       0.0037332228 -0.06050519 0.14289746 0.069365956
0003f0 dd 39 18 be 3a 50 47 bd 71 da af bc f1 28 1c be
       -0.14865823 -0.048660494 -0.021466466 -0.15249993

blocks.0.skip_conv.bias f4 [128]
000000 e6 9d 14 3c 05 08 04 3b e8 8e 75 3a e7 3f f6 ba
       0.009070849 0.0020146382 0.0009367303 -0.0018787355
000010 82 9f 2f 3c 91 f9 d0 3a 20 0b a5 bb a5 b5 93 3a
       0.010719182 0.0015943517 -0.0050367266 0.0011269344
000020 8b 67 51 3c 86 82 17 3b 60 f5 dc 3a 25 ac 2b 3c
       0.012781034 0.002311857 0.0016857795 0.010478054
000030 66 21 06 bc 51 67 2f 3c 17 5c a8 3b c2 c6 0e 3c
       -0.008186674 0.010705785 0.005137931 0.00871438
000040 1f 49 b3 3b 6b fc 50 3b 9f cd 92 bb 93 2f d2 3b
       0.005471363 0.0031888734 -0.0044800784 0.0064143627
000050 48 78 a6 3b 5c 26 8a 3b 41 3c 13 bc 5f c5 a6 bb
       0.0050802566 0.0042159986 -0.008986534 -0.0050894464
000060 f8 8e 8b 3b 08 7b c3 3b 7f 31 cd 3b 0e e7 68 3a
       0.0042589866 0.005965594 0.006262004 0.00088845275
000070 86 80 17 3c 3d 88 70 3a 92 26 c6 3b 43 0a 96 3b
       0.009246951 0.00091755745 0.0060470784 0.00457886
000080 f0 e9 a6 ba f6 65 21 bb 1e 16 44 3b e3 4e c3 3b
       -0.0012734514 -0.0024627424 0.002992041 0.0059603318
000090 da 53 99 bb f8 1e 1b 3c 6d 02 c5 3b fe 05 4d bb
       -0.0046791853 0.009467833 0.006012252 -0.003128409
0000a0 c4 93 d1 3a b5 91 16 3b 57 c3 2d 3b 57 56 cf 3b
       0.0015989472 0.0022975032 0.0026514137 0.006327431
0000b0 ce 7c 02 3c 99 5e 9f 3b 7f 7d 0b 3b 9a 95 f4 3b
       0.007964326 0.004863572 0.0021284518 0.007464123
0000c0 db 7c 95 bb fd be 7c 3c d1 01 47 3c f9 4d 4c 39
       -0.004562003 0.0154263945 0.012146429 0.00019484003
0000d0 e2 bd 47 3b 67 85 b3 3b 62 68 c8 3b ef 6c cd 3b
       0.003047817 0.0054785493 0.006115959 0.0062690894
0000e0 7b 64 9b 3b af 7a b3 3b 4a 4c 47 3c 60 b5 b8 3a
       0.004742203 0.0054772715 0.012164185 0.001409214
0000f0 61 3d 70 3b d2 5e 6e ba 4a 54 1d bc fb cc 87 3b
       0.0036657678 -0.0009093109 -0.009602616 0.0041443086
000100 cf 2c bb 3b fe 3b 35 bb 8c 9d 91 3a 7f d4 13 3c
       0.0057121287 -0.0027654166 0.0011109575 0.009022831
000110 aa 86 62 bb 18 e3 c1 3a 0f 34 6c 3b 5f 3b 31 bb
       -0.003456513 0.0014792411 0.0036041772 -0.0027043445
000120 04 2b 29 3b b8 0b 5e 3c 8e 47 fa 39 40 79 0f bc
       0.0025812993 0.013552599 0.00047737028 -0.008756936
000130 e6 4a c8 b9 d4 67 63 3c 66 f9 09 bc 16 ae c1 39
       -0.00038202776 0.013879735 -0.008421278 0.00036941533
000140 a6 0e 22 bc 4d 95 7b 3c 74 57 4d 3a 0b 25 67 bb
       -0.009891188 0.01535542 0.0007833161 -0.0035269882
000150 13 20 a2 bb d3 59 2e 3c 74 b7 87 3c a2 42 c7 bb
       -0.004947671 0.010641533 0.01656697 -0.0060809413
000160 25 bc 5a 3c 77 ac 6b 3b 44 2a db 3b a3 24 60 3c
       0.013350521 0.0035960951 0.006688388 0.01368061
000170 4c 03 18 3c 3a 9a 2f bb 2a 8a e7 3b 13 18 9c 3b
       0.00927813 -0.0026794807 0.007066031 0.004763612
000180 ad 82 2a 3b 03 2f 04 3c 96 f0 33 3c cb c7 b0 bb
       0.002601783 0.008067849 0.010982653 -0.005394911
000190 39 93 1e 3c 2b 09 ad 3a aa 2f e7 3b 3b db 93 3b
       0.009678655 0.0013201585 0.0070552425 0.0045122183
0001a0 d6 8f 94 3b b6 5f 42 3a 7f 6c e9 3b dc a6 2f 3c
       0.004533748 0.0007414775 0.0071235294 0.010720935
0001b0 05 96 97 3a 54 ba 81 bb 84 20 81 3b e4 64 5c 3c
       0.0011565095 -0.0039589796 0.0039406437 0.013451789
0001c0 69 94 df 3b dd 16 c7 ba fd ee 24 bc 95 ed 2b 3b
       0.006823112 -0.0015189309 -0.010066745 0.002623414
0001d0 d3 19 c0 bb e6 eb cf bb 06 1c 5c 3b a8 e5 0c 3b
       -0.0058624535 -0.00634526 0.003358604 0.002149919
0001e0 9c 20 06 3b 90 aa ab 3b 95 25 09 3c 89 b6 05 3c
       0.0020466214 0.0052388385 0.008370777 0.008161196
0001f0 22 ba 24 3b cd b1 85 3a b0 3a 13 bc f6 c9 0b bb
       0.0025135358 0.0010200083 -0.00898616 -0.0021330095

blocks.0.bn.weight f4 [64]
000000 c2 e5 81 3f 2d 99 7d 3f 69 e5 7e 3f d0 20 7e 3f
       1.0148242 0.9906185 0.995688 0.9926882
000010 5f f9 81 3f 0d 82 80 3f 7a 63 82 3f 32 b7 7e 3f
       1.0154227 1.0039688 1.0186608 0.99498284
000020 a7 ff 80 3f d4 b3 7e 3f 7d 7b 82 3f 19 44 7f 3f
       1.0078019 0.99493146 1.0193936 0.99713284
000030 8f e4 80 3f e3 04 82 3f fb 9a 7e 3f 7b 77 7f 3f
       1.006975 1.0157741 0.9945523 0.9979169
000040 18 6d 7a 3f 93 1a 7e 3f e6 db 81 3f 1c 1e 7f 3f
       0.97822714 0.992593 1.0145233 0.9965532
000050 1d 46 7f 3f bb b7 81 3f b4 25 7f 3f e1 9a 81 3f
       0.9971636 1.0134195 0.99666905 1.012539
000060 91 2c 82 3f da fe 7d 3f cb 3f 81 3f 7b 3d 7f 3f
       1.016985 0.99217 1.0097593 0.99703187
000070 ad 3d 82 3f 88 6a 80 3f 1b 04 7e 3f 7e ea 80 3f
       1.0175072 1.0032511 0.99225014 1.0071561
000080 41 42 83 3f d1 dc 83 3f 74 c7 80 3f bb 95 81 3f
       1.0254594 1.0301763 1.0060868 1.0123819
000090 42 71 7f 3f 43 44 7c 3f 1c 69 7e 3f 87 75 80 3f
       0.9978219 0.9854166 0.99379134 1.0035866
0000a0 1a c2 7d 3f 63 7d 80 3f 04 ea 7f 3f 5a 78 7f 3f
       0.991243 1.0038265 0.99966455 0.99793017
0000b0 e7 9f 7e 3f e4 71 83 3f 6a 2e 7d 3f 3a 96 82 3f
       0.9946274 1.0269132 0.9889895 1.0202096
0000c0 dc f4 81 3f c6 d3 7e 3f cf 93 7e 3f a6 8d 81 3f
       1.015285 0.9954189 0.9944429 1.0121353
0000d0 09 21 81 3f e5 34 7d 3f 9f 88 80 3f 7a 76 81 3f
       1.0088207 0.98908836 1.0041693 1.0114281
0000e0 86 93 80 3f c4 9a 7b 3f f1 f0 7d 3f f5 30 81 3f
       1.004502 0.9828303 0.9919577 1.0093066
0000f0 35 17 7f 3f d7 8e 81 3f 0d 3d 83 3f 56 12 84 3f
       0.99644786 1.0121716 1.0253006 1.0318096
