TGNN2026/checkpoints_MTGNN1m_auc_3class/fold_03_best.pt (torch, 892145 bytes, 82 tensors)

A_static f4 [3, 3]
00000000: abaa aa3e abaa aa3e abaa aa3e abaa aa3e
00000010: abaa aa3e abaa aa3e abaa aa3e abaa aa3e
00000020: abaa aa3e
0.33333334 0.33333334 0.33333334 0.33333334 0.33333334 0.33333334 0.33333334 0.33333334
0.33333334

in_proj.weight f4 [64, 15]
00000000: 0570 953d e9d1 8c3e 2f9a 48be d381 12be
00000010: aac9 673e 56d7 863d 39db 86be 1fff bb3d
00000020: 6911 343e 9fd3 683e 8075 693e ee17 81be
00000030: 4548 233d d038 9f3d 6599 78be b354 5bbe
00000040: 2317 833e aba9 0ebe ec89 163e 75d9 1b3e
00000050: e39a c53d 58b1 12be 031f 50bd 50b1 8a3e
00000060: 63e4 27bd 83b7 3ebe 76ae 813e e487 833d
00000070: 428b 9b3d 79ac 3c3e 45ed 1bbe 2299 2abd
00000080: 6e34 50be 4383 64be 1012 133d c975 57be
00000090: ae9b 16be d680 453e de5b 183e 81a5 18be
000000a0: 9ddf 04bd 36b7 94bd 7cdb 24bd 4b93 47bd
000000b0: 5ccd 4ebe e68e fbbd 778c 853d 120d 3ebe
000000c0: 49b5 a5bc 08aa 8cbd 6eb2 663e ddb0 1fbe
000000d0: 8599 58be 0f69 6ebe 4122 49be a596 913c
000000e0: 3b92 803e 8b13 40be 24f6 0a3e 0cf3 37be
000000f0: b85c 57be 75df 143e abd2 c93d c0eb 7bbe
00000100: 84f9 883d 0e2b 883e fe0d 55bd 0b9b 77be
00000110: c103 78bc 135c 9cbd 1ff4 8c3e 716c 6b3e
00000120: 05fc 25be 54c6 3a3e 9aee 44be b4b9 1b3e
00000130: 7383 863d e611 3cbe 0cde 45be 9b4c 60bd
00000140: db71 84be 24a6 dbbd 94b2 f7bc 9909 853e
00000150: 1b94 e53c 3680 4b3e 8879 c9ba f221 c43d
00000160: a13c 4d3e e844 c33d 8324 45be e2d3 00be
00000170: 496a 65be f87c 22bd e70c 02be e706 35be
00000180: 1a83 cebd f6b8 9bbd 5f71 563b ec1e 833e
00000190: 06b6 dabd 74c9 0fbe 744b dcbb ef32 0f3e
000001a0: e240 82be 8543 743c 9d8d 58be 59a4 3ebe
000001b0: e88f 32be 3fd5 963d ddfa 30bd a615 bf3d
000001c0: d731 93bd 5f37 abbd 82ca cabd 4c8c b13c
000001d0: 8188 513e 7cc1 b9bd 11c1 ffbd e9dc b63a
000001e0: 9534 383d 87d1 793e efca 343e 767d ad3c
000001f0: 6710 6abe aa1a bdbd 1556 37bd 6fd2 10be
00000200: 3ff5 60be 5eb4 8a3e 1922 00bd 14fe 37be
00000210: 43ee 8cbe 1381 a73d f5e6 4cbe ed02 87be
00000220: 15b9 dbbd 04a6 743e 91f9 5ebd 1592 a53d
00000230: 07e8 7c3e 5f48 dbbd 8472 6e3d d7f2 dd3d
00000240: ce68 8dbe 2abd 8abe ef83 6c3e 32bf 3e3e
00000250: d875 623e 4573 0bbe 423d 53be b8f9 01be
00000260: 0e3e 0cbe d7f6 e9bd 50bb 8f3d 391d 53be
00000270: a89c 51be bf8d 3d3e a7f5 10be 61c7 e53d
00000280: c696 0ebe d386 08ba b564 a93c 5ae6 a93d
00000290: 43b8 7e3e 1362 333e f98a f83d 4b98 6e3e
000002a0: 579d 53be 8bb2 52be b67a e3bd ec9a 8abe
000002b0: ce11 243e 9413 583e 9353 16be 7015 94bd
000002c0: bf7c 6c3e 381e 423e dae7 1dbd 1438 423e
000002d0: 41af 66be 81fa 833e 9308 813e 384f 10bc
000002e0: e285 d0bd 8dd5 d03d 7912 383b 8285 60be
000002f0: efd9 2e3e bfdb 813e d582 2cbd 3321 cb3d
00000300: 86e8 00bc 4cc8 7d3e 4f98 0ebe 7816 38be
00000310: b29d b93d 6125 febc a7a3 d9bd 9b5d 1f3e
00000320: 6ff3 7fbe 50c0 01be bf11 70be 6f80 3f3d
00000330: fe28 3b3e 9529 2a3e d796 43be aa1a 603e
00000340: ae44 d1bc df63 bbbd ac07 5abe 924c e23d
00000350: a317 6bbe 7fac 7bbd 3b25 833e 67e1 25be
00000360: cb26 8bbe 162c 46be 95e7 75be 948a e93d
00000370: e439 e2bc 7f20 09be f331 2bbe 74dc 80be
00000380: 6a0e 563d 6cf9 de3b 10b7 7fbe 3986 5c3e
00000390: 6976 89be 8b75 4cbd a304 6d3e b224 8b3e
000003a0: 3bd2 4fbe 10a2 52be d080 2a3d 2793 ce3b
000003b0: bb4b d1bd c037 23be fa9e ddbd baf8 fe3d
000003c0: 898a 2abe 842c 28be 49b6 353e 8050 04be
000003d0: 5ffb 8abd 12e9 29be 4177 853e 787a 593e
000003e0: 1b71 843e 56a1 5cbd 935c efbd 6970 fd3d
000003f0: 5c62 67be 3ee5 15bd 444e 65bd c331 2bbe
0.07296757 0.275039 -0.19590066 -0.14307337 0.22635522 0.06584041 -0.2633913 0.0917952
0.17584766 0.22736977 0.22798729 -0.2521357 0.039863843 0.07774508 -0.24277265 -0.21419029
0.2560359 -0.1393191 0.1470105 0.15219672 0.09648683 -0.14325464 -0.050810825 0.27088404
-0.04098929 -0.18624692 0.25328416 0.064224035 0.07594921 0.18425168 -0.1522723 -0.041649945
-0.203325 -0.22315697 0.035905898 -0.21041025 -0.14707825 0.19287428 0.14878795 -0.14906885
-0.032439817 -0.07261507 -0.04024838 -0.048724454 -0.20195526 -0.12283115 0.06520932 -0.18559673
-0.020228045 -0.068683684 0.22529003 -0.15594812 -0.21152313 -0.23282264 -0.19641973 0.017772028
0.25111565 -0.18757455 0.13570458 -0.17963809 -0.21031463 0.14538367 0.09854635 -0.2460165
0.06688216 0.26595348 -0.052015297 -0.24180238 -0.015137614 -0.07634749 0.2753 0.22990586
-0.16209419 0.18239719 -0.19231644 0.15207559 0.06568041 -0.18366203 -0.19322985 -0.054760557
-0.25868115 -0.10725048 -0.03023652 0.25983885 0.028024724 0.19873127 -0.0015371302 0.09576787
0.2004266 0.09534627 -0.1925221 -0.12580827 -0.22403826 -0.03966996 -0.12700234 -0.17678414
-0.100835994 -0.07603638 0.0032721383 0.2560953 -0.106792495 -0.14041692 -0.006722862 0.13984273
-0.25440127 0.014908676 -0.21147771 -0.18617381 -0.17437708 0.07364892 -0.043207992 0.09330301
-0.071872406 -0.083601706 -0.099019065 0.021673344 0.20462228 -0.09070107 -0.12487996 0.0013951334
0.04497202 0.24396335 0.17655538 0.021177988 -0.2285782 -0.092336014 -0.04475983 -0.14142774
-0.21968554 0.27090734 -0.031282518 -0.17968017 -0.2752553 0.08178916 -0.20009978 -0.2636942
-0.10728661 0.23891455 -0.054437224 0.080845036 0.24697886 -0.10707163 0.05821468 0.10837334
-0.27619022 -0.27097446 0.23097204 0.18627623 0.22115266 -0.1361819 -0.20628837 -0.12692916
-0.13695547 -0.11424034 0.07018149 -0.20616616 -0.20469916 0.18511103 -0.14156209 0.11219669
-0.13924703 -0.00052080787 0.020677904 0.08295889 0.24874978 0.17517881 0.12135882 0.23300283
-0.20665489 -0.20575921 -0.1110739 -0.2707132 0.16022417 0.21101218 -0.14680319 -0.072306514
0.23094462 0.1895684 -0.03855119 0.18966705 -0.22527792 0.25777057 0.25201854 -0.00880795
-0.10181786 0.101969816 0.0028087182 -0.21925929 0.17075323 0.25362965 -0.04211696 0.099184416
-0.007867938 0.24783438 -0.13925289 -0.17977321 0.09063281 -0.031023683 -0.10626917 0.15563051
-0.24995206 -0.12671018 -0.2344427 0.046753343 0.18277356 0.16617425 -0.1910051 0.21885172
-0.025545444 -0.09149908 -0.21291989 0.11049761 -0.22958235 -0.061443802 0.25614342 -0.16199265
-0.27178034 -0.19352755 -0.24014123 0.11403385 -0.027615495 -0.13391303 -0.16718273 -0.25168192
0.05225984 0.0068046357 -0.24972177 0.21535577 -0.26848152 -0.049916785 0.231463 0.27176434
-0.2029504 -0.20569634 0.04162675 0.006304163 -0.102195226 -0.15939236 -0.10821338 0.124497846
-0.1665441 -0.16423231 0.17745318 -0.12921333 -0.067862265 -0.16592816 0.26067546 0.21238124
0.25867543 -0.0538648 -0.11687579 0.12374956 -0.22596115 -0.036595576 -0.055982843 -0.16718201

in_proj.bias f4 [64]
00000000: 9ec0 a13a 92a4 38bb 4746 273b aa9c 053a
00000010: 9908 d0ba 57f5 53b9 4ef0 2fbb 1132 04bb
00000020: 3caa 1bbb 62cf e7ba 2765 163b f6ea c7b9
00000030: d5a1 56b9 cf98 d93a 5e16 09bb 9914 37bb
00000040: 6e90 a6ba 1c6b 053b 0501 39bb bd7c 373b
00000050: 7a08 f3ba ff36 9f3a cb98 043b 46c8 1bbb
00000060: 6bce cdb9 2808 0b3b 6e22 0abb f32c b4b9
00000070: fdbe c2ba fb5e a6ba 4669 113b 7280 02bb
00000080: 3970 2838 e7b2 093b 335a be3a 1a36 0ebb
00000090: 4ca0 a3b8 b9fc fdb9 cb85 4dba c1e3 07bb
000000a0: 93c2 0abb 6db3 f8ba b7d2 103b a6b9 273b
000000b0: d7e3 e0ba c6dc 813a cff0 b2ba 65c3 203b
000000c0: 0a4f e33a 05ed fe3a ee4c 26bb 5d73 29bb
000000d0: ad0d 863a 0570 54ba 886a 173b b9e6 0f3b
000000e0: dcda 123b 82dc a0ba cb27 16ba cf2e 243b
000000f0: 4406 c4ba 8c62 d0ba e04f 5439 942d 823a
0.001234073 -0.0028174263 0.0025524066 0.0005096892 -0.0015871703 -0.00020213924 -0.0026846114 -0.0020171443
-0.002375259 -0.0017685706 0.0022948475 -0.00038131297 -0.00020468918 0.0016601327 -0.0020917873 -0.002793586
-0.0012707838 0.0020358032 -0.0028229367 0.0027997934 -0.0018541955 0.0012147127 0.0020232673 -0.0023770495
-0.0003925444 0.0021214578 -0.002107765 -0.00034365765 -0.0014857944 -0.0012693101 0.0022187992 -0.0019912985
4.0158837e-05 0.0021011175 0.0014522731 -0.0021699728 -7.802303e-05 -0.00048444213 -0.0007840066 -0.0020735117
-0.0021173104 -0.0018974371 0.0022098252 0.0025592833 -0.0017157745 0.0009907715 -0.0013652089 0.0024530527
0.0017342281 0.00194493 -0.0025375444 -0.0025856115 0.0010227464 -0.00081038504 0.002310427 0.002195759
0.0022408282 -0.0012272748 -0.00057279755 0.0025052314 -0.0014955481 -0.001589851 0.00020247651 0.0009931796

adapt.E1 f4 [3, 8]
00000000: 2f1d 70bb ae5c 1bbb 54c9 3a3c 6941 30bc
00000010: bc30 293c aa6d c03b e319 9dbb 567f 39bb
00000020: eb23 05bc 0c79 82ba 8edd 14bc 0ee3 a2b8
00000030: 331d 81bc b992 66bc 3850 e939 2693 2e3b
00000040: 689e 2f3c f8db a8bc 3a0b e73a 6928 55bb
00000050: 5a2a 903c 311d 393c c34b e73a 0987 8d3c
-0.0036638489 -0.0023706364 0.011400539 -0.0107577825 0.010326561 0.005872448 -0.0047943457 -0.0028304658
-0.008126239 -0.0009954288 -0.009086026 -7.767054e-05 -0.015760994 -0.014073067 0.0004450099 0.0026638
0.010718919 -0.020612702 0.0017627247 -0.0032525307 0.01759832 0.011298464 0.001764648 0.017276304

adapt.E2 f4 [3, 8]
00000000: e385 08bc 0574 2e3b a43d a03c 6064 6cbc
00000010: 8b27 fb3c 02f0 a03c 6120 beba c9a4 be3b
00000020: d85a 84bc 34dc c0bb f5b0 c2b9 7f54 c6bb
00000030: 4c48 013c e0f8 413c 1f41 abbb 1c98 60bc
00000040: 6d12 d7ba da74 17bc 48c8 21bb 4f33 3c3c
00000050: 2e26 8b3b b15c 813c bd51 a83a 8ebc 3f3c
-0.008332702 0.0026619446 0.019560643 -0.014428228 0.030658504 0.019645695 -0.0014505499 0.0058179838
-0.016156599 -0.0058856253 -0.00037134407 -0.006052553 0.007890772 0.011839122 -0.005226269 -0.013708141
-0.001640869 -0.009244168 -0.0024686027 0.011486842 0.0042464947 0.015791269 0.0012841743 0.01170267

support_mix.w_logits f4 [3]
00000000: 46cc d3ba 7cb7 d33a 77a5 d3ba
-0.0016158901 0.0016152705 -0.0016147335

blocks.0.filter_conv.conv.weight f4 [64, 64, 1, 2]
00000000: 508e c1bd 875f 72bc 74bb 823d f722 ea3d
00000010: aff1 6fbd 728f 8fbc a711 ac3c f0b4 e9bc
00000020: c689 61bd d592 f7bd 585d 223d 5c96 2a3d
00000030: ec4b 123e 2325 f9bc bb00 8a3c 4a08 823d
00000040: eb20 813a 5808 e8bd 258e 0b3e 26b0 c13d
00000050: b942 08bd eb1a 0fbe a7b5 66bd 5336 b43c
00000060: 0c73 e63d 1855 e5bc f6e0 b13d d47d c93d
00000070: 525b 1fbd a9cd 76bc 3989 34bd dcf8 b1bd
00000080: 3aa6 cfbd a584 df3d eb75 fa3c d684 a83d
00000090: 60a8 203d bef4 143d 32ad dbbd ed86 073e
000000a0: 2a10 0c3e a4ba f0bd 2366 7d3d 0d8b acbc
000000b0: d83f 18bd d62f 87bc 1eac 053e a34e ec3d
000000c0: 8063 49bd 98e8 f4bd 4ce9 99bd 9333 ec3c
000000d0: e7ee 80bd 90c5 113e a4c1 debd d6a9 5b3d
000000e0: 40b3 a93c 3adb 513d d70f 693b bbe3 04be
000000f0: 7916 03be 9779 0d3e 4bb7 2a3c dffa a3bb
00000100: d03f 8d3b 42fb 013e ce04 b63c fe94 6e3d
00000110: 482c cb3d 3b0c 073e 4ee6 2cbd 2edf 913d
00000120: 3231 5abd 4196 f8bd bbcd e43d 9be5 873d
00000130: 8e53 0c3e de06 c6bd ef21 c4bd 39bf 903d
00000140: 0d5b f8bd 90b9 b2bd 9695 56bd 4208 c73d
00000150: b89e b7bb d4a1 e63c 6110 6bbd 2898 65bd
00000160: b885 1d3e 003a c2bb 5c7d 003e c37c e93d
00000170: be7f cabc 4353 083c ba0d a63c eeca 8a3d
00000180: 30f3 d93d a43a 94bc 5b8b 1abd 5150 993d
00000190: b8c8 af3d dc9c 02bd 702b 4abb 6ac7 a23d
000001a0: 1430 b83d 8b81 2abc d508 d03c 7021 b1bd
000001b0: 3d77 c0bd 2387 693c 5289 c3bd e2c4 173e
000001c0: 6d50 22bd 81ff cabd da79 8c3c a69d 653d
000001d0: aa11 493d dc95 e5bb ef4a 43bd f9d3 73bd
000001e0: 0397 8e3c ee82 8dbd 274f e0bd 0711 713d
000001f0: a303 8dbc efdd 04be 3453 d23d 19ec 7ebc
00000200: 5ca3 b23c 4cd1 313d 3345 4b3d 888b f9bd
00000210: 1570 f33c c390 71bd def3 e2bd 2385 94bd
00000220: 64fe 0e3e 5aa7 5e3d 5c16 b03d e6d9 02bd
00000230: 891d 74bd 8f68 f9bd d80a 4d3d 1d6d f5bd
00000240: cff5 bf3d 8b24 99bd 5404 edbb 9e13 87bd
00000250: 9eb7 943d d5fa 753d 4fe5 d8bd 8869 d4bd
00000260: 7918 5cbc 0855 f43d 4dc4 edbd f469 05be
00000270: a584 e7bd 08d4 0f3e fe51 18be 621b 80bd
00000280: 76f9 d0bd fdd8 b63d bead 3cbd c710 21bd
00000290: acbd aabd 8c61 debc b3b3 f8bb 78c7 e53b
000002a0: 23c2 37bd 52aa 16be 523e 9ebc 422e 2bbd
000002b0: 96ee d5bd 6cc1 db3d ca33 9cbd 0f9a d5bd
000002c0: 8945 35bc b62a b5bc 5897 e4bc 95dc e2bd
000002d0: 7dd7 93bd c481 09be d893 cbbc a00f bebd
000002e0: 982e 67bd b331 043c ee14 d7bd 81c3 3ebd
000002f0: 8b83 9a3d 834b 3cbd 7811 523d 5dc5 783d
00000300: 7ebc 9b3d 2e6e ca3d 8dca 3dbd d842 9c3c
00000310: 6c96 673d 639a d53d f208 e9bc a7ff d8bd
00000320: 595b b83d 15b0 5e3d d3c0 07be 23bd 893d
00000330: 4e55 673d b63d a03d 357e 853d e772 18bb
00000340: e450 053e b759 263d a404 f7bd 8a22 0e3c
00000350: 2e8e 993c be8c 923d baf3 fbbc ebe9 e33d
00000360: faf8 f2bd b463 cbbd f51e 123e 496d aebd
00000370: 6e65 17be 6c85 bebc 2260 9bbc 1158 62bd
00000380: 997a d03d eb40 1fbd 067e 633d 997f 71bc
00000390: 9aba 6abd 23bf 1dbe 070a 073e 785f b8bd
000003a0: f6b8 0dbe 1a4d d0bc 1d9e 13bd eb70 a3bc
000003b0: b59d 6a3d e6bc 06bd 7ef5 193e 067b ce3c
000003c0: 48f0 b5bc 054e d73d 0918 d13d 1236 82bd
000003d0: 0bee d8bd 2b25 ca3d 6224 433d 7c1f 583d
000003e0: 6e3b 1abd a8dd 6bbd 8588 2fbd aaeb 3c3d
000003f0: 1850 debd e3a8 113e 76ef adba 5b4f 96bd
-0.09450972 -0.014793283 0.0638341 0.1143245 -0.058580097 -0.017524455 0.021004511 -0.02852866
-0.05506303 -0.12088553 0.0396398 0.0416473 0.14286774 -0.030413216 0.016846051 0.06349237
0.0009851729 -0.113297164 0.13628443 0.09457426 -0.033266757 -0.13975112 -0.05632558 0.02199856
0.11252412 -0.027994677 0.08685486 0.09838453 -0.03890545 -0.015063682 -0.04407618 -0.08690044
-0.10139127 0.10913972 0.030573806 0.082284614 0.039223075 0.036366217 -0.10726394 0.13235064
0.13678041 -0.11754349 0.061864983 -0.021062398 -0.03717026 -0.016502302 0.13053939 0.11538436
-0.049167156 -0.11958426 -0.07515201 0.028833186 -0.06295567 0.1423552 -0.10876778 0.053628765
0.020715356 0.05123446 0.003556242 -0.12977497 -0.12801541 0.13815914 0.010419677 -0.0050042714
0.0043105856 0.12693503 0.022219088 0.05824756 0.09920555 0.1318826 -0.042211823 0.07122646
-0.053269573 -0.12138034 0.111720525 0.06635591 0.13703749 -0.096692786 -0.09576785 0.07067723
-0.121267416 -0.087267995 -0.05238875 0.09718372 -0.0056036375 0.028153338 -0.057388667 -0.05605331
0.15383041 -0.0059273243 0.12547821 0.114007495 -0.024719115 0.008320632 0.020270217 0.06776987
0.106420875 -0.018094368 -0.037730556 0.07486022 0.08583206 -0.031887874 -0.0030848645 0.079481915
0.08993545 -0.010406862 0.025394836 -0.08648956 -0.09397743 0.0142534105 -0.09547676 0.14821199
-0.03962748 -0.09912015 0.017147947 0.05605855 0.04908911 -0.00700639 -0.047678884 -0.059528325
0.017405992 -0.069097385 -0.10952597 0.05885413 -0.017213648 -0.12975286 0.10269776 -0.01555922
0.021806411 0.04341249 0.04962654 -0.121848166 0.02971653 -0.058975946 -0.1108167 -0.07251956
0.1396423 0.054358818 0.08598015 -0.031946085 -0.05959848 -0.12178146 0.05005917 -0.11983702
0.09373056 -0.07477673 -0.007233182 -0.065955386 0.07261585 0.060053665 -0.10590612 -0.10371691
-0.013433569 0.11930281 -0.11609707 -0.13028699 -0.11304597 0.14045727 -0.14875028 -0.06255223
-0.10203831 0.08928106 -0.04606413 -0.03932264 -0.08336958 -0.027146123 -0.007589781 0.007012304
-0.044862878 -0.1471341 -0.019316826 -0.04179216 -0.10445897 0.10730252 -0.076270655 -0.10429775
-0.011063942 -0.022115093 -0.027904198 -0.11077229 -0.072188355 -0.13428408 -0.02485077 -0.09280324
-0.05644092 0.00806849 -0.10502039 -0.046573166 0.07544621 -0.04597045 0.05128619 0.060735095
0.076043114 0.09884296 -0.046335746 0.019074842 0.056539938 0.104298376 -0.028446648 -0.10595637
0.09001798 0.054367144 -0.1325715 0.06725528 0.056477837 0.078242704 0.06518213 -0.0023261847
0.13019139 0.040612902 -0.12061432 0.008675227 0.018744554 0.07155751 -0.030755866 0.11128601
-0.11863895 -0.09931126 0.14269622 -0.08516938 -0.14784786 -0.02325698 -0.018966738 -0.055259768
0.10179634 -0.03888027 0.055540107 -0.014739894 -0.057306863 -0.15404944 0.13187419 -0.09002584
-0.13840088 -0.02542739 -0.03603946 -0.019951304 0.057279307 -0.03289499 0.15035054 0.025205147
-0.022209302 0.10512928 0.102096625 -0.06357969 -0.10592278 0.098703705 0.04764212 0.0527644
-0.037654333 -0.057584435 -0.042854805 0.046123184 -0.108551204 0.14224581 -0.0013270217 -0.073393546

blocks.0.filter_conv.conv.bias f4 [64]
00000000: c6a2 d7ba 781e 323b 8e1d 303b 6e54 863a
00000010: 098c e2ba 63f1 1fbb d58f f6ba 8138 343b
00000020: 35e2 f1b8 a70d 12bb 2d0f dcb9 1bc4 1abb
00000030: 8c7e 26bb de9a 393a a0f7 1b3b ded7 0cbb
00000040: bf8d 91ba 87d1 c93a ebaf 2639 24c9 b7ba
00000050: ac82 3a39 9625 0dbb 2dfe 11bb e5f6 e93a
00000060: b7a6 dcb8 1172 14bb 279f d63a 9d48 ef39
00000070: 9fe8 cf39 465a 2d3b e6e7 043b ed71 d7ba
00000080: 019c fb3a df90 2ebb 1df7 92ba c44d e0ba
00000090: 95b8 d43a 9639 273b 7c32 52ba fda9 86ba
000000a0: 1a0e 143b 40f4 17bb ce25 323b cbb8 0d3b
000000b0: 5786 faba 2f0b 003b 4c30 0ab9 3a41 2abb
000000c0: 4036 0ebb d407 22bb cf43 28bb 4291 d83a
000000d0: 0da2 1bbb 2d39 a5ba 9025 2abb b37e 0cbb
000000e0: 777e 4dba 4bdf 293b 5408 783a 96dd d13a
000000f0: 9ec8 66ba 460b 1d3b ddf6 84ba f1a8 80ba
-0.0016451709 0.0027178805 0.0026873085 0.0010248551 -0.0017284165 -0.0024405352 -0.0018811176 0.00274995
-0.0001153391 -0.002228597 -0.00041972977 -0.0023615423 -0.0025405018 0.0007080267 0.002379872 -0.0021490972
-0.0011104866 0.0015397527 0.00015896528 -0.0014021737 0.00017787021 -0.0021537296 -0.0022276745 0.001785007
-0.000105214705 -0.0022650997 0.0016374335 0.00045639733 0.00039655433 0.0026451512 0.0020279824 -0.0016437151
0.0019196273 -0.0026636643 -0.0011212562 -0.001711302 0.0016229326 0.0025516502 -0.0008018387 -0.0010274049
0.0022591413 -0.0023186356 0.0027183178 0.0021625038 -0.0019113523 0.0019537916 -0.00013178698 -0.002597882
-0.0021699816 -0.0024723904 -0.0025675183 0.0016522782 -0.0023747713 -0.0012605541 -0.002596233 -0.0021437823
-0.0007838974 0.0025920446 0.000946169 0.0016011472 -0.0008803698 0.0023963018 -0.0010144372 -0.0009815973

blocks.0.gate_conv.conv.weight f4 [64, 64, 1, 2]
00000000: 68d1 da3d 87eb e1bd d3cb 513d 420b 3b3d
00000010: e963 17bd f198 8c3d 5391 ba3d e68c 303d
00000020: bb8a 113d 9fcf 6a3d 79fc 13be 9d5e bf3d
00000030: f425 26bd 98eb af3d 2b9b cfbd 6819 5a3b
00000040: 9eca 67bd aeca e7bd cc03 e5bc 0239 bcbd
00000050: b08c ea3d 51ab 5cbc d8ee 11be fb98 763d
00000060: 569a ee3d 3baa 1bbe 3bed e13d 0416 18bd
00000070: 1fa1 d13d 0ddb 653d bd0b d13b 35cb e3bd
00000080: 2275 7d3d 0335 aebc 0813 033e 5a09 2e3d
00000090: becb 193e c0bc 153e 4d78 2abc 47f0 c23d
000000a0: 52fc bc3d 81de 18be ca1b edbd 09b0 6ebd
000000b0: e3dd 7c3c e39c 03be 3377 c13a 290f 57bd
000000c0: 3217 34bd d566 1c3e 37a0 f1bd 41f7 863c
000000d0: 7007 b03d f451 1bbe 10d5 ec3d e75d 18be
000000e0: 4316 b0ba a034 15bd dff2 11be 1b1e 5bbd
000000f0: 8469 afbd aed1 10be 16d2 8cbd 8ff0 93bd
00000100: 6d3d 52bd 22e9 92bd 9d01 14bc caec 90bd
00000110: 09d4 d4bd fae6 7cbd e38e ac3d 3fcf 153e
00000120: da5e 51bd acfa c8bd ef88 0b3e a3a1 92bd
00000130: 7f79 c9bc a2dc d2bd 986d df3d 089c dc3d
00000140: a901 5b3d 66b5 cbbd 8058 543d 150c 2a3c
00000150: 7e96 a8bc 472b f33b 4349 ef3c 2654 42bd
00000160: 685d 1c3d 5e05 d8bc 5b65 c4bd 7425 dbbd
00000170: 3440 c3bd 6926 cd3d 59d8 82bd 8e7f 99bd
00000180: 7590 76b9 311a 04be 026e d9bd 4634 f2bd
00000190: dedc e2bb 2261 ebbc 08a1 ebbd 0b87 eabd
000001a0: 62c5 abbc 6fcb 433c d109 e3bd cbfa e23c
000001b0: 475a 06be a012 fe3d 0482 123e a24a e93d
000001c0: c71c b23d 702b fabc 1351 053e d759 fbbd
000001d0: f283 76bd 7472 40bc 336e 63bd a597 7fbd
000001e0: 0d3d 303d 2962 01be 113a 54bd adf2 f5bd
000001f0: 4bbf 063e 3518 dfbd 7da2 9dbd ffff 933d
00000200: 877b 463b c951 debd 0228 b23c ffc8 a7bd
00000210: d272 adbd c7d6 b8bb 4ec8 02bd bd81 08be
00000220: 0aeb 603d b371 8cbd 146d d1bc e44d babd
00000230: bd8e 803d 9f85 913c 94a0 d23c 1ced 58bd
00000240: bbc1 07be f9d4 ad3d 0d7e 91bd 1620 cfbd
00000250: 9156 4a3c ca8e 893c fa21 f4bd c72e d7bc
00000260: 6ecc aabb e649 88bd 98aa 133e b906 5d3c
00000270: 90cb e4ba f44f 0bbe c05b 473d 3106 163e
00000280: db56 ae3d 82c6 b2bd 1765 d03d 1ea3 ac3d
00000290: 18e2 15be f2fa 033d 7e91 0c3e 3253 3a3d
000002a0: a30b ca3d c79e 063e 658f c93c 22d0 0abe
000002b0: 4a26 233d acad f03d f6c5 063e 0584 8abd
000002c0: 33bb 0fbe ddbc ca3d efa4 0b3e 1516 c1bd
000002d0: ecca 44b9 c636 14bc 4a65 a93d d26d bbbc
000002e0: 2a83 b93d 93e8 c7bd 9287 36bd 6605 963d
000002f0: 01c4 193d 5c49 ae3d 7538 103e 236c 53bc
00000300: b806 de3d 440e 313d 6d19 00be dd8b 88bb
00000310: bbb4 dfbd 927b 07be 4bd4 483d 9c76 ffbd
00000320: 0bde b63d 8153 f8bd 2bba 103e 0711 a9bc
00000330: a354 1b3e 7b29 f23d 2c40 1c3e 7ca1 0e3e
00000340: 2362 e33d 0278 e9bd d54b 97bd c8a1 63bd
00000350: 64c6 1abd 12ca d03d b881 2fbd 2d8a 1abe
00000360: c90d df3a 22e9 60bd cd1a 0c3e a8e4 df3d
00000370: c5cd f5bd 99d7 d0bd e12c 7e3d 9332 8339
00000380: 9630 a2bd 3712 6ebd 109d 00be a355 c53d
00000390: 8af7 013e d926 033e a6a3 d63d 4125 edbd
000003a0: f533 10be ec86 603c 4d42 153e 901a ecbd
000003b0: cccb 0c3e ad86 8dbd 50b8 a93d 52c7 ce3d
000003c0: 6b0e 1b3d 813c cb3c 6a37 e9bc 65c5 b93d
000003d0: 5f8e de3d ac0a 553d 323b 8cbc fd15 793d
000003e0: 8755 183e 597d c63d d70a 903d dd01 523d
000003f0: 32e3 78bb 3acf 18be 5684 a1bb 38d3 073d
0.10684472 -0.110312514 0.051219773 0.045665033 -0.036960516 0.06865109 0.0910975 0.04310312
0.035532694 0.05732691 -0.1445178 0.09344218 -0.04056354 0.08589858 -0.10137018 0.0033279303
-0.056589715 -0.11317955 -0.027955912 -0.09190561 0.11452615 -0.013468579 -0.14251268 0.060204487
0.11650531 -0.15201657 0.11031576 -0.03713037 0.102358095 0.056117106 0.006379573 -0.11122743
0.061879285 -0.021265512 0.12800229 0.042489387 0.15019128 0.14622784 -0.0104046585 0.095184855
0.09227814 -0.14928629 -0.11577566 -0.05827335 0.015433761 -0.12852816 0.0014760256 -0.052504692
-0.043967433 0.15273602 -0.11798137 0.016475322 0.085951686 -0.15167981 0.11564076 -0.14879571
-0.0013434369 -0.03642714 -0.14252804 -0.053495508 -0.085650474 -0.14142486 -0.06876008 -0.07223617
-0.05132811 -0.07173373 -0.009033588 -0.07076414 -0.10392005 -0.061743714 0.08425691 0.1462984
-0.051115848 -0.09813437 0.13626455 -0.07159736 -0.024594067 -0.102959886 0.10909575 0.10771948
0.05346838 -0.099467084 0.051842213 0.010378857 -0.020579573 0.0074209305 0.029209739 -0.04744353
0.038175017 -0.026369747 -0.095896445 -0.10700503 -0.0953373 0.10017092 -0.06388921 -0.07495032
-0.00023514203 -0.12900616 -0.106166855 -0.118263766 -0.006923302 -0.02873284 -0.11505324 -0.11451539
-0.020968143 0.011950358 -0.11085857 0.027707478 -0.13120376 0.12405896 0.1430741 0.11391188
0.08696895 -0.03053829 0.13019209 -0.12272995 -0.060184427 -0.011746038 -0.055525016 -0.06240048
0.043026973 -0.12635101 -0.05181319 -0.12009177 0.1315891 -0.10893289 -0.07697008 0.07226562
0.003028603 -0.10855443 0.021747593 -0.08192634 -0.08469166 -0.005640838 -0.031929307 -0.13330741
0.05491165 -0.06857624 -0.025564708 -0.09096888 0.06277225 0.01776391 0.025711335 -0.0529605
-0.13257496 0.08487887 -0.071041204 -0.10113542 0.012349741 0.01679172 -0.11920543 -0.026267422
-0.005212358 -0.0665472 0.14420545 0.013490372 -0.0017455686 -0.13604718 0.048671484 0.146508
0.0851266 -0.087292686 0.10175531 0.0842955 -0.14637029 0.032221742 0.13727376 0.045489497
0.09865501 0.13146506 0.024604509 -0.13555959 0.039831437 0.11751875 0.13161454 -0.06763462
-0.14036255 0.09899304 0.13637136 -0.0942804 -0.00018767611 -0.009046262 0.082712725 -0.022879515
0.09058221 -0.09761157 -0.044562884 0.073252484 0.03754044 0.08510086 0.14084037 -0.0129042
0.10841125 0.043226495 -0.12509699 -0.0041670636 -0.109231435 -0.13230732 0.049030583 -0.12473795
0.0892907 -0.12125302 0.14133517 -0.020638002 0.15169005 0.11824318 0.15258855 0.13928789
0.111027025 -0.11399843 -0.07387511 -0.05557421 -0.037786856 0.10194792 -0.04284832 -0.15091772
0.0017017658 -0.054909833 0.13682099 0.109322846 -0.12002138 -0.10197372 0.06205452 0.00025023948
-0.07919423 -0.05812284 -0.12559915 0.096354745 0.12692085 0.12807788 0.10480432 -0.11579371
-0.1408232 0.013704043 0.14576073 -0.11528504 0.13749617 -0.06910453 0.08287108 0.10096611
0.037855547 0.024809124 -0.028468806 0.09070853 0.10866999 0.05201213 -0.01711807 0.060811985
0.14876376 0.09691877 0.070333175 0.05127131 -0.0037977216 -0.149228 -0.0049291058 0.03316042

blocks.0.gate_conv.conv.bias f4 [64]
00000000: 5c7d 8bb9 2ee1 8e3a a327 d339 9fb2 5f3a
00000010: f5d8 1c3a fe94 693a 1283 6f3a ee5a 2bb8
00000020: 685e 283a 296c 9739 9b30 49ba efa0 66ba
00000030: 9f60 98b9 a228 8d39 468d 26ba 2f03 bb39
00000040: 5f24 e839 d91b 5eba e743 b7ba 3e56 83b9
00000050: c516 5c3a 242c c5b9 a255 e6b9 e48c b8b9
00000060: 60b5 b4ba 0ea3 a939 7f00 8d3a d580 ffb9
00000070: 812d 5339 163d 1b3a f91e 713a 26fa 2c3a
00000080: 3e22 86ba 5b83 f839 3387 d93a 50e0 feb8
00000090: 9aa8 99ba 59d0 243a 4024 d9b9 ddbf 8839
000000a0: 5ac7 d538 3583 27ba add4 e638 10f4 1a3a
000000b0: ba7c 6eba ddf7 263a 53de 343a 44d2 28b7
000000c0: 09f2 5bba 6ddf c8b9 e855 c0ba e31f bd3a
000000d0: b675 83b9 3405 8e3a 0595 3539 9e9d 05b8
000000e0: 979a 79ba ff14 c13a 3882 aaba 21ce a2b9
000000f0: 327e b5b8 2760 03ba e0ac a1b9 a95c 273a
-0.00026605546 0.0010900849 0.00040274588 0.00085333915 0.0005983257 0.0008910446 0.00091366575 -4.0854262e-05
0.0006422759 0.0002888155 -0.0007674784 -0.00087977847 -0.00029063688 0.0002692389 -0.0006353449 0.0003566979
0.00044277587 -0.00084727776 -0.0013982028 -0.00025050523 0.0008395727 -0.00037607655 -0.0004393282 -0.00035200187
-0.0013786964 0.00032355677 0.0010757594 -0.00048733377 0.0002013948 0.0005921883 0.00091980357 0.00065985543
-0.0010233594 0.00047400114 0.0016596079 -0.00012153445 -0.0011723221 0.000628715 -0.00041416474 0.0002608289
0.000101937636 -0.0006390096 0.000110068686 0.0005911002 -0.0009097565 0.0006369332 0.0006899584 -1.0062537e-05
-0.0008390253 -0.00038313438 -0.001467404 0.0014429059 -0.0002507397 0.0010835291 0.00017317019 -3.1856463e-05
-0.0009521632 0.0014730989 -0.0013008779 -0.00031052626 -8.654258e-05 -0.0005011581 -0.00030837115 0.0006384352

blocks.0.residual_conv.weight f4 [64, 64, 1, 1]
00000000: 9602 b1bd 1fd1 58be a6d4 0a3a 1861 2c3e
00000010: c08a 503e e3d0 273e de4f c63d 8449 cfbc
00000020: 1f31 1e3d e9dd 31be 52c3 ed3d 5e4b 4bbe
00000030: d600 4ebc 0512 fd3d 1291 adbc e8a9 15be
00000040: 013c 91bb 184c ddbd 839d eabd 9aab 893c
00000050: 73f7 aa3d ed7b 533e 1d98 063e 8b1a d4bd
00000060: c064 d5bc 76b6 063c 9430 5abd b1e2 43be
00000070: 3c04 07be 9e0f 5dbe 65ab 543c 1bfb 8cbd
00000080: 160d 013d 1b6f 033e 90eb afbd 152d 393e
00000090: 3fcf 003e e498 823c 60c4 d13d 88de a83d
000000a0: a709 443c 3111 843c b88c b8bd 61aa fe3a
000000b0: d4b4 35be 158f f43c a1c4 44be 19cd 313e
000000c0: f60f 633c de22 90bd 15f4 7f3c 02cc 013e
000000d0: ad75 4c3d 8d30 c73d 8bbb 54be 806b 003c
000000e0: 7f78 a9bd 1e94 213e 8544 21be f269 32be
000000f0: 9ad4 2cbe c7b7 e8bd 27fa 83bc a59a 533e
00000100: 5cca 203e 52ba 53be 8688 dc3d e640 373e
00000110: 0fc4 8d3d 77c8 893d 96fe 3cbe e60e cdbc
00000120: 72c8 3d3e 4b5a 5ebe 1365 58be 2897 923d
00000130: 9863 01be 7a43 993d c32d 143e c426 43be
00000140: 7736 b03d 8ae9 3fbe 1f91 32be d472 8f3d
00000150: 74e9 e33d 16e5 4ebe e93b 973d 4853 4fbe
00000160: d4cc 3a3c 32e4 f3bd b217 05be 487e d43d
00000170: 7161 95bd 572f 1cbe 1b2a d1bd 0982 f5bc
00000180: 6ac8 393e e719 4a3e e423 c73d deac fbbd
00000190: 176e 53be 2064 e3bd 1336 b13c c960 20be
000001a0: 58eb 2d3e 10bd 18be c5ae 07bd 7f93 143e
000001b0: 6df7 133e 43ca d6bd b2e6 adbd 50ad 0d3e
000001c0: 2033 203e dfc7 b73d 915b 8ebd 970c 3d3e
000001d0: 719c 343e 4a27 dabd 27b7 24be e008 23be
000001e0: 55e5 d63d 61b6 14be 1493 24be c54d 70bc
000001f0: e740 3c3e 63d1 fabd 0f68 e0bd cef7 bcbd
00000200: e5af 0a3c 2d70 16be baa7 223e 8a27 3fbd
00000210: bb2d 283e 19f1 33be 78ba 0b3c 3db7 52be
00000220: 4cfd 443e bfe1 393e 03b1 01be 1bc3 41be
00000230: 4e67 593e 04c3 f73c 75e8 0b3e cae6 16bc
00000240: 69ef 983d d49c 03bd bc83 a5bd 4884 2dbe
00000250: 5b1c 473d 7408 113e 3321 52be b54b 943d
00000260: f2c9 b6bd 3455 e93d ca82 1e3e 558d f33b
00000270: bec5 883d 08c3 da3d 81d2 2fbe 7725 133e
00000280: f262 413d 44af 53bb 48e9 cf3c 2723 87bd
00000290: a991 5bbe 73a1 3fbe 2794 36bc e4d2 163e
000002a0: 4c95 f63d dc5c 25bc d0cf 373e 9381 8d3d
000002b0: c1e4 3fbe de36 093b 8962 85bd d3cc 073e
000002c0: b457 32be 883d 1e3c 4602 1fbe d72a 01bc
000002d0: 9083 0f3e eeaf 26be cdce f03d ed1a 22be
000002e0: d5a2 403e 2934 7bbd 4c29 13be c14b 15bd
000002f0: ba44 5ebe 5bcb 1d3d 90b2 3a3e 34e8 c63c
00000300: f398 523e b520 e8bd 987f c6bc 20eb 0d3e
00000310: 9212 56be 8b00 ec3c 6425 9cbc 2651 76bc
00000320: a577 30be cb2c 51be 734f 9f3d 131a 19be
00000330: c0be 1dbe 5445 c6bc 92d9 9d3d deea f0bd
00000340: 99fe 383d 4793 9b3d 4fbf b73d 8b9d f0bd
00000350: 6ee5 783d 7a85 323d 9d0d 4fbd 2d8e 283e
00000360: 4c46 343d 8a3f 203d 65df a53d f659 463e
00000370: ee87 9d3b 39ab c0bd d132 d3bd 63bc 463e
00000380: 419c 483e 579d 17be 36dd e43d 9848 17be
00000390: 22f4 a8bd f47f 263d e040 26ba 7d4a e1bd
000003a0: 2c5e bdbc 1f36 293e ea75 edbd 8d95 53be
000003b0: 4a77 8e3c 668e 0f3e 98a4 4abe cf62 4abe
000003c0: 36e5 3f3e def5 4fbe 70b7 473e 9eac 36be
000003d0: 85f3 a13d 4ea1 d8bd d0e6 a0bd 1c2e a4bc
000003e0: bb49 083e b9f9 d3bd 409a 3a3e ec94 27be
000003f0: 169b d73d 0f55 433e 0653 093d 5e81 2ebe
-0.08643071 -0.21173523 0.00052959693 0.16833913 0.20365429 0.16388278 0.09683202 -0.02530361
0.038621064 -0.17369808 0.1160952 -0.19852969 -0.0125734415 0.123569526 -0.021187339 -0.14615595
-0.004432202 -0.10805529 -0.11455824 0.016805459 0.083479784 0.20652743 0.13143964 -0.10356625
-0.026049018 0.008222213 -0.053268984 -0.19129445 -0.13185209 -0.21587989 0.012980317 -0.06883832
0.03150662 0.12835352 -0.08589852 0.18083604 0.12579058 0.015942045 0.10242534 0.082455695
0.011965192 0.016121479 -0.09011215 0.0019429439 -0.17744762 0.029853383 -0.19215633 0.17363395
0.013858786 -0.070379004 0.015622159 0.12675479 0.049916912 0.09726057 -0.20774667 0.00783813
-0.08274936 0.15779158 -0.15748794 -0.17423227 -0.16877976 -0.11363178 -0.016110493 0.20664461
0.15702194 -0.20676544 0.10768227 0.1789585 0.06922161 0.06727689 -0.18456492 -0.025031518
0.18533495 -0.21714132 -0.21132307 0.07157737 -0.12635648 0.07483573 0.14470582 -0.19057757
0.08604138 -0.18741432 -0.17438172 0.070043236 0.11128512 -0.20204577 0.07384474 -0.20246613
0.011401374 -0.11908759 -0.1299732 0.10375649 -0.07293976 -0.15252434 -0.10213109 -0.029969232
0.18142858 0.19736443 0.097236425 -0.12288831 -0.20647465 -0.11103082 0.02163223 -0.1566192
0.16984308 -0.14915872 -0.033125658 0.1450939 0.14449854 -0.10487797 -0.08491267 0.13835645
0.15644503 0.08973669 -0.06951059 0.18461834 0.17637803 -0.10652025 -0.16085492 -0.15921354
0.1049296 -0.14522697 -0.16071731 -0.014666979 0.18384133 -0.122469686 -0.109573476 -0.092269525
0.008464788 -0.14691229 0.15884295 -0.046668567 0.16423695 -0.1757244 0.008528344 -0.20577712
0.1923725 0.18152522 -0.12665181 -0.18922083 0.21230814 0.030244358 0.13662894 -0.009210298
0.07467539 -0.032131985 -0.08081767 -0.16944993 0.048611026 0.14163381 -0.20520477 0.072410025
-0.08925237 0.11393204 0.1547958 0.0074326196 0.06678341 0.106817305 -0.17170145 0.1436976
0.047213502 -0.0032300511 0.025379792 -0.06598502 -0.21442284 -0.18713932 -0.011143721 0.14728886
0.12040195 -0.01009294 0.17950368 0.0690948 -0.18739606 0.0020937244 -0.06512935 0.13261728
-0.17416269 0.009658225 -0.15528211 -0.007883749 0.14015031 -0.1627805 0.11758194 -0.15830584
0.18812115 -0.06132904 -0.14371222 -0.036449198 -0.21705905 0.038524013 0.18232179 0.024280645
0.20566158 -0.11334363 -0.024230763 0.13859224 -0.20905522 0.028808853 -0.019060798 -0.015033996
-0.17233141 -0.20427243 0.077788256 -0.14951353 -0.15404797 -0.02420298 0.07707514 -0.11763547
0.04516468 0.0759645 0.08972036 -0.11748799 0.060765676 0.043584324 -0.050550092 0.16460486
0.044012353 0.039123096 0.0809925 0.19370255 0.004807464 -0.09407658 -0.10312427 0.19407801
0.19590856 -0.14806114 0.11175005 -0.14773786 -0.0824969 0.04064937 -0.00063420646 -0.11000536
-0.023116194 0.16524552 -0.11594756 -0.20662518 0.017390866 0.14019164 -0.1978935 -0.19764255
0.18739781 -0.20308635 0.1950357 -0.17839286 0.07907776 -0.105776414 -0.07856524 -0.020041518
0.13309376 -0.10350365 0.18222904 -0.16365403 0.10527627 0.19075416 0.033526443 -0.17041537

blocks.0.residual_conv.bias f4 [64]
00000000: 3e58 81ba 11aa caba 7270 9cba 91fd 913a
00000010: a00d 3a3a 2d1f 67ba 2796 1c3b 30cd 58ba
00000020: de3d 60b9 630f 5a3a d745 c4b9 2316 483a
00000030: fe78 85b9 2faf b2ba 542f 6f3a a301 913a
00000040: a201 e03a 1a3c dbba 272b 6cb9 eabd 0b3b
00000050: 4577 aeba e87c 48ba 3555 fcba 207d ec3a
00000060: e9df 0e3a ba87 b1b9 d80b a73a 2188 693a
00000070: 3f3c 15bb 4486 25ba cb5d edb9 0425 c6ba
00000080: 04d3 15ba 81f8 a23a 070a c039 658a 193a
00000090: 8685 483a a90b 053b aa24 f8ba 8e32 943a
000000a0: 2471 c93a 3095 b33a 925d f1b9 0b3a 1a3b
000000b0: ab3e 90b9 8a03 e2ba b3c7 9fba 49df cb3a
000000c0: caee f8ba ec8a 00ba 128d 0abb f002 14bb
000000d0: 7f9a 1ebb e47c 1fbb 66d0 d83a bb4f eb3a
000000e0: ca79 983a ce0f f73a 94f5 103a 1ea8 1d3b
000000f0: 7989 253b cca4 f0ba a2d6 053a 1735 46ba
-0.0009868217 -0.0015462061 -0.0011935367 0.0011138191 0.0007097367 -0.0008816596 0.0023893209 -0.00082703214
-0.00021385352 0.0008318333 -0.00037436068 0.0007632693 -0.00025457883 -0.0013632531 0.0009124179 0.001106311
0.001709033 -0.0016726286 -0.0002252279 0.0021322914 -0.0013310692 -0.0007648007 -0.0019251468 0.0018042661
0.00054502353 -0.00033861195 0.0012744619 0.00089085294 -0.0022771505 -0.00063142576 -0.00045274044 -0.0015117233
-0.00057153427 0.0012433679 0.00036628565 0.0005857109 0.0007649291 0.002030114 -0.0018931825 0.001130657
0.0015368802 0.0013701078 -0.00046036817 0.0023533131 -0.00027512512 -0.0017243486 -0.0012190252 0.0015554215
-0.0018992063 -0.00049035135 -0.0021141213 -0.0022584759 -0.0024200974 -0.0024335915 0.00165416 0.0017952839
0.0011632976 0.0018849315 0.0005529758 0.0024056504 0.0025258942 -0.001835966 0.000510553 -0.00075610116

blocks.0.skip_conv.weight f4 [128, 64, 1, 1]
00000000: 38fe 02be 72a8 e8bd 90e1 553d 29a1 2ebd
00000010: 995f 35bd 5eff 11be 3396 c33b 7c00 c3bc
00000020: d3b0 f53d d54a 1b3e 29ad 81bd 46f7 ebbd
00000030: 20a2 c6bc 2998 94bd 8cd3 34bd 1dc7 e4bd
00000040: 7d91 f6bc 088c a33d 0456 19be a076 603c
00000050: 4f6f 243c 0945 053e e5e5 9cbc 5197 2b3e
00000060: 240c 30bc 21a5 19be ff0c e13d b7a0 283e
00000070: 2724 47bc 1116 a73d f5bb 773d 7b31 b23d
00000080: 681b 8bbd 56a7 0e3e 75a9 1d3e 6970 1fbe
00000090: 44f2 063e 73a0 343e d4e9 21be ed3b 2ebe
000000a0: 1720 c23d d3a1 00be b96f 34be 2bda 3fbd
000000b0: 6a09 333e ed45 a9bd 1674 88bd 3a62 193e
000000c0: 8cb7 28be a271 303e 6da4 593d 88e9 a8bc
000000d0: 6906 7bbc a6d7 c5bd 1a61 183e 26c7 fc3d
000000e0: 0afe 3fbc 3a7a e9bd 3816 0b3e d2b7 d9bd
000000f0: e694 35bd 79d2 133c 2523 dcbd 1d66 d63d
00000100: a1cb 6e3d df24 8bbd f023 8abd 5d5d c6bc
00000110: b19c f63d 3a73 f7bd 0134 213e 9f81 f9bd
00000120: 5807 2bbe 2343 f9bd 34eb 773b 84fb fbbc
00000130: d6c1 27be 4cdf c4bd cc40 973d 88d0 cd3c
00000140: 6fdd 45ba dda9 be3c 161d fcbd 5f9b 4b3d
00000150: 3f9a 153e 1e93 d73d 1a24 023d 5454 033c
00000160: 19f6 193e 872b 003e a0fd 173e 3ee9 f6bd
00000170: 4f19 9f3d 6edd e8bc 4419 95bd 2755 2bbe
00000180: fa43 0a3e 6738 21be e729 d4bd d4ca 223d
00000190: 8779 0b3d 6ee4 f03d d591 59bd 26b9 f8bd
000001a0: 1922 23be a48b b8bb 0b4f e6bd b1c3 20be
000001b0: 1451 173e f4bf 63bd fcbc 8e3c 5974 ccbd
000001c0: e072 7f3d d114 06bd 28cc 173e 5d61 14be
000001d0: 22dd 493d 45be e3ba 36e8 87bb 3d1b e5bd
000001e0: aba2 313e 6fcd 463d d787 ae3d 3759 e23d
000001f0: 1fae b6bd 2c85 17be 29a8 8cbd 5f24 1c3e
00000200: 7d19 ba3d 68a8 6e3d e9f9 2c3c 2907 513d
00000210: 2d27 20bd 1d4a 2fbe 1f23 163e f97e 9cbd
00000220: a8be 12be be5f 22be b879 adbd 8c1e a93d
00000230: e13b 8ebc 558b e33c 76c3 0f3e 136b adbc
00000240: 1288 f5bc 42f5 56bd 060e d6bd 1644 76bd
00000250: f7c5 b93d fc47 2a3d d333 653c 9a29 643d
00000260: b876 ebbd 64a2 2ebe 6771 16bd 9d42 143e
00000270: 25eb b43d 5e72 dd3d 8ec8 2f3e 59a0 473c
00000280: c451 dd3b 396d 08be 88eb 193e 1f3c a43b
00000290: c963 30be d97d 9dbd e820 163e 8f01 0ebe
000002a0: db20 0ebe b779 2fbe 8af0 de3d 7689 fd3d
000002b0: 7e5e 913d 5990 25be 217d 46bd e95b 953b
000002c0: 809d 8bbd 7789 b1bc 11af afbd 2fe3 9f3d
000002d0: 6dfe 1ebd 6ca3 1b3e 2eed 8b3d 3f55 bbbd
000002e0: b428 2b3e 061e ad3d fdf7 f53d d503 2cbc
000002f0: 9d53 b8bd d624 8ebd db34 203e 4805 063e
00000300: 74b8 78bb b1a1 f73d c437 1fbe 5b21 02be
00000310: fde7 3b3d 8fe6 c83d 2688 c43c c777 b8bd
00000320: 50b4 2b3e a218 f5bc ea98 323e 0f10 333e
00000330: e233 19be 331a dd3d 9229 9fbd 73ef 84bd
00000340: c69b fabd a011 c939 ab31 81bd 2979 ef3d
00000350: ed74 f0bd 1cf8 053e 28b2 b3bd 0b03 e73d
00000360: ce05 783d 81d6 113e 45bc 42bd f293 a5bd
00000370: d8a5 e9bd 076b a7bd 33a3 8e3d e141 123d
00000380: 6d0a 1dbe 63bd 593d c9a9 823d 629a 00be
00000390: fdab a2bd 9f78 92bd 6531 c0bd 693d 0dbe
000003a0: 2344 c03d 1246 4abd 0ea0 eebd db64 0e3e
000003b0: 065c 873d 3adf 1cbe d630 1e3e 0a61 2ebe
000003c0: 7b37 22be b422 b6bd 6055 c13d 858b ea3d
000003d0: c5f3 11be 6b60 8fbd 6c70 42b7 06ff 083e
000003e0: 360c 743c 2655 2e3e b432 1abe 47d2 d93d
000003f0: 00c4 33be 9da8 08be 92d8 203d 0905 88bc
-0.1279229 -0.113602534 0.052217066 -0.042634163 -0.044280622 -0.14257571 0.005968833 -0.023803942
0.11996617 0.15165265 -0.06331856 -0.11521773 -0.02424723 -0.07255585 -0.04414706 -0.1117079
-0.030098671 0.07985693 -0.14974219 0.013700157 0.010036304 0.13014616 -0.019152591 0.16756941
-0.010745082 -0.15004398 0.10988807 0.16467558 -0.0121546155 0.08158506 0.060481984 0.08700844
-0.06792337 0.13931021 0.15396674 -0.15570225 0.13178355 0.17639332 -0.15811855 -0.17015047
0.09478777 -0.12561731 -0.17620744 -0.04683892 0.1748406 -0.082652904 -0.06662767 0.14978877
-0.16476268 0.17230847 0.053135324 -0.020619169 -0.0153213525 -0.09660272 0.14880791 0.12342672
-0.0117182825 -0.11400266 0.13582695 -0.10630764 -0.044331454 0.009022349 -0.10748891 0.10468695
0.058299664 -0.06794142 -0.06745136 -0.024214441 0.12041605 -0.120825246 0.15742494 -0.121829264
-0.1670202 -0.121710084 0.00378294 -0.03075958 -0.16382536 -0.09612903 0.07385406 0.02512385
-0.000754795 0.023274356 -0.12310235 0.04970872 0.14609621 0.10526107 0.03177271 0.008015711
0.15035285 0.12516604 0.14842844 -0.12056206 0.07768499 -0.028425898 -0.0728021 -0.16731702
0.13502494 -0.15744172 -0.10359555 0.039744213 0.034051444 0.117623195 -0.053117592 -0.12144689
-0.15930976 -0.005631881 -0.11245545 -0.1569965 0.14777023 -0.055602983 0.0174241 -0.09983129
0.062365413 -0.032734696 0.14823973 -0.14490266 0.049283154 -0.001737543 -0.0041475547 -0.11186836
0.17347209 0.04853576 0.08522003 0.11052173 -0.0891993 -0.14796895 -0.068680115 0.1524825
0.09086893 0.058266073 0.01055763 0.05103222 -0.03909986 -0.17118116 0.14661835 -0.076414056
-0.14330542 -0.15856835 -0.08470482 0.082577795 -0.017362537 0.0277764 0.14039406 -0.021169221
-0.02997211 -0.05247999 -0.104518935 -0.060123526 0.09070962 0.041572556 0.013989407 0.055703737
-0.11497253 -0.17054135 -0.036729243 0.14478536 0.08833913 0.108128294 0.1716635 0.012184226
0.006754132 -0.13322915 0.15031254 0.00501205 -0.17225565 -0.07690019 0.1466099 -0.13867782
-0.13879721 -0.17136274 0.10885723 0.12379734 0.07098101 -0.16168346 -0.048459176 0.0045580757
-0.0681715 -0.021671994 -0.08578313 0.07807004 -0.038816858 0.15199059 0.06832348 -0.09147119
0.16714746 0.08452992 0.12010191 -0.0104989605 -0.09000323 -0.0694062 0.15645163 0.13087952
-0.003795174 0.12091387 -0.15548617 -0.12708037 0.04587554 0.098096006 0.023990702 -0.09007221
0.16768003 -0.029918972 0.17441145 0.17486595 -0.14961198 0.10796013 -0.07771601 -0.06490984
-0.12236743 0.0003835084 -0.063083015 0.11693031 -0.11741052 0.13082927 -0.08774215 0.11279877
0.06055241 0.14241983 -0.04754283 -0.08084859 -0.11408585 -0.08174711 0.069647215 0.03570736
-0.15336008 0.05315913 0.0638004 -0.12558892 -0.079429604 -0.07151913 -0.09384421 -0.13792957
0.09387996 -0.04938323 -0.11651622 0.13905661 0.06609349 -0.15319529 0.15448317 -0.17029205
-0.15841477 -0.08893338 0.09440112 0.114523925 -0.14253147 -0.07000812 -1.1589476e-05 0.13378534
0.014895489 0.17024669 -0.15058404 0.1063581 -0.17555237 -0.13345571 0.039269038 -0.016603963

blocks.0.skip_conv.bias f4 [128]
00000000: 5c6d 0e3b a465 34bb 4943 113b 74fe 25bb
00000010: edad 15bb a34c 2a3b 296c e83a fee7 90ba
00000020: b916 233b 21a6 283b 7fc9 4639 8bdb 0fbb
00000030: d480 ccba 15f8 28bb 0272 283b 393f 293b
00000040: 7ab2 26bb 11ff 373b 5a08 b5ba 29b9 a7ba
00000050: 2ed5 a73a acb2 2ebb 89d3 c8ba b2c4 23bb
00000060: 8f2b 12bb 8e3b 963a bfcc 30bb 0764 0b3a
00000070: ac2f 32bb 6180 2bbb 7664 763a c968 1d3b
00000080: fffa 063b 3cb4 db39 51b2 003b dfb7 e3ba
00000090: 45a0 6f3a e11a 253b 1f01 373b 9df7 283b
000000a0: 51cf 2dbb a848 b2b9 63da f2ba 8757 273b
000000b0: 10fc c639 f8dc 0fbb 68d7 18bb 7247 9cb9
000000c0: be20 e73a 5d07 0fbb bf91 f5b9 addc b23a
000000d0: 84d6 043b f399 1e3b 7c4a 33bb 6a6e 1dbb
000000e0: da3f 09bb e92e 263b 893a de3a c661 353b
000000f0: 564e 00bb 0d3b 0e3b 5448 3d3b 698a 0d3b
00000100: 3569 20bb d0a8 f8ba 95c8 f13a bfda 303b
00000110: 6a1d 273b fbd5 1c3b dd51 03bb 8cdf 9cba
00000120: c5da 2dbb 579b a13a 3245 6fba 8a35 31bb
00000130: a302 a1ba c04d 293b 1d45 f5b7 867a e6ba
00000140: b534 59ba f58b e9ba 1cd8 20bb 0fcd 20bb
00000150: 31c5 25bb 5a32 303b 4175 6239 7068 383a
00000160: 83e5 d13a b0ba 423b d030 023b 7f6b 6d3a
00000170: 830e fab9 3fd9 9d38 2a64 14bb 5f6c 1bbb
00000180: 8fd6 bc3a 2b73 333b a229 33bb f084 3b3b
00000190: b1bf d5ba 83af 2abb 80e6 1f39 85b7 393b
000001a0: 2c47 ddba cc62 2fbb 7443 0dbb b641 163b
000001b0: ff59 1a3b 7275 84ba 881b abb9 fb34 eeba
000001c0: 58f9 ddba 1188 00ba 1497 123b d66a ee3a
000001d0: a64d e7ba ee73 11bb 76de 21bb 30f4 75ba
000001e0: 11c4 2bbb bdb4 0d3b 8603 293b 80f1 2b3b
000001f0: 9c53 2c3b 31bf 27bb 4727 053b c43b fbba
0.0021732664 -0.0027526403 0.002216535 -0.0025328668 -0.0022839264 0.002598562 0.001773243 -0.0011055467
0.002488537 0.0025733786 0.00018957815 -0.0021950926 -0.0015602359 -0.0025782634 0.002570272 0.0025825037
-0.002543597 0.0028075615 -0.0013811693 -0.0012796271 0.0012804621 -0.002665679 -0.0015321831 -0.0024989066
-0.0022303795 0.001146184 -0.0026977507 0.00053173344 -0.002718906 -0.002616905 0.0009399125 0.0024018756
0.0020596383 0.0004190522 0.0019637535 -0.0017373523 0.00091410085 0.0025193023 0.0027924252 0.0025782355
-0.0026521275 -0.0003400494 -0.0018528219 0.0025534348 0.00037953304 -0.0021951776 -0.0023321752 -0.0002980787
0.0017633659 -0.0021824457 -0.0004683863 0.0013646089 0.0020269463 0.0024200648 -0.0027357629 -0.002402211
-0.00209426 0.002535755 0.0016954701 0.0027676686 -0.0019577942 0.0021702677 0.0028882222 0.0021597391
-0.002447677 -0.0018971208 0.0018446619 0.0026985852 0.002549971 0.0023931253 -0.0020037808 -0.0011968478
-0.0026528102 0.001232962 -0.00091274374 -0.0027039968 -0.0012284111 0.0025833696 -2.923846e-05 -0.0017584122
-0.0008285747 -0.00178182 -0.0024542874 -0.0024536287 -0.0025294537 0.002688548 0.0002159672 0.00070346054
0.0016013834 0.0029713325 0.001986552 0.00090568507 -0.00047694528 7.5268086e-05 -0.002264271 -0.0023715717
0.0014407205 0.0027381878 -0.0027338048 0.0028613172 -0.0016307739 -0.0026044555 0.0001524929 0.0028338146
-0.0016882173 -0.0026761768 -0.0021555098 0.002292735 0.0023552177 -0.0010105802 -0.00032636174 -0.0018173748
-0.0016935272 -0.0004903088 0.0022367882 0.0018189799 -0.0017647042 -0.0022194344 -0.0024699247 -0.0009382395
-0.0026209394 0.002162262 0.0025789454 0.0026236475 0.0026294952 -0.0025596137 0.00203176 -0.0019167592

blocks.0.bn.weight f4 [64]
00000000: d4d9 7f3f cdb2 7f3f 2910 803f 74dc 7f3f
00000010: 9a02 803f 89d6 7f3f 561a 803f d704 803f
00000020: cf06 803f 59d0 7f3f 530c 803f 8328 803f
00000030: 2f27 803f f60a 803f 1401 803f 7708 803f
00000040: 6806 803f fc12 803f 9fff 7f3f 2f27 803f
00000050: dc17 803f 1c17 803f 932a 803f a205 803f
00000060: 880b 803f 7110 803f 0f34 803f 94a2 7f3f
00000070: 1c47 803f 2616 803f 4795 7f3f 2e05 803f
00000080: c911 803f b5c3 7f3f 1021 803f fcc6 7f3f
00000090: 2d7f 7f3f afe5 7f3f 40b2 7f3f 5beb 7f3f
000000a0: fdd8 7f3f e397 7f3f 42c4 7f3f 2721 803f
000000b0: a9f3 7f3f fe01 803f 3dbd 7f3f 0a03 803f
000000c0: ef2e 803f 12b3 7f3f 200d 803f a6b8 7f3f
000000d0: e10a 803f fc07 803f 92e7 7f3f f922 803f
000000e0: d87b 7f3f 011d 803f 4706 803f 08e1 7f3f
000000f0: a31c 803f b213 803f 81ce 7f3f 2709 803f
0.99941754 0.99882203 1.0004932 0.9994576 1.0000794 0.9993673 1.0008037 1.0001477
1.0002078 0.9992729 1.0003761 1.0012363 1.0011958 1.0003345 1.0000329 1.0002583
1.0001955 1.0005794 0.9999942 1.0011958 1.0007281 1.0007052 1.0012993 1.0001719
1.0003519 1.0005018 1.0015887 0.9985745 1.0021701 1.0006759 0.99837154 1.0001581
1.0005428 0.99908 1.001009 0.99913 0.9980343 0.99959844 0.9988136 0.999685
0.9994047 0.99841136 0.9990884 1.0010117 0.9998117 1.0000608 0.9989813 1.0000927
1.0014323 0.99882615 1.0004005 0.99891126 1.000332 1.0002437 0.99962723 1.0010673
0.99798346 1.0008851 1.0001916 0.99952745 1.0008739 1.000601 0.99924475 1.0002793

blocks.0.bn.bias f4 [64]
00000000: b845 283b 504f dbba a785 ba3a 86a3 1c3b
00000010: 017d 1e3b f6ba 823a 8289 0e3b 50cd b637
00000020: 260f a83a 6efa 01bb 7bd5 c8ba c243 0fba
00000030: 93b0 7c3a 6162 0039 8773 0fbb 0130 5bba
00000040: d1cb 2d3b ab35 63ba e801 1cbb 1d92 243b
00000050: 3378 093b e289 a6ba 4de8 f5ba d888 c638
00000060: 2693 c8ba 34d9 73ba 56b3 25bb 8750 1abb
00000070: fe24 2abb 45d0 16bb 318c e4ba 75ee 6e3a
00000080: 757c 10ba eeab 123b dab9 1b3b be1a 133b
00000090: b914 ca3a 9ad9 2d3b 1b44 04bb 7bde 123b
000000a0: 7222 1e3b eb48 1e3b 2efa 1dbb 67ef 343b
000000b0: d4bd 36bb 2d2a 0cbb df01 25bb 8318 333b
000000c0: 1268 27bb 91ef e4ba bc13 1dbb ec9e 7eba
000000d0: 8ed8 36bb 1e6f 98b9 90f0 b83a dd9b 103b
000000e0: 21d1 353b e889 24bb 86f2 e3b9 7f32 bb3a
000000f0: 1245 c73a 2072 103b 5b14 e4ba e521 faba
0.0025676321 -0.0016732011 0.0014230505 0.0023901179 0.0024183395 0.0009973932 0.0021749442 2.1791697e-05
0.0012821897 -0.0019833106 -0.0015322411 -0.0005465114 0.0009639349 0.0001224368 -0.0021888928 -0.000836134
0.002651919 -0.000866736 -0.0023804847 0.0025111504 0.0020976185 -0.0012705887 -0.0018761248 9.466865e-05
-0.0015302643 -0.000930208 -0.0025283895 -0.0023546533 -0.002596199 -0.0023012322 -0.00174368 0.00091145124
-0.00055117096 0.002238031 0.00237619 0.002244636 0.0015417553 0.0026527406 -0.0020182196 0.002241044
0.0024129418 0.002415235 -0.0024105418 0.0027608515 -0.0027884142 -0.0021387443 -0.0025178117 0.0027327843
-0.0025544208 -0.0017466416 -0.0023968061 -0.0009713012 -0.0027900073 -0.00029074488 0.0014109779 0.0022065558
0.0027743059 -0.0025106613 -0.00043477508 0.0014282017 0.001520308 0.002204068 -0.0017401086 -0.0019083588

blocks.0.bn.running_mean f4 [64]
00000000: dff5 053d 4258 243e 4231 71bd 8b1e 323d
00000010: 53ac 643c 2754 473d 96e7 cbbd 541e 4dbd
00000020: 2c0e 81bc f447 813c 255b 8fbd 7993 0d3e
00000030: af08 a33d 7a36 153d 323a 11bc f574 28be
00000040: 0846 e1bd 712e e53d c667 153e faa5 e6bc
00000050: d519 c6bd e4cc ce3d 323e 123d 3f41 7abd
00000060: f4d4 283c 2d6e 66bc e82c ea3d 1f07 d9bd
00000070: bff8 a63d 21b6 263b 7880 4fbb d7e0 b93c
00000080: 6dfd a23d 3fd9 9c3d 4ee8 ae3c 4c1b 7ebd
00000090: fe10 ec3d 401f fbbc c4f2 36bd dd77 c23d
000000a0: 4ce4 2a3d e67a 0ebd 8911 eb3c 4cdb 1abc
000000b0: b772 afbd c1da c43d 9a7e 97bd 7c49 adbc
000000c0: d230 953d caa2 ad3c 2e62 88bd f910 03be
000000d0: 92ab ea3d 2445 ba3d 8ecf b33d 3651 ecbb
000000e0: a3c8 d43d 8a50 9abd 5c5c 51bd 373f f1bc
000000f0: 8a43 febd d3dd 1ebd ba3b 3b3e 3c91 0dbd
0.032705184 0.16049293 -0.058884867 0.04348616 0.013957101 0.04866424 -0.09956281 -0.05007775
-0.015753828 0.01578138 -0.06999806 0.13825788 0.07960641 0.036428906 -0.0088639725 -0.16450866
-0.109996855 0.111904986 0.14590368 -0.028155316 -0.09672896 0.100976735 0.035703845 -0.06109738
0.010304678 -0.014064354 0.114343464 -0.10597061 0.08152913 0.0025438147 -0.0031662267 0.02269022
0.079584934 0.07658624 0.021351006 -0.06203775 0.115266785 -0.03065455 -0.044665113 0.09495518
0.041721627 -0.034785174 0.028694885 -0.0094516985 -0.08566802 0.096120365 -0.07397194 -0.021153204
0.07284702 0.021195788 -0.06659351 -0.12799443 0.11458506 0.09095219 0.08779822 -0.0072118295
0.10389831 -0.07534893 -0.05111347 -0.029449088 -0.12415226 -0.038785767 0.18284503 -0.034562334

blocks.0.bn.running_var f4 [64]
00000000: 855d 7d3e c5c4 643e 9220 8a3d d42b a23d
00000010: c82e da3d c2ca 703d 25a6 fd3d ebbd 253e
00000020: fb0c 8a3e fdb4 f73d af69 a83d eaff fa3d
00000030: 901a 563e 6037 c93d 3b5c 283e ada5 633e
00000040: d4ce 203e 7ea8 543e 4242 253e 3a8f dd3d
00000050: ef6a 103e 2a43 0c3e b2f8 2e3d 3d6f fe3d
00000060: 174c 0a3e a6d2 383e f239 3d3e cb77 003e
00000070: 2797 863d 0bc8 f53d ca68 d23d b82a 953d
00000080: c27b 053e 04d1 143e 3707 7c3e 318e 9f3d
00000090: e9fb d83d da96 883d 7875 753d 8faf 973e
000000a0: 9ce1 db3d bb19 e13d 00a3 9a3d e3ed 203e
000000b0: 1d95 133e 484b 5c3e 6b6d 823d 97f4 723d
000000c0: 33fd 343e e680 253e 2807 8d3d f1fa 7f3e
000000d0: a32b 7b3e 5aa8 893e d91f 553e 531f c83d
000000e0: 0e21 513e c28c ee3d b14e 853d 78f6 c43d
000000f0: 7111 683e 76f7 5e3d 7934 6a3e b70d 0a3e
0.24742706 0.22340687 0.067444935 0.07918516 0.10653454 0.058787115 0.12385205 0.16185729
0.26963028 0.12095068 0.082232825 0.12255843 0.2090857 0.09825015 0.16441433 0.22231169
0.15703899 0.207674 0.16138557 0.10818334 0.14103292 0.13697496 0.042717643 0.12423561
0.13505588 0.18049106 0.18479136 0.12545697 0.06571799 0.12001046 0.10273893 0.072835386
0.13035491 0.14532858 0.24612127 0.07790793 0.10594923 0.06669398 0.05992648 0.29626128
0.10736391 0.10991236 0.07550621 0.15715747 0.14412351 0.21513093 0.06368526 0.05931529
0.17674713 0.16162452 0.068861306 0.2499807 0.24528365 0.26886255 0.2081293 0.097715996
0.20422766 0.11647941 0.0650915 0.09617323 0.22662903 0.054435216 0.22871579 0.13481794
