TGNN2026/checkpoints_MTGNN1m_auc_3class/overall_best.pt (torch, 901809 bytes, 82 tensors)

A_static f4 [3, 3]
0.33333334 0.33333334 0.33333334 0.33333334 0.33333334 0.33333334 0.33333334 0.33333334
0.33333334
00000000: abaa aa3e abaa aa3e abaa aa3e abaa aa3e
00000010: abaa aa3e abaa aa3e abaa aa3e abaa aa3e
00000020: abaa aa3e

in_proj.weight f4 [64, 15]
0.22943039 0.07317395 -0.07988267 0.0077353 0.060639616 0.14600587 0.17519607 -0.11324253
0.13882181 0.15382051 -0.018302716 0.06876472 0.22596319 -0.14677118 -0.044481818 -0.1869182
0.1863 -0.10343516 -0.030853039 0.13474996 -0.16778927 0.0030029174 0.18439019 -0.20732878
0.055294618 1.3722365e-05 0.11287174 -0.17276722 -0.28675342 0.057762917 0.22628127 0.25968596
0.25591877 -0.20939331 0.19429083 0.1159931 0.15577397 -0.17757392 -0.19088858 -0.22767799
-0.06932665 -0.16699138 0.16425738 0.26281944 -0.1347331 -0.16946997 -0.22258632 0.18322565
-0.028815616 -0.110241234 0.1990885 -0.082328066 0.06897506 0.15151286 0.021395769 0.26837406
0.053240538 0.24353057 0.0052057044 -0.23685569 0.18675964 -0.16868402 -0.0143341 0.16059862
0.05859655 -0.14894246 0.13843663 -0.27860802 0.047448236 0.07818736 0.0732338 0.2593546
-0.13941124 -0.27063185 -0.1072653 -0.013617138 0.0110242395 0.14847302 -0.12079422 -0.25573564
-0.2312701 -0.2096895 0.21219242 -0.06918107 -0.013947842 0.026400045 -0.056161083 0.034967616
-0.022430692 -0.17410162 0.03932061 0.13338247 0.22505428 -0.20559774 -0.18488967 -0.25130266
0.12454044 0.26524377 0.084919035 -0.14728104 0.16848633 -0.04295042 0.20744579 0.07003991
0.12147355 0.02537378 0.23142494 0.20710836 0.22839215 0.08270785 -0.20414731 0.20183119
-0.13294663 -0.0907126 0.16966236 0.10508961 0.111966215 -0.11891945 0.14572915 -0.073779956
-0.081243746 -0.07735846 -0.1574056 0.23733187 0.2796603 0.0066891774 -0.072684936 0.14659272
-0.27435437 0.00016613267 -0.15584151 -0.031166539 0.17436762 -0.0112593025 -0.107063 -0.29023406
-0.0901996 -0.038701184 -0.072744265 -0.21867949 0.116127245 -0.0011128805 -0.2644659 0.16198616
0.12811168 0.15077496 0.13295975 -0.03388463 -0.024337385 -0.13979122 -0.14286135 0.2653712
0.16883558 0.10537537 -0.21650453 -0.21843377 0.17466836 -0.10626481 0.09771076 -0.09804705
-0.26734993 -0.18759353 0.07217553 0.10059689 -0.09856053 -0.013316535 -0.21097876 -0.24554408
0.11248816 0.14513384 -0.06567783 -0.09648475 0.16931924 -0.0703902 -0.16469847 -0.1387769
0.20712046 -0.19703294 0.16057077 0.1973042 0.0374227 0.04671321 -0.044694033 -0.16507517
0.02558195 -0.020936515 -0.09928026 -0.01910365 -0.16089107 -0.1646561 -0.2827119 0.22151351
-0.0058895736 0.2096886 0.17680897 0.077965856 -0.06776061 0.16467802 -0.07936775 -0.19457927
0.10048526 0.11834994 0.075980395 -0.2090459 -0.26683202 -0.023423893 -0.002037737 0.101668976
-0.13291469 0.042054065 -0.16378129 -0.2448054 -0.2083152 -0.05026394 -0.12780364 -0.2034411
-0.21524833 0.22305481 0.12237433 0.12419519 0.17787147 -0.22735415 0.20019063 0.010803469
-0.17575033 -0.19157228 0.23600224 -0.24626398 0.027283382 -0.06408677 0.17845297 0.2296054
-0.27353814 0.22818157 -0.14073604 -0.22312759 0.06840609 0.13086993 0.25398833 0.17733206
0.26796934 -0.14316899 -0.18351012 0.07182847 -0.26321718 0.11682673 0.1963979 0.011877619
-0.25334227 0.030540591 0.121613964 0.158267 -0.22974268 0.20279984 0.2810272 0.084927075
00000000: cdef 6a3e 39dc 953d 8699 a3bd 6678 fd3b
00000010: 3f61 783d 9082 153e 9966 333e b3eb e7bd
00000020: 4e27 0e3e 2083 1d3e 94ef 95bc 84d4 8c3d
00000030: e562 673e 2f4b 16be 9132 36bd 7c67 3fbe
00000040: 6dc5 3e3e d0d5 d3bd 83bf fcbc e5fb 093e
00000050: f3d0 2bbe 98cc 443b c8d0 3c3e ff4d 54be
00000060: 9c7c 623d 1c39 6637 4c29 e73d e4e9 30be
00000070: 58d1 92be cf98 6c3d 47b6 673e 8ff5 843e
00000080: c907 833e 336b 56be 2df4 463e ca8d ed3d
00000090: 3683 1f3e f0d5 35be 4c78 43be 6b24 69be
000000a0: 21fb 8dbd caff 2abe 1633 283e 4590 863e
000000b0: 79f7 09be 8989 2dbe abed 63be 819f 3b3e
000000c0: ba0e ecbc 28c6 e1bd dbdd 4b3e 9e9b a8bd
000000d0: cc42 8d3d 3026 1b3e 2e46 af3c 5368 893e
000000e0: c012 5a3d 1460 793e 9d94 aa3b 4c8a 72be
000000f0: eb3d 3f3e 81bb 2cbe 93d9 6abc f773 243e
00000100: f002 703d 5f84 18be 55c2 0d3e b6a5 8ebe
00000110: 1559 423d b220 a03d 9afb 953d 20ca 843e
00000120: d2c1 0ebe 4290 8abe e9ad dbbd 6b1a 5fbc
00000130: 039f 343c 5009 183e f662 f7bd c8ef 82be
00000140: 12d2 6cbe d8b8 56be f848 593e ceae 8dbd
00000150: 7d85 64bc e844 d83c 2a09 66bd 343a 0f3d
00000160: 92c0 b7bc b247 32be a60e 213d 6a95 083e
00000170: a174 663e 3788 52be b853 3dbe beaa 80be
00000180: 0f0f ff3d 08ce 873e 08ea ad3d d7d0 16be
00000190: ae87 2c3e c8ec 2fbd ab6c 543e 1671 8f3d
000001a0: 20c7 f83d acdc cf3c a9fa 6c3e 3714 543e
000001b0: a2df 693e bc62 a93d fe0b 51be d6ac 4e3e
000001c0: 2923 08be 87c7 b9bd f8bb 2d3e 3939 d73d
000001d0: 8b4e e53d 0a8c f3bd 063a 153e f219 97bd
000001e0: 1f63 a6bd 1d6e 9ebd ef2e 21be 2007 733e
000001f0: a32f 8f3e e330 db3b d7db 94bd 671c 163e
00000200: 2d78 8cbe e633 2e39 eb94 1fbe f850 ffbc
00000210: 6d8d 323e f078 38bc d943 dbbd 8f99 94be
00000220: 91ba b8bd 2285 1ebd f2fa 94bd 84ed 5fbe
00000230: 1fd4 ed3d 13de 91ba 1368 87be b3df 253e
00000240: b52f 033e c064 1a3e 9a26 083e 9cca 0abd
00000250: 325f c7bc 6e25 0fbe 3f4a 12be bcde 873e
00000260: 3ce3 2c3e 0bcf d73d 5db3 5dbe 1aad 5fbe
00000270: 43dc 323e 5da1 d9bd 941c c83d e4cc c8bd
00000280: 17e2 88be 8518 40be c4d0 933d be05 ce3d
00000290: 1ada c9bd 992d 5abc d10a 58be e86f 7bbe
000002a0: 3160 e63d f79d 143e 1982 86bd cc99 c5bd
000002b0: 0662 2d3e bd28 90bd b7a6 28be 881b 0ebe
000002c0: 6317 543e 01c3 49be aa6c 243e 1d0a 4a3e
000002d0: 8c48 193d 5a56 3f3d 1711 37bd 7709 29be
000002e0: 3d91 d13c 0e83 abbc 7353 cbbd 427f 9cbc
000002f0: a1c0 24be 9c9b 28be 9dbf 90be 70d4 623e
00000300: 53fd c0bb 9cb8 563e 690d 353e 90ac 9f3d
00000310: 13c6 8abd 5ba1 283e 8f8b a2bd ca3f 47be
00000320: 37cb cd3d 7461 f23d 9c9b 9b3d 2110 56be
00000330: 359e 88be 77e3 bfbc 8e8b 05bb d337 d03d
00000340: ca1a 08be e240 2c3d 48b6 27be 44ae 7abe
00000350: 9450 55be 90e1 4dbd f5de 02be dd52 50be
00000360: 0f6a 5cbe 7b68 643e 659f fa3d 0c5a fe3d
00000370: f023 363e 87cf 68be c6fe 4c3e 0901 313c
00000380: e5f7 33be 862b 44be 92aa 713e a02c 7cbe
00000390: 6681 df3c ed3f 83bd 60bc 363e ae1d 6b3e
000003a0: 310d 8cbe 6ea8 693e 1c1d 10be 8f7b 64be
000003b0: 7e18 8c3d c402 063e c20a 823e 8996 353e
000003c0: 4733 893e e49a 12be 14ea 3bbe ce1a 933d
000003d0: 67c4 86be da42 ef3d 881c 493e 589a 423c
000003e0: 14b6 81be 4330 fa3c be10 f93d bf10 223e
000003f0: aa41 6bbe c3aa 4f3e cce2 8f3e 3fee ad3d

in_proj.bias f4 [64]
0.009574856 -0.000580841 -0.0033782849 -0.0064953114 0.009392935 -0.015238425 -0.013447707 -0.011708396
0.005311849 0.013109017 -0.0041737626 0.0013051112 0.0034834004 -0.009157366 0.0035489867 -4.7691083e-05
0.0023765892 0.011563328 -0.011335819 0.009304298 -0.0043260287 0.007700399 0.023399085 -0.009217041
-0.006914192 -0.0011895341 0.013860318 -0.019418275 0.009262688 0.00078012823 0.0025232527 0.015611568
-0.0024526748 -0.015061846 -0.00041832362 -0.0027615032 -0.0075524026 0.00044024317 -0.0056166137 0.011538048
-0.012740554 -0.000115345254 -0.003904751 -0.01604786 0.00015422149 0.0002985557 0.01048869 0.0046289386
-0.0058076135 -0.0031650374 0.0057298397 0.015892062 0.0056622666 0.0058326856 -0.0067508738 0.0019330102
0.0005883081 0.01393319 0.011582045 0.008176191 -0.0053664264 0.0066104485 0.001391044 0.0037183906
00000000: dbdf 1c3c 9443 18ba 3766 5dbb 9fd6 d4bb
00000010: d3e4 193c 96aa 79bc c553 5cbc 92d4 3fbc
00000020: 050f ae3b 34c7 563c 0fc4 88bb 4410 ab3a
00000030: c349 643b c708 16bc 1e96 683b e907 48b8
00000040: 8dc0 1b3b 1d74 3d3c dfb9 39bc 0e71 183c
00000050: 5cc1 8dbb a153 fc3b 70af bf3c 1203 17bc
00000060: 7290 e2bb 24ea 9bba 6316 633c 1313 9fbc
00000070: 88c2 173c 8581 4c3a 285d 253b a9c7 7f3c
00000080: 0ebd 20bb f6c5 76bc 7252 dbb9 56fa 34bb
00000090: 257a f7bb 70d0 e639 920b b8bb 150a 3d3c
000000a0: c2bd 50bc 83e5 f1b8 dae6 7fbb cd76 83bc
000000b0: 84b6 2139 7887 9c39 c1d8 2b3c 5aae 973b
000000c0: cb4d bebb 846c 4fbb 61c1 bb3b 1230 823c
000000d0: 898a b93b 1d20 bf3b 6f36 ddbb 0f5d fd3a
000000e0: b038 1a3a 0948 643c 9ec2 3d3c 6ef5 053c
000000f0: d9d8 afbb 769c d83b b153 b63a 3eb0 733b

adapt.E1 f4 [3, 8]
0.0073004123 0.018694647 -0.0009121358 0.004661668 0.007067613 0.010114174 -0.0070624873 0.01751715
0.16435102 -0.14728883 -0.15619834 -0.18973574 -0.17044283 -0.1730493 0.1632704 0.1659792
0.16241978 -0.1711964 -0.1542968 -0.15602821 -0.16098298 -0.16917218 0.14772817 0.1863851
00000000: 4c38 ef3b 8425 993c 661c 6fba e8c0 983b
00000010: 6f97 e73b ecb5 253c 706c e7bb 2080 8f3c
00000020: a24b 283e e2d2 16be 75f2 1fbe 164a 42be
00000030: 9188 2ebe d633 31be 5b30 273e 74f6 293e
00000040: 5f51 263e 1c4e 2fbe fbff 1dbe dcc5 1fbe
00000050: b9d8 24be 793b 2dbe 0e46 173e bcdb 3e3e

adapt.E2 f4 [3, 8]
-0.00078726374 -0.0022919322 0.00770796 -0.0071884934 -0.0011614338 0.005517843 -0.009470785 -0.0111703
0.0029713109 -0.0016983869 0.0013168886 0.00021258698 0.011951078 -0.009155169 -0.003675576 -0.0032995874
0.20729387 -0.17904592 -0.21747358 -0.18376112 -0.2025954 -0.1979297 0.2003849 0.18965091
00000000: 6060 4eba 3e34 16bb 0e93 fc3b 748d ebbb
00000010: 403b 98ba 06cf b43b 5a2b 1bbc a203 37bc
00000020: 53ba 423b 689c deba 739b ac3a e2e9 5e39
00000030: 74ce 433c 90ff 15bc efe1 70bb e43d 58bb
00000040: d844 543e d057 37be 65b1 5ebe e02b 3cbe
00000050: 2b75 4fbe 15ae 4abe b331 4d3e d933 423e

support_mix.w_logits f4 [3]
0.010258644 -0.05339599 0.08457204
00000000: df13 283c c1b5 5abd 1b34 ad3d

blocks.0.filter_conv.conv.weight f4 [64, 64, 1, 2]
0.07707429 -0.0016075344 0.13160074 0.08337084 -0.08591686 0.0018836248 -0.044687822 0.13246289
0.11598426 0.15264292 0.08072947 -0.094119824 0.048755147 0.13641973 -0.13584667 0.10827765
-0.111779355 -0.10248171 -0.037139557 0.08543851 0.14480808 -0.08040524 -0.09018302 -0.0038323654
-0.12491301 -0.10488617 -0.124662265 0.14853746 0.07726332 -0.09437463 -0.1114524 -0.07259995
0.047408618 -0.00058714015 -0.07009185 0.03907562 -0.08063623 0.0052019674 -0.055709265 -0.0067497576
0.07281386 0.009412247 -0.09360678 0.13010053 -0.1453966 -0.04609994 0.0884756 0.040717337
-0.020962697 -0.024217745 0.15132125 -0.03234043 -0.09214599 -0.023288442 -0.15051733 -0.06979702
-0.09480588 0.114052474 -0.025960708 -0.06635044 -0.041368153 -0.06483577 -0.059019737 -0.10614304
-0.09637132 0.00067750795 -0.07823697 0.0500908 -0.072199695 0.020243062 0.025528297 0.11995896
0.13096158 0.111736365 0.047625016 -0.15102121 0.09803743 0.1084424 0.14308637 -0.04066415
-0.0129610505 0.0406827 -0.037948113 -0.06723801 0.059167594 0.07636843 -0.015733521 0.090110496
0.09331775 -0.050105896 -0.10504381 -0.069415115 -0.04580231 0.020457862 0.062491044 0.1315533
-0.013417915 0.12108565 -0.041544355 -0.06164414 0.1095202 0.025178786 0.06094288 0.01063812
-0.08139626 0.010756833 0.09446966 -0.10738001 0.090963885 -0.082404085 0.118446715 0.12669533
-0.006973271 0.030045979 -0.022757787 -0.030311624 -0.047858544 0.11503613 0.078549944 -0.03887456
0.03402443 -0.1299522 -0.06230127 -0.091705665 0.15463296 0.15949461 0.14877735 -0.07550388
0.053029966 0.06827671 0.010183062 0.09166753 -0.015678924 0.11563109 0.1278067 0.11122163
0.13029642 -0.05763044 0.029432232 -0.103281446 -0.027084837 0.106344946 -0.05905219 -0.09229993
0.09100873 0.07611945 -0.045297574 -0.026088 0.029265042 0.0074925106 -0.09553358 0.117830776
-0.013178307 0.10541752 0.06019209 0.10299734 -0.037762653 0.0595015 0.11566137 0.0874733
0.09404591 -0.037045054 -0.09036339 -0.038237207 -0.04966791 0.06771849 -0.026637709 0.08651298
-0.11192451 -0.114002705 -0.030225353 -0.09367382 0.055600833 -0.10740649 -0.0708642 0.08668895
0.1335523 -0.004070155 0.08989139 0.033238474 0.05678742 -0.0071401694 -0.09606581 0.08726386
0.049809203 0.04711801 0.03861129 0.04779721 0.12762353 -0.090196796 0.12545238 0.034041155
-0.12957165 -0.094786346 0.07635487 0.07252287 -0.00050723576 0.061443534 -0.13600427 0.12854291
0.09871179 0.09019435 -0.021622801 -0.1405608 -0.06366825 -0.13769603 0.13044424 0.028408708
-0.05558212 0.013466964 0.06374405 -0.075504564 -0.1106342 -0.12858234 -0.036988225 0.024141883
-0.124779865 0.0129066445 0.015873365 0.13230444 0.118618414 0.04243701 0.077680185 0.024730135
-0.042457502 -0.06799805 -0.09986037 0.03097863 0.00634933 0.1013023 -0.011847012 -0.09568514
0.091321014 0.11291014 0.07595551 -0.0068851933 -0.05520532 -0.02523708 -0.041394077 -0.08566911
0.1385845 -0.0061446656 0.064461805 0.06843616 -0.0004076555 -0.063342676 0.058263067 0.03888585
0.13796224 0.04947516 0.0937868 -0.052942283 -0.13882431 -0.09708758 0.13236809 -0.048224587
00000000: 20d9 9d3d e7b3 d2ba 58c2 063e 55be aa3d
00000010: 2ef5 afbd f6e3 f63a 940a 37bd 5aa4 073e
00000020: 2889 ed3d 6d4e 1c3e 7e55 a53d e5c1 c0bd
00000030: 7ab3 473d 9db1 0b3e 641b 0bbe acc0 dd3d
00000040: 93ec e4bd eee1 d1bd a61f 18bd 63fa ae3d
00000050: 9248 143e 81ab a4bd e0b1 b8bd 6c28 7bbb
00000060: 64d2 ffbd 8fce d6bd ee4e ffbd 341a 183e
00000070: 3b3c 9e3d 7c47 c1bd 2841 e4bd 48af 94bd
00000080: 8a2f 423d 4fea 19ba 518c 8fbd c20d 203d
00000090: 9c24 a5bd 4475 aa3b 662f 64bd 122d ddbb
000000a0: 6f1f 953d d335 1a3c e9b4 bfbd 1339 053e
000000b0: d9e2 14be 4ad3 3cbd b232 b53d 39c7 263d
000000c0: f6b9 abbc 4b64 c6bc f5f3 1a3e 6677 04bd
000000d0: 09b7 bcbd 67c7 bebc 3721 1abe bdf1 8ebd
000000e0: 9629 c2bd 5894 e93d 8dab d4bc bde2 87bd
000000f0: a771 29bd 9ec8 84bd aebe 71bd 8661 d9bd
00000100: 545e c5bd ca9a 313a b43a a0bd 032c 4d3d
00000110: 6fdd 93bd c7d4 a53c b820 d13c 0bad f53d
00000120: cb1a 063e 09d6 e43d 7312 433d 4ea5 1abe
00000130: d9c7 c83d 0d17 de3d 3c85 123e 748f 26bd
00000140: 965a 54bc e7a2 263d 7b6f 1bbd 15b4 89bd
00000150: b859 723d 0d67 9c3d 96e3 80bc da8b b83d
00000160: 601d bf3d d73b 4dbd 3621 d7bd 8329 8ebd
00000170: 349b 3bbd 3f97 a73c 9cf6 7f3d e9b5 063e
00000180: d1d6 5bbc c1fb f73d 6a2a 2abd 917e 7cbd
00000190: 204c e03d be43 ce3c 3e9f 793d 824b 2e3c
000001a0: 15b3 a6bd 6d3d 303c 4f79 c13d 0dea dbbd
000001b0: 464b ba3d 79c3 a8bd 3194 f23d 6cbc 013e
000001c0: 0980 e4bb fc22 f63c 8a6e babc 1550 f8bc
000001d0: 5207 44bd 1098 eb3d cbde a03d ee3a 1fbd
000001e0: 335d 0b3d 3112 05be 9e2f 7fbd 2ed0 bbbd
000001f0: 1a58 1e3e 8e52 233e 1759 183e c7a1 9abd
00000200: f335 593d a9d4 8b3d dcd6 263c 30bc bb3d
00000210: 1671 80bc fecf ec3d c2df 023e 2ac8 e33d
00000220: 6d6c 053e e50d 6cbd dd1b f13c 3985 d3bd
00000230: 05e1 ddbc 61cb d93d b6e0 71bd bf07 bdbd
00000240: c962 ba3d 84e4 9b3d f389 39bd 80b6 d5bc
00000250: 3ebd ef3c bc83 f53b 1ca7 c3bd 4351 f13d
00000260: d3e9 57bc 24e5 d73d fb8b 763d 45f0 d23d
00000270: 03ad 1abd d8b7 733d dedf ec3d 3425 b33d
00000280: 249b c03d 8ebc 17bd 7110 b9bd 9e9e 1cbd
00000290: 9470 4bbd feaf 8a3d 5337 dabc b82d b13d
000002a0: ad38 e5bd 407a e9bd 299b f7bc 0fd8 bfbd
000002b0: b3bd 633d eff7 dbbd 4021 91bd fa89 b13d
000002c0: efc1 083e ef5e 85bb fa18 b83d 1125 083d
000002d0: ed99 683d 15f8 e9bb 27be c4bd 65b7 b23d
000002e0: bc04 4c3d d1fe 403d df26 1e3d 02c7 433d
000002f0: beaf 023e 19b9 b8bd 9776 003e bd6e 0b3d
00000300: 6eae 04be 581f c2bd f15f 9c3d df86 943d
00000310: 04f8 04ba 37ac 7b3d b444 0bbe c1a0 033e
00000320: 6829 ca3d d1b7 b83d 4d22 b1bc 2cef 0fbe
00000330: 8064 82bd 3000 0dbe 2d93 053e 61b9 e83c
00000340: 14aa 63bd 8aa4 5c3c 3e8c 823d 23a2 9abd
00000350: 2f94 e2bd 17ab 03be f780 17bd 33c5 c53c
00000360: 968c ffbd 6476 533c dc08 823c d17a 073e
00000370: 36ee f23d 6ed2 2d3d ca16 9f3d da96 ca3c
00000380: ebe7 2dbd 9042 8bbd 9883 ccbd e5c6 fd3c
00000390: 0a0e d03b 9577 cf3d f819 42bc 92f6 c3bd
000003a0: 8306 bb3d 6e3d e73d 908e 9b3d 309d e1bb
000003b0: f91e 62bd febd cebc d68c 29bd 4973 afbd
000003c0: 18e9 0d3e 3159 c9bb 8d04 843d 4228 8c3d
000003d0: 98ba d5b9 ceb9 81bd 41a5 6e3d c546 1f3d
000003e0: f945 0d3e 77a6 4a3d 4b13 c03d 02da 58bd
000003f0: f627 0ebe dad5 c6bd 808b 073e 2587 45bd

blocks.0.filter_conv.conv.bias f4 [64]
-0.013871174 0.0018886613 0.011116569 -0.010485218 -0.00057087437 -0.0026808179 -0.0019496349 0.002533408
0.015784526 0.01484913 0.0039318553 0.002712978 -0.0021930432 -0.0061371704 0.0032477495 0.0018004124
0.007903824 0.0014779087 5.517136e-05 0.0021261948 0.018093852 -0.0070507 -0.0038158915 0.009884162
0.0036899424 -0.007421116 -0.018652698 -0.0041152914 0.0072244136 -0.023701986 -0.012716226 0.0065292483
0.01099058 0.011330108 -0.013136147 0.0029851405 0.0037545203 0.008463197 -0.0014766875 0.00630327
0.013620716 0.0033748902 0.006589936 -0.0004190226 0.010306188 0.0051466236 -0.008369282 0.0073355935
0.0031389964 0.00239881 -0.00050718884 -2.5860887e-05 -0.0028433537 0.0044802125 0.004167516 -0.019150535
-0.0005832483 0.000211287 -0.0014219644 0.015089999 -0.006716692 -0.0054633557 -0.0012307289 -0.0078095756
00000000: ec43 63bc f58c f73a 4522 363c 31ca 2bbc
00000010: bba6 15ba a9b0 2fbb e48a ffba 8907 263b
00000020: 8d4e 813c c449 733c cbd6 803b 38cc 313b
00000030: 29b9 0fbb 511a c9bb 32d8 543b d1fb eb3a
00000040: 0a7f 013c 63b6 c13a cc67 6738 a157 0b3b
00000050: 8f39 943c 8f09 e7bb 0914 7abb 2ef1 213c
00000060: f6d2 713b d52c f3bb 8bcd 98bc 91d9 86bb
00000070: c6ba ec3b ab2a c2bc b857 50bc 4ef3 d53b
00000080: d511 343c eba1 393c fe38 57bc 59a2 433b
00000090: 660e 763b 39a9 0a3c 698d c1ba a98b ce3b
000000a0: 6c29 5f3c 432d 5d3b 64f0 d73b 43b0 dbb9
000000b0: 49db 283c 02a5 a83b 501f 09bc 6b5f f03b
000000c0: 9fb7 4d3b 5a35 1d3b def4 04ba d5ef d8b7
000000d0: 8f57 3abb bfce 923b a88f 883b 95e1 9cbc
000000e0: 21e5 18ba ec8c 5d39 3561 baba 0b3c 773c
000000f0: b217 dcbb f305 b3bb 6950 a1ba 78e7 ffbb

blocks.0.gate_conv.conv.weight f4 [64, 64, 1, 2]
0.14381608 -0.0026905588 0.13295104 0.0020685594 -0.090296924 -0.08307262 -0.13362336 -0.07546726
-0.087192886 0.1297247 0.0556976 -0.036460515 0.004579825 -0.1289377 -0.00034239798 0.12775402
0.10141851 0.16257098 -0.052995034 -0.09466175 0.13761106 -0.094448835 0.09572297 0.08086471
-0.014215304 0.025032092 -0.079046 -0.068705566 -0.16992879 0.08802761 -0.02809776 0.14103264
0.12564595 -0.15774098 0.087997794 0.14230335 0.0783193 0.013568424 0.06852157 0.14667143
0.030233515 0.097128496 -0.11873465 -0.033508137 0.13451222 0.054341305 0.11080969 -0.13817449
0.0660306 -0.01970329 0.041568957 0.16381374 -0.05197418 0.11519675 -0.12683126 -0.11033832
-0.064609595 -0.16350378 0.06239865 -0.032916274 0.053013645 0.042395763 -0.06860813 -0.008210982
0.13719232 0.03192072 0.020919213 -0.07425136 -0.07516596 -0.02744389 -0.0078009437 0.0262949
-0.011992751 0.11347825 -0.035907596 0.15759398 0.0650259 0.07552862 -0.09855305 -0.15693887
-0.083981946 -0.020016715 -0.013600121 0.06985775 0.106117345 0.18463564 0.055124428 -0.15000013
-0.08410107 0.113890134 -0.13351333 -0.043647133 -0.07564138 0.03612844 -0.05651895 -0.13155226
-0.12358724 -0.029908746 0.01953123 0.009021562 -0.13614604 -0.051112268 -0.14604364 0.056871958
0.028941588 -0.023369586 -0.15101783 -0.025278935 0.04489072 0.002260379 -0.15173547 0.10342024
0.017006429 -0.13888523 0.06621879 -0.053529497 0.07018407 -0.032875516 0.019100796 -0.022975512
-0.053888302 0.077563405 -0.10878582 0.03776826 -0.09491317 0.07050576 -0.05369597 -0.12048539
-0.045398936 -0.08605124 -0.12055193 0.03166701 -0.12910776 0.118107215 0.16252662 0.09492299
0.07627045 0.103921376 -0.09536452 0.03188115 0.05148817 0.09825866 0.090866074 0.002280478
0.13604465 -0.10027627 0.0032646398 0.10545352 0.03436919 0.08291538 0.15031564 0.047548417
-0.045033883 -0.13532066 0.1163333 0.084646456 -0.010806567 -0.07273388 -0.08960821 -0.09823564
-0.10906161 -0.004268465 -0.020799052 -0.13623787 -0.02582754 -0.10870667 -0.15460007 -0.14078797
0.020836713 -0.13113624 0.026550468 0.060935743 -0.066784434 0.12500249 -0.02728559 -0.01783814
-0.12116041 -0.022134323 0.09536066 -0.13360015 -0.17893027 -0.0323201 -0.014420569 0.12347199
-0.11598674 0.04930672 -0.038730994 -0.026203053 -0.0070069307 0.15597352 -0.05369268 0.029716099
0.03730581 -0.14472106 -0.0047763847 0.09207745 -0.1427472 0.031645805 -0.0826632 0.05372576
0.10230937 -0.007818731 -0.13935213 0.14894658 0.020622525 -0.1477962 -0.025037361 -0.12718192
0.013442187 -0.115574084 0.08685952 -0.075883105 0.0786094 -0.010748125 -0.14491741 0.097519964
-0.15582313 0.040890727 -0.015063284 0.099978045 -0.11720094 0.14816648 0.013065671 0.11084432
0.123135984 -0.06448439 -0.14918998 0.14260453 0.06453381 -0.041414525 0.0933354 0.088448666
-0.11113037 -0.07704886 0.056769375 -0.11262272 -0.005234606 -0.11502285 0.13201332 0.12095303
-0.09513382 0.05688409 0.04176026 0.026118468 -0.14186683 0.017432885 0.026282059 0.01253348
0.036891323 0.16898313 -0.017468845 0.11808012 -0.008556874 -0.020672163 0.017253974 0.064261265
00000000: 8644 133e 1654 30bb 5124 083e ab90 073b
00000010: 98ed b8bd fa21 aabd 90d4 08be 948e 9abd
00000020: 2f92 b2bd 8dd6 043e 2b23 643d 9f57 15bd
00000030: 5b12 963b 3f08 04be e183 b3b9 f3d1 023e
00000040: 82b4 cf3d 0279 263e 5211 59bd 05de c1bd
00000050: eae9 0c3e 646e c1bd 680a c43d 669c a53d
00000060: 4ee7 68bc 1a10 cd3c dfe2 a1bd 81b5 8cbd
00000070: d001 2ebe d247 b43d 462d e6bc dc6a 103e
00000080: 55a9 003e da86 21be 3038 b43d f8b7 113e
00000090: df65 a03d 184e 5e3c 0955 8c3d 0931 163e
000000a0: 47ac f73c 4eeb c63d 272b f3bd d43f 09bd
000000b0: 92bd 093e fd94 5e3d 31f0 e23d 9d7d 0dbe
000000c0: 0d3b 873d cb68 a1bc 3644 2a3d cabe 273e
000000d0: e1e2 54bd 46ec eb3d 0ee0 01be 0ff9 e1bd
000000e0: 0952 84bd 896d 27be ba95 7f3d 37d3 06bd
000000f0: d624 593d 2ea7 2d3d 6b82 8cbd 5b87 06bc
00000100: 257c 0c3e 4dbf 023d c55e ab3c 1911 98bd
00000110: 9cf0 99bd 02d2 e0bc 0f9f ffbb 6768 d73c
00000120: 3e7d 44bc 4967 e83d d813 13bd 5160 213e
00000130: 4d2c 853d c0ae 9a3d 2ed6 c9bd 95b4 20be
00000140: bafe abbd 18fa a3bc 0bd3 5ebc 9411 8f3d
00000150: 0d54 d93d 2011 3d3e 27ca 613d a299 19be
00000160: 2f3d acbd 3b3f e93d b8b7 08be 56c7 32bd
00000170: dee9 9abd 6afb 133d 6a80 67bd a3b5 06be
00000180: 4f1b fdbd 3003 f5bc f5ff 9f3c 2ccf 133c
00000190: de69 0bbe 195b 51bd 778c 15be 92f2 683d
000001a0: e916 ed3c 9371 bfbc 6ba4 1abe c515 cfbc
000001b0: 55df 373d de22 143b 8b60 1bbe fecd d33d
000001c0: 1151 8b3c ee37 0ebe b89d 873d bf41 5bbd
000001d0: aabc 8f3d 7aa8 06bd 4679 9c3c 2437 bcbc
000001e0: fbb9 5cbd 90d9 9e3d 1acb debd e4b2 1a3d
000001f0: d661 c2bd 5365 903d 4ef0 5bbd 0bc1 f6bd
00000200: 3cf4 39bd a23b b0bd eee3 f6bd 44b5 013d
00000210: d334 04be 32e2 f13d 616d 263e fc66 c23d
00000220: af33 9c3d bbd4 d43d 794e c3bd cf95 023d
00000230: 42e5 523d d63b c93d fe17 ba3d 1274 153b
00000240: 4a4f 0b3e a55d cdbd 91f3 553b 04f8 d73d
00000250: b5c6 0c3d 8acf a93d 58ec 193e 21c2 423d
00000260: 7375 38bd 8091 0abe 2740 ee3d 1f5b ad3d
00000270: 070e 31bc 80f5 94bd 8284 b7bd c42f c9bd
00000280: b25b dfbd 7bde 8bbb c662 aabc f181 0bbe
00000290: 4794 d3bc 9aa1 debd 7b4f 1ebe b92a 10be
000002a0: c1b1 aa3c 9448 06be 5e80 d93c c297 793d
000002b0: 47c6 88bd a700 003e 0886 dfbc 4a21 92bc
000002c0: f322 f8bd 0a53 b5bc 734c c33d 7ace 08be
000002d0: 7f39 37be 1562 04bd 4044 6cbc e2de fc3d
000002e0: 758a edbd d8f5 493d 64a4 1ebd c9a7 d6bc
000002f0: 659a e5bb 86b7 1f3e dbec 5bbd 2d6f f33c
00000300: facd 183d c231 14be 3883 9cbb 1a93 bc3d
00000310: 522c 12be 089f 013d 534b a9bd 8b0f 5c3d
00000320: 9387 d13d 221a 00bc 53b2 0ebe 7485 183e
00000330: 92f0 a83c e357 17be 271b cdbc fa3b 02be
00000340: 9e3c 5c3c 1bb2 ecbd 67e3 b13d 9a68 9bbd
00000350: f7fd a03d e718 30bc 3b65 14be 8cb8 c73d
00000360: 1990 1fbe 097d 273d fecb 76bc 4ac1 cc3d
00000370: 0c07 f0bd f4b8 173e 6511 563c 5902 e33d
00000380: b82e fc3d 6410 84bd 42c5 18be ec06 123e
00000390: 4d2a 843d 47a2 29bd a126 bf3d 9324 b53d
000003a0: 5298 e3bd cbcb 9dbd 0187 683d bea6 e6bd
000003b0: 0f87 abbb 1a91 ebbd 802e 073e 39b6 f73d
000003c0: 85d5 c2bd 4bff 683d ce0c 2b3d 66f6 d53c
000003d0: 8a45 11be 69cf 8e3c 794d d73c 3a59 4d3c
000003e0: 5b1b 173d ea09 2d3e d31a 8fbc fdd3 f13d
000003f0: 2132 0cbc ab58 a9bc 3558 8d3c 699b 833d

blocks.0.gate_conv.conv.bias f4 [64]
-0.01494991 -0.023812115 -0.0031969233 0.0019579637 0.0010858516 0.020244787 0.004733394 0.0143236285
0.0069123255 -0.003956692 -0.010442119 -0.007212678 -0.0069434037 -0.007817422 -0.012209584 0.005879216
0.0049743694 -0.002438825 -0.010399511 0.00916887 0.008544754 0.00984576 -0.003919625 -0.009169742
-0.0100308405 0.0021545435 0.0004969342 0.007942683 -0.022565614 0.0024248501 0.014665115 -0.0013448844
0.00026031517 -0.0058464212 0.024264278 0.0008527797 -0.0067425286 0.0031219495 0.03407999 -0.0017056704
0.001900254 0.0126664 -0.021431278 0.0011393761 -0.0028267992 0.0056109186 0.008099332 0.008100325
0.009361123 -0.0014559429 0.03304629 -0.0023106942 0.013444888 -0.013998907 0.006623003 -0.0009880916
0.0013274569 0.010019503 0.0054844613 -0.0026438758 0.013331782 0.03883342 0.05281836 -0.0098629175
00000000: 78f0 74bc a011 c3bc 7983 51bb 2e51 003b
00000010: 2253 8e3a 65d8 a53c 961a 9b3b a7ad 6a3c
00000020: ca80 e23b 23a7 81bb 6c15 2bbc 5458 ecbb
00000030: 7e85 e3bb a514 00bc b50a 48bc 70a6 c03b
00000040: 0900 a33b b2d4 1fbb b662 2abc 0739 163c
00000050: 4cff 0b3c 1c50 213c 3370 80bb b03c 16bc
00000060: 6558 24bc 3e33 0d3b b144 023a 0722 023c
00000070: 86db b8bc 3cea 1e3b f345 703c d546 b0ba
00000080: e97a 8839 5693 bfbb e1c5 c63c 148d 5f3a
00000090: 6ef0 dcbb 9f99 4c3b 7697 0b3d cd90 dfba
000000a0: f211 f93a bb86 4f3c a690 afbc 1e57 953a
000000b0: d241 39bb ccdb b73b 10b3 043c 3ab7 043c
000000c0: 655f 193c 56d5 beba 8c5b 073d 046f 17bb
000000d0: f347 5c3c ac5b 65bc c705 d93b da82 81ba
000000e0: 10fe ad3a d728 243c ffb6 b33b e044 2dbb
000000f0: 8c6d 5a3c cb0f 1f3d 1158 583d 1398 21bc

blocks.0.residual_conv.weight f4 [64, 64, 1, 1]
0.15414268 0.15414941 -0.042129647 0.117096394 0.08981589 -0.13931102 0.17895544 0.15096714
-0.11616741 0.17011887 -0.05457898 0.07059286 0.09302432 -0.08020275 -0.1597276 0.100928165
0.010444575 -0.13997257 0.03641424 0.040860604 0.20820613 -0.21172011 0.02832793 0.1870389
0.06595443 -0.04574182 0.036717333 -0.1263264 -0.066760175 0.029815022 -0.06667797 -0.15212037
-0.12420645 0.17700547 -0.21179959 0.13313527 -0.14435633 -0.014234226 -0.16718715 -0.0009169012
0.04525085 0.04757956 0.03754722 -0.0108934175 -0.0397812 0.03656017 -0.16033271 0.104793236
0.095721975 -0.012371181 -0.20481735 0.16590972 0.0620197 -0.008675433 0.072804086 0.07318567
0.21218027 0.0035426428 -0.040449783 -0.19697247 -0.08625508 -0.09317341 -0.03124992 0.17575678
-0.055030614 0.031636607 -0.17555715 0.09777636 0.01608516 -0.16419059 0.06197985 -0.2070103
-0.17511126 -0.038260847 -0.22052166 -0.070548944 -0.06630864 0.20440063 0.17508042 0.12871468
-0.025769174 -0.108101144 0.112731725 0.043189764 0.1546738 -0.10235492 -0.19468424 -0.20992649
-0.035457026 -0.021220453 0.1976647 0.10230731 -0.17968911 -0.06820491 0.2116393 0.11548285
-0.14401971 0.14069524 -0.18368027 -0.103464775 0.063057825 0.025925534 0.080586135 -0.065560125
-0.1924845 0.13214853 0.04869815 -0.14330266 -0.0826322 0.046116054 0.087980226 -0.11799946
0.08124144 0.037980758 0.08192156 0.018146135 0.15422182 0.18658043 0.03560548 -0.17847298
-0.060849655 -0.19837976 0.099753246 0.19599794 -0.12592374 -0.007072438 -0.16693075 0.13709001
-0.06801558 -0.15032211 0.16000074 0.1652174 0.124414295 -0.12584259 0.1493199 0.02685796
0.109636314 -0.08606684 -0.1689031 -0.03853962 0.0454738 -0.17103752 -0.15130219 -0.14421
0.2444284 0.12498386 -0.12651548 0.21479526 0.14187041 -0.07978977 0.080139995 -0.19686541
0.115499884 -0.11522193 -0.074964166 0.108642116 -0.17182128 0.09286737 -0.042207785 -0.055635147
0.14198287 -0.17953311 0.04086068 -0.2114112 -0.023181923 -0.15517308 -0.08140374 0.17290373
-0.19263512 -0.091719866 0.18708338 0.15919863 -0.055967458 -0.08167748 0.1094625 -0.14281373
0.051966757 0.123199984 -0.06300426 -0.07186524 0.1918882 -0.14444211 0.21413046 0.088946015
-0.23049885 -0.03893116 0.09173542 -0.23334883 0.06421674 -0.23599884 0.10328368 -0.09500601
0.13921069 -0.06331884 -0.18568209 0.22320676 0.103773534 0.09585079 0.10272804 0.18700597
-0.084651016 -0.14723659 -0.05666429 0.020363834 -0.19290511 0.046075534 -0.15739663 0.20430613
-0.19235578 0.13005026 -0.052924592 0.0054548914 -0.18837994 -0.0015743203 0.15564856 -0.109307215
0.056136582 -0.06896218 -0.06102337 0.023239605 -0.0982698 -0.021196857 -0.052831814 0.04378157
-0.042994212 -0.20273025 0.15590546 0.17299908 0.19376063 -0.10061886 0.10344562 -0.1679746
0.19261988 -0.044542216 -0.15414095 0.14762183 -0.071722575 0.012072069 -0.069989175 -0.09905889
-0.14118458 -0.05697716 0.21140169 -0.21832114 -0.14823894 0.030025175 0.053035237 0.23148315
-0.06067971 -0.1275348 -0.045339163 0.14434904 0.16715766 -0.13410504 -0.18556072 0.087203816
00000000: 94d7 1d3e 58d9 1d3e 2390 2cbd 3cd0 ef3d
00000010: 65f1 b73d 8ca7 0ebe 1840 373e 2197 1a3e
00000020: 2ee9 edbd a433 2e3e 358e 5fbd fd92 903d
00000030: 8983 be3d 5741 a4bd a28f 23be 6db3 ce3d
00000040: b91f 2b3c f854 0fbe 1927 153d 735d 273d
00000050: fd33 553e 28cd 58be fa0f e83c 2087 3f3e
00000060: 1e13 873d c65b 3bbd ea64 163d b55b 01be
00000070: 8fb9 88bd a23e f43c 768e 88bd 71c5 1bbe
00000080: f45f febd ec40 353e fee1 58be 9d54 083e
00000090: 25d2 13be ac36 69bc 1c33 2bbe 335c 70ba
000000a0: f558 393d c9e2 423d 1dcb 193d 4e7a 32bc
000000b0: 9df1 22bd 1ec0 153d 422e 24be d69d d63d
000000c0: e209 c43d 7eb0 4abc a4bb 51be 3de4 293e
000000d0: 5e08 7e3d 6723 0ebc 4f1a 953d 5ee2 953d
000000e0: c945 593e af2b 683b acae 25bd 27b3 49be
000000f0: 81a6 b0bd b3d1 bebd d5ff ffbc 96f9 333e
00000100: c867 61bd 6395 013d 41c5 33be f93e c83d
00000110: 07c5 833c 9421 28be 95de 7d3d 82fa 53be
00000120: 5e50 33be 68b7 1cbd 6ed0 61be f77b 90bd
00000130: d3cc 87bd 664e 513e 4848 333e c8cd 033e
00000140: e019 d3bc 2264 ddbd e4df e63d c0e7 303d
00000150: cf62 1e3e 759f d1bd 4e5b 47be f8f6 56be
00000160: 633b 11bd 84d6 adbc 9d68 4a3e 7f86 d13d
00000170: 6c00 38be 04af 8bbd f9b7 583e 4682 ec3d
00000180: e779 13be 6a12 103e ae16 3cbe 57e5 d3bd
00000190: 7624 813d c961 d43c 580a a53d 6344 86bd
000001a0: a81a 45be f251 073e b677 473d efbd 12be
000001b0: 123b a9bd 30e4 3c3d fa2e b43d b3a9 f1bd
000001c0: e961 a63d b691 1b3d 7ec6 a73d 34a7 943c
000001d0: 53ec 1d3e f10e 3f3e 0dd7 113d 9fc1 36be
000001e0: 7d3d 79bd 1024 4bbe 6e4b cc3d afb3 483e
000001f0: 27f2 00be e9bf e7bb e5ef 2abe 5361 0c3e
00000200: c14b 8bbd 0aee 19be 3cd7 233e c02e 293e
00000210: eccc fe3d e1dc 00be 51e7 183e 3905 dc3c
00000220: 0189 e03d d043 b0bd eff4 2cbe b8db 1dbd
00000230: bc42 3a3d 7624 2fbe f6ee 1abe c9ab 13be
00000240: 704b 7a3e 8af7 ff3d 468d 01be 4af3 5b3e
00000250: 7a46 113e d268 a3bd 7020 a43d 1697 49be
00000260: 348b ec3d 7af9 ebbd d086 99bd c27f de3d
00000270: ebf1 2fbe 3f31 be3d 12e2 2cbd aee1 63bd
00000280: f563 113e 87d7 37be 875d 273d 2d7c 58be
00000290: 04e8 bdbc b1e5 1ebe 01b7 a6bd ad0d 313e
000002a0: 2442 45be a0d7 bbbd c992 3f3e f704 233e
000002b0: 223e 65bd 8646 a7bd e02d e03d c33d 12be
000002c0: 18db 543d 4650 fc3d 6108 81bd 152e 93bd
000002d0: 577e 443e a2e8 13be 0445 5b3e 5429 b63d
000002e0: e407 6cbe 4876 1fbd c8df bb3d fff2 6ebe
000002f0: 1184 833d aea9 71be 6586 d33d 8392 c2bd
00000300: 3f8d 0e3e 4fad 81bd 7223 3ebe 5090 643e
00000310: 3887 d43d 6b4d c43d 1463 d23d 7e7e 3f3e
00000320: 835d adbd 30c5 16be d118 68bd 0ed2 a63c
00000330: eb88 45be b3b9 3c3d 952c 21be a035 513e
00000340: eaf8 44be e52b 053e 75c7 58bd f2be b23b
00000350: ace6 40be 6c59 ceba 5662 1f3e 76dc dfbd
00000360: 79ef 653d 0b3c 8dbd a4f3 79bd fc60 be3c
00000370: ad41 c9bd 08a5 adbc 2c66 58bd 4e54 333d
00000380: b31a 30bd 8598 4fbe aea5 1f3e ac26 313e
00000390: 3069 463e 4311 cebd 4cdb d33d 8901 2cbe
000003a0: 253e 453e e671 36bd 20d7 1dbe 2d2a 173e
000003b0: 49e3 92bd edc9 453c 7c56 8fbd 63df cabd
000003c0: b192 10be e260 69bd af79 583e 948f 5fbe
000003d0: f3cb 17be 5bf7 f53c 7a3b 593d eb09 6d3e
000003e0: 4a8b 78bd 7c98 02be 8fb5 39bd 3cd0 133e
000003f0: 612b 2b3e d552 09be a103 3ebe ea97 b23d

blocks.0.residual_conv.bias f4 [64]
0.019221451 0.009291276 0.0050433143 -0.0044233394 -0.04758712 -0.007250039 -0.010958349 -0.005839526
0.02120532 0.028712712 0.029267931 0.035768252 -0.0040278626 -0.01255002 -0.01392007 0.03203532
0.019271405 0.023857022 -0.0034955924 0.027734611 -0.03379902 0.0023722625 -0.034813233 0.04028281
0.004786784 0.024912775 -0.026241828 0.016041901 0.012383591 0.006419303 -0.004135033 -0.010855827
-0.026584407 0.0103553515 -0.011236179 0.020642042 -0.03607701 -0.021008069 -0.0025661008 0.026580224
-0.023835465 -0.022577908 0.027567273 0.003174803 0.0076072803 -0.007070613 0.025575468 -0.032769635
0.000482363 0.006045553 0.01237479 0.0312426 -0.0046181786 0.01716516 0.0019297578 0.03086603
0.0009989182 -0.013223383 0.003078319 -0.002299433 -0.015005017 -0.00048457767 0.019815315 0.0038631451
00000000: 4e76 9d3c 703a 183c 6342 a53b a9f1 90bb
00000010: b6ea 42bd bc91 edbb a68a 33bc 7f59 bfbb
00000020: c7b6 ad3c ec36 eb3c 4dc3 ef3c bb81 123d
00000030: 29fc 83bb 999e 4dbc 0111 64bc 7837 033d
00000040: 11df 9d3c cd6f c33c 4f16 65bb b233 e33c
00000050: d770 0abd f677 1b3b 5298 0ebd 96ff 243d
00000060: 74da 9c3b e015 cc3c 1af9 d6bc 4e6a 833c
00000070: 8ce4 4a3c 0459 d23b 2c7f 87bb a3dc 31bc
00000080: 8bc7 d9bc 7ea9 293c f317 38bc 8019 a93c
00000090: 7dc5 13bd 1d19 acbc 072c 28bb c5be d93c
000000a0: 9842 c3bc 4ef5 b8bc c3d4 e13c 5b10 503b
000000b0: 7e46 f93b 9ab0 e7bb a583 d13c 7439 06bd
000000c0: aae5 fc39 c619 c63b a2bf 4a3c 7bf0 ff3c
000000d0: 1754 97bb f39d 8c3c edef fc3a c2da fc3c
000000e0: 22ee 823a e3a6 58bc 9fbd 493b 16b2 16bb
000000f0: 9ad7 75bc ea0e feb9 ba53 a23c d22c 7d3b

blocks.0.skip_conv.weight f4 [128, 64, 1, 1]
0.047645967 -0.054904707 -0.082989246 0.08118999 -0.140899 -0.087914854 0.16600159 -0.08919017
0.1609983 0.05514489 0.051249992 0.10020802 0.11384103 -0.024946174 -0.09503249 -0.059781205
-0.14266612 0.013405732 -0.026278904 -0.13841851 0.045068942 0.11733913 -0.12717648 -0.020560728
-0.13164833 0.014077604 0.13431653 -0.113080084 0.11587502 -0.022979787 -0.015355112 0.09455801
0.16507107 0.15724099 -0.0043649534 -0.009553747 0.094292805 -0.15768209 -0.018347245 0.15822181
-0.13444312 0.13196649 0.0936906 -0.09380047 0.070571475 0.14951113 -0.049752265 0.13809465
0.0707957 -0.030651025 0.17987475 -0.10728155 0.03901049 -0.027826568 -0.104786724 0.011060859
-0.033194944 0.14026016 0.1618435 0.12159629 -0.078570515 0.0610766 0.17062163 -0.038111392
0.13948314 -0.010997203 0.07791533 0.15109561 0.03395364 0.03963685 0.058053967 0.11214549
0.07216294 0.13770106 0.16838598 -0.17815031 0.12004014 -0.027989566 -0.041959908 -0.18105647
0.114094645 -0.09741383 -0.02681924 0.124476 0.055986475 0.10361558 0.064685635 0.1284081
-0.054582775 -0.015966307 -0.13646208 0.116202846 0.08527987 0.20313151 0.04684648 0.087465994
-0.051812388 0.14903308 -0.07278441 -0.14674541 0.12856273 0.035985176 0.14158854 -0.07656334
-0.09252157 -0.010981211 0.13487 0.12454923 0.0055790823 -0.18632537 -0.037409127 0.066178866
0.14393695 0.15547173 0.12395802 -0.09549469 0.17785878 0.022901231 0.038962487 0.010218975
-0.088388965 -0.105769575 0.11763539 0.074827015 0.017252099 -0.013163218 -0.021691566 -0.12979794
-0.16100651 -0.06343917 -0.12287447 0.10651274 -0.05752788 -0.0030013307 -0.02623845 -0.0134696085
0.12045895 -0.09222546 -0.14322525 -0.17383645 -0.11356533 -0.08246485 0.17504863 -0.06876224
0.12422817 -0.122655846 -0.07834986 0.089461945 -0.13565396 0.12129429 0.16948639 -0.11215102
0.019089522 0.11364195 -0.048180263 0.18775098 0.08377146 -0.15967953 -0.08088411 -0.11094008
0.08815865 -0.14171816 0.031428915 0.1516736 -0.111946136 -0.14465627 0.17166544 -0.07479517
-0.056659132 -0.1176379 -0.108526304 0.12742852 0.12086844 0.10610441 0.07335399 -0.0512272
0.11066693 -0.14286028 -0.1702718 -0.05294588 -0.06962573 0.048582748 -0.07065865 0.081014715
0.14017521 -0.16758633 -0.12792213 0.11821892 0.004671558 0.09660432 -0.16244005 -0.05822335
0.1131041 0.0061334777 -0.08848125 -0.03783221 -0.05663079 0.09465858 0.011990724 -0.16062619
0.11550503 -0.1700793 -0.1512089 0.07256979 -0.061681032 -0.03851483 0.15814912 0.15383703
0.1599016 0.09457262 0.136714 -0.077211104 -0.0011452497 0.09921095 -0.0982003 -0.09244391
-0.13863513 0.04329682 0.041404173 0.057893153 -0.008280106 0.14565349 -0.06383703 -0.006983402
-0.15938617 -0.015322018 -0.032149557 -0.09747294 0.093584426 -0.054788165 -0.11161643 -0.11184097
0.14324448 0.051390067 0.06119693 0.109676756 -0.08390645 -0.07836133 0.17906442 -0.10510227
-0.036771517 -0.08677993 -0.03578477 0.15111433 -0.013105885 0.0068633654 0.054560304 0.13034272
0.1636288 0.13080972 0.022617677 -0.12885079 0.09281391 0.15331818 -0.022294678 -0.07754892
00000000: 6b28 433d c2e3 60bd 44f6 a9bd f046 a63d
00000010: d447 10be b40c b4bd 52fc 293e 56a9 b6bd
00000020: bddc 243e 9cdf 613d 83eb 513d dd39 cd3d
00000030: 7c25 e93d eb5b ccbc 65a0 c2bd 23dd 74bd
00000040: 1117 12be b7a3 5b3c db46 d7bc 95bd 0dbe
00000050: 369a 383d 7f4f f03d 8d3a 02be f96e a8bc
00000060: d2ce 06be c0a5 663c 468a 093e 8896 e7bd
00000070: e24f ed3d 1b40 bcbc 0294 7bbc a1a7 c13d
00000080: 6408 293e c803 213e e207 8fbb 5287 1cbc
00000090: 961c c13d 6a77 21be f64c 96bc e604 223e
000000a0: 75ab 09be 3922 073e dbe0 bf3d 761a c0bd
000000b0: c787 903d 7219 193e 08c9 4bbd af68 0d3e
000000c0: 56fd 903d dc17 fbbc 1631 383e 6eb6 dbbd
000000d0: 77c9 1f3d 8bf4 e3bc 6c9a d6bd 9b38 353c
000000e0: 6cf7 07bd 5ca0 0f3e 4dba 253e 7a07 f93d
000000f0: 94e9 a0bd 752b 7a3d 70b7 2e3e b11a 1cbd
00000100: abd4 0e3e 9d2d 34bc 1392 9f3d cfb8 1a3e
00000110: f912 0b3d 405a 223d ffc9 6d3d 89ac e53d
00000120: 2aca 933d 8201 0d3e 606d 2c3e 096d 36be
00000130: 9bd7 f53d 604a e5bc 27de 2bbd de66 39be
00000140: 74aa e93d e780 c7bd 06b4 dbbc 46ed fe3d
00000150: 1352 653d 6834 d43d e779 843d 6a7d 033e
00000160: 3092 5fbd c6cb 82bc b7bc 0bbe c2fb ed3d
00000170: 36a7 ae3d b501 503e 18e2 3f3d 5f21 b33d
00000180: 3a39 54bd 219c 183e fe0f 95bd 6e44 16be
00000190: f3a5 033e 3165 133d 96fc 103e 3ecd 9cbd
000001a0: f37b bdbd 8aea 33bc 5c1b 0a3e ab13 ff3d
000001b0: bcd0 b63b 14cc 3ebe 503a 19bd c988 873d
000001c0: 3564 133e fb33 1f3e b4dd fd3d b892 c3bd
000001d0: 9d20 363e 5d9b bb3c 2197 1f3d 7d6d 273c
000001e0: 4605 b5bd b89d d8bd d3ea f03d e83e 993d
000001f0: 4654 8d3c 8aaa 57bc 83b2 b1bc c0e9 04be
00000200: e4de 24be 65ec 81bd 9ca5 fbbd 5a23 da3d
00000210: 5ba2 6bbd f9b1 44bb 05f2 d6bc a2af 5cbc
00000220: 2fb3 f63d b4e0 bcbd a4a9 12be 2f02 32be
00000230: f194 e8bd 55e3 a8bd f33f 333e 38d3 8cbd
00000240: 576b fe3d fd32 fbbd e475 a0bd d337 b73d
00000250: dfe8 0abe 2469 f83d d78d 2d3e 6faf e5bd
00000260: a161 9c3c 1cbd e83d ab58 45bd cb41 403e
00000270: 5f90 ab3d 0883 23be 91a6 a5bd 8d34 e3bd
00000280: 868c b43d 911e 11be 9bbb 003d 5350 1b3e
00000290: 0444 e5bd c620 14be 11c9 2f3e 362e 99bd
000002a0: 6813 68bd 24ec f0bd 0a43 debd 9f7c 023e
000002b0: df89 f73d 454d d93d 9e3a 963d 9dd3 51bd
000002c0: 58a5 e23d f749 12be bb5b 2ebe c7dd 58bd
000002d0: ef97 8ebd b4fe 463d 7bb5 90bd 0beb a53d
000002e0: 178a 0f3e c09b 2bbe 05fe 02be c31c f23d
000002f0: de13 993b 7cd8 c53d af56 26be 9c7b 6ebd
00000300: 1fa3 e73d 57fb c83b a835 b5bd f3f5 1abd
00000310: b0f5 67bd 5cdc c13d be74 443c 317b 24be
00000320: e78d ec3d 4529 2ebe 82d6 1abe 789f 943d
00000330: 40a5 7cbd bac1 1dbd d8f1 213e 7487 1d3e
00000340: 3fbd 233e 4aaf c13d c1fe 0b3e db20 9ebd
00000350: 341c 96ba 1c2f cb3d 3d1d c9bd 3c53 bdbd
00000360: 5ef6 0dbe 0258 313d 6c97 293d 5f21 6d3d
00000370: 48a9 07bc 3026 153e fdbc 82bd 06d5 e4bb
00000380: 2136 23be 3409 7bbc 41af 03bd e59f c7bd
00000390: 31a9 bf3d 8e69 60bd 2897 e4bd e10c e5bd
000003a0: aeae 123e 647e 523d a2a9 7a3d 359e e03d
000003b0: 25d7 abbd e87b a0bd aa5c 373e dc3f d7bd
000003c0: bb9d 16bd adb9 b1bd 0d93 12bd b7bd 1a3e
000003d0: 11ba 56bc 15e6 e03b a07a 5f3d 9078 053e
000003e0: 4f8e 273e fcf2 053e b548 b93c 76f1 03be
000003f0: 3815 be3d 71ff 1c3e 54a3 b6bc f8d1 9ebd

blocks.0.skip_conv.bias f4 [128]
-0.0015229405 0.003329781 0.0005694336 -0.0020963436 0.0045792274 0.0017049252 0.01726241 -0.0018276164
-0.00017655859 0.003457466 -0.0059998217 0.01035215 0.007881715 0.00016778985 0.005560878 0.0067997687
-0.0029351057 -0.0021456005 -0.0050567826 0.011592728 0.013287659 0.015227398 -0.0032549317 -0.0068625654
0.00013706599 0.013466942 -0.00068394054 0.0029489708 0.02363581 0.00069193135 0.00025107336 0.0007645573
-0.0057927296 0.008006685 -0.0012082906 0.0064774966 0.0046660625 -0.011831565 -0.00029664897 -0.0016058967
0.007447323 -0.008132302 0.000841226 0.019690273 0.0052676215 -0.0018831064 0.000881951 -0.0072810617
0.0026001977 -0.0038425718 0.00222755 0.0033334247 0.0004588537 0.0064421482 -0.002703207 0.0051611406
0.0031931645 0.00853296 0.0015724127 0.0058831284 0.0021627417 -0.0033251606 0.005229857 0.007119982
0.0025932824 -0.005911885 -0.002440864 0.0074462094 0.0008129526 -0.010466968 0.0062142853 0.009521583
-0.0056366622 0.0035136482 0.0021943892 0.0063808584 0.0047403295 0.013397564 0.00442188 0.0075558596
0.011767464 0.0016709272 0.0064382595 -0.008849332 0.007316064 0.009703393 0.010445505 0.0010861802
0.007607374 0.0007207656 0.01212662 0.008880528 0.012022578 0.007005571 -0.0011469026 -0.004503828
-0.00029576462 0.008506569 -0.0033303683 0.009969224 0.004597492 0.0023608878 0.005707852 0.0029151014
0.0061933002 0.0010944374 -0.008306919 -0.00046422015 -0.003044891 -0.012620332 0.0122518875 0.0082605155
-0.004787249 0.007581764 0.0048622927 0.0012783386 0.014319009 0.011585593 0.0050027017 0.002207611
-3.0838313e-05 0.0033394443 -0.0082701715 0.0013746916 0.005784684 0.00050231547 0.015682269 -0.0016394553
00000000: 679d c7ba 7438 5a3b 0b46 153a cf62 09bb
00000010: 580d 963b cc77 df3a e669 8d3c a18c efba
00000020: 9622 39b9 a796 623b 279a c4bb 109c 293c
00000030: 4f22 013c bff0 2f39 0738 b63b 98d0 de3b
00000040: e75a 40bb 349d 0cbb 5eb3 a5bb 6def 3d3c
00000050: 7bb4 593c 567c 793c b150 55bb 5fdf e0bb
00000060: 5fb9 0f39 73a4 5c3c 794a 33ba 8543 413b
00000070: e39f c13c ba62 353a 7fa2 8339 926c 483a
00000080: f0d0 bdbb 792e 033c 815f 9eba 2e41 d43b
00000090: c5e5 983b 2ed9 41bc 8d87 9bb9 f47c d2ba
000000a0: ac08 f43b 593d 05bc b985 5c3a 7f4d a13c
000000b0: 039c ac3b 91d2 f6ba bb32 673a f995 eebb
000000c0: 1468 2a3b a8d3 7bbb 16fc 113b 9675 5a3b
000000d0: 4d92 f039 a818 d33b 4a28 31bb c91e a93b
000000e0: 6944 513b d4cd 0b3c 6a19 ce3a 42c7 c03b
000000f0: c9bc 0d3b f0ea 59bb 385f ab3b bd4e e93b
00000100: 0ff4 293b 7cb8 c1bb e7f6 1fbb 55ff f33b
00000110: 531c 553a a57d 2bbc 34a1 cb3b 6a00 1c3c
00000120: c0b3 b8bb 3c45 663b becf 0f3b 8516 d13b
00000130: c454 9b3b 7581 5b3c 6be5 903b 2597 f73b
00000140: 52cc 403c 0303 db3a 09f8 d23b cafc 10bc
00000150: 98bb ef3b fbfa 1e3c a023 2b3c 295e 8e3a
00000160: 4747 f93b c3f1 3c3a bbae 463c a27f 113c
00000170: 59fa 443c fd8e e53b aa53 96ba d994 93bb
00000180: db10 9bb9 235f 0b3c 4f42 5abb f555 233c
00000190: 8fa6 963b 20b9 1a3b ef08 bb3b 490b 3f3b
000001a0: 2bf1 ca3b 3a73 8f3a be19 08bc 9362 f3b9
000001b0: cb8c 47bb 82c5 4ebc 24bc 483c 1d57 073c
000001c0: 5bde 9cbb 7270 f83b de53 9f3b ed8d a73a
000001d0: 479a 6a3c 80d1 3d3c b4ed a33b 91ad 103b
000001e0: 6358 01b8 94da 5a3b 9d7f 07bc ff2e b43a
000001f0: 728d bd3b d2ad 033a 1a78 803c fee2 d6ba

blocks.0.bn.weight f4 [64]
0.990128 1.0049124 1.010302 1.0105475 1.0249193 1.0150723 0.9894973 0.98923993
1.0147593 1.002872 0.9875196 1.0088382 1.0131195 1.0243253 0.99441576 1.0263239
0.9895607 1.0052085 1.0209376 1.0144916 1.0067122 1.0041105 1.0144479 0.9821693
1.0092659 1.0213437 0.9925044 1.0002174 1.0191494 1.006846 1.0087203 0.9933104
0.9875623 1.0228169 0.9881497 1.0077925 1.0206428 0.9856816 1.0272636 1.021037
0.9996187 0.99306476 1.0093852 1.0162683 0.995272 1.0003551 0.99449533 0.99226415
0.9883117 0.9983448 0.9779516 1.0384324 0.9903298 1.0095881 0.9962032 1.0005535
0.997715 0.9913694 1.0109366 1.0076778 1.004385 0.99734724 1.0430087 1.0023882
00000000: 0779 7d3f f8a0 803f 9351 813f 9f59 813f
00000010: 8e30 833f e4ed 813f b24f 7d3f d43e 7d3f
00000020: a2e3 813f 1c5e 803f 16ce 7c3f 9c21 813f
00000030: e6ad 813f 171d 833f 0892 7e3f 955e 833f
00000040: da53 7d3f acaa 803f 15ae 823f dcda 813f
00000050: f2db 803f b186 803f 6ed9 813f 726f 7b3f
00000060: a02f 813f 64bb 823f c514 7e3f 2007 803f
00000070: 7d73 823f 54e0 803f bf1d 813f 9749 7e3f
00000080: e2d0 7c3f aaeb 823f 61f7 7c3f 58ff 803f
00000090: 6ca4 823f a155 7c3f 607d 833f 57b1 823f
000000a0: 03e7 7f3f 7e39 7e3f 8933 813f 1415 823f
000000b0: 25ca 7e3f a30b 803f 3f97 7e3f 0605 7e3f
000000c0: ff01 7d3f 8693 7f3f 095b 7a3f 5aeb 843f
000000d0: 4186 7d3f 2f3a 813f 2c07 7f3f 2312 803f
000000e0: 406a 7f3f 63ca 7d3f 5f66 813f 96fb 803f
000000f0: b08f 803f 2652 7f3f 4f81 853f 424e 803f

blocks.0.bn.bias f4 [64]
0.0061110095 0.0005648402 0.0024210033 0.0076473337 -0.014695128 0.009192366 -0.0075588557 0.0054783453
-0.00093019474 0.008504744 0.008927727 -0.0055328095 -0.0037307139 -0.0011192363 0.007823284 0.011620992
-0.0089393705 -0.0037790416 0.0039410084 0.0052813403 -0.0016893756 0.0056031924 0.005798566 0.018867077
0.0019834123 -0.009160862 -0.010387682 -0.003802249 0.005260067 -0.0040037 -0.0032489812 -0.012458398
0.0018997424 -0.007272674 -0.00042921858 0.0010859455 -0.018965418 0.0040599215 -0.011415091 -0.00072731613
-0.0177471 -0.0043604486 -0.0066651874 -0.00798635 -0.0046532587 -0.004403327 0.015980918 0.007696
-0.016026132 -0.0014349428 0.015447038 0.004709831 0.013683579 0.009543577 -0.008471887 0.016879616
0.030527685 -0.00966826 -0.012028497 0.00029340634 0.01508883 -0.003370421 -0.0037793445 -0.015778316
00000000: dd3e c83b c911 143a b2a9 1e3b 7c96 fa3b
00000010: d6c3 70bc 949b 163c 47b0 f7bb b183 b33b
00000020: 50d8 73ba 7b57 0b3c 9a45 123c 924c b5bb
00000030: fe7e 74bb 57b3 92ba 3b2d 003c f965 3e3c
00000040: 7076 12bc cca9 77bb 9323 813b 180f ad3b
00000050: 0a6e ddba fc9a b73b e601 be3b 218f 9a3c
00000060: 23fc 013b 7117 16bc 1931 2abc 272f 79bb
00000070: a45c ac3b 7831 83bb dcec 54bb 4f1e 4cbc
00000080: c700 f93a 9c4f eebb be08 e1b9 4956 8e3a
00000090: 5d5d 9bbc 1709 853b 5d06 3bbc 5ca9 3eba
000000a0: 5e62 91bc 18e2 8ebb a567 dabb 2ed9 02bc
000000b0: 5d7a 98bb c949 90bb 6aea 823c ba2e fc3b
000000c0: 3c49 83bc b114 bcba 9315 7d3c ed54 9a3b
000000d0: 1731 603c aa5c 1c3c abcd 0abc 1f47 8a3c
000000e0: 3215 fa3c 9f67 1ebc 2c13 45bc 55d4 9939
000000f0: 2437 773c 48e2 5cbb e1ae 77bb 8741 81bc

blocks.0.bn.running_mean f4 [64]
0.10273011 0.07544157 0.14516485 -0.02554598 -0.07646074 -0.020443773 0.038960334 0.05450611
-0.019309944 0.038979746 0.12651137 -0.0480859 0.039661363 -0.0075216237 -0.14300345 0.15022856
-0.06980294 0.06777589 -0.0017706198 0.07040266 -0.0767629 -0.026390819 -0.027943438 0.04931601
0.03265395 0.026218586 -0.028694965 0.044225335 0.067528814 -0.13110265 -0.08524725 -0.08928454
-0.058449138 0.11316987 0.05017416 -0.10701695 0.11302361 0.063072905 -0.01586191 0.072603695
-0.12860511 -0.12737721 0.027404692 0.016845558 -0.03386495 0.122256495 -0.025717765 -0.09304827
0.068987645 0.092987955 -0.12772182 -0.009226831 -0.09178231 -0.014302003 -0.012432015 0.018610628
-0.011237134 -0.021872433 0.01009817 -0.039554514 -0.025296655 -0.08438218 0.093593955 0.028313695
00000000: 2a64 d23d 1c81 9a3d 18a6 143e ce45 d1bc
00000010: 7397 9cbd b379 a7bc df94 1f3d cc41 5f3d
00000020: e32f 9ebc 3aa9 1f3d 328c 013e b8f5 44bd
00000030: f473 223d f477 f6bb 7f6f 12be 84d5 193e
00000040: d8f4 8ebd 16ce 8a3d 2414 e8ba 452f 903d
00000050: de35 9dbd 8f31 d8bc a3e9 e4bc 96ff 493d
00000060: 26c0 053d 5cc8 d63c b411 ebbc a025 353d
00000070: 8c4c 8a3d c63f 06be 1c96 aebd d0da b6bd
00000080: 5d68 6fbd 9bc5 e73d 6c83 4d3d b42b dbbd
00000090: ec78 e73d 5e2c 813d d6f0 81bc 3fb1 943d
000000a0: 0fb1 03be 2c6f 02be ce7f e03c b2ff 893c
000000b0: f9b5 0abd 9d61 fa3d 10ae d2bc 1790 bebd
000000c0: 6549 8d3d 7870 be3d 82c9 02be 222c 17bc
000000d0: 5df8 bbbd f352 6abc a6af 4bbc 5175 983c
000000e0: f51b 38bc d12d b3bc cb72 253c ea03 22bd
000000f0: ee3a cfbc 90d0 acbd 30ae bf3d 1ff2 e73c

blocks.0.bn.running_var f4 [64]
0.07308552 0.13597848 0.24237461 0.19342811 0.11211246 0.036798187 0.088011175 0.20321602
0.06386338 0.062753685 0.25132996 0.14772244 0.034470387 0.040753398 0.23997062 0.22236812
0.15840359 0.20712039 0.12372496 0.050331138 0.16221596 0.1371015 0.070597805 0.07582224
0.088491954 0.04108488 0.12779823 0.09858389 0.038137674 0.091016956 0.1465781 0.15344602
0.1910601 0.15006661 0.058255132 0.07417043 0.14823152 0.11660605 0.09511837 0.07047547
0.095032886 0.18345402 0.095432706 0.070543185 0.108534046 0.23229752 0.10435918 0.11791454
0.07164788 0.16049315 0.23136221 0.07486844 0.14280528 0.06376443 0.039452612 0.099354304
0.04123704 0.043943197 0.09599265 0.149001 0.12124839 0.10722967 0.069762655 0.18605821
00000000: dcad 953d f13d 0b3e 0d31 783e 0512 463e
00000010: 389b e53d b2b9 163d 343f b43d dc17 503e
00000020: ceca 823d 0185 803d 52ae 803e 8d44 173e
00000030: d230 0d3d 09ed 263d dcba 753e 78b4 633e
00000040: 8d34 223e 5e17 543e 8363 fd3d 0628 4e3d
00000050: f11b 263e 5664 0c3e 9595 903d b148 9b3d
00000060: 453b b53d 9e48 283d 8add 023e 5ae6 c93d
00000070: 4036 1c3d 1967 ba3d 9218 163e f420 1d3e
00000080: 42a5 433e 10ab 193e ef9c 6e3d abe6 973d
00000090: 01ca 173e 27cf ee3d 6ccd c23d 7155 903d
000000a0: 9aa0 c23d 5fdb 3b3e 3972 c33d f278 903d
000000b0: 1947 de3d 67df 6d3e 44ba d53d 2e7d f13d
000000c0: 20bc 923d 5158 243e 37ea 6c3e a054 993d
000000d0: 8c3b 123e ed96 823d 1099 213d 457a cb3d
000000e0: 2ce8 283d c8fd 333d cb97 c43d b893 183e
000000f0: 1351 f83d 3b9b db3d b9df 8e3d 0b86 3e3e
