TGNN2026/checkpoints_MTGNN1m_auc_3class/production_best.pt (torch, 912715 bytes, 82 tensors)

A_static f4 [3, 3]
0	0x3eaaaaab	0.33333334
1	0x3eaaaaab	0.33333334
2	0x3eaaaaab	0.33333334
3	0x3eaaaaab	0.33333334
4	0x3eaaaaab	0.33333334
5	0x3eaaaaab	0.33333334
6	0x3eaaaaab	0.33333334
7	0x3eaaaaab	0.33333334
8	0x3eaaaaab	0.33333334

in_proj.weight f4 [64, 15]
0	0x3d81cc9c	0.06337854
1	0xbe049364	-0.1294685
2	0xbd888834	-0.06666604
3	0xbdf84495	-0.12122456
4	0xbd827d92	-0.06371607
5	0xbdac486e	-0.08412252
6	0x3e49bcb5	0.19700892
7	0xbd9fb9dd	-0.077991225
8	0xbd27fd76	-0.041013204
9	0xbe43f4e9	-0.19136395
10	0xbe0746d1	-0.13210608
11	0x3d26cb44	0.040721193
12	0xbe57eb4b	-0.21085851
13	0xbc13d531	-0.009022997
14	0x3e815273	0.25258216
15	0x3e81c896	0.25348347
16	0xbde8fa14	-0.113758236
17	0x3e564c15	0.2092746
18	0x3e27bf34	0.16381532
19	0xbd3ab140	-0.045579195
20	0x3e6dff7e	0.23241994
21	0x3e5682a9	0.2094828
22	0x3e6faa71	0.23404862
23	0xbe084a3a	-0.13309565
24	0xbe45cbf3	-0.19316082
25	0xbe18ce0f	-0.14922355
26	0x3d975aeb	0.07390388
27	0x3cf36854	0.029712833
28	0xbddbf9e4	-0.10741022
29	0x3e6b9369	0.23005451
30	0xbe5499a2	-0.20761731
31	0x3dae927f	0.08524036
32	0xbdb0009a	-0.08593865
33	0xbd8ac5bd	-0.06775997
34	0xbe4c8367	-0.19972001
35	0x3e7d4be6	0.24735984
36	0x3dbc1e2b	0.091854416
37	0x3e4ca2ba	0.1998395
38	0xbc9f1944	-0.019421227
39	0x3d15cc0f	0.03657156
40	0xbe8856a6	-0.26628608
41	0xbe58f613	-0.2118762
42	0xbdeb6fce	-0.114959344
43	0x3cfaf4f0	0.030634373
44	0xbe028e11	-0.12749507
45	0xbe842b51	-0.25814298
46	0xbe3d322c	-0.1847617
47	0xbe3553f5	-0.17707808
48	0x3e84cf8a	0.2593959
49	0xbdbd01b2	-0.09228839
50	0x3e7953a9	0.2434832
51	0x3e3fdb3e	0.18735978
52	0x3e2ae585	0.16689117
53	0xbe2a7705	-0.16646965
54	0x3e8302a8	0.25587964
55	0xbe026f0e	-0.12737677
56	0x3dba638d	0.09101019
57	0xbe072887	-0.13199054
58	0x3e2ae12e	0.16687462
59	0x3d883275	0.06650249
60	0xbe537784	-0.2065106
61	0x3e6cbef9	0.23119725
62	0x3cf2cde0	0.029639184
63	0x3c11e6af	0.008905097
64	0xbd78923d	-0.06068634
65	0xbe02d199	-0.12775268
66	0x3e58f6b9	0.21187867
67	0x3e380c1e	0.17973372
68	0x3e240a07	0.1601945
69	0xbe298ef6	-0.16558442
70	0x3d881cbd	0.066461064
71	0x3debd8fd	0.115159966
72	0xbe3b940a	-0.18318191
73	0x3d438258	0.047731727
74	0xbe13ea0a	-0.14444748
75	0xbe6d26bb	-0.23159306
76	0x3dbf61e0	0.0934484
77	0x3e77986c	0.24179238
78	0xbe146bc2	-0.14494231
79	0x3e2c5895	0.16830666
80	0x3e79018b	0.24316995
81	0x3e85fe96	0.26170796
82	0x3e7a8c0e	0.24467489
83	0x3e8ad257	0.27113602
84	0xbde1fc8b	-0.11034497
85	0x3d44f15c	0.04808174
86	0xbc12ec94	-0.008967537
87	0xbdd46b03	-0.10371973
88	0xbe5d7f37	-0.2163056
89	0xbe11a03c	-0.14221281
90	0xbe20857a	-0.15675917
91	0x3e5038b7	0.20334135
92	0xbd0aa927	-0.033852722
93	0xbe6f4ed7	-0.23369919
94	0xbe6ac54a	-0.22926822
95	0xbc03dbdc	-0.008048024
96	0x3e82b31a	0.2552727
97	0x3e8a574e	0.27019733
98	0x3d00fb57	0.031489696
99	0x3e5c6b99	0.2152542
100	0x3d841d48	0.064508975
101	0xbe61536f	-0.22004484
102	0xbe8bfc7c	-0.27341068
103	0x3e3e9687	0.18612109
104	0xbdbe31d9	-0.092868514
105	0x3b9c99c8	0.0047790743
106	0xbe0fa4e9	-0.14027752
107	0xbe65470c	-0.22390383
108	0xbe243756	-0.16036734
109	0xbe89a367	-0.2688248
110	0x3d97b497	0.07407492
111	0x3ddabf15	0.10680977
112	0x3e001770	0.1250894
113	0xbdbcdabb	-0.09221407
114	0xbe27eca6	-0.16398868
115	0xbe355a77	-0.17710291
116	0x3e383392	0.17988423
117	0x3e7b16f4	0.24520475
118	0xbdf0cc17	-0.11757677
119	0x3e6082dc	0.21924919
120	0xbe4e1524	-0.20125252
121	0xbe734f0d	-0.23760624
122	0x3d8ab367	0.067724995
123	0x3ca2abb2	0.019857261
124	0xbdf4d303	-0.1195431
125	0xbdfe44f8	-0.124154985
126	0xbce97af1	-0.028501006
127	0xbd8271f4	-0.06369391
128	0x3e395405	0.18098457
129	0x3d893d16	0.06701104
130	0xbd134840	-0.035957575
131	0xbd79f769	-0.061026964
132	0x3d8391f8	0.06424326
133	0xbd955874	-0.07292262
134	0x3e88bc52	0.26706177
135	0x3c0686e7	0.008210874
136	0x3e27da5d	0.16391893
137	0xbdcbb54f	-0.09946691
138	0x3e5a01f9	0.21289815
139	0x3e48fcdc	0.19627708
140	0xbdf3bc8e	-0.11901198
141	0x3e22b3b9	0.15888871
142	0x3e7b13db	0.24519293
143	0xbb85522e	-0.0040686345
144	0x3e73d1f1	0.23810555
145	0x3de0486d	0.10951314
146	0x3da2dde3	0.07952478
147	0xbd97f089	-0.07418925
148	0xbdc0b6b5	-0.094098486
149	0x3e553b33	0.20823364
150	0xbd0ee894	-0.034889773
151	0xbd1f1a33	-0.038843345
152	0xbdaea37f	-0.08527278
153	0x3d001b62	0.031276114
154	0x3d88cc27	0.06679564
155	0x3d9451c1	0.07242156
156	0xbe8451f2	-0.2584377
157	0x3e230bd3	0.1592248
158	0x3cea7dad	0.02862438
159	0xbe010fcf	-0.12603687
160	0xbe3957bc	-0.18099874
161	0x3e61162e	0.21981117
162	0x3e67d736	0.2264069
163	0xbe332985	-0.17496307
164	0x3e49cd87	0.19707309
165	0x3dd52945	0.10408262
166	0xbe8167b8	-0.25274444
167	0xbcc53b2f	-0.024076072
168	0x3c86c360	0.016450584
169	0xbddf360a	-0.10898979
170	0x3e869ed9	0.26293066
171	0xbd003d20	-0.031308293
172	0x3e4a4506	0.19752893
173	0xbdb19359	-0.086706825
174	0xbdb53c9a	-0.088494495
175	0x3d6cd205	0.057817478
176	0x3dc436da	0.095807746
177	0xbdaf1188	-0.08548266
178	0x3dd79ead	0.10528312
179	0x3dbb99b1	0.09160174
180	0x3ca6d8bd	0.02036702
181	0x3d1686fe	0.036749832
182	0xbe738dce	-0.23784563
183	0x3e2afecb	0.16698758
184	0x3bce9b10	0.006305106
185	0x3d122e74	0.035688832
186	0xbadc161c	-0.0016791257
187	0x3e6ab4d2	0.2292054
188	0x3e3d4844	0.18484598
189	0xbc1eb51b	-0.009686734
190	0x3e784028	0.24243224
191	0x3daa1e8c	0.083066076
192	0x3d53c4f3	0.051701497
193	0xbe595eb7	-0.21227537
194	0x3dd4a2a8	0.10382587
195	0xbbe38de0	-0.006944403
196	0xbd4451d4	-0.0479296
197	0xbd0de5ea	-0.03464309
198	0x3dfed909	0.1244374
199	0xbd9d2e65	-0.07674865
200	0x3e1d9d64	0.15392071
201	0x3e568fde	0.20953318
202	0xbe881cd8	-0.26584506
203	0xbdfbfb6d	-0.12303815
204	0x3e88b6af	0.26701877
205	0x3df27300	0.11838341
206	0xbe68e546	-0.22743711
207	0xbdaedf97	-0.0853874
208	0xbde6ca00	-0.11268997
209	0x3d8afb50	0.06786215
210	0xbe373d54	-0.17894489
211	0x3d3df2ab	0.046374004
212	0x3dddacc5	0.10823969
213	0x3e36da07	0.17856608
214	0x3dcf0787	0.101088576
215	0x3e89c6a7	0.26909372
216	0x3e55acbb	0.20866673
217	0x3dd1ca40	0.10243654
218	0x3d3b354a	0.045705117
219	0xbe5fb199	-0.21845092
220	0xbe826926	-0.25470847
221	0xbbc041b2	-0.0058672065
222	0xbe1ad9e9	-0.15122189
223	0xbe458dd2	-0.19292381
224	0xbe28a876	-0.16470513
225	0xbb2069cc	-0.0024477122
226	0x3e0b8e03	0.13628392
227	0x3dec5fce	0.11541711
228	0xbc73cb2e	-0.014879985
229	0x3e37e8c8	0.17959893
230	0x3cd61d61	0.026137056
231	0xbe144aa9	-0.14481606
232	0x3e875f66	0.2643997
233	0xbd75dd41	-0.060025457
234	0x3d3ef93c	0.046624407
235	0xbe42cff5	-0.19024642
236	0x3d8bac6f	0.068199985
237	0xbe6c81a3	-0.23096327
238	0xbe81ba2f	-0.2533736
239	0xbd207bbf	-0.039180513
240	0x3e7d6f96	0.24749598
241	0xbe817c4e	-0.2529015
242	0x3e4a5664	0.19759518
243	0xbe192ee0	-0.14959288
244	0x3ce3f892	0.027828488
245	0x3e549663	0.20760493
246	0x3e7c51fb	0.24640648
247	0x3d3c1a56	0.045923553
248	0x3e02d845	0.12777813
249	0xbe8277b5	-0.25481954
250	0xbe8030a2	-0.25037104
251	0x3e7f4d3a	0.24931803
252	0xbe0afe81	-0.13573648
253	0x3d9035f2	0.07041539
254	0x3e81fe41	0.25389293
255	0x3e63faea	0.22263685

in_proj.bias f4 [64]
0	0xbb11bc5b	-0.0022237513
1	0xbbb8051d	-0.005615844
2	0xbb895441	-0.004190952
3	0xba71507f	-0.0009205415
4	0x3b47640d	0.0030424625
5	0x3ace4d12	0.0015739521
6	0x3bda09ec	0.006654015
7	0xbad8af1e	-0.0016531681
8	0x3b2335dc	0.002490393
9	0x3abbca7a	0.001432731
10	0x3bd89952	0.006610074
11	0x3c15289f	0.009103923
12	0xbb98f882	-0.0046682963
13	0xbb58ef4f	-0.0033101623
14	0x3c05588d	0.008138788
15	0xbb8e2ebc	-0.0043390673
16	0xbb0079b9	-0.0019603802
17	0xbc2543d4	-0.010086972
18	0x3bbb6f4c	0.0057200547
19	0xba3f4a84	-0.00072971755
20	0x3c0d13b0	0.008610651
21	0xbbf40511	-0.007446893
22	0xbbf212dc	-0.007387502
23	0x3b998a26	0.004685658
24	0x3b34870c	0.0027546315
25	0x3b86953b	0.004107145
26	0x3b559b73	0.0032593876
27	0xbb186906	-0.0023255958
28	0xbb53fe60	-0.0032347664
29	0x39e49a00	0.00043602288
30	0xbb78b927	-0.0037952156
31	0xbb344e1c	-0.0027512377
32	0xbab6b53e	-0.0013939512
33	0xbb464522	-0.0030253609
34	0xbb44126a	-0.0029918202
35	0x3bb59b82	0.0055422196
36	0x3bc6da90	0.006068535
37	0xbb971b51	-0.0046114107
38	0x3b6343d6	0.0034677885
39	0x3acb6058	0.0015516384
40	0xbabcc81f	-0.0014402902
41	0x3b358926	0.0027700155
42	0xb904c329	-0.00012661204
43	0x3bde0178	0.0067750774
44	0x3b88883f	0.0041666324
45	0x3af86ef8	0.001895397
46	0xbb3106b3	-0.002701205
47	0xbaf7ce12	-0.0018906018
48	0x38f834b1	0.00011835376
49	0xba94b555	-0.0011345545
50	0xbbac685b	-0.0052614636
51	0x3b5463b5	0.0032408063
52	0x3aab5225	0.0013070746
53	0x3c16b1aa	0.009197632
54	0xbb199ec5	-0.0023440581
55	0xbaf312c4	-0.0018545021
56	0xbb8d0690	-0.004303761
57	0x3ab0e6e0	0.001349654
58	0xbb70b3aa	-0.0036728182
59	0xba1f9ed7	-0.00060890376
60	0x3a378526	0.00070007367
61	0x3a6f1307	0.0009119962
62	0x3bb555b1	0.005533897
63	0x3bdcbf61	0.0067366813

adapt.E1 f4 [3, 8]
0	0x3bd6c1cc	0.006553864
1	0x3b215e31	0.0024622793
2	0xbc1d7cde	-0.00961229
3	0x3a306d5f	0.0006730165
4	0xbbbe797d	-0.0058128224
5	0x3b7ecde8	0.0038880054
6	0xb88bd9fc	-6.668639e-05
7	0xbc1dd3a5	-0.0096329795
8	0x3a10a82b	0.0005518223
9	0xbbf910cb	-0.007600879
10	0xbc936150	-0.017990738
11	0x3b9f3970	0.004859142
12	0x3bdf60d6	0.0068169637
13	0x3c6caa17	0.014444849
14	0xbc4c21f8	-0.012459271
15	0xbb7295d1	-0.0037015567
16	0xbc971925	-0.018444607
17	0x3c801145	0.015633235
18	0xbc176092	-0.009239333
19	0x3bddc4dd	0.0067678527
20	0xb98785f7	-0.00025849018
21	0x3c316562	0.010827394
22	0x3cb5564e	0.02213588
23	0x3aa52964	0.0012600836

adapt.E2 f4 [3, 8]
0	0xbbad37b8	-0.005286183
1	0xbc156e7a	-0.009120578
2	0x3c7b6872	0.015344726
3	0xbc8bfe6b	-0.01708909
4	0xbc253754	-0.010083992
5	0xbaec7793	-0.0018041007
6	0xbbdc1e1f	-0.006717458
7	0xb9624a7c	-0.00021580787
8	0x3bcac4c7	0.0061880085
9	0xbc27a0a2	-0.010231169
10	0x3b36c15f	0.0027886254
11	0xba664cb8	-0.00087852357
12	0xbc5777a4	-0.013151083
13	0xbb94d1ee	-0.004541627
14	0x3a064325	0.00051216997
15	0x3c61b5f3	0.01377629
16	0xbcba9a9c	-0.022778802
17	0x3c8590aa	0.016304333
18	0x3bd4a658	0.0064895563
19	0x3ba5ba45	0.0050576054
20	0xbc217320	-0.009854108
21	0x3c91673d	0.017749423
22	0x3c0b8515	0.008515616
23	0x3b77a6f8	0.003778873

support_mix.w_logits f4 [3]
0	0x3c0ec4c6	0.008713907
1	0xbc0ed3fb	-0.008717532
2	0x3c0ee282	0.008720996

blocks.0.filter_conv.conv.weight f4 [64, 64, 1, 2]
0	0x3e1f0c6c	0.15532082
1	0x3c755150	0.014973
2	0x3d684b5e	0.0567125
3	0x3e0cafe3	0.1373897
4	0x3da5172e	0.08061062
5	0x3d007a5e	0.0313667
6	0x3e213a9c	0.15745014
7	0xbe017731	-0.12643124
8	0x3dd8e991	0.10591424
9	0xbe03b60b	-0.12862413
10	0xbd0d992b	-0.0345699
11	0xbca72504	-0.020403393
12	0xbdd8860b	-0.10572442
13	0x3c9d320e	0.019188907
14	0x3ddf6c5b	0.10909339
15	0xbd598cec	-0.05311291
16	0x3da2ba75	0.0794572
17	0x3bad202b	0.0052833757
18	0x3dc8ee24	0.09811047
19	0x3dd13cb2	0.10216655
20	0x3da09aa4	0.07841995
21	0xbdcc8501	-0.09986306
22	0xbdaaa112	-0.08331503
23	0xbd34b245	-0.044115324
24	0x3d541b85	0.051784057
25	0x3e08728e	0.13324949
26	0x3d451184	0.048112407
27	0x3b996ac5	0.0046819174
28	0xbddfaaa7	-0.10921221
29	0x3da5604a	0.08075006
30	0x3d82cb0f	0.063863866
31	0xbddedaa3	-0.108815454
32	0x3d5dae65	0.054121394
33	0xbdc43025	-0.09579495
34	0xbcbd814f	-0.023132948
35	0x3dfcf291	0.12350953
36	0xbe0f7909	-0.14011015
37	0xbca040c0	-0.019562125
38	0xbd8c21c0	-0.06842375
39	0x3df6bb3a	0.120474294
40	0x3d183585	0.037160415
41	0xbdf6ba4f	-0.12047254
42	0xbe0494f9	-0.12947454
43	0x3df000c9	0.117189
44	0xbde20fbf	-0.110381596
45	0xbce4b1d5	-0.027916828
46	0x3dfc29c4	0.12312654
47	0xbe1e8c1f	-0.1548314
48	0x3d5e261d	0.054235566
49	0xbd189261	-0.037248973
50	0xbd884a0c	-0.06654748
51	0x3d4e59d4	0.050378636
52	0xbd73078d	-0.059333373
53	0xbe044a04	-0.1291886
54	0xbd05dc29	-0.032680664
55	0xbb9a9911	-0.004717954
56	0x3ddcc84c	0.10780391
57	0x3d57e6a8	0.052710205
58	0xbca00988	-0.019535795
59	0xbdc1d677	-0.09464734
60	0x3d2ad2c0	0.041704893
61	0x3d870ac0	0.06593847
62	0xbde6ba88	-0.11266047
63	0xbdc43272	-0.09579934
64	0xbda8081c	-0.08204672
65	0x3dfc6379	0.123236604
66	0x3df20231	0.11816824
67	0xbdc13e81	-0.0943575
68	0x3dafa1d6	0.0857579
69	0x3da516ed	0.08061013
70	0x3c1d3af0	0.009596571
71	0x3e0f73e6	0.14009055
72	0xbd177ecb	-0.036986154
73	0xbe1158b6	-0.14193997
74	0x3d814a82	0.06313039
75	0xbbb94964	-0.005654501
76	0x3bcb6e18	0.0062081926
77	0x3dbd3148	0.09237915
78	0xbc807f1a	-0.015685607
79	0xbe0b8236	-0.1362389
80	0xbe0fc52f	-0.14040063
81	0xbc47710d	-0.0121729495
82	0x3dbd5e45	0.09246496
83	0xbdaadbeb	-0.08342727
84	0xbd015945	-0.031579275
85	0x3ddb6e72	0.10714425
86	0x3d29836b	0.041385096
87	0xbe087028	-0.13324034
88	0xbdca4881	-0.0987711
89	0xbc45f4d9	-0.012082302
90	0xbd45b93a	-0.04827235
91	0xbe026ded	-0.12737246
92	0xbd91a816	-0.07112138
93	0x3c5fdea2	0.01366392
94	0xbdb7526c	-0.089512676
95	0xbe15fb9d	-0.14646764
96	0xbdcdd1c6	-0.10049777
97	0x3db8cabf	0.09023046
98	0xbcea4d77	-0.028601391
99	0x3dc96932	0.098345175
100	0x3df37bee	0.11888872
101	0x3aafa6e5	0.0013401179
102	0x3db591e3	0.08865716
103	0x3d54e7ec	0.05197899
104	0x3d077cf1	0.033078138
105	0xbd48ecea	-0.049054064
106	0xbdf12308	-0.1177426
107	0xbc0443f1	-0.008072839
108	0xbe017ab5	-0.12644465
109	0x3d9d840f	0.07691204
110	0x3e029544	0.12752253
111	0xbc5d5591	-0.01350917
112	0xbba615d4	-0.00506852
113	0x3e12823a	0.1430749
114	0xbd149204	-0.036272064
115	0x3d139b2f	0.036036666
116	0x3dc6f038	0.09713787
117	0x3d862b94	0.065512806
118	0x3dc367f9	0.095413156
119	0x3de4ab79	0.11165518
120	0xbd088e94	-0.033339098
121	0xbd5c7fb5	-0.05383273
122	0x3de096e2	0.109662786
123	0xbdd5e428	-0.10443908
124	0x3e06a14a	0.13147464
125	0x3bdf7262	0.0068190554
126	0xbd02fe7b	-0.031980973
127	0xbe1ab62a	-0.15108553
128	0x3db05f1b	0.0861189
129	0xbe1490be	-0.1450834
130	0x3e1587b5	0.1460255
131	0xbe12bb01	-0.14329149
132	0xbe158223	-0.14600424
133	0xbd91bcfe	-0.071161255
134	0xbdf34f00	-0.118803024
135	0xbd723c23	-0.059139382
136	0x3dd2437b	0.10266777
137	0xbd8358d5	-0.06413428
138	0xbd8c3ff9	-0.06848139
139	0xb9495c20	-0.00019203173
140	0xbdadacff	-0.08480262
141	0xbe067261	-0.1312957
142	0x3e1e1a7b	0.15439789
143	0xbbf4b773	-0.007468158
144	0x3e070f7d	0.13189502
145	0x3d8053ef	0.06266009
146	0x3d8cd92d	0.068773605
147	0xbda50338	-0.080572546
148	0x3d9bfa7c	0.076161355
149	0xbc2811cb	-0.010258148
150	0x3dabe6ce	0.08393632
151	0x3de1612e	0.11004864
152	0x3e00ef96	0.12591395
153	0xbe14d101	-0.14532854
154	0xbd631929	-0.055443916
155	0x3d9708f5	0.07374755
156	0x3d5cfd43	0.053952467
157	0xbd26f36f	-0.0407595
158	0x3d8d5515	0.06900994
159	0xbdcd672a	-0.100294426
160	0xbe15a9e1	-0.14615585
161	0xbdc62abc	-0.0967612
162	0x3d4c0e48	0.049818307
163	0xbde7896a	-0.113055065
164	0x3d83cc24	0.06435421
165	0xbdb34fd2	-0.08755459
166	0xbd9c9ebf	-0.07647466
167	0xbd31b09b	-0.043381315
168	0xbdd6c624	-0.10487011
169	0x3e1d5986	0.15366182
170	0x3d825416	0.06363694
171	0x3dd4b14e	0.10385381
172	0x3d2d2dcc	0.042280003
173	0xbe11d919	-0.14242972
174	0x3d55bd52	0.052182503
175	0x3d3bca41	0.04584718
176	0x3d4f4ba3	0.050609242
177	0x3dbcc777	0.092177324
178	0x3ca178a7	0.019710852
179	0xbd283c5e	-0.041073196
180	0xbdc473ad	-0.09592376
181	0x3d5525eb	0.052038115
182	0x3d03b4a9	0.032154713
183	0xbe143e90	-0.1447699
184	0xbdbf3f87	-0.09338289
185	0xbd8685f9	-0.06568522
186	0x3e0058d3	0.12533884
187	0xbdf36f9d	-0.11886523
188	0x3e105428	0.14094603
189	0xbdfd6bec	-0.123741
190	0xbdf68e57	-0.12038868
191	0x3c1234a1	0.0089236805
192	0x3c53c746	0.012925928
193	0xbe054cbc	-0.13017553
194	0xbd9c2d7a	-0.076258615
195	0x3d9ea2f0	0.077459216
196	0x3dac114f	0.08401739
197	0xbc64a2d4	-0.013954837
198	0xbd9692fa	-0.07352252
199	0xbe1b22bf	-0.15149973
200	0xbc93b3cd	-0.018030072
201	0xbd905d73	-0.07049074
202	0x3d5f60e0	0.054535747
203	0x3d9eaf33	0.0774826
204	0xbe0fa71f	-0.14028595
205	0xbd2e3b5c	-0.04253708
206	0x3d96e2e1	0.073674925
207	0xbdf88b2a	-0.121359184
208	0xbdd05522	-0.10172488
209	0xbe0a7dbb	-0.13524525
210	0x3df1af9a	0.118010715
211	0xbbc170ea	-0.005903353
212	0xbdc4a853	-0.09602418
213	0x3e1d2b0b	0.15348451
214	0xbde3a395	-0.11115185
215	0xbdede2e6	-0.11615543
216	0xbe0dfc89	-0.13865866
217	0x3dfe1f28	0.12408286
218	0xbd249fa1	-0.040191296
219	0x3c513759	0.012769544
220	0x3d8eb36a	0.06967814
221	0xbc3e4bfa	-0.011614794
222	0xbcd35ca6	-0.025801014
223	0xbd33b8d4	-0.043877438
224	0xbe081a55	-0.13291295
225	0xbd89d91d	-0.06730864
226	0xbd806804	-0.062698394
227	0x3dfd0c40	0.12355852
228	0x3d6a2881	0.057167534
229	0x3c21bf8d	0.009872329
230	0xbdb06744	-0.08613446
231	0xbd531051	-0.051529232
232	0x3c9bf5f8	0.019038185
233	0xbd0af723	-0.033927094
234	0xbe1f6e30	-0.15569377
235	0xbe174664	-0.14772946
236	0xbd492542	-0.049107797
237	0x3d3355e5	0.043783087
238	0x3dc029fd	0.09383009
239	0x3e031e08	0.12804425
240	0x3c907691	0.017634662
241	0xbc95a963	-0.018269246
242	0x3d36ef0c	0.044661567
243	0xbd0b3545	-0.03398635
244	0xbdc41a06	-0.09575276
245	0x3dbc8356	0.09204738
246	0xbcb6f952	-0.022335682
247	0x3daf169b	0.085492335
248	0xbdd29ae9	-0.10283453
249	0xbc0ae58e	-0.008477582
250	0xbdee61e6	-0.116397664
251	0xbdf9df69	-0.12200815
252	0x3ddf99cd	0.10918007
253	0xbda6c2bc	-0.081426114
254	0xbca2b3f1	-0.019861193
255	0xbddcd150	-0.10782111

blocks.0.filter_conv.conv.bias f4 [64]
0	0xbbba4a1c	-0.005685104
1	0x3ad43432	0.0016189872
2	0x3b159052	0.0022821617
3	0x3c0bcbd5	0.008532484
4	0x37bc3418	2.2435604e-05
5	0xb704b758	-7.910501e-06
6	0xbb7d8b7b	-0.0038687873
7	0x3b24111b	0.002503461
8	0xbb8c9461	-0.004290149
9	0x3a8c262a	0.0010692526
10	0xb971d9f8	-0.0002306475
11	0x3c429d65	0.011878346
12	0x3b3adba4	0.0028512264
13	0xbb93883c	-0.0045023244
14	0xbb8af0fa	-0.0042401524
15	0xbb9ee0b5	-0.0048485645
16	0x3b0e378b	0.0021700587
17	0x3bb13cf0	0.0054088756
18	0xbac926ac	-0.0015346608
19	0xb9acb45e	-0.0003294078
20	0x3b5db83b	0.0033831734
21	0xbc389087	-0.011264927
22	0xbb18b78f	-0.0023302769
23	0xbb89d980	-0.004206836
24	0xbb1e8572	-0.0024188426
25	0x3aaac0ce	0.0013027431
26	0x39e42347	0.00043513832
27	0xbbe08827	-0.006852168
28	0xbbc7f09b	-0.0061016805
29	0x3ab67158	0.0013919277
30	0xb98330b8	-0.00025022565
31	0xbaae8d21	-0.0013317206
32	0x3a004f74	0.0004894652
33	0xba8e1043	-0.0010838587
34	0x39de9c66	0.00042459666
35	0x3b5ba45a	0.003351471
36	0xb9b9a4eb	-0.00035408823
37	0xbb986ba0	-0.004651502
38	0x3af466d8	0.0018646372
39	0x3bcdd3c9	0.0062813503
40	0xbba857db	-0.0051374263
41	0x39ac4665	0.00032858844
42	0x3b07d7bb	0.002072795
43	0x3bbf5f9e	0.005840256
44	0xbc1cb36a	-0.00956426
45	0xbba95678	-0.0051677786
46	0x3bae0246	0.0053103296
47	0xbb84e981	-0.004056156
48	0x39b7b4fe	0.0003503933
49	0x3bb4bc6f	0.005515627
50	0x3b87c364	0.0041431654
51	0x3b8028e3	0.003911124
52	0x3b08d3b6	0.0020878143
53	0x3b519086	0.0031977012
54	0x3b2c5a44	0.002629892
55	0x3a8951b9	0.0010476626
56	0xba80db6a	-0.0009831015
57	0xbb4e51fe	-0.0031481977
58	0x3b97ad10	0.004628785
59	0x3b69b007	0.00356579
60	0x3a7792c9	0.0009444175
61	0x3a97eb10	0.001159044
62	0x3a0870bd	0.00052047876
63	0x3ba32853	0.0049791723

blocks.0.gate_conv.conv.weight f4 [64, 64, 1, 2]
0	0xbc24ad0e	-0.010051025
1	0x3d987873	0.07444849
2	0xbe0ea2c1	-0.13929273
3	0xbc526772	-0.012842046
4	0xbd9082ff	-0.070562355
5	0x3d3e20de	0.046418063
6	0xbd4803ee	-0.048831873
7	0xbdd2b30d	-0.102880575
8	0x3dd10fe0	0.10208106
9	0xbe17949a	-0.14802781
10	0xbc6d0e6a	-0.014468769
11	0xbde6cdd4	-0.11269727
12	0x3daf0dca	0.08547552
13	0xbddc38d5	-0.10753027
14	0x3cb2bb06	0.021817695
15	0xbd732906	-0.059365295
16	0xbdcafda1	-0.09911657
17	0xbd575f10	-0.052580893
18	0x3d9b4a6b	0.075825535
19	0xbd4c7b4c	-0.049922273
20	0xbd5298a9	-0.05141512
21	0x3b135134	0.002247882
22	0xbe0a2fd3	-0.13494806
23	0xbda217a2	-0.07914664
24	0xbdfe302e	-0.12411533
25	0xbc80da51	-0.015729101
26	0xbd3a9f50	-0.04556209
27	0xbd1919c9	-0.037378106
28	0xbc3ff4e9	-0.011716106
29	0x3d704f47	0.058669355
30	0x3db9ee27	0.09078627
31	0x3d018381	0.031619553
32	0xbdb39296	-0.087681934
33	0x3d16b9a3	0.03679813
34	0x3d6ea8c6	0.058266424
35	0x3d8bfd71	0.068354495
36	0x3dff7fdc	0.12475559
37	0xbc9b8bb6	-0.018987518
38	0xbd1e3986	-0.038629077
39	0xbd69ab21	-0.057047967
40	0xbd9426ea	-0.07233985
41	0x3e0e8b58	0.13920343
42	0xbbfbd41a	-0.0076851966
43	0xbe001797	-0.12508999
44	0x3dac00f2	0.08398618
45	0xbd474397	-0.048648443
46	0x3dc1109b	0.09426995
47	0xbc7aab45	-0.015299623
48	0x3ceed61e	0.029154833
49	0x3dcdf5fc	0.100566834
50	0x3db6a9a0	0.08919072
51	0x3d8662f2	0.06561841
52	0xbcc499d1	-0.023999127
53	0xbe13991e	-0.14413878
54	0x3d5fbfc6	0.05462625
55	0x3d8d4570	0.0689801
56	0x3db6a34f	0.089178674
57	0xbdb39c23	-0.08770015
58	0xbe0ccedc	-0.13750786
59	0x3debeae4	0.11519411
60	0xbdf0103c	-0.117218465
61	0xbd02285d	-0.031776775
62	0x3d324cbf	0.043530222
63	0x3dbb11e9	0.091342755
64	0x3dd20615	0.10255066
65	0x3d3c31c7	0.04594591
66	0x3ccac3de	0.0247516
67	0x3ded0da5	0.11574868
68	0xbd030b9d	-0.031993497
69	0xbc3424fa	-0.010995144
70	0xbd5081fb	-0.05090521
71	0x3d45f7b2	0.048331924
72	0xbc812cad	-0.015768373
73	0x3c4c0cd6	0.012454232
74	0xbddff105	-0.10934643
75	0xbcce9eef	-0.02522227
76	0x3de6cc20	0.112694025
77	0xbd9e63fc	-0.07733914
78	0xbd816ff1	-0.06320179
79	0xbdb1e8f6	-0.08687012
80	0xbd1d814e	-0.038453393
81	0xbbc4c14d	-0.0060044886
82	0xbdad23e3	-0.084541105
83	0xbdd01e71	-0.10162056
84	0xbd9833b4	-0.074317366
85	0x3d9e4d78	0.0772962
86	0xbdd18e44	-0.10232213
87	0xbddaffb7	-0.10693305
88	0x3e165155	0.14679463
89	0x3e0f5762	0.13998178
90	0xbdb80d16	-0.08986871
91	0x3dccd638	0.100017965
92	0x3db6097d	0.088885285
93	0xbdd6eeb0	-0.10494745
94	0xbcb66b81	-0.022268059
95	0x3d09ce00	0.033643723
96	0xbd1507c4	-0.03638436
97	0xbd692fc8	-0.056930333
98	0x3e174098	0.14770734
99	0xbd120a52	-0.035654373
100	0x3e00ce47	0.12578689
101	0x3e1693cb	0.14704816
102	0xbd6262da	-0.055270053
103	0xbdd5d00a	-0.10440071
104	0x3dca3438	0.09873241
105	0x3e05c967	0.1306511
106	0x3d78d2b3	0.060747813
107	0xbddb0ec8	-0.10696179
108	0x3c2da6bd	0.010598836
109	0xbdf55a3d	-0.11980102
110	0x3d89272d	0.06696925
111	0x3c07382f	0.008253141
112	0x3de25f71	0.1105336
113	0x3dc17bd3	0.09447446
114	0xbd8bc3cb	-0.06824454
115	0x3e0cfc7e	0.13768193
116	0xbe0d6eae	-0.13811752
117	0xbe05b9a7	-0.13059102
118	0xbdcde8cf	-0.1005417
119	0xbcd6e471	-0.026231976
120	0x3e10c027	0.141358
121	0xbe11c162	-0.14233926
122	0xbbbfafad	-0.0058497996
123	0xbd9c4a9b	-0.07631417
124	0xbd2bb150	-0.041917145
125	0x3e135abf	0.14390086
126	0x3c9bb2d9	0.01900618
127	0x3e017c5b	0.12645094
128	0x3c35bdc9	0.011092612
129	0xbb3cfbaf	-0.0028836539
130	0x3d6d03d0	0.057864964
131	0xbd7f4d6b	-0.06232969
132	0x3e15fe05	0.14647682
133	0x3e0d6e76	0.13811669
134	0x3de84477	0.11341184
135	0xbd5aa5e7	-0.053380873
136	0xbd2cf7dd	-0.04222857
137	0x3bd9a747	0.0066422555
138	0x3d37fa6b	0.04491655
139	0x3daf5fea	0.08563216
140	0x3d86496b	0.06556972
141	0xbe164544	-0.1467486
142	0xbda30f56	-0.079619095
143	0xbdcdb202	-0.10043718
144	0x3d7268a5	0.059181828
145	0xbddb07ce	-0.10694848
146	0x3d8f79c3	0.07005646
147	0x3e0bdbd1	0.13658072
148	0xbcad38ba	-0.021145213
149	0x3d8616fa	0.06547351
150	0x3dcbe1c4	0.09955171
151	0x3c20db6d	0.00981794
152	0x3dd5d86a	0.10441668
153	0x3e0394d0	0.12849736
154	0x3c309266	0.010777092
155	0xbb9c5e44	-0.0047719795
156	0x3db0f828	0.08641082
157	0x3b8cc7f9	0.0042962995
158	0xbe00dbc8	-0.1258384
159	0x3d8fa75f	0.070143454
160	0x3c375ca6	0.011191523
161	0x3e09f963	0.1347404
162	0x3d5a05e8	0.05322829
163	0x3cd8314b	0.026390692
164	0x3ddb020b	0.10693749
165	0x3de04889	0.10951335
166	0xbc4437a3	-0.011976155
167	0xbd968ea1	-0.07351423
168	0x3ca4658d	0.020067954
169	0xbe0c1c77	-0.13682733
170	0x3941be11	0.0001847672
171	0xbdbc8c69	-0.092064686
172	0xbc83596b	-0.016033849
173	0xbbaf0a41	-0.0053417985
174	0xbcb7109e	-0.02234679
175	0x3de083a8	0.109626114
176	0xbcbd09b6	-0.02307592
177	0x3d18549e	0.037190072
178	0x3e0a03e3	0.13478045
179	0xbdcf9ce4	-0.101373464
180	0x3d34bf34	0.044127658
181	0x3dfd897e	0.1237974
182	0xbdc91dce	-0.09820138
183	0x3deafe06	0.114742324
184	0x3dec730e	0.115453824
185	0xbc13ac81	-0.009013296
186	0xbe007628	-0.12545073
187	0x3e0929c4	0.13394839
188	0xbe19f4dd	-0.15034814
189	0x3dc1e98f	0.09468376
190	0x3bb5e668	0.005551148
191	0xbdcc889d	-0.099869944
192	0xbd26ac04	-0.04069139
193	0xbe167375	-0.14692481
194	0x3d99c259	0.07507772
195	0xbc7a0c91	-0.015261785
196	0x3defe432	0.11713447
197	0x3daa63e3	0.08319833
198	0x3d797802	0.060905464
199	0xbd708a16	-0.05872544
200	0xbdab517b	-0.083651505
201	0xbe1e57d2	-0.15463188
202	0xbddb93e8	-0.1072157
203	0x3d931f10	0.07183659
204	0x3e012e85	0.12615402
205	0x3dc408b5	0.09571973
206	0xbd108dfa	-0.03529165
207	0x3ccc0c62	0.024908248
208	0xbc7a0ad2	-0.015261369
209	0xbdf7ab69	-0.12093241
210	0xbd55f21e	-0.052232854
211	0xbc624976	-0.01381146
212	0x3d9a74a7	0.07541781
213	0xbc8e8b05	-0.017400274
214	0x3d988ea1	0.07449079
215	0x3d66d125	0.0563518
216	0x3e02a338	0.12757576
217	0xbda30bd1	-0.07961238
218	0xbd1aa231	-0.037752334
219	0xbd803189	-0.06259448
220	0xbdec31c3	-0.11532929
221	0xbd1f2bde	-0.038860194
222	0x3d2c4464	0.04205741
223	0xbd596a93	-0.053080153
224	0xbd8d4c3a	-0.06899305
225	0xbd34fbdf	-0.044185515
226	0xbd8ebb00	-0.06969261
227	0x3d35a268	0.044344336
228	0x3e026d9c	0.12737125
229	0x3e11bbe4	0.14231831
230	0xbd53018d	-0.05151515
231	0x3d951464	0.0727928
232	0x3df696c6	0.120404765
233	0x3d2d7b6f	0.042354044
234	0x3dc36765	0.09541205
235	0xbc36527b	-0.011128063
236	0x3dae56db	0.0851266
237	0xbd318f3f	-0.0433495
238	0x3db64408	0.08899695
239	0x3db2dc8c	0.08733472
240	0x3dba1ee3	0.090879224
241	0x3db5a4b2	0.08869304
242	0x3d02ae78	0.031904668
243	0x3d82057c	0.06348702
244	0x3dc6cba0	0.09706807
245	0xbdaea7d6	-0.08528106
246	0x3dd30b9e	0.1030495
247	0x3e17c5ca	0.14821544
248	0x3bd70a25	0.0065624886
249	0x3bafe800	0.0053682327
250	0xbd8778de	-0.066148505
251	0x3c1565e2	0.009118529
252	0xbdecaae6	-0.11556034
253	0xbc2c638f	-0.0105217835
254	0xbd975549	-0.07389314
255	0x3bc795c1	0.00609085

blocks.0.gate_conv.conv.bias f4 [64]
0	0x39a4fa9a	0.0003146723
1	0x3b785c6d	0.0037896887
2	0x3c70b9af	0.014692708
3	0x3ab12ef2	0.0013518019
4	0xba007c9e	-0.0004901382
5	0xbbbee4e2	-0.005825625
6	0x39d35d7a	0.00040314702
7	0x3bc14cd1	0.00589905
8	0x3af156fc	0.0018412764
9	0x3b545308	0.0032398123
10	0x3b60ef3a	0.0034322278
11	0x3bba46dd	0.005684717
12	0xbb9ae53a	-0.004727033
13	0x3bb26e6c	0.005445292
14	0x3c02e9ac	0.007990282
15	0x3c7982a0	0.015228897
16	0xbb18c09c	-0.0023308164
17	0x3b425f69	0.002965892
18	0xbb1cc1de	-0.0023919265
19	0x38366f8a	4.349606e-05
20	0x3c7f3869	0.015577414
21	0x3c12a88b	0.008951317
22	0xbbbf263f	-0.0058334167
23	0xbaf3fb59	-0.0018614336
24	0x3b02913c	0.0019922992
25	0xbb99732c	-0.004682919
26	0xbb84b0e4	-0.0040494073
27	0xbb229dd4	-0.0024813311
28	0xbb9526a3	-0.004551725
29	0xbc4169b3	-0.011804986
30	0x3a0b4fcc	0.000531432
31	0x3bbabc26	0.0056986986
32	0xbb8529ad	-0.004063806
33	0xba78bfee	-0.0009489049
34	0x3bb94d99	0.0056550023
35	0x3b702f50	0.0036649294
36	0xbbb345af	-0.0054709534
37	0x3b3ccd03	0.002880872
38	0x3ac5d279	0.0015092633
39	0x3be3f92a	0.006957193
40	0xbba03c68	-0.0048900135
41	0xbbebf436	-0.007200743
42	0xbc1e6917	-0.00966861
43	0x39bd7801	0.000361383
44	0x3bfb593a	0.0076705487
45	0x3bf91339	0.0076011685
46	0x39c6273c	0.00037794735
47	0x3c0b1e43	0.008491102
48	0x3bcea921	0.006306783
49	0x3b8c5eec	0.0042837765
50	0xbbb43370	-0.005499296
51	0xba4f46cf	-0.00079069746
52	0xbb6f6ef3	-0.0036534637
53	0xbb77fcf3	-0.0037839978
54	0x35903da0	1.0746771e-06
55	0x3c37fc8a	0.011229644
56	0xbb2def91	-0.0026540498
57	0x3b3c00ad	0.0028686926
58	0xbc09b78c	-0.008405577
59	0x3b64028a	0.0034791552
60	0x3ba5bc43	0.005057843
61	0x3a88678d	0.0010406837
62	0x3c1d8f0a	0.009616623
63	0xba91413e	-0.0011082066

blocks.0.residual_conv.weight f4 [64, 64, 1, 1]
0	0xbdb6a7da	-0.08918734
1	0xbe325f7b	-0.17419235
2	0x3d814c18	0.06313342
3	0xbd80b1bd	-0.06283901
4	0x3e578c57	0.21049629
5	0xbd19833d	-0.037478674
6	0xbe2ce557	-0.16884361
7	0xbdaf6181	-0.08563519
8	0xbe0fcd79	-0.14043225
9	0x3c978850	0.018497616
10	0x3dac3d52	0.084101334
11	0x3e2cfee2	0.16894105
12	0xbdb7b6e0	-0.089704275
13	0x3e3d549d	0.18489309
14	0x3dbe4129	0.09289772
15	0x3d875514	0.06608024
16	0xba4d1137	-0.00078226946
17	0x3e376669	0.1791016
18	0xbe07898f	-0.13236068
19	0x3e181f68	0.1485573
20	0xbe1ec877	-0.15506159
21	0xbe389903	-0.1802712
22	0x3d2a6180	0.04159689
23	0xbde61742	-0.11234905
24	0xbe55a91b	-0.2086529
25	0xbe14a44d	-0.14515801
26	0x3dba6758	0.091017425
27	0xbe30ec5a	-0.17277661
28	0x3e0384ae	0.12843582
29	0xbddc7083	-0.107636474
30	0xbdceea0b	-0.10103234
31	0x3e1eb7da	0.15499821
32	0xbcc23124	-0.023705073
33	0xbe0339ab	-0.12814967
34	0xbd875b96	-0.066092655
35	0xbda9d915	-0.08293358
36	0xbe02943e	-0.12751862
37	0xbdda1e10	-0.10650265
38	0xbd7c1c1a	-0.061550237
39	0x3e3052f1	0.1721914
40	0xbe0d3cb8	-0.13792694
41	0xbe0a539c	-0.13508457
42	0x3e3e5b78	0.1858958
43	0x3c9d05c5	0.01916779
44	0x3daf9340	0.085730076
45	0x3e500dab	0.20317714
46	0x3d80b052	0.062836304
47	0xbda837f2	-0.08213796
48	0xbd45f569	-0.048329744
49	0x3e51fc58	0.20506418
50	0xbd12f701	-0.035880093
51	0xbda120bb	-0.07867571
52	0x3e5238f1	0.20529534
53	0x3e4ddd23	0.20103888
54	0xbd6d102d	-0.057876755
55	0x3ddc0649	0.10743386
56	0x3dffaae6	0.12483768
57	0x3dbe1a00	0.09282303
58	0x3df4a362	0.11945225
59	0xbc3d4d5d	-0.011554089
60	0xbd0c69ec	-0.034280702
61	0xbcd4b3c1	-0.02596462
62	0x3e3f4c5a	0.1868147
63	0x3d148dba	0.036267973
64	0xbcd99acd	-0.026563073
65	0xbe4b1ed3	-0.19835977
66	0x3c1a0290	0.009400025
67	0x3d83435a	0.06409331
68	0xbe1b1936	-0.15146336
69	0xbd165c69	-0.036709223
70	0x3e09972d	0.13436575
71	0x3d510e46	0.051039003
72	0xbd64affd	-0.055831898
73	0x3e00c9ec	0.12577027
74	0xbd1b8395	-0.037967283
75	0x3e13b6c6	0.14425191
76	0xbcffac6f	-0.031210152
77	0x3d2ab820	0.0416795
78	0xbdeb5cc4	-0.11492303
79	0x3e285f96	0.16442713
80	0x3e1e4ae9	0.15458263
81	0x3c109681	0.008824945
82	0xbd98f8a9	-0.07469303
83	0x3e37a1ea	0.17932859
84	0xbe2759be	-0.16342828
85	0x3da9e9ea	0.08296569
86	0x3cf4e911	0.029896291
87	0x3d69b122	0.057053693
88	0x3e38259e	0.179831
89	0xbe165d18	-0.1468395
90	0xbb9cdbb6	-0.004786934
91	0x3e1ae98c	0.15128154
92	0xbd849228	-0.064731896
93	0xbe20395b	-0.1564688
94	0x3df6dbaa	0.12053616
95	0xbdc3a573	-0.09553041
96	0xbe32fc17	-0.17478977
97	0xbba8f00c	-0.005155569
98	0xbdafe845	-0.08589224
99	0x3d97a989	0.07405383
100	0xbb9786db	-0.0046242303
101	0xbd18581a	-0.037193395
102	0x3df2e4c6	0.11860041
103	0x3d8a7e24	0.06762341
104	0x3e5a36f6	0.21310028
105	0x3d6c04ee	0.05762189
106	0x3d57f449	0.052723203
107	0x3e41e8c3	0.18936448
108	0xbdd66edf	-0.10470366
109	0x3e1fd436	0.15608296
110	0xbe43f9f9	-0.19138326
111	0xbe2d3d78	-0.1691798
112	0xbe3294bb	-0.17439549
113	0x3deefc49	0.11669213
114	0xbdefbbb5	-0.11705724
115	0xbe40734f	-0.18793987
116	0x3d384fe5	0.04499807
117	0xbe3d6051	-0.18493773
118	0x3e458863	0.19290309
119	0xbcd7bf93	-0.026336467
120	0x3e5bdac8	0.21470177
121	0x3e48114d	0.1953785
122	0xbe327577	-0.17427622
123	0xbe42c68f	-0.19021057
124	0xbe52705a	-0.20550671
125	0x3e5ec969	0.2175652
126	0xbe3b14f9	-0.18269719
127	0x3df4f97d	0.119616486
128	0xbda5c7c5	-0.08094744
129	0xbe1f53ae	-0.15559265
130	0xbd33d6c1	-0.043905977
131	0x3c8a1d0f	0.01685956
132	0xbc0d16b1	-0.008611367
133	0x3e36529e	0.17804953
134	0xbd232c27	-0.03983703
135	0x3de75dd2	0.11297192
136	0xbcb2c4d9	-0.02182238
137	0xbe0e318d	-0.1388609
138	0xbd7fc20e	-0.062440924
139	0x3d088104	0.033326164
140	0x3e47b559	0.19502772
141	0xbe2e70f4	-0.17035276
142	0x3b98b456	0.0046601696
143	0xbe16fb08	-0.14744198
144	0xbe59b732	-0.2126129
145	0x3d329d1a	0.043606855
146	0xbe0a4023	-0.13501029
147	0x3dfb2511	0.12262929
148	0x3e501c95	0.20323403
149	0x3c981441	0.018564345
150	0xbe2e8d3b	-0.17046063
151	0xbe3b0ee0	-0.18267393
152	0x3da827fe	0.08210753
153	0xbc51d471	-0.012806998
154	0x3e29590b	0.16537873
155	0x3dd7fad5	0.10545889
156	0x3dc8833d	0.09790657
157	0x3dc573e9	0.09641249
158	0xbe4dec19	-0.20109595
159	0xbd5ebece	-0.054381184
160	0x3e00d444	0.12580973
161	0x3e0d8b92	0.13822773
162	0xbda4b4ef	-0.08042323
163	0x3d7da776	0.06192728
164	0xbb6efa81	-0.003646523
165	0x3e0fde8a	0.14049736
166	0xbdadb11f	-0.08481049
167	0xbdc468b5	-0.09590284
168	0x3db24309	0.08704192
169	0x3dee8ed4	0.11648336
170	0xbe4aa947	-0.19791137
171	0xbdcab156	-0.098971054
172	0xbe13b537	-0.14424597
173	0x3c41f1ae	0.011837406
174	0xbe54ea4e	-0.20792505
175	0x3d9cc8db	0.07655498
176	0x3dd91c64	0.10601118
177	0x3dd20407	0.102546744
178	0x3d9d0896	0.07667653
179	0x3da997ae	0.08280884
180	0x3d53b112	0.05168254
181	0xbd1c743b	-0.038196784
182	0x3e314242	0.17310432
183	0x3d262c37	0.04056951
184	0x3dc1788c	0.094468206
185	0x3dc10e96	0.0942661
186	0x3e196f6e	0.14983913
187	0xbe0235e6	-0.12715873
188	0x3d473b6a	0.048640646
189	0x3e52e731	0.20596005
190	0x3d8a79ed	0.06761537
191	0xbe3a5d02	-0.18199542
192	0xbdf59ad6	-0.11992423
193	0x3ce50bb2	0.027959678
194	0x3e14b93f	0.14523791
195	0x3d938229	0.072025605
196	0xbde8e1a8	-0.113711655
197	0x3de0b234	0.109714895
198	0xbe237be4	-0.1596523
199	0x3dcf1bed	0.10112748
200	0x3e2d4e12	0.16924313
201	0xbd81172a	-0.06303246
202	0xbe5a5dce	-0.21324846
203	0xbbf937bc	-0.007605521
204	0x3de09700	0.10966301
205	0x3dfb600f	0.12274181
206	0x3e37bf11	0.1794398
207	0xbd90c771	-0.070692904
208	0x3d7bc4ab	0.061466854
209	0xbd9d2884	-0.07673743
210	0xbe58b118	-0.21161306
211	0x3d043d55	0.032285053
212	0xbe1e42fa	-0.15455237
213	0x3e4dcd46	0.20097837
214	0x3e58e553	0.2118123
215	0x3db5e302	0.08881189
216	0x3e01ff19	0.12694968
217	0xbe06c17e	-0.13159749
218	0x3ddc07cb	0.10743674
219	0xbe171a9e	-0.14756247
220	0x3e389cd1	0.1802857
221	0xbddd444b	-0.108040415
222	0xbdd9e75c	-0.106398314
223	0xbdfaee2d	-0.1225246
224	0xbe03840f	-0.12843345
225	0xbde1e271	-0.110295184
226	0x3d40a2bb	0.047030192
227	0xbe203519	-0.15645255
228	0x3e4080eb	0.18799178
229	0xbe396b12	-0.1810725
230	0xbe310f4b	-0.1729099
231	0xbe584e5d	-0.21123643
232	0xbde67a8a	-0.11253841
233	0x3e078243	0.13233285
234	0xbe1ccb62	-0.1531196
235	0x3dcf9213	0.10135283
236	0xbcbe7a4e	-0.023251679
237	0xbe573964	-0.21017987
238	0xbde1ac21	-0.11019159
239	0x3df140e4	0.11779955
240	0xbd6f8d43	-0.058484327
241	0x3e16809f	0.14697503
242	0xbe38c784	-0.18044859
243	0xbd86f04c	-0.06588802
244	0xbe3d483d	-0.18484588
245	0x3e0cf0f6	0.13763794
246	0x3d8f12f9	0.069860406
247	0x3d305c76	0.043056928
248	0xbb6a3e52	-0.0035742712
249	0xbd05d9f4	-0.03267856
250	0x3dc2b19a	0.09506531
251	0xbe0def9a	-0.13860932
252	0x3c192302	0.009346725
253	0xbe3bc57e	-0.18337056
254	0xbdaf4059	-0.08557195
255	0x3b08e3d5	0.0020887752

blocks.0.residual_conv.bias f4 [64]
0	0xb94f12f4	-0.00019748119
1	0x3b64a705	0.003488959
2	0x3bd5ff6f	0.006530694
3	0xbb99d8bb	-0.0046950257
4	0xbc597357	-0.013272128
5	0x3c5fd5c0	0.013661802
6	0x3c3b528d	0.011433256
7	0x3c427682	0.011869075
8	0x3b9c1f05	0.00476444
9	0xbc4c4676	-0.012467971
10	0x3bf89321	0.0075858985
11	0xbb59e276	-0.0033246554
12	0xbc0cf166	-0.008602476
13	0xbc1f920c	-0.00973941
14	0x3c24227e	0.010017989
15	0x3b857c80	0.0040736794
16	0xbb603798	-0.0034212824
17	0x3c840bfd	0.016118998
18	0x3ca091a9	0.019600706
19	0xbbdc5706	-0.006724241
20	0xbbfdb7a6	-0.00774284
21	0x3bb1dc7b	0.0054278946
22	0xbb68184c	-0.0035414873
23	0xbc1da1d7	-0.009621105
24	0x3c51ee86	0.012813216
25	0x3b7606ba	0.003754063
26	0xbbb7fc7c	-0.0056148153
27	0x3b9317f8	0.0044889413
28	0x3c2e39a1	0.010633857
29	0xbc1e27a6	-0.009653008
30	0x3c726620	0.014794856
31	0xbb9a8573	-0.0047156154
32	0x3aa8747b	0.0012852097
33	0x3b93ab66	0.0045065163
34	0x3c4d7154	0.012539227
35	0x3c6f40d1	0.014602856
36	0xbc8b2675	-0.016986111
37	0x3c412c7d	0.011790392
38	0xbc0b8fbe	-0.0085181575
39	0xba80841e	-0.0009804999
40	0x3b1c1a2f	0.0023819318
41	0xbc8f0558	-0.017458603
42	0x3c0c7d15	0.008574744
43	0xba80e781	-0.0009834619
44	0x3c92d3f5	0.017923335
45	0x3b8ef219	0.0043623564
46	0x3c603963	0.013685557
47	0x3c1d40e9	0.009597995
48	0xbc8311ee	-0.01599976
49	0xbc55beca	-0.013045976
50	0x3ba5daf9	0.005061504
51	0x3b474fa0	0.003041245
52	0xbc43c135	-0.01194792
53	0xba60abcf	-0.00085705234
54	0xbb629379	-0.0034572764
55	0x3c211753	0.009832221
56	0xbc8170fd	-0.015800947
57	0x3c1ed088	0.009693272
58	0xbc3148bf	-0.010820567
59	0xbc3252ce	-0.010884
60	0x3c75bd8d	0.014998806
61	0xbbb4c753	-0.0055169254
62	0x3b4e3a30	0.0031467788
63	0xba8edca6	-0.0010899499

blocks.0.skip_conv.weight f4 [128, 64, 1, 1]
0	0x3dafbece	0.08581315
1	0x3e034a9f	0.12821434
2	0x3d816b17	0.06319254
3	0x3db71f34	0.089414984
4	0xbe2f67c0	-0.17129421
5	0xbce4faf9	-0.027951704
6	0x3dc14d36	0.09438555
7	0xbd8448fe	-0.06459235
8	0x3e0f31b5	0.13983805
9	0xbe1b2a88	-0.15152943
10	0xbc813975	-0.015774468
11	0x3b7a483e	0.0038190032
12	0xbd235d03	-0.039883625
13	0x3e2ec0a3	0.17065673
14	0xbb3a3379	-0.0028412028
15	0x3d1bcaf2	0.03803534
16	0x3e2bf0ea	0.1679112
17	0xbe01c6d9	-0.1267351
18	0xbcae6299	-0.02128725
19	0x3e2c674d	0.16836281
20	0xbe23b2ce	-0.15986177
21	0x3c7dec59	0.015498244
22	0x3dd128f4	0.10212889
23	0xbdedec14	-0.11617294
24	0xbcd137d3	-0.025539314
25	0xbdd97337	-0.106176786
26	0x3d021c5b	0.031765323
27	0x3e1e92e1	0.15485717
28	0x3d170638	0.036871165
29	0x3e14dc1f	0.14537095
30	0xbd428d9b	-0.047498327
31	0xbdee4fc0	-0.11636305
32	0x3c060acf	0.008181288
33	0x3e257c94	0.16160804
34	0xbd6e6a36	-0.05820676
35	0xbb574259	-0.0032845943
36	0xbdad9be5	-0.08477
37	0xba85dd58	-0.001021306
38	0xbde720b3	-0.11285534
39	0x3cc57fb9	0.024108754
40	0x3de9ee9f	0.114224665
41	0x3e29f06a	0.16595617
42	0xbdf6b81c	-0.12046835
43	0x3d4dd213	0.05024917
44	0xbe1d96f7	-0.1538962
45	0xbe1ea63c	-0.15493101
46	0x3e0ff288	0.14057362
47	0x3d16e938	0.03684351
48	0x3d24dad5	0.040247757
49	0x3c75c6b5	0.015000989
50	0x3d4a1f8e	0.0493465
51	0xbd1acd69	-0.03779355
52	0xbd2f3cb4	-0.0427825
53	0xbe17447c	-0.14772218
54	0x3d2c4447	0.0420573
55	0xbe2baaa4	-0.16764313
56	0xbd7ec4cc	-0.0621994
57	0xbdcad706	-0.09904294
58	0xbe02190d	-0.12704869
59	0xbd9e6307	-0.07733732
60	0xbd7740d8	-0.060364574
61	0x3c387eb5	0.011260678
62	0xbcb2c98e	-0.021824624
63	0xbdbe3181	-0.09286786
64	0xbdd42c65	-0.1036003
65	0x3bca5767	0.00617497
66	0x3de76d75	0.11300174
67	0x3e03ddba	0.1287755
68	0xbc8f16f4	-0.017467
69	0xbe307f9b	-0.17236178
70	0x3d869006	0.06570439
71	0xbd484d6f	-0.04890197
72	0x3e0080ab	0.12549083
73	0xbd1a278c	-0.03763537
74	0x3e193e1c	0.14965099
75	0xbdd8969f	-0.10575604
76	0xbdc4c3e4	-0.09607676
77	0xbdc3d100	-0.09561348
78	0x3d4c8ffb	0.049941998
79	0xbd9d9eab	-0.07696279
80	0x3d8029be	0.06257962
81	0xbe30ad4c	-0.17253608
82	0x3bd7c282	0.0065844664
83	0xbd337d85	-0.043820877
84	0xbcca2ba9	-0.024679022
85	0xbc3216cc	-0.010869693
86	0xbe0a9724	-0.13534218
87	0xbda234f0	-0.07920253
88	0xbbf0f648	-0.0073535778
89	0xbe09d7ff	-0.13461302
90	0x3e2eea79	0.17081632
91	0xbdffcc82	-0.12490179
92	0x3d3f41a9	0.046693478
93	0x3e1da3ce	0.15394518
94	0x3e0692b2	0.13141897
95	0xbc52944f	-0.012852742
96	0x3d60fd76	0.05492922
97	0xba71c0f4	-0.00092221727
98	0xbe270884	-0.16311842
99	0x3b490faf	0.0030679514
100	0xbe00b756	-0.12569937
101	0x3e220eaf	0.15825914
102	0xbc73977f	-0.014867662
103	0xbdf291f6	-0.11844246
104	0x3da87aa5	0.082265176
105	0x3cb671c6	0.022271048
106	0xbc51bedf	-0.012801855
107	0x3db54bba	0.08852334
108	0xbd18713f	-0.037217375
109	0x3d51c3f0	0.05121225
110	0x3c905107	0.017616762
111	0x3ddcf58c	0.10789022
112	0x3d93eeef	0.07223307
113	0xbdaa710d	-0.08322344
114	0xbe23330a	-0.15937439
115	0xbe06ef5f	-0.1317725
116	0x3d48332f	0.048876937
117	0x3dc5c4a6	0.09656648
118	0x3ae08323	0.0017128926
119	0xbdee0038	-0.116211355
120	0x3cc761c5	0.024338612
121	0x3d57e2bb	0.05270646
122	0xbe122a72	-0.14274004
123	0x3ce98fa0	0.028510869
124	0x3d0feefb	0.03514002
125	0x3e257f77	0.16161905
126	0x3d70fe6a	0.05883638
127	0xbd304f96	-0.04304465
128	0x3d8659b7	0.065600805
129	0xbaa916bf	-0.0012900456
130	0xbe1a651d	-0.15077634
131	0xbe254130	-0.16138148
132	0xbe29634d	-0.16541786
133	0x3d5efc57	0.05443987
134	0x3de1084f	0.10987913
135	0xbe2d3dea	-0.1691815
136	0xbd7bca6e	-0.06147235
137	0x3d7b1079	0.061295006
138	0xbdbe1629	-0.092815705
139	0xbdd6c2e6	-0.10486393
140	0xbd393ada	-0.04522214
141	0xbd3b598b	-0.04573969
142	0xbd453367	-0.048144724
143	0xbda5dabd	-0.08098362
144	0xbe3e27e3	-0.18569903
145	0xbdfe19cc	-0.12407264
146	0x3cf5d4ab	0.030008635
147	0x3e002576	0.1251429
148	0xbd1a8abc	-0.037729964
149	0xbd40c61b	-0.047063928
150	0x3e011b72	0.12608126
151	0xbc5b3c22	-0.013381036
152	0xbd933b01	-0.071889885
153	0xbdbd0613	-0.09229674
154	0xbde6591f	-0.11247467
155	0x3db049ba	0.08607812
156	0x3dd54eaa	0.104153946
157	0xbd7209f4	-0.059091523
158	0xbdebd506	-0.1151524
159	0x3db148c3	0.08656456
160	0x3da22001	0.079162605
161	0xbd810b46	-0.06300978
162	0xbc2b273c	-0.010446366
163	0x3e1b2bee	0.15153477
164	0xbca24f67	-0.019813253
165	0x3d273a4d	0.040827084
166	0x3c30a7d3	0.0107822
167	0xbe15d924	-0.14633614
168	0xbe30a590	-0.17250657
169	0xbe1637f8	-0.14669788
170	0xbd3cb034	-0.046066478
171	0xbe2497bf	-0.16073512
172	0xbcff7808	-0.031185165
173	0x3e32c551	0.17458083
174	0xbe114d71	-0.14189698
175	0x3e023929	0.12717117
176	0x3de2c35b	0.11072417
177	0xbe37e91d	-0.1796002
178	0x3c12360a	0.008924017
179	0xbd0b5c2f	-0.03402346
180	0xbd36403a	-0.044494845
181	0x3cebebe9	0.028799014
182	0xbd158db6	-0.0365121
183	0x3dce66a8	0.10078174
184	0x3e297e30	0.16552043
185	0x3d6c76fb	0.057730656
186	0xbc7252ed	-0.014790279
187	0xbe0473b8	-0.12934768
188	0x3ce2fc52	0.027708206
189	0xbd7f4167	-0.062318232
190	0x3dd56d25	0.10421208
191	0x3e1ced95	0.15325005
192	0x3d80f7c1	0.06297255
193	0xbe061123	-0.13092475
194	0xbe10c936	-0.14139256
195	0xbcebc482	-0.028780226
196	0xbda46c37	-0.08028453
197	0xbcf51b02	-0.029920105
198	0x3e11bc3a	0.14231959
199	0x3dff19ec	0.12456116
200	0x3dd36ec2	0.1032386
201	0xbdcda1bd	-0.10040615
202	0xbe439de6	-0.19103202
203	0x3cc04314	0.023469485
204	0x3d2d0bde	0.042247646
205	0xbe29d31c	-0.16584438
206	0x3d6aaefc	0.057295784
207	0xbc9f2054	-0.019424595
208	0x3d94fa21	0.07274271
209	0x3d04d093	0.032425474
210	0xbe09419c	-0.13403934
211	0x3cf7507f	0.03018975
212	0xbd70f5ee	-0.058828287
213	0x3e148189	0.14502539
214	0x3d19d6c8	0.037558347
215	0x3e3833d9	0.17988528
216	0x3de104e4	0.10987261
217	0x3d937fb4	0.07202092
218	0x3dd26089	0.10272319
219	0x3da9b365	0.0828617
220	0xbdbccf6b	-0.09219249
221	0xbe38c204	-0.18042761
222	0xbcfdda10	-0.03098777
223	0x3dfdd63b	0.12394377
224	0x3d3862fd	0.045016278
225	0xbe0de219	-0.1385578
226	0x3d1b431d	0.0379058
227	0xb7e1a284	-2.6897767e-05
228	0x3d135427	0.035968926
229	0xbd1313c1	-0.03590751
230	0x3c94d078	0.018165812
231	0xbd9dcdf1	-0.07705296
232	0xbd835033	-0.06411781
233	0x3dd55736	0.10417025
234	0xbdb0d304	-0.08633998
235	0xbe363794	-0.17794639
236	0x3def15d4	0.11674085
237	0xbdd6cc56	-0.10488193
238	0xbe099f36	-0.1343964
239	0x3e1fa44e	0.15590021
240	0xbc4b4ad2	-0.012407975
241	0xbda18502	-0.07886697
242	0x3d7bdde8	0.061490923
243	0xbd8957f4	-0.06706229
244	0xbd9ab999	-0.07554931
245	0xbdffc580	-0.12488842
246	0xbd4ef85a	-0.050529815
247	0x3d97c105	0.074098624
248	0x3d96d660	0.073651075
249	0x3e0e22bc	0.13880438
250	0xbd3b6207	-0.045747783
251	0xbde0f3b3	-0.10983982
252	0x3d7aada8	0.061200768
253	0xbd2502ae	-0.04028576
254	0x3e28904e	0.16461298
255	0xbc46a0c7	-0.012123293

blocks.0.skip_conv.bias f4 [128]
0	0xbb8623d5	-0.004093627
1	0xbb433054	-0.0029783444
2	0xbbc3f5bc	-0.0059802216
3	0x3b90768e	0.004408664
4	0xbbaa0674	-0.0051887576
5	0x3b046196	0.0020199767
6	0xbbac718e	-0.00526256
7	0x3bf5870e	0.0074929064
8	0x3bbca13f	0.0057565267
9	0xbaa57b0c	-0.0012625172
10	0xbb7ec33b	-0.003887369
11	0xbb1e1d73	-0.002412644
12	0xbb18ac7e	-0.0023296173
13	0xbb5e9b08	-0.0033966918
14	0x3c08f58c	0.008359324
15	0x3b8c694b	0.004285013
16	0x3c450b94	0.012026686
17	0xbb89065b	-0.004181666
18	0x3c037071	0.008022414
19	0x39feed20	0.00048623327
20	0xbb998f22	-0.004686252
21	0x3a81c4dc	0.0009900588
22	0xbb740e11	-0.003723983
23	0xbb7536f8	-0.0037416797
24	0xbbd8947e	-0.0066094985
25	0x3923919a	0.00015599132
26	0x3a92f58a	0.0011212092
27	0xbb946977	-0.004529174
28	0xb9545ff3	-0.0002025364
29	0xbb42918a	-0.0029688799
30	0x3a9d4aba	0.001200042
31	0x3a64fee6	0.00087354926
32	0xb82c872e	-4.113389e-05
33	0x3c045e45	0.008079116
34	0xbba8bb5c	-0.005149288
35	0xbb0aac51	-0.0021159837
36	0x396ffb9a	0.00022886545
37	0xba89ee7c	-0.0010523344
38	0x3b95995b	0.0045654005
39	0x3c001f5c	0.007819977
40	0xbbd5d57c	-0.0065256935
41	0xbb86ddc6	-0.004115793
42	0x3b1b6b29	0.0023714995
43	0xbb3874b2	-0.0028145728
44	0x3bfb43d9	0.007668
45	0xbb4a6d9e	-0.003088809
46	0xbb4d6475	-0.0031340395
47	0xbb351fcf	-0.0027637368
48	0xbb960f79	-0.004579481
49	0x3b0adec3	0.0021189905
50	0x3b654fe7	0.0034990252
51	0xbb208dc9	-0.0024498573
52	0xba932477	-0.0011226077
53	0x3b27ff63	0.00256344
54	0x3b6802c3	0.0035402037
55	0x3bd18e35	0.006395126
56	0x39c7b9ef	0.0003809477
57	0x3bb3eba8	0.005490739
58	0x3bac9360	0.005266592
59	0x3b62aab6	0.0034586615
60	0xbbb5c452	-0.005547085
61	0x3b98bb2b	0.004660984
62	0x3a1d3be9	0.0005998002
63	0xbbd31540	-0.006441742
64	0xb7218ef0	-9.629628e-06
65	0x3ad5bffa	0.0016307824
66	0xbb85af75	-0.004079754
67	0xbb0ebe03	-0.0021780736
68	0xbb3fbc9f	-0.0029256714
69	0xbba3d083	-0.004999222
70	0xbb22be15	-0.0024832536
71	0xbb9c241e	-0.0047650477
72	0x3b6b3bc8	0.0035893787
73	0xbb910c09	-0.0044264835
74	0xbb493f5f	-0.0030707938
75	0xba9f0f3f	-0.0012135281
76	0xbb74342b	-0.003726254
77	0x3b0f681a	0.0021882118
78	0x3aa707a5	0.0012743367
79	0x3ba5d711	0.0050610383
80	0xbb609fe6	-0.0034274994
81	0xba1d1848	-0.0005992693
82	0x3b8574e2	0.0040727714
83	0x3b93588c	0.0044966396
84	0xbade11d8	-0.0016942574
85	0x3bb0f26d	0.005399993
86	0xbb24ff4d	-0.0025176585
87	0x3afd07c5	0.0019304684
88	0xbbce1d61	-0.0062901233
89	0xbb277017	-0.0025548988
90	0xb5eed540	-1.7794446e-06
91	0x3b0cdb48	0.0021493006
92	0x3b353d5c	0.0027654981
93	0x3ae2c973	0.0017302468
94	0xbb7d6cc4	-0.0038669566
95	0x3b85c58c	0.0040823873
96	0x3b62274e	0.003450829
97	0xbbc22719	-0.005925071
98	0xbb48b155	-0.0030623276
99	0xbb0b6153	-0.0021267727
100	0xbb30ff6e	-0.0027007717
101	0x3bb61f87	0.0055579576
102	0xbb0d6023	-0.0021572195
103	0xbb8656a4	-0.004099684
104	0xba81bea6	-0.0009898737
105	0xb8ed6fa3	-0.000113218346
106	0x3b984f08	0.004648093
107	0xbb6cf4fe	-0.003615677
108	0xbab63058	-0.0013899906
109	0x3ba0ea1f	0.004910722
110	0x3b229310	0.0024806894
111	0xbbad904d	-0.005296743
112	0x3afcfbe3	0.0019301142
113	0x39f578e6	0.00046820118
114	0xbaee196e	-0.0018165538
115	0x3b4258df	0.0029655022
116	0xbbe53805	-0.0069952034
117	0x3b95c1be	0.004570215
118	0xbb7dca8f	-0.003872547
119	0x3ba811aa	0.005129059
120	0xbb062495	-0.0020468582
121	0xba131fe9	-0.000561236
122	0x3aa93981	0.0012910814
123	0x3b4c7aec	0.0031201197
124	0xbbb0e04f	-0.0053978334
125	0x3ba4321b	0.005010856
126	0x3ab82d36	0.001405156
127	0xbab7d9ed	-0.0014026739

blocks.0.bn.weight f4 [64]
0	0x3f7f8d2a	0.99824774
1	0x3f7d6e3b	0.98996323
2	0x3f8097c3	1.0046314
3	0x3f7fd721	0.99937636
4	0x3f807956	1.0037029
5	0x3f7f6ec2	0.9977838
6	0x3f806e02	1.0033572
7	0x3f8016e6	1.0006988
8	0x3f80530b	1.0025343
9	0x3f7e134c	0.99248195
10	0x3f7fe7f8	0.9996333
11	0x3f7edf95	0.9955991
12	0x3f80da75	1.0066668
13	0x3f7de054	0.9917042
14	0x3f7f36fb	0.9969327
15	0x3f80c423	1.0059856
16	0x3f816eae	1.0111902
17	0x3f7fcaf4	0.99919057
18	0x3f7f7784	0.9979174
19	0x3f7f603f	0.99756235
20	0x3f7df34b	0.9919936
21	0x3f7dde26	0.99167097
22	0x3f7ef3ea	0.99590933
23	0x3f7ff1be	0.99978244
24	0x3f8049ae	1.0022485
25	0x3f80410a	1.0019848
26	0x3f80a71b	1.0050997
27	0x3f8118da	1.0085709
28	0x3f80bc72	1.0057509
29	0x3f7ed2df	0.99540514
30	0x3f7dd054	0.9914601
31	0x3f7fbe07	0.99899334
32	0x3f8089e0	1.0042076
33	0x3f7e6ed4	0.9938786
34	0x3f80bf7d	1.0058438
35	0x3f7f3d1b	0.99702615
36	0x3f7fc032	0.9990264
37	0x3f7f7879	0.997932
38	0x3f7fc9dc	0.9991739
39	0x3f80bfab	1.0058492
40	0x3f810512	1.0079672
41	0x3f7d3481	0.9890824
42	0x3f81a860	1.0129509
43	0x3f806f5a	1.0033982
44	0x3f80d4a2	1.006489
45	0x3f7ff735	0.99986583
46	0x3f7f870b	0.99815434
47	0x3f8002bd	1.0000836
48	0x3f817a44	1.0115438
49	0x3f80752d	1.0035759
50	0x3f7d61c9	0.98977333
51	0x3f801d4c	1.0008941
52	0x3f7faa5b	0.99869317
53	0x3f7f4735	0.9971803
54	0x3f80980c	1.0046401
55	0x3f7f2c91	0.9967738
56	0x3f8190a6	1.0122268
57	0x3f7d1510	0.98860264
58	0x3f801353	1.0005897
59	0x3f7f632d	0.99760705
60	0x3f7e568e	0.9935082
61	0x3f7ee96f	0.9957494
62	0x3f8084cc	1.0040526
63	0x3f802cee	1.0013711

blocks.0.bn.bias f4 [64]
0	0x3bfd1c12	0.0077242935
1	0x3ae846bc	0.0017721276
2	0x3a6efcd0	0.00091166515
3	0xbbb43dc2	-0.005500526
4	0xbb0d2b3c	-0.0021540662
5	0x3bc1ab4c	0.0059103128
6	0x3a9d530d	0.00120029
7	0xbb6a9769	-0.0035795814
8	0xba881fe8	-0.0010385485
9	0xbc035ee9	-0.008018234
10	0x3bcf8560	0.006333038
11	0x3914a552	0.00014175966
12	0xbb59ec99	-0.0033252595
13	0x3afce247	0.001929351
14	0x3be37548	0.0069414712
15	0xbbe0cc12	-0.0068602646
16	0x3b4059bb	0.0029350359
17	0x3bf1de7c	0.0073812585
18	0x3a185e67	0.0005812407
19	0x3ba14b53	0.0049223094
20	0x3b71cb14	0.0036894726
21	0x3b3c75a5	0.0028756645
22	0xbbc6ae3d	-0.0060632513
23	0xbb17d135	-0.0023165469
24	0x3a6b26dc	0.0008970329
25	0x3b1b6209	0.0023709557
26	0xbb13781c	-0.002250201
27	0xbb8ce002	-0.0042991647
28	0x3a94a6d0	0.0011341218
29	0x3b4d7501	0.0031350257
30	0x3ba4695c	0.0050174426
31	0xbc0b4707	-0.008500821
32	0x3c2a2096	0.010383746
33	0xb95a4cbc	-0.00020818686
34	0x3c074443	0.008256021
35	0x3b26cfd3	0.0025453463
36	0xbc07c749	-0.008287259
37	0xbb17964b	-0.0023130353
38	0x3a9eec74	0.0012124912
39	0xbbd62943	-0.0065356805
40	0xba26ed5e	-0.0006367768
41	0xbb912e89	-0.0044305963
42	0xbb4437a0	-0.0029940382
43	0x3c13bf57	0.009017787
44	0x3b4eca7f	0.0031553803
45	0xbb95a409	-0.0045666737
46	0x3c0a9679	0.008458727
47	0x3b591c00	0.0033128262
48	0xbb8dfaf8	-0.0043328963
49	0xbb9ce589	-0.004788105
50	0xbb30c3f1	-0.002697226
51	0x3ae50398	0.0017472384
52	0xbb84b63a	-0.0040500434
53	0x3c259a2f	0.010107561
54	0xbbb77d27	-0.005599636
55	0x3b97a49e	0.004627778
56	0xbbd12666	-0.0063827513
57	0x3c633009	0.013866433
58	0xb9872f68	-0.00025784527
59	0x3b30e66f	0.0026992818
60	0xb9e22c20	-0.00043138955
61	0x3b30399a	0.0026889802
62	0xbb8b050e	-0.004242546
63	0xba9e7787	-0.0012090065
